…
I0429 13:36:17.959332 25258 net.cpp:294] The NetState phase (0) differed from the phase (1) specified by a rule in layer accuracy_top_3
I0429 13:36:17.959559 25258 net.cpp:51] Initializing net from parameters: 
name: "AlexNet"
state {
  phase: TRAIN
  level: 0
  stage: ""
}
layer {
  name: "data"
  type: "Data"
  top: "data"
  top: "label"
  include {
    phase: TRAIN
  }
  transform_param {
    mirror: true
    crop_size: 227
    mean_file: "retina256/retina256_train_mean.binaryproto"
  }
  data_param {
    source: "retina256/retina256_train_lmdb"
    batch_size: 100
    backend: LMDB
  }
}
layer {
  name: "conv1"
  type: "Convolution"
  bottom: "data"
  top: "conv1"
  param {
    lr_mult: 1
    decay_mult: 1
  }
  param {
    lr_mult: 2
    decay_mult: 0
  }
  convolution_param {
    num_output: 96
    kernel_size: 11
    stride: 4
    weight_filler {
      type: "gaussian"
      std: 0.01
    }
    bias_filler {
      type: "constant"
      value: 0
    }
  }
}
layer {
  name: "relu1"
  type: "ReLU"
  bottom: "conv1"
  top: "conv1"
}
layer {
  name: "norm1"
  type: "LRN"
  bottom: "conv1"
  top: "norm1"
  lrn_param {
    local_size: 5
    alpha: 0.0001
    beta: 0.75
  }
}
layer {
  name: "pool1"
  type: "Pooling"
  bottom: "norm1"
  top: "pool1"
  pooling_param {
    pool: MAX
    kernel_size: 3
    stride: 2
  }
}
layer {
  name: "conv2"
  type: "Convolution"
  bottom: "pool1"
  top: "conv2"
  param {
    lr_mult: 1
    decay_mult: 1
  }
  param {
    lr_mult: 2
    decay_mult: 0
  }
  convolution_param {
    num_output: 256
    pad: 2
    kernel_size: 5
    group: 2
    weight_filler {
      type: "gaussian"
      std: 0.01
    }
    bias_filler {
      type: "constant"
      value: 0.1
    }
  }
}
layer {
  name: "relu2"
  type: "ReLU"
  bottom: "conv2"
  top: "conv2"
}
layer {
  name: "norm2"
  type: "LRN"
  bottom: "conv2"
  top: "norm2"
  lrn_param {
    local_size: 5
    alpha: 0.0001
    beta: 0.75
  }
}
layer {
  name: "pool2"
  type: "Pooling"
  bottom: "norm2"
  top: "pool2"
  pooling_param {
    pool: MAX
    kernel_size: 3
    stride: 2
  }
}
layer {
  name: "conv3"
  type: "Convolution"
  bottom: "pool2"
  top: "conv3"
  param {
    lr_mult: 1
    decay_mult: 1
  }
  param {
    lr_mult: 2
    decay_mult: 0
  }
  convolution_param {
    num_output: 384
    pad: 1
    kernel_size: 3
    weight_filler {
      type: "gaussian"
      std: 0.01
    }
    bias_filler {
      type: "constant"
      value: 0
    }
  }
}
layer {
  name: "relu3"
  type: "ReLU"
  bottom: "conv3"
  top: "conv3"
}
layer {
  name: "conv4"
  type: "Convolution"
  bottom: "conv3"
  top: "conv4"
  param {
    lr_mult: 1
    decay_mult: 1
  }
  param {
    lr_mult: 2
    decay_mult: 0
  }
  convolution_param {
    num_output: 384
    pad: 1
    kernel_size: 3
    group: 2
    weight_filler {
      type: "gaussian"
      std: 0.01
    }
    bias_filler {
      type: "constant"
      value: 0.1
    }
  }
}
layer {
  name: "relu4"
  type: "ReLU"
  bottom: "conv4"
  top: "conv4"
}
layer {
  name: "conv5"
  type: "Convolution"
  bottom: "conv4"
  top: "conv5"
  param {
    lr_mult: 1
    decay_mult: 1
  }
  param {
    lr_mult: 2
    decay_mult: 0
  }
  convolution_param {
    num_output: 256
    pad: 1
    kernel_size: 3
    group: 2
    weight_filler {
      type: "gaussian"
      std: 0.01
    }
    bias_filler {
      type: "constant"
      value: 0.1
    }
  }
}
layer {
  name: "relu5"
  type: "ReLU"
  bottom: "conv5"
  top: "conv5"
}
layer {
  name: "pool5"
  type: "Pooling"
  bottom: "conv5"
  top: "pool5"
  pooling_param {
    pool: MAX
    kernel_size: 3
    stride: 2
  }
}
layer {
  name: "fc6"
  type: "InnerProduct"
  bottom: "pool5"
  top: "fc6"
  param {
    lr_mult: 1
    decay_mult: 1
  }
  param {
    lr_mult: 2
    decay_mult: 0
  }
  inner_product_param {
    num_output: 4096
    weight_filler {
      type: "gaussian"
      std: 0.005
    }
    bias_filler {
      type: "constant"
      value: 0.1
    }
  }
}
layer {
  name: "relu6"
  type: "ReLU"
  bottom: "fc6"
  top: "fc6"
}
layer {
  name: "drop6"
  type: "Dropout"
  bottom: "fc6"
  top: "fc6"
  dropout_param {
    dropout_ratio: 0.5
  }
}
layer {
  name: "fc7"
  type: "InnerProduct"
  bottom: "fc6"
  top: "fc7"
  param {
    lr_mult: 1
    decay_mult: 1
  }
  param {
    lr_mult: 2
    decay_mult: 0
  }
  inner_product_param {
    num_output: 4096
    weight_filler {
      type: "gaussian"
      std: 0.005
    }
    bias_filler {
      type: "constant"
      value: 0.1
    }
  }
}
layer {
  name: "relu7"
  type: "ReLU"
  bottom: "fc7"
  top: "fc7"
}
layer {
  name: "drop7"
  type: "Dropout"
  bottom: "fc7"
  top: "fc7"
  dropout_param {
    dropout_ratio: 0.5
  }
}
layer {
  name: "fc8"
  type: "InnerProduct"
  bottom: "fc7"
  top: "fc8"
  param {
    lr_mult: 1
    decay_mult: 1
  }
  param {
    lr_mult: 2
    decay_mult: 0
  }
  inner_product_param {
    num_output: 5
    weight_filler {
      type: "gaussian"
      std: 0.01
    }
    bias_filler {
      type: "constant"
      value: 0
    }
  }
}
layer {
  name: "loss"
  type: "SoftmaxWithLoss"
  bottom: "fc8"
  bottom: "label"
  top: "loss"
}
I0429 13:36:17.959760 25258 layer_factory.hpp:77] Creating layer data
I0429 13:36:17.959872 25258 db_lmdb.cpp:35] Opened lmdb retina256/retina256_train_lmdb
I0429 13:36:17.959905 25258 net.cpp:84] Creating Layer data
I0429 13:36:17.959916 25258 net.cpp:380] data -> data
I0429 13:36:17.959946 25258 net.cpp:380] data -> label
I0429 13:36:17.959969 25258 data_transformer.cpp:25] Loading mean file from: retina256/retina256_train_mean.binaryproto
I0429 13:36:17.963685 25258 data_layer.cpp:45] output data size: 100,3,227,227
I0429 13:36:18.076221 25258 net.cpp:122] Setting up data
I0429 13:36:18.076253 25258 net.cpp:129] Top shape: 100 3 227 227 (15458700)
I0429 13:36:18.076261 25258 net.cpp:129] Top shape: 100 (100)
I0429 13:36:18.076267 25258 net.cpp:137] Memory required for data: 61835200
I0429 13:36:18.076278 25258 layer_factory.hpp:77] Creating layer conv1
I0429 13:36:18.076300 25258 net.cpp:84] Creating Layer conv1
I0429 13:36:18.076308 25258 net.cpp:406] conv1 <- data
I0429 13:36:18.076323 25258 net.cpp:380] conv1 -> conv1
I0429 13:36:20.518404 25258 net.cpp:122] Setting up conv1
I0429 13:36:20.518440 25258 net.cpp:129] Top shape: 100 96 55 55 (29040000)
I0429 13:36:20.518445 25258 net.cpp:137] Memory required for data: 177995200
I0429 13:36:20.518465 25258 layer_factory.hpp:77] Creating layer relu1
I0429 13:36:20.518477 25258 net.cpp:84] Creating Layer relu1
I0429 13:36:20.518483 25258 net.cpp:406] relu1 <- conv1
I0429 13:36:20.518489 25258 net.cpp:367] relu1 -> conv1 (in-place)
I0429 13:36:20.518648 25258 net.cpp:122] Setting up relu1
I0429 13:36:20.518657 25258 net.cpp:129] Top shape: 100 96 55 55 (29040000)
I0429 13:36:20.518662 25258 net.cpp:137] Memory required for data: 294155200
I0429 13:36:20.518666 25258 layer_factory.hpp:77] Creating layer norm1
I0429 13:36:20.518677 25258 net.cpp:84] Creating Layer norm1
I0429 13:36:20.518682 25258 net.cpp:406] norm1 <- conv1
I0429 13:36:20.518688 25258 net.cpp:380] norm1 -> norm1
I0429 13:36:20.518854 25258 net.cpp:122] Setting up norm1
I0429 13:36:20.518862 25258 net.cpp:129] Top shape: 100 96 55 55 (29040000)
I0429 13:36:20.518873 25258 net.cpp:137] Memory required for data: 410315200
I0429 13:36:20.518909 25258 layer_factory.hpp:77] Creating layer pool1
I0429 13:36:20.518919 25258 net.cpp:84] Creating Layer pool1
I0429 13:36:20.518929 25258 net.cpp:406] pool1 <- norm1
I0429 13:36:20.518940 25258 net.cpp:380] pool1 -> pool1
I0429 13:36:20.518996 25258 net.cpp:122] Setting up pool1
I0429 13:36:20.519007 25258 net.cpp:129] Top shape: 100 96 27 27 (6998400)
I0429 13:36:20.519012 25258 net.cpp:137] Memory required for data: 438308800
I0429 13:36:20.519018 25258 layer_factory.hpp:77] Creating layer conv2
I0429 13:36:20.519035 25258 net.cpp:84] Creating Layer conv2
I0429 13:36:20.519043 25258 net.cpp:406] conv2 <- pool1
I0429 13:36:20.519053 25258 net.cpp:380] conv2 -> conv2
I0429 13:36:20.525862 25258 net.cpp:122] Setting up conv2
I0429 13:36:20.525918 25258 net.cpp:129] Top shape: 100 256 27 27 (18662400)
I0429 13:36:20.525923 25258 net.cpp:137] Memory required for data: 512958400
I0429 13:36:20.525944 25258 layer_factory.hpp:77] Creating layer relu2
I0429 13:36:20.525961 25258 net.cpp:84] Creating Layer relu2
I0429 13:36:20.525967 25258 net.cpp:406] relu2 <- conv2
I0429 13:36:20.525974 25258 net.cpp:367] relu2 -> conv2 (in-place)
I0429 13:36:20.526195 25258 net.cpp:122] Setting up relu2
I0429 13:36:20.526203 25258 net.cpp:129] Top shape: 100 256 27 27 (18662400)
I0429 13:36:20.526207 25258 net.cpp:137] Memory required for data: 587608000
I0429 13:36:20.526212 25258 layer_factory.hpp:77] Creating layer norm2
I0429 13:36:20.526226 25258 net.cpp:84] Creating Layer norm2
I0429 13:36:20.526230 25258 net.cpp:406] norm2 <- conv2
I0429 13:36:20.526238 25258 net.cpp:380] norm2 -> norm2
I0429 13:36:20.526955 25258 net.cpp:122] Setting up norm2
I0429 13:36:20.526970 25258 net.cpp:129] Top shape: 100 256 27 27 (18662400)
I0429 13:36:20.526975 25258 net.cpp:137] Memory required for data: 662257600
I0429 13:36:20.526980 25258 layer_factory.hpp:77] Creating layer pool2
I0429 13:36:20.526996 25258 net.cpp:84] Creating Layer pool2
I0429 13:36:20.527001 25258 net.cpp:406] pool2 <- norm2
I0429 13:36:20.527009 25258 net.cpp:380] pool2 -> pool2
I0429 13:36:20.527051 25258 net.cpp:122] Setting up pool2
I0429 13:36:20.527058 25258 net.cpp:129] Top shape: 100 256 13 13 (4326400)
I0429 13:36:20.527061 25258 net.cpp:137] Memory required for data: 679563200
I0429 13:36:20.527065 25258 layer_factory.hpp:77] Creating layer conv3
I0429 13:36:20.527083 25258 net.cpp:84] Creating Layer conv3
I0429 13:36:20.527088 25258 net.cpp:406] conv3 <- pool2
I0429 13:36:20.527094 25258 net.cpp:380] conv3 -> conv3
I0429 13:36:20.535995 25258 net.cpp:122] Setting up conv3
I0429 13:36:20.536023 25258 net.cpp:129] Top shape: 100 384 13 13 (6489600)
I0429 13:36:20.536028 25258 net.cpp:137] Memory required for data: 705521600
I0429 13:36:20.536041 25258 layer_factory.hpp:77] Creating layer relu3
I0429 13:36:20.536051 25258 net.cpp:84] Creating Layer relu3
I0429 13:36:20.536056 25258 net.cpp:406] relu3 <- conv3
I0429 13:36:20.536063 25258 net.cpp:367] relu3 -> conv3 (in-place)
I0429 13:36:20.536548 25258 net.cpp:122] Setting up relu3
I0429 13:36:20.536561 25258 net.cpp:129] Top shape: 100 384 13 13 (6489600)
I0429 13:36:20.536566 25258 net.cpp:137] Memory required for data: 731480000
I0429 13:36:20.536569 25258 layer_factory.hpp:77] Creating layer conv4
I0429 13:36:20.536582 25258 net.cpp:84] Creating Layer conv4
I0429 13:36:20.536587 25258 net.cpp:406] conv4 <- conv3
I0429 13:36:20.536595 25258 net.cpp:380] conv4 -> conv4
I0429 13:36:20.543900 25258 net.cpp:122] Setting up conv4
I0429 13:36:20.543920 25258 net.cpp:129] Top shape: 100 384 13 13 (6489600)
I0429 13:36:20.543925 25258 net.cpp:137] Memory required for data: 757438400
I0429 13:36:20.543933 25258 layer_factory.hpp:77] Creating layer relu4
I0429 13:36:20.543943 25258 net.cpp:84] Creating Layer relu4
I0429 13:36:20.543948 25258 net.cpp:406] relu4 <- conv4
I0429 13:36:20.543954 25258 net.cpp:367] relu4 -> conv4 (in-place)
I0429 13:36:20.544435 25258 net.cpp:122] Setting up relu4
I0429 13:36:20.544453 25258 net.cpp:129] Top shape: 100 384 13 13 (6489600)
I0429 13:36:20.544486 25258 net.cpp:137] Memory required for data: 783396800
I0429 13:36:20.544492 25258 layer_factory.hpp:77] Creating layer conv5
I0429 13:36:20.544505 25258 net.cpp:84] Creating Layer conv5
I0429 13:36:20.544510 25258 net.cpp:406] conv5 <- conv4
I0429 13:36:20.544518 25258 net.cpp:380] conv5 -> conv5
I0429 13:36:20.550648 25258 net.cpp:122] Setting up conv5
I0429 13:36:20.550670 25258 net.cpp:129] Top shape: 100 256 13 13 (4326400)
I0429 13:36:20.550674 25258 net.cpp:137] Memory required for data: 800702400
I0429 13:36:20.550688 25258 layer_factory.hpp:77] Creating layer relu5
I0429 13:36:20.550696 25258 net.cpp:84] Creating Layer relu5
I0429 13:36:20.550703 25258 net.cpp:406] relu5 <- conv5
I0429 13:36:20.550710 25258 net.cpp:367] relu5 -> conv5 (in-place)
I0429 13:36:20.550860 25258 net.cpp:122] Setting up relu5
I0429 13:36:20.550871 25258 net.cpp:129] Top shape: 100 256 13 13 (4326400)
I0429 13:36:20.550878 25258 net.cpp:137] Memory required for data: 818008000
I0429 13:36:20.550881 25258 layer_factory.hpp:77] Creating layer pool5
I0429 13:36:20.550889 25258 net.cpp:84] Creating Layer pool5
I0429 13:36:20.550892 25258 net.cpp:406] pool5 <- conv5
I0429 13:36:20.550900 25258 net.cpp:380] pool5 -> pool5
I0429 13:36:20.550940 25258 net.cpp:122] Setting up pool5
I0429 13:36:20.550946 25258 net.cpp:129] Top shape: 100 256 6 6 (921600)
I0429 13:36:20.550951 25258 net.cpp:137] Memory required for data: 821694400
I0429 13:36:20.550956 25258 layer_factory.hpp:77] Creating layer fc6
I0429 13:36:20.550967 25258 net.cpp:84] Creating Layer fc6
I0429 13:36:20.550971 25258 net.cpp:406] fc6 <- pool5
I0429 13:36:20.550977 25258 net.cpp:380] fc6 -> fc6
I0429 13:36:20.889286 25258 net.cpp:122] Setting up fc6
I0429 13:36:20.889319 25258 net.cpp:129] Top shape: 100 4096 (409600)
I0429 13:36:20.889324 25258 net.cpp:137] Memory required for data: 823332800
I0429 13:36:20.889335 25258 layer_factory.hpp:77] Creating layer relu6
I0429 13:36:20.889348 25258 net.cpp:84] Creating Layer relu6
I0429 13:36:20.889353 25258 net.cpp:406] relu6 <- fc6
I0429 13:36:20.889360 25258 net.cpp:367] relu6 -> fc6 (in-place)
I0429 13:36:20.889559 25258 net.cpp:122] Setting up relu6
I0429 13:36:20.889572 25258 net.cpp:129] Top shape: 100 4096 (409600)
I0429 13:36:20.889576 25258 net.cpp:137] Memory required for data: 824971200
I0429 13:36:20.889580 25258 layer_factory.hpp:77] Creating layer drop6
I0429 13:36:20.889588 25258 net.cpp:84] Creating Layer drop6
I0429 13:36:20.889592 25258 net.cpp:406] drop6 <- fc6
I0429 13:36:20.889598 25258 net.cpp:367] drop6 -> fc6 (in-place)
I0429 13:36:20.889628 25258 net.cpp:122] Setting up drop6
I0429 13:36:20.889634 25258 net.cpp:129] Top shape: 100 4096 (409600)
I0429 13:36:20.889639 25258 net.cpp:137] Memory required for data: 826609600
I0429 13:36:20.889642 25258 layer_factory.hpp:77] Creating layer fc7
I0429 13:36:20.889652 25258 net.cpp:84] Creating Layer fc7
I0429 13:36:20.889655 25258 net.cpp:406] fc7 <- fc6
I0429 13:36:20.889662 25258 net.cpp:380] fc7 -> fc7
I0429 13:36:21.060091 25258 net.cpp:122] Setting up fc7
I0429 13:36:21.060137 25258 net.cpp:129] Top shape: 100 4096 (409600)
I0429 13:36:21.060144 25258 net.cpp:137] Memory required for data: 828248000
I0429 13:36:21.060159 25258 layer_factory.hpp:77] Creating layer relu7
I0429 13:36:21.060180 25258 net.cpp:84] Creating Layer relu7
I0429 13:36:21.060194 25258 net.cpp:406] relu7 <- fc7
I0429 13:36:21.060205 25258 net.cpp:367] relu7 -> fc7 (in-place)
I0429 13:36:21.060493 25258 net.cpp:122] Setting up relu7
I0429 13:36:21.060515 25258 net.cpp:129] Top shape: 100 4096 (409600)
I0429 13:36:21.060521 25258 net.cpp:137] Memory required for data: 829886400
I0429 13:36:21.060529 25258 layer_factory.hpp:77] Creating layer drop7
I0429 13:36:21.060540 25258 net.cpp:84] Creating Layer drop7
I0429 13:36:21.060547 25258 net.cpp:406] drop7 <- fc7
I0429 13:36:21.060556 25258 net.cpp:367] drop7 -> fc7 (in-place)
I0429 13:36:21.060598 25258 net.cpp:122] Setting up drop7
I0429 13:36:21.060609 25258 net.cpp:129] Top shape: 100 4096 (409600)
I0429 13:36:21.060662 25258 net.cpp:137] Memory required for data: 831524800
I0429 13:36:21.060672 25258 layer_factory.hpp:77] Creating layer fc8
I0429 13:36:21.060686 25258 net.cpp:84] Creating Layer fc8
I0429 13:36:21.060694 25258 net.cpp:406] fc8 <- fc7
I0429 13:36:21.060704 25258 net.cpp:380] fc8 -> fc8
I0429 13:36:21.061146 25258 net.cpp:122] Setting up fc8
I0429 13:36:21.061158 25258 net.cpp:129] Top shape: 100 5 (500)
I0429 13:36:21.061168 25258 net.cpp:137] Memory required for data: 831526800
I0429 13:36:21.061185 25258 layer_factory.hpp:77] Creating layer loss
I0429 13:36:21.061203 25258 net.cpp:84] Creating Layer loss
I0429 13:36:21.061210 25258 net.cpp:406] loss <- fc8
I0429 13:36:21.061220 25258 net.cpp:406] loss <- label
I0429 13:36:21.061233 25258 net.cpp:380] loss -> loss
I0429 13:36:21.061256 25258 layer_factory.hpp:77] Creating layer loss
…
I0429 13:36:21.063621 25258 net.cpp:294] The NetState phase (1) differed from the phase (0) specified by a rule in layer data
I0429 13:36:21.064064 25258 net.cpp:51] Initializing net from parameters: 
name: "AlexNet"
state {
  phase: TEST
}
layer {
  name: "data"
  type: "Data"
  top: "data"
  top: "label"
  include {
    phase: TEST
  }
  transform_param {
    mirror: false
    crop_size: 227
    mean_file: "retina256/retina256_train_mean.binaryproto"
  }
  data_param {
    source: "retina256/retina256_test_lmdb"
    batch_size: 64
    backend: LMDB
  }
}
layer {
  name: "conv1"
  type: "Convolution"
  bottom: "data"
  top: "conv1"
  param {
    lr_mult: 1
    decay_mult: 1
  }
  param {
    lr_mult: 2
    decay_mult: 0
  }
  convolution_param {
    num_output: 96
    kernel_size: 11
    stride: 4
    weight_filler {
      type: "gaussian"
      std: 0.01
    }
    bias_filler {
      type: "constant"
      value: 0
    }
  }
}
layer {
  name: "relu1"
  type: "ReLU"
  bottom: "conv1"
  top: "conv1"
}
layer {
  name: "norm1"
  type: "LRN"
  bottom: "conv1"
  top: "norm1"
  lrn_param {
    local_size: 5
    alpha: 0.0001
    beta: 0.75
  }
}
layer {
  name: "pool1"
  type: "Pooling"
  bottom: "norm1"
  top: "pool1"
  pooling_param {
    pool: MAX
    kernel_size: 3
    stride: 2
  }
}
layer {
  name: "conv2"
  type: "Convolution"
  bottom: "pool1"
  top: "conv2"
  param {
    lr_mult: 1
    decay_mult: 1
  }
  param {
    lr_mult: 2
    decay_mult: 0
  }
  convolution_param {
    num_output: 256
    pad: 2
    kernel_size: 5
    group: 2
    weight_filler {
      type: "gaussian"
      std: 0.01
    }
    bias_filler {
      type: "constant"
      value: 0.1
    }
  }
}
layer {
  name: "relu2"
  type: "ReLU"
  bottom: "conv2"
  top: "conv2"
}
layer {
  name: "norm2"
  type: "LRN"
  bottom: "conv2"
  top: "norm2"
  lrn_param {
    local_size: 5
    alpha: 0.0001
    beta: 0.75
  }
}
layer {
  name: "pool2"
  type: "Pooling"
  bottom: "norm2"
  top: "pool2"
  pooling_param {
    pool: MAX
    kernel_size: 3
    stride: 2
  }
}
layer {
  name: "conv3"
  type: "Convolution"
  bottom: "pool2"
  top: "conv3"
  param {
    lr_mult: 1
    decay_mult: 1
  }
  param {
    lr_mult: 2
    decay_mult: 0
  }
  convolution_param {
    num_output: 384
    pad: 1
    kernel_size: 3
    weight_filler {
      type: "gaussian"
      std: 0.01
    }
    bias_filler {
      type: "constant"
      value: 0
    }
  }
}
layer {
  name: "relu3"
  type: "ReLU"
  bottom: "conv3"
  top: "conv3"
}
layer {
  name: "conv4"
  type: "Convolution"
  bottom: "conv3"
  top: "conv4"
  param {
    lr_mult: 1
    decay_mult: 1
  }
  param {
    lr_mult: 2
    decay_mult: 0
  }
  convolution_param {
    num_output: 384
    pad: 1
    kernel_size: 3
    group: 2
    weight_filler {
      type: "gaussian"
      std: 0.01
    }
    bias_filler {
      type: "constant"
      value: 0.1
    }
  }
}
layer {
  name: "relu4"
  type: "ReLU"
  bottom: "conv4"
  top: "conv4"
}
layer {
  name: "conv5"
  type: "Convolution"
  bottom: "conv4"
  top: "conv5"
  param {
    lr_mult: 1
    decay_mult: 1
  }
  param {
    lr_mult: 2
    decay_mult: 0
  }
  convolution_param {
    num_output: 256
    pad: 1
    kernel_size: 3
    group: 2
    weight_filler {
      type: "gaussian"
      std: 0.01
    }
    bias_filler {
      type: "constant"
      value: 0.1
    }
  }
}
layer {
  name: "relu5"
  type: "ReLU"
  bottom: "conv5"
  top: "conv5"
}
layer {
  name: "pool5"
  type: "Pooling"
  bottom: "conv5"
  top: "pool5"
  pooling_param {
    pool: MAX
    kernel_size: 3
    stride: 2
  }
}
layer {
  name: "fc6"
  type: "InnerProduct"
  bottom: "pool5"
  top: "fc6"
  param {
    lr_mult: 1
    decay_mult: 1
  }
  param {
    lr_mult: 2
    decay_mult: 0
  }
  inner_product_param {
    num_output: 4096
    weight_filler {
      type: "gaussian"
      std: 0.005
    }
    bias_filler {
      type: "constant"
      value: 0.1
    }
  }
}
layer {
  name: "relu6"
  type: "ReLU"
  bottom: "fc6"
  top: "fc6"
}
layer {
  name: "drop6"
  type: "Dropout"
  bottom: "fc6"
  top: "fc6"
  dropout_param {
    dropout_ratio: 0.5
  }
}
layer {
  name: "fc7"
  type: "InnerProduct"
  bottom: "fc6"
  top: "fc7"
  param {
    lr_mult: 1
    decay_mult: 1
  }
  param {
    lr_mult: 2
    decay_mult: 0
  }
  inner_product_param {
    num_output: 4096
    weight_filler {
      type: "gaussian"
      std: 0.005
    }
    bias_filler {
      type: "constant"
      value: 0.1
    }
  }
}
layer {
  name: "relu7"
  type: "ReLU"
  bottom: "fc7"
  top: "fc7"
}
layer {
  name: "drop7"
  type: "Dropout"
  bottom: "fc7"
  top: "fc7"
  dropout_param {
    dropout_ratio: 0.5
  }
}
layer {
  name: "fc8"
  type: "InnerProduct"
  bottom: "fc7"
  top: "fc8"
  param {
    lr_mult: 1
    decay_mult: 1
  }
  param {
    lr_mult: 2
    decay_mult: 0
  }
  inner_product_param {
    num_output: 5
    weight_filler {
      type: "gaussian"
      std: 0.01
    }
    bias_filler {
      type: "constant"
      value: 0
    }
  }
}
layer {
  name: "loss"
  type: "SoftmaxWithLoss"
  bottom: "fc8"
  bottom: "label"
  top: "loss"
}
layer {
  name: "accuracy_top_1"
  type: "Accuracy"
  bottom: "fc8"
  bottom: "label"
  top: "accuracy_top_1"
  include {
    phase: TEST
  }
  accuracy_param {
    top_k: 1
  }
}
layer {
  name: "accuracy_top_2"
  type: "Accuracy"
  bottom: "fc8"
  bottom: "label"
  top: "accuracy_top_2"
  include {
    phase: TEST
  }
  accuracy_param {
    top_k: 2
  }
}
layer {
  name: "accuracy_top_3"
  type: "Accuracy"
  bottom: "fc8"
  bottom: "label"
  top: "accuracy_top_3"
  include {
    phase: TEST
  }
  accuracy_param {
    top_k: 3
  }
}
I0429 13:36:21.064362 25258 layer_factory.hpp:77] Creating layer data
I0429 13:36:21.064460 25258 db_lmdb.cpp:35] Opened lmdb retina256/retina256_test_lmdb
I0429 13:36:21.064486 25258 net.cpp:84] Creating Layer data
I0429 13:36:21.064504 25258 net.cpp:380] data -> data
I0429 13:36:21.064522 25258 net.cpp:380] data -> label
I0429 13:36:21.064533 25258 data_transformer.cpp:25] Loading mean file from: retina256/retina256_train_mean.binaryproto
I0429 13:36:21.068269 25258 data_layer.cpp:45] output data size: 64,3,227,227
I0429 13:36:21.175107 25258 net.cpp:122] Setting up data
I0429 13:36:21.175137 25258 net.cpp:129] Top shape: 64 3 227 227 (9893568)
I0429 13:36:21.175143 25258 net.cpp:129] Top shape: 64 (64)
I0429 13:36:21.175146 25258 net.cpp:137] Memory required for data: 39574528
I0429 13:36:21.175154 25258 layer_factory.hpp:77] Creating layer label_data_1_split
I0429 13:36:21.175168 25258 net.cpp:84] Creating Layer label_data_1_split
I0429 13:36:21.175173 25258 net.cpp:406] label_data_1_split <- label
I0429 13:36:21.175182 25258 net.cpp:380] label_data_1_split -> label_data_1_split_0
I0429 13:36:21.175192 25258 net.cpp:380] label_data_1_split -> label_data_1_split_1
I0429 13:36:21.175199 25258 net.cpp:380] label_data_1_split -> label_data_1_split_2
I0429 13:36:21.175206 25258 net.cpp:380] label_data_1_split -> label_data_1_split_3
I0429 13:36:21.175299 25258 net.cpp:122] Setting up label_data_1_split
I0429 13:36:21.175307 25258 net.cpp:129] Top shape: 64 (64)
I0429 13:36:21.175313 25258 net.cpp:129] Top shape: 64 (64)
I0429 13:36:21.175318 25258 net.cpp:129] Top shape: 64 (64)
I0429 13:36:21.175321 25258 net.cpp:129] Top shape: 64 (64)
I0429 13:36:21.175325 25258 net.cpp:137] Memory required for data: 39575552
I0429 13:36:21.175330 25258 layer_factory.hpp:77] Creating layer conv1
I0429 13:36:21.175343 25258 net.cpp:84] Creating Layer conv1
I0429 13:36:21.175348 25258 net.cpp:406] conv1 <- data
I0429 13:36:21.175355 25258 net.cpp:380] conv1 -> conv1
I0429 13:36:21.176735 25258 net.cpp:122] Setting up conv1
I0429 13:36:21.176750 25258 net.cpp:129] Top shape: 64 96 55 55 (18585600)
I0429 13:36:21.176754 25258 net.cpp:137] Memory required for data: 113917952
I0429 13:36:21.176766 25258 layer_factory.hpp:77] Creating layer relu1
I0429 13:36:21.176777 25258 net.cpp:84] Creating Layer relu1
I0429 13:36:21.176782 25258 net.cpp:406] relu1 <- conv1
I0429 13:36:21.176787 25258 net.cpp:367] relu1 -> conv1 (in-place)
I0429 13:36:21.180086 25258 net.cpp:122] Setting up relu1
I0429 13:36:21.180110 25258 net.cpp:129] Top shape: 64 96 55 55 (18585600)
I0429 13:36:21.180119 25258 net.cpp:137] Memory required for data: 188260352
I0429 13:36:21.180126 25258 layer_factory.hpp:77] Creating layer norm1
I0429 13:36:21.180142 25258 net.cpp:84] Creating Layer norm1
I0429 13:36:21.180153 25258 net.cpp:406] norm1 <- conv1
I0429 13:36:21.180164 25258 net.cpp:380] norm1 -> norm1
I0429 13:36:21.180403 25258 net.cpp:122] Setting up norm1
I0429 13:36:21.180414 25258 net.cpp:129] Top shape: 64 96 55 55 (18585600)
I0429 13:36:21.180419 25258 net.cpp:137] Memory required for data: 262602752
I0429 13:36:21.180423 25258 layer_factory.hpp:77] Creating layer pool1
I0429 13:36:21.180431 25258 net.cpp:84] Creating Layer pool1
I0429 13:36:21.180435 25258 net.cpp:406] pool1 <- norm1
I0429 13:36:21.180441 25258 net.cpp:380] pool1 -> pool1
I0429 13:36:21.180480 25258 net.cpp:122] Setting up pool1
I0429 13:36:21.180500 25258 net.cpp:129] Top shape: 64 96 27 27 (4478976)
I0429 13:36:21.180565 25258 net.cpp:137] Memory required for data: 280518656
I0429 13:36:21.180573 25258 layer_factory.hpp:77] Creating layer conv2
I0429 13:36:21.180588 25258 net.cpp:84] Creating Layer conv2
I0429 13:36:21.180594 25258 net.cpp:406] conv2 <- pool1
I0429 13:36:21.180609 25258 net.cpp:380] conv2 -> conv2
I0429 13:36:21.186303 25258 net.cpp:122] Setting up conv2
I0429 13:36:21.186339 25258 net.cpp:129] Top shape: 64 256 27 27 (11943936)
I0429 13:36:21.186344 25258 net.cpp:137] Memory required for data: 328294400
I0429 13:36:21.186359 25258 layer_factory.hpp:77] Creating layer relu2
I0429 13:36:21.186373 25258 net.cpp:84] Creating Layer relu2
I0429 13:36:21.186378 25258 net.cpp:406] relu2 <- conv2
I0429 13:36:21.186385 25258 net.cpp:367] relu2 -> conv2 (in-place)
I0429 13:36:21.186544 25258 net.cpp:122] Setting up relu2
I0429 13:36:21.186553 25258 net.cpp:129] Top shape: 64 256 27 27 (11943936)
I0429 13:36:21.186558 25258 net.cpp:137] Memory required for data: 376070144
I0429 13:36:21.186561 25258 layer_factory.hpp:77] Creating layer norm2
I0429 13:36:21.186573 25258 net.cpp:84] Creating Layer norm2
I0429 13:36:21.186578 25258 net.cpp:406] norm2 <- conv2
I0429 13:36:21.186585 25258 net.cpp:380] norm2 -> norm2
I0429 13:36:21.186766 25258 net.cpp:122] Setting up norm2
I0429 13:36:21.186782 25258 net.cpp:129] Top shape: 64 256 27 27 (11943936)
I0429 13:36:21.186790 25258 net.cpp:137] Memory required for data: 423845888
I0429 13:36:21.186796 25258 layer_factory.hpp:77] Creating layer pool2
I0429 13:36:21.186806 25258 net.cpp:84] Creating Layer pool2
I0429 13:36:21.186812 25258 net.cpp:406] pool2 <- norm2
I0429 13:36:21.186822 25258 net.cpp:380] pool2 -> pool2
I0429 13:36:21.186866 25258 net.cpp:122] Setting up pool2
I0429 13:36:21.186872 25258 net.cpp:129] Top shape: 64 256 13 13 (2768896)
I0429 13:36:21.186877 25258 net.cpp:137] Memory required for data: 434921472
I0429 13:36:21.186880 25258 layer_factory.hpp:77] Creating layer conv3
I0429 13:36:21.186893 25258 net.cpp:84] Creating Layer conv3
I0429 13:36:21.186898 25258 net.cpp:406] conv3 <- pool2
I0429 13:36:21.186906 25258 net.cpp:380] conv3 -> conv3
I0429 13:36:21.201256 25258 net.cpp:122] Setting up conv3
I0429 13:36:21.201292 25258 net.cpp:129] Top shape: 64 384 13 13 (4153344)
I0429 13:36:21.201297 25258 net.cpp:137] Memory required for data: 451534848
I0429 13:36:21.201314 25258 layer_factory.hpp:77] Creating layer relu3
I0429 13:36:21.201328 25258 net.cpp:84] Creating Layer relu3
I0429 13:36:21.201333 25258 net.cpp:406] relu3 <- conv3
I0429 13:36:21.201340 25258 net.cpp:367] relu3 -> conv3 (in-place)
I0429 13:36:21.202147 25258 net.cpp:122] Setting up relu3
I0429 13:36:21.202174 25258 net.cpp:129] Top shape: 64 384 13 13 (4153344)
I0429 13:36:21.202181 25258 net.cpp:137] Memory required for data: 468148224
I0429 13:36:21.202188 25258 layer_factory.hpp:77] Creating layer conv4
I0429 13:36:21.202208 25258 net.cpp:84] Creating Layer conv4
I0429 13:36:21.202216 25258 net.cpp:406] conv4 <- conv3
I0429 13:36:21.202227 25258 net.cpp:380] conv4 -> conv4
I0429 13:36:21.221180 25258 net.cpp:122] Setting up conv4
I0429 13:36:21.221223 25258 net.cpp:129] Top shape: 64 384 13 13 (4153344)
I0429 13:36:21.221230 25258 net.cpp:137] Memory required for data: 484761600
I0429 13:36:21.221246 25258 layer_factory.hpp:77] Creating layer relu4
I0429 13:36:21.221257 25258 net.cpp:84] Creating Layer relu4
I0429 13:36:21.221264 25258 net.cpp:406] relu4 <- conv4
I0429 13:36:21.221276 25258 net.cpp:367] relu4 -> conv4 (in-place)
I0429 13:36:21.222102 25258 net.cpp:122] Setting up relu4
I0429 13:36:21.222122 25258 net.cpp:129] Top shape: 64 384 13 13 (4153344)
I0429 13:36:21.222128 25258 net.cpp:137] Memory required for data: 501374976
I0429 13:36:21.222136 25258 layer_factory.hpp:77] Creating layer conv5
I0429 13:36:21.222152 25258 net.cpp:84] Creating Layer conv5
I0429 13:36:21.222158 25258 net.cpp:406] conv5 <- conv4
I0429 13:36:21.222168 25258 net.cpp:380] conv5 -> conv5
I0429 13:36:21.232313 25258 net.cpp:122] Setting up conv5
I0429 13:36:21.232368 25258 net.cpp:129] Top shape: 64 256 13 13 (2768896)
I0429 13:36:21.232394 25258 net.cpp:137] Memory required for data: 512450560
I0429 13:36:21.232424 25258 layer_factory.hpp:77] Creating layer relu5
I0429 13:36:21.232440 25258 net.cpp:84] Creating Layer relu5
I0429 13:36:21.232447 25258 net.cpp:406] relu5 <- conv5
I0429 13:36:21.232460 25258 net.cpp:367] relu5 -> conv5 (in-place)
I0429 13:36:21.233319 25258 net.cpp:122] Setting up relu5
I0429 13:36:21.233341 25258 net.cpp:129] Top shape: 64 256 13 13 (2768896)
I0429 13:36:21.233347 25258 net.cpp:137] Memory required for data: 523526144
I0429 13:36:21.233353 25258 layer_factory.hpp:77] Creating layer pool5
I0429 13:36:21.233369 25258 net.cpp:84] Creating Layer pool5
I0429 13:36:21.233376 25258 net.cpp:406] pool5 <- conv5
I0429 13:36:21.233386 25258 net.cpp:380] pool5 -> pool5
I0429 13:36:21.233464 25258 net.cpp:122] Setting up pool5
I0429 13:36:21.233479 25258 net.cpp:129] Top shape: 64 256 6 6 (589824)
I0429 13:36:21.233485 25258 net.cpp:137] Memory required for data: 525885440
I0429 13:36:21.233491 25258 layer_factory.hpp:77] Creating layer fc6
I0429 13:36:21.233503 25258 net.cpp:84] Creating Layer fc6
I0429 13:36:21.233510 25258 net.cpp:406] fc6 <- pool5
I0429 13:36:21.233522 25258 net.cpp:380] fc6 -> fc6
I0429 13:36:21.590605 25258 net.cpp:122] Setting up fc6
I0429 13:36:21.590644 25258 net.cpp:129] Top shape: 64 4096 (262144)
I0429 13:36:21.590651 25258 net.cpp:137] Memory required for data: 526934016
I0429 13:36:21.590667 25258 layer_factory.hpp:77] Creating layer relu6
I0429 13:36:21.590679 25258 net.cpp:84] Creating Layer relu6
I0429 13:36:21.590687 25258 net.cpp:406] relu6 <- fc6
I0429 13:36:21.590700 25258 net.cpp:367] relu6 -> fc6 (in-place)
I0429 13:36:21.590965 25258 net.cpp:122] Setting up relu6
I0429 13:36:21.590976 25258 net.cpp:129] Top shape: 64 4096 (262144)
I0429 13:36:21.590982 25258 net.cpp:137] Memory required for data: 527982592
I0429 13:36:21.590988 25258 layer_factory.hpp:77] Creating layer drop6
I0429 13:36:21.590999 25258 net.cpp:84] Creating Layer drop6
I0429 13:36:21.591006 25258 net.cpp:406] drop6 <- fc6
I0429 13:36:21.591015 25258 net.cpp:367] drop6 -> fc6 (in-place)
I0429 13:36:21.591048 25258 net.cpp:122] Setting up drop6
I0429 13:36:21.591058 25258 net.cpp:129] Top shape: 64 4096 (262144)
I0429 13:36:21.591063 25258 net.cpp:137] Memory required for data: 529031168
I0429 13:36:21.591068 25258 layer_factory.hpp:77] Creating layer fc7
I0429 13:36:21.591084 25258 net.cpp:84] Creating Layer fc7
I0429 13:36:21.591090 25258 net.cpp:406] fc7 <- fc6
I0429 13:36:21.591100 25258 net.cpp:380] fc7 -> fc7
I0429 13:36:21.740499 25258 net.cpp:122] Setting up fc7
I0429 13:36:21.740530 25258 net.cpp:129] Top shape: 64 4096 (262144)
I0429 13:36:21.740535 25258 net.cpp:137] Memory required for data: 530079744
I0429 13:36:21.740546 25258 layer_factory.hpp:77] Creating layer relu7
I0429 13:36:21.740556 25258 net.cpp:84] Creating Layer relu7
I0429 13:36:21.740561 25258 net.cpp:406] relu7 <- fc7
I0429 13:36:21.740571 25258 net.cpp:367] relu7 -> fc7 (in-place)
I0429 13:36:21.740779 25258 net.cpp:122] Setting up relu7
I0429 13:36:21.740788 25258 net.cpp:129] Top shape: 64 4096 (262144)
I0429 13:36:21.740792 25258 net.cpp:137] Memory required for data: 531128320
I0429 13:36:21.740798 25258 layer_factory.hpp:77] Creating layer drop7
I0429 13:36:21.740808 25258 net.cpp:84] Creating Layer drop7
I0429 13:36:21.740813 25258 net.cpp:406] drop7 <- fc7
I0429 13:36:21.740821 25258 net.cpp:367] drop7 -> fc7 (in-place)
I0429 13:36:21.740846 25258 net.cpp:122] Setting up drop7
I0429 13:36:21.740852 25258 net.cpp:129] Top shape: 64 4096 (262144)
I0429 13:36:21.740856 25258 net.cpp:137] Memory required for data: 532176896
I0429 13:36:21.740860 25258 layer_factory.hpp:77] Creating layer fc8
I0429 13:36:21.740870 25258 net.cpp:84] Creating Layer fc8
I0429 13:36:21.740876 25258 net.cpp:406] fc8 <- fc7
I0429 13:36:21.740886 25258 net.cpp:380] fc8 -> fc8
I0429 13:36:21.741135 25258 net.cpp:122] Setting up fc8
I0429 13:36:21.741143 25258 net.cpp:129] Top shape: 64 5 (320)
I0429 13:36:21.741155 25258 net.cpp:137] Memory required for data: 532178176
I0429 13:36:21.741194 25258 layer_factory.hpp:77] Creating layer fc8_fc8_0_split
I0429 13:36:21.741204 25258 net.cpp:84] Creating Layer fc8_fc8_0_split
I0429 13:36:21.741215 25258 net.cpp:406] fc8_fc8_0_split <- fc8
I0429 13:36:21.741230 25258 net.cpp:380] fc8_fc8_0_split -> fc8_fc8_0_split_0
I0429 13:36:21.741242 25258 net.cpp:380] fc8_fc8_0_split -> fc8_fc8_0_split_1
I0429 13:36:21.741251 25258 net.cpp:380] fc8_fc8_0_split -> fc8_fc8_0_split_2
I0429 13:36:21.741262 25258 net.cpp:380] fc8_fc8_0_split -> fc8_fc8_0_split_3
I0429 13:36:21.741328 25258 net.cpp:122] Setting up fc8_fc8_0_split
I0429 13:36:21.741336 25258 net.cpp:129] Top shape: 64 5 (320)
I0429 13:36:21.741344 25258 net.cpp:129] Top shape: 64 5 (320)
I0429 13:36:21.741353 25258 net.cpp:129] Top shape: 64 5 (320)
I0429 13:36:21.741359 25258 net.cpp:129] Top shape: 64 5 (320)
I0429 13:36:21.741365 25258 net.cpp:137] Memory required for data: 532183296
I0429 13:36:21.741374 25258 layer_factory.hpp:77] Creating layer loss
I0429 13:36:21.741384 25258 net.cpp:84] Creating Layer loss
I0429 13:36:21.741389 25258 net.cpp:406] loss <- fc8_fc8_0_split_0
I0429 13:36:21.741396 25258 net.cpp:406] loss <- label_data_1_split_0
I0429 13:36:21.741403 25258 net.cpp:380] loss -> loss
…
