…
I0501 21:03:34.968040 24033 net.cpp:294] The NetState phase (0) differed from the phase (1) specified by a rule in layer accuracy_top_3
I0501 21:03:34.968189 24033 net.cpp:51] Initializing net from parameters: 
name: "AlexNet"
state {
  phase: TRAIN
  level: 0
  stage: ""
}
layer {
  name: "data"
  type: "Data"
  top: "data"
  top: "label"
  include {
    phase: TRAIN
  }
  transform_param {
    mirror: true
    crop_size: 227
    mean_file: "retina256/retina256_train_mean.binaryproto"
  }
  data_param {
    source: "retina256/retina256_train_lmdb"
    batch_size: 100
    backend: LMDB
  }
}
layer {
  name: "conv1"
  type: "Convolution"
  bottom: "data"
  top: "conv1"
  param {
    lr_mult: 1
    decay_mult: 1
  }
  param {
    lr_mult: 2
    decay_mult: 0
  }
  convolution_param {
    num_output: 96
    kernel_size: 11
    stride: 4
    weight_filler {
      type: "gaussian"
      std: 0.01
    }
    bias_filler {
      type: "constant"
      value: 0
    }
  }
}
layer {
  name: "relu1"
  type: "ReLU"
  bottom: "conv1"
  top: "conv1"
}
layer {
  name: "norm1"
  type: "LRN"
  bottom: "conv1"
  top: "norm1"
  lrn_param {
    local_size: 5
    alpha: 0.0001
    beta: 0.75
  }
}
layer {
  name: "pool1"
  type: "Pooling"
  bottom: "norm1"
  top: "pool1"
  pooling_param {
    pool: MAX
    kernel_size: 3
    stride: 2
  }
}
layer {
  name: "conv2"
  type: "Convolution"
  bottom: "pool1"
  top: "conv2"
  param {
    lr_mult: 1
    decay_mult: 1
  }
  param {
    lr_mult: 2
    decay_mult: 0
  }
  convolution_param {
    num_output: 256
    pad: 2
    kernel_size: 5
    group: 2
    weight_filler {
      type: "gaussian"
      std: 0.01
    }
    bias_filler {
      type: "constant"
      value: 0.1
    }
  }
}
layer {
  name: "relu2"
  type: "ReLU"
  bottom: "conv2"
  top: "conv2"
}
layer {
  name: "norm2"
  type: "LRN"
  bottom: "conv2"
  top: "norm2"
  lrn_param {
    local_size: 5
    alpha: 0.0001
    beta: 0.75
  }
}
layer {
  name: "pool2"
  type: "Pooling"
  bottom: "norm2"
  top: "pool2"
  pooling_param {
    pool: MAX
    kernel_size: 3
    stride: 2
  }
}
layer {
  name: "conv3"
  type: "Convolution"
  bottom: "pool2"
  top: "conv3"
  param {
    lr_mult: 1
    decay_mult: 1
  }
  param {
    lr_mult: 2
    decay_mult: 0
  }
  convolution_param {
    num_output: 384
    pad: 1
    kernel_size: 3
    weight_filler {
      type: "gaussian"
      std: 0.01
    }
    bias_filler {
      type: "constant"
      value: 0
    }
  }
}
layer {
  name: "relu3"
  type: "ReLU"
  bottom: "conv3"
  top: "conv3"
}
layer {
  name: "conv4"
  type: "Convolution"
  bottom: "conv3"
  top: "conv4"
  param {
    lr_mult: 1
    decay_mult: 1
  }
  param {
    lr_mult: 2
    decay_mult: 0
  }
  convolution_param {
    num_output: 384
    pad: 1
    kernel_size: 3
    group: 2
    weight_filler {
      type: "gaussian"
      std: 0.01
    }
    bias_filler {
      type: "constant"
      value: 0.1
    }
  }
}
layer {
  name: "relu4"
  type: "ReLU"
  bottom: "conv4"
  top: "conv4"
}
layer {
  name: "conv5"
  type: "Convolution"
  bottom: "conv4"
  top: "conv5"
  param {
    lr_mult: 1
    decay_mult: 1
  }
  param {
    lr_mult: 2
    decay_mult: 0
  }
  convolution_param {
    num_output: 256
    pad: 1
    kernel_size: 3
    group: 2
    weight_filler {
      type: "gaussian"
      std: 0.01
    }
    bias_filler {
      type: "constant"
      value: 0.1
    }
  }
}
layer {
  name: "relu5"
  type: "ReLU"
  bottom: "conv5"
  top: "conv5"
}
layer {
  name: "pool5"
  type: "Pooling"
  bottom: "conv5"
  top: "pool5"
  pooling_param {
    pool: MAX
    kernel_size: 3
    stride: 2
  }
}
layer {
  name: "fc6"
  type: "InnerProduct"
  bottom: "pool5"
  top: "fc6"
  param {
    lr_mult: 1
    decay_mult: 1
  }
  param {
    lr_mult: 2
    decay_mult: 0
  }
  inner_product_param {
    num_output: 4096
    weight_filler {
      type: "gaussian"
      std: 0.005
    }
    bias_filler {
      type: "constant"
      value: 0.1
    }
  }
}
layer {
  name: "relu6"
  type: "ReLU"
  bottom: "fc6"
  top: "fc6"
}
layer {
  name: "drop6"
  type: "Dropout"
  bottom: "fc6"
  top: "fc6"
  dropout_param {
    dropout_ratio: 0.5
  }
}
layer {
  name: "fc7"
  type: "InnerProduct"
  bottom: "fc6"
  top: "fc7"
  param {
    lr_mult: 1
    decay_mult: 1
  }
  param {
    lr_mult: 2
    decay_mult: 0
  }
  inner_product_param {
    num_output: 4096
    weight_filler {
      type: "gaussian"
      std: 0.005
    }
    bias_filler {
      type: "constant"
      value: 0.1
    }
  }
}
layer {
  name: "relu7"
  type: "ReLU"
  bottom: "fc7"
  top: "fc7"
}
layer {
  name: "drop7"
  type: "Dropout"
  bottom: "fc7"
  top: "fc7"
  dropout_param {
    dropout_ratio: 0.5
  }
}
layer {
  name: "fc8"
  type: "InnerProduct"
  bottom: "fc7"
  top: "fc8"
  param {
    lr_mult: 1
    decay_mult: 1
  }
  param {
    lr_mult: 2
    decay_mult: 0
  }
  inner_product_param {
    num_output: 5
    weight_filler {
      type: "gaussian"
      std: 0.01
    }
    bias_filler {
      type: "constant"
      value: 0
    }
  }
}
layer {
  name: "loss"
  type: "SoftmaxWithLoss"
  bottom: "fc8"
  bottom: "label"
  top: "loss"
}
I0501 21:03:34.968400 24033 layer_factory.hpp:77] Creating layer data
I0501 21:03:34.968477 24033 db_lmdb.cpp:35] Opened lmdb retina256/retina256_train_lmdb
I0501 21:03:34.968509 24033 net.cpp:84] Creating Layer data
I0501 21:03:34.968521 24033 net.cpp:380] data -> data
I0501 21:03:34.968544 24033 net.cpp:380] data -> label
I0501 21:03:34.968560 24033 data_transformer.cpp:25] Loading mean file from: retina256/retina256_train_mean.binaryproto
I0501 21:03:34.978231 24033 data_layer.cpp:45] output data size: 100,3,227,227
I0501 21:03:35.297397 24033 net.cpp:122] Setting up data
I0501 21:03:35.297433 24033 net.cpp:129] Top shape: 100 3 227 227 (15458700)
I0501 21:03:35.297441 24033 net.cpp:129] Top shape: 100 (100)
I0501 21:03:35.297446 24033 net.cpp:137] Memory required for data: 61835200
I0501 21:03:35.297458 24033 layer_factory.hpp:77] Creating layer conv1
I0501 21:03:35.297482 24033 net.cpp:84] Creating Layer conv1
I0501 21:03:35.297489 24033 net.cpp:406] conv1 <- data
I0501 21:03:35.297503 24033 net.cpp:380] conv1 -> conv1
I0501 21:03:38.128561 24033 net.cpp:122] Setting up conv1
I0501 21:03:38.128607 24033 net.cpp:129] Top shape: 100 96 55 55 (29040000)
I0501 21:03:38.128613 24033 net.cpp:137] Memory required for data: 177995200
I0501 21:03:38.128645 24033 layer_factory.hpp:77] Creating layer relu1
I0501 21:03:38.128662 24033 net.cpp:84] Creating Layer relu1
I0501 21:03:38.128670 24033 net.cpp:406] relu1 <- conv1
I0501 21:03:38.128677 24033 net.cpp:367] relu1 -> conv1 (in-place)
I0501 21:03:38.128844 24033 net.cpp:122] Setting up relu1
I0501 21:03:38.128859 24033 net.cpp:129] Top shape: 100 96 55 55 (29040000)
I0501 21:03:38.128870 24033 net.cpp:137] Memory required for data: 294155200
I0501 21:03:38.128875 24033 layer_factory.hpp:77] Creating layer norm1
I0501 21:03:38.128890 24033 net.cpp:84] Creating Layer norm1
I0501 21:03:38.128895 24033 net.cpp:406] norm1 <- conv1
I0501 21:03:38.128902 24033 net.cpp:380] norm1 -> norm1
I0501 21:03:38.129078 24033 net.cpp:122] Setting up norm1
I0501 21:03:38.129093 24033 net.cpp:129] Top shape: 100 96 55 55 (29040000)
I0501 21:03:38.129109 24033 net.cpp:137] Memory required for data: 410315200
I0501 21:03:38.129369 24033 layer_factory.hpp:77] Creating layer pool1
I0501 21:03:38.129384 24033 net.cpp:84] Creating Layer pool1
I0501 21:03:38.129390 24033 net.cpp:406] pool1 <- norm1
I0501 21:03:38.129397 24033 net.cpp:380] pool1 -> pool1
I0501 21:03:38.129453 24033 net.cpp:122] Setting up pool1
I0501 21:03:38.129462 24033 net.cpp:129] Top shape: 100 96 27 27 (6998400)
I0501 21:03:38.129467 24033 net.cpp:137] Memory required for data: 438308800
I0501 21:03:38.129473 24033 layer_factory.hpp:77] Creating layer conv2
I0501 21:03:38.129487 24033 net.cpp:84] Creating Layer conv2
I0501 21:03:38.129492 24033 net.cpp:406] conv2 <- pool1
I0501 21:03:38.129498 24033 net.cpp:380] conv2 -> conv2
I0501 21:03:38.136190 24033 net.cpp:122] Setting up conv2
I0501 21:03:38.136222 24033 net.cpp:129] Top shape: 100 256 27 27 (18662400)
I0501 21:03:38.136227 24033 net.cpp:137] Memory required for data: 512958400
I0501 21:03:38.136240 24033 layer_factory.hpp:77] Creating layer relu2
I0501 21:03:38.136252 24033 net.cpp:84] Creating Layer relu2
I0501 21:03:38.136257 24033 net.cpp:406] relu2 <- conv2
I0501 21:03:38.136270 24033 net.cpp:367] relu2 -> conv2 (in-place)
I0501 21:03:38.136452 24033 net.cpp:122] Setting up relu2
I0501 21:03:38.136466 24033 net.cpp:129] Top shape: 100 256 27 27 (18662400)
I0501 21:03:38.136471 24033 net.cpp:137] Memory required for data: 587608000
I0501 21:03:38.136476 24033 layer_factory.hpp:77] Creating layer norm2
I0501 21:03:38.136485 24033 net.cpp:84] Creating Layer norm2
I0501 21:03:38.136493 24033 net.cpp:406] norm2 <- conv2
I0501 21:03:38.136507 24033 net.cpp:380] norm2 -> norm2
I0501 21:03:38.137122 24033 net.cpp:122] Setting up norm2
I0501 21:03:38.137136 24033 net.cpp:129] Top shape: 100 256 27 27 (18662400)
I0501 21:03:38.137145 24033 net.cpp:137] Memory required for data: 662257600
I0501 21:03:38.137151 24033 layer_factory.hpp:77] Creating layer pool2
I0501 21:03:38.137159 24033 net.cpp:84] Creating Layer pool2
I0501 21:03:38.137166 24033 net.cpp:406] pool2 <- norm2
I0501 21:03:38.137179 24033 net.cpp:380] pool2 -> pool2
I0501 21:03:38.137221 24033 net.cpp:122] Setting up pool2
I0501 21:03:38.137230 24033 net.cpp:129] Top shape: 100 256 13 13 (4326400)
I0501 21:03:38.137234 24033 net.cpp:137] Memory required for data: 679563200
I0501 21:03:38.137238 24033 layer_factory.hpp:77] Creating layer conv3
I0501 21:03:38.137262 24033 net.cpp:84] Creating Layer conv3
I0501 21:03:38.137269 24033 net.cpp:406] conv3 <- pool2
I0501 21:03:38.137276 24033 net.cpp:380] conv3 -> conv3
I0501 21:03:38.146692 24033 net.cpp:122] Setting up conv3
I0501 21:03:38.146716 24033 net.cpp:129] Top shape: 100 384 13 13 (6489600)
I0501 21:03:38.146723 24033 net.cpp:137] Memory required for data: 705521600
I0501 21:03:38.146736 24033 layer_factory.hpp:77] Creating layer relu3
I0501 21:03:38.146752 24033 net.cpp:84] Creating Layer relu3
I0501 21:03:38.146759 24033 net.cpp:406] relu3 <- conv3
I0501 21:03:38.146771 24033 net.cpp:367] relu3 -> conv3 (in-place)
I0501 21:03:38.154837 24033 net.cpp:122] Setting up relu3
I0501 21:03:38.154858 24033 net.cpp:129] Top shape: 100 384 13 13 (6489600)
I0501 21:03:38.154867 24033 net.cpp:137] Memory required for data: 731480000
I0501 21:03:38.154875 24033 layer_factory.hpp:77] Creating layer conv4
I0501 21:03:38.154893 24033 net.cpp:84] Creating Layer conv4
I0501 21:03:38.154899 24033 net.cpp:406] conv4 <- conv3
I0501 21:03:38.154907 24033 net.cpp:380] conv4 -> conv4
I0501 21:03:38.172046 24033 net.cpp:122] Setting up conv4
I0501 21:03:38.172076 24033 net.cpp:129] Top shape: 100 384 13 13 (6489600)
I0501 21:03:38.172083 24033 net.cpp:137] Memory required for data: 757438400
I0501 21:03:38.172096 24033 layer_factory.hpp:77] Creating layer relu4
I0501 21:03:38.172106 24033 net.cpp:84] Creating Layer relu4
I0501 21:03:38.172112 24033 net.cpp:406] relu4 <- conv4
I0501 21:03:38.172122 24033 net.cpp:367] relu4 -> conv4 (in-place)
I0501 21:03:38.175129 24033 net.cpp:122] Setting up relu4
I0501 21:03:38.175164 24033 net.cpp:129] Top shape: 100 384 13 13 (6489600)
I0501 21:03:38.175199 24033 net.cpp:137] Memory required for data: 783396800
I0501 21:03:38.175209 24033 layer_factory.hpp:77] Creating layer conv5
I0501 21:03:38.175230 24033 net.cpp:84] Creating Layer conv5
I0501 21:03:38.175242 24033 net.cpp:406] conv5 <- conv4
I0501 21:03:38.175254 24033 net.cpp:380] conv5 -> conv5
I0501 21:03:38.213809 24033 net.cpp:122] Setting up conv5
I0501 21:03:38.213865 24033 net.cpp:129] Top shape: 100 256 13 13 (4326400)
I0501 21:03:38.213873 24033 net.cpp:137] Memory required for data: 800702400
I0501 21:03:38.213901 24033 layer_factory.hpp:77] Creating layer relu5
I0501 21:03:38.213918 24033 net.cpp:84] Creating Layer relu5
I0501 21:03:38.213929 24033 net.cpp:406] relu5 <- conv5
I0501 21:03:38.213946 24033 net.cpp:367] relu5 -> conv5 (in-place)
I0501 21:03:38.214251 24033 net.cpp:122] Setting up relu5
I0501 21:03:38.214267 24033 net.cpp:129] Top shape: 100 256 13 13 (4326400)
I0501 21:03:38.214279 24033 net.cpp:137] Memory required for data: 818008000
I0501 21:03:38.214288 24033 layer_factory.hpp:77] Creating layer pool5
I0501 21:03:38.214303 24033 net.cpp:84] Creating Layer pool5
I0501 21:03:38.214311 24033 net.cpp:406] pool5 <- conv5
I0501 21:03:38.214325 24033 net.cpp:380] pool5 -> pool5
I0501 21:03:38.214416 24033 net.cpp:122] Setting up pool5
I0501 21:03:38.214428 24033 net.cpp:129] Top shape: 100 256 6 6 (921600)
I0501 21:03:38.214437 24033 net.cpp:137] Memory required for data: 821694400
I0501 21:03:38.214447 24033 layer_factory.hpp:77] Creating layer fc6
I0501 21:03:38.214467 24033 net.cpp:84] Creating Layer fc6
I0501 21:03:38.214474 24033 net.cpp:406] fc6 <- pool5
I0501 21:03:38.214486 24033 net.cpp:380] fc6 -> fc6
I0501 21:03:38.624876 24033 net.cpp:122] Setting up fc6
I0501 21:03:38.624913 24033 net.cpp:129] Top shape: 100 4096 (409600)
I0501 21:03:38.624920 24033 net.cpp:137] Memory required for data: 823332800
I0501 21:03:38.624933 24033 layer_factory.hpp:77] Creating layer relu6
I0501 21:03:38.624945 24033 net.cpp:84] Creating Layer relu6
I0501 21:03:38.624953 24033 net.cpp:406] relu6 <- fc6
I0501 21:03:38.624963 24033 net.cpp:367] relu6 -> fc6 (in-place)
I0501 21:03:38.625169 24033 net.cpp:122] Setting up relu6
I0501 21:03:38.625180 24033 net.cpp:129] Top shape: 100 4096 (409600)
I0501 21:03:38.625185 24033 net.cpp:137] Memory required for data: 824971200
I0501 21:03:38.625191 24033 layer_factory.hpp:77] Creating layer drop6
I0501 21:03:38.625200 24033 net.cpp:84] Creating Layer drop6
I0501 21:03:38.625207 24033 net.cpp:406] drop6 <- fc6
I0501 21:03:38.625217 24033 net.cpp:367] drop6 -> fc6 (in-place)
I0501 21:03:38.625247 24033 net.cpp:122] Setting up drop6
I0501 21:03:38.625257 24033 net.cpp:129] Top shape: 100 4096 (409600)
I0501 21:03:38.625263 24033 net.cpp:137] Memory required for data: 826609600
I0501 21:03:38.625268 24033 layer_factory.hpp:77] Creating layer fc7
I0501 21:03:38.625279 24033 net.cpp:84] Creating Layer fc7
I0501 21:03:38.625285 24033 net.cpp:406] fc7 <- fc6
I0501 21:03:38.625294 24033 net.cpp:380] fc7 -> fc7
I0501 21:03:38.831075 24033 net.cpp:122] Setting up fc7
I0501 21:03:38.831113 24033 net.cpp:129] Top shape: 100 4096 (409600)
I0501 21:03:38.831120 24033 net.cpp:137] Memory required for data: 828248000
I0501 21:03:38.831130 24033 layer_factory.hpp:77] Creating layer relu7
I0501 21:03:38.831143 24033 net.cpp:84] Creating Layer relu7
I0501 21:03:38.831149 24033 net.cpp:406] relu7 <- fc7
I0501 21:03:38.831157 24033 net.cpp:367] relu7 -> fc7 (in-place)
I0501 21:03:38.831353 24033 net.cpp:122] Setting up relu7
I0501 21:03:38.831363 24033 net.cpp:129] Top shape: 100 4096 (409600)
I0501 21:03:38.831367 24033 net.cpp:137] Memory required for data: 829886400
I0501 21:03:38.831372 24033 layer_factory.hpp:77] Creating layer drop7
I0501 21:03:38.831382 24033 net.cpp:84] Creating Layer drop7
I0501 21:03:38.831387 24033 net.cpp:406] drop7 <- fc7
I0501 21:03:38.831395 24033 net.cpp:367] drop7 -> fc7 (in-place)
I0501 21:03:38.831420 24033 net.cpp:122] Setting up drop7
I0501 21:03:38.831429 24033 net.cpp:129] Top shape: 100 4096 (409600)
I0501 21:03:38.831543 24033 net.cpp:137] Memory required for data: 831524800
I0501 21:03:38.831552 24033 layer_factory.hpp:77] Creating layer fc8
I0501 21:03:38.831565 24033 net.cpp:84] Creating Layer fc8
I0501 21:03:38.831573 24033 net.cpp:406] fc8 <- fc7
I0501 21:03:38.831584 24033 net.cpp:380] fc8 -> fc8
I0501 21:03:38.831868 24033 net.cpp:122] Setting up fc8
I0501 21:03:38.831878 24033 net.cpp:129] Top shape: 100 5 (500)
I0501 21:03:38.831883 24033 net.cpp:137] Memory required for data: 831526800
I0501 21:03:38.831892 24033 layer_factory.hpp:77] Creating layer loss
I0501 21:03:38.831899 24033 net.cpp:84] Creating Layer loss
I0501 21:03:38.831904 24033 net.cpp:406] loss <- fc8
I0501 21:03:38.831910 24033 net.cpp:406] loss <- label
I0501 21:03:38.831919 24033 net.cpp:380] loss -> loss
I0501 21:03:38.831934 24033 layer_factory.hpp:77] Creating layer loss
…
I0501 21:03:38.855010 24033 net.cpp:294] The NetState phase (1) differed from the phase (0) specified by a rule in layer data
I0501 21:03:38.855206 24033 net.cpp:51] Initializing net from parameters: 
name: "AlexNet"
state {
  phase: TEST
}
layer {
  name: "data"
  type: "Data"
  top: "data"
  top: "label"
  include {
    phase: TEST
  }
  transform_param {
    mirror: false
    crop_size: 227
    mean_file: "retina256/retina256_train_mean.binaryproto"
  }
  data_param {
    source: "retina256/retina256_test_lmdb"
    batch_size: 64
    backend: LMDB
  }
}
layer {
  name: "conv1"
  type: "Convolution"
  bottom: "data"
  top: "conv1"
  param {
    lr_mult: 1
    decay_mult: 1
  }
  param {
    lr_mult: 2
    decay_mult: 0
  }
  convolution_param {
    num_output: 96
    kernel_size: 11
    stride: 4
    weight_filler {
      type: "gaussian"
      std: 0.01
    }
    bias_filler {
      type: "constant"
      value: 0
    }
  }
}
layer {
  name: "relu1"
  type: "ReLU"
  bottom: "conv1"
  top: "conv1"
}
layer {
  name: "norm1"
  type: "LRN"
  bottom: "conv1"
  top: "norm1"
  lrn_param {
    local_size: 5
    alpha: 0.0001
    beta: 0.75
  }
}
layer {
  name: "pool1"
  type: "Pooling"
  bottom: "norm1"
  top: "pool1"
  pooling_param {
    pool: MAX
    kernel_size: 3
    stride: 2
  }
}
layer {
  name: "conv2"
  type: "Convolution"
  bottom: "pool1"
  top: "conv2"
  param {
    lr_mult: 1
    decay_mult: 1
  }
  param {
    lr_mult: 2
    decay_mult: 0
  }
  convolution_param {
    num_output: 256
    pad: 2
    kernel_size: 5
    group: 2
    weight_filler {
      type: "gaussian"
      std: 0.01
    }
    bias_filler {
      type: "constant"
      value: 0.1
    }
  }
}
layer {
  name: "relu2"
  type: "ReLU"
  bottom: "conv2"
  top: "conv2"
}
layer {
  name: "norm2"
  type: "LRN"
  bottom: "conv2"
  top: "norm2"
  lrn_param {
    local_size: 5
    alpha: 0.0001
    beta: 0.75
  }
}
layer {
  name: "pool2"
  type: "Pooling"
  bottom: "norm2"
  top: "pool2"
  pooling_param {
    pool: MAX
    kernel_size: 3
    stride: 2
  }
}
layer {
  name: "conv3"
  type: "Convolution"
  bottom: "pool2"
  top: "conv3"
  param {
    lr_mult: 1
    decay_mult: 1
  }
  param {
    lr_mult: 2
    decay_mult: 0
  }
  convolution_param {
    num_output: 384
    pad: 1
    kernel_size: 3
    weight_filler {
      type: "gaussian"
      std: 0.01
    }
    bias_filler {
      type: "constant"
      value: 0
    }
  }
}
layer {
  name: "relu3"
  type: "ReLU"
  bottom: "conv3"
  top: "conv3"
}
layer {
  name: "conv4"
  type: "Convolution"
  bottom: "conv3"
  top: "conv4"
  param {
    lr_mult: 1
    decay_mult: 1
  }
  param {
    lr_mult: 2
    decay_mult: 0
  }
  convolution_param {
    num_output: 384
    pad: 1
    kernel_size: 3
    group: 2
    weight_filler {
      type: "gaussian"
      std: 0.01
    }
    bias_filler {
      type: "constant"
      value: 0.1
    }
  }
}
layer {
  name: "relu4"
  type: "ReLU"
  bottom: "conv4"
  top: "conv4"
}
layer {
  name: "conv5"
  type: "Convolution"
  bottom: "conv4"
  top: "conv5"
  param {
    lr_mult: 1
    decay_mult: 1
  }
  param {
    lr_mult: 2
    decay_mult: 0
  }
  convolution_param {
    num_output: 256
    pad: 1
    kernel_size: 3
    group: 2
    weight_filler {
      type: "gaussian"
      std: 0.01
    }
    bias_filler {
      type: "constant"
      value: 0.1
    }
  }
}
layer {
  name: "relu5"
  type: "ReLU"
  bottom: "conv5"
  top: "conv5"
}
layer {
  name: "pool5"
  type: "Pooling"
  bottom: "conv5"
  top: "pool5"
  pooling_param {
    pool: MAX
    kernel_size: 3
    stride: 2
  }
}
layer {
  name: "fc6"
  type: "InnerProduct"
  bottom: "pool5"
  top: "fc6"
  param {
    lr_mult: 1
    decay_mult: 1
  }
  param {
    lr_mult: 2
    decay_mult: 0
  }
  inner_product_param {
    num_output: 4096
    weight_filler {
      type: "gaussian"
      std: 0.005
    }
    bias_filler {
      type: "constant"
      value: 0.1
    }
  }
}
layer {
  name: "relu6"
  type: "ReLU"
  bottom: "fc6"
  top: "fc6"
}
layer {
  name: "drop6"
  type: "Dropout"
  bottom: "fc6"
  top: "fc6"
  dropout_param {
    dropout_ratio: 0.5
  }
}
layer {
  name: "fc7"
  type: "InnerProduct"
  bottom: "fc6"
  top: "fc7"
  param {
    lr_mult: 1
    decay_mult: 1
  }
  param {
    lr_mult: 2
    decay_mult: 0
  }
  inner_product_param {
    num_output: 4096
    weight_filler {
      type: "gaussian"
      std: 0.005
    }
    bias_filler {
      type: "constant"
      value: 0.1
    }
  }
}
layer {
  name: "relu7"
  type: "ReLU"
  bottom: "fc7"
  top: "fc7"
}
layer {
  name: "drop7"
  type: "Dropout"
  bottom: "fc7"
  top: "fc7"
  dropout_param {
    dropout_ratio: 0.5
  }
}
layer {
  name: "fc8"
  type: "InnerProduct"
  bottom: "fc7"
  top: "fc8"
  param {
    lr_mult: 1
    decay_mult: 1
  }
  param {
    lr_mult: 2
    decay_mult: 0
  }
  inner_product_param {
    num_output: 5
    weight_filler {
      type: "gaussian"
      std: 0.01
    }
    bias_filler {
      type: "constant"
      value: 0
    }
  }
}
layer {
  name: "loss"
  type: "SoftmaxWithLoss"
  bottom: "fc8"
  bottom: "label"
  top: "loss"
}
layer {
  name: "accuracy_top_1"
  type: "Accuracy"
  bottom: "fc8"
  bottom: "label"
  top: "accuracy_top_1"
  include {
    phase: TEST
  }
  accuracy_param {
    top_k: 1
  }
}
layer {
  name: "accuracy_top_2"
  type: "Accuracy"
  bottom: "fc8"
  bottom: "label"
  top: "accuracy_top_2"
  include {
    phase: TEST
  }
  accuracy_param {
    top_k: 2
  }
}
layer {
  name: "accuracy_top_3"
  type: "Accuracy"
  bottom: "fc8"
  bottom: "label"
  top: "accuracy_top_3"
  include {
    phase: TEST
  }
  accuracy_param {
    top_k: 3
  }
}
I0501 21:03:38.855366 24033 layer_factory.hpp:77] Creating layer data
I0501 21:03:38.856912 24033 db_lmdb.cpp:35] Opened lmdb retina256/retina256_test_lmdb
I0501 21:03:38.858963 24033 net.cpp:84] Creating Layer data
I0501 21:03:38.858986 24033 net.cpp:380] data -> data
I0501 21:03:38.859006 24033 net.cpp:380] data -> label
I0501 21:03:38.859021 24033 data_transformer.cpp:25] Loading mean file from: retina256/retina256_train_mean.binaryproto
I0501 21:03:38.906244 24033 data_layer.cpp:45] output data size: 64,3,227,227
I0501 21:03:39.069233 24033 net.cpp:122] Setting up data
I0501 21:03:39.069273 24033 net.cpp:129] Top shape: 64 3 227 227 (9893568)
I0501 21:03:39.069280 24033 net.cpp:129] Top shape: 64 (64)
I0501 21:03:39.069284 24033 net.cpp:137] Memory required for data: 39574528
I0501 21:03:39.069294 24033 layer_factory.hpp:77] Creating layer label_data_1_split
I0501 21:03:39.069313 24033 net.cpp:84] Creating Layer label_data_1_split
I0501 21:03:39.069317 24033 net.cpp:406] label_data_1_split <- label
I0501 21:03:39.069326 24033 net.cpp:380] label_data_1_split -> label_data_1_split_0
I0501 21:03:39.069337 24033 net.cpp:380] label_data_1_split -> label_data_1_split_1
I0501 21:03:39.069345 24033 net.cpp:380] label_data_1_split -> label_data_1_split_2
I0501 21:03:39.069352 24033 net.cpp:380] label_data_1_split -> label_data_1_split_3
I0501 21:03:39.069442 24033 net.cpp:122] Setting up label_data_1_split
I0501 21:03:39.069450 24033 net.cpp:129] Top shape: 64 (64)
I0501 21:03:39.069456 24033 net.cpp:129] Top shape: 64 (64)
I0501 21:03:39.069461 24033 net.cpp:129] Top shape: 64 (64)
I0501 21:03:39.069465 24033 net.cpp:129] Top shape: 64 (64)
I0501 21:03:39.069469 24033 net.cpp:137] Memory required for data: 39575552
I0501 21:03:39.069475 24033 layer_factory.hpp:77] Creating layer conv1
I0501 21:03:39.069489 24033 net.cpp:84] Creating Layer conv1
I0501 21:03:39.069494 24033 net.cpp:406] conv1 <- data
I0501 21:03:39.069502 24033 net.cpp:380] conv1 -> conv1
I0501 21:03:39.070988 24033 net.cpp:122] Setting up conv1
I0501 21:03:39.071003 24033 net.cpp:129] Top shape: 64 96 55 55 (18585600)
I0501 21:03:39.071007 24033 net.cpp:137] Memory required for data: 113917952
I0501 21:03:39.071019 24033 layer_factory.hpp:77] Creating layer relu1
I0501 21:03:39.071027 24033 net.cpp:84] Creating Layer relu1
I0501 21:03:39.071032 24033 net.cpp:406] relu1 <- conv1
I0501 21:03:39.071038 24033 net.cpp:367] relu1 -> conv1 (in-place)
I0501 21:03:39.071192 24033 net.cpp:122] Setting up relu1
I0501 21:03:39.071202 24033 net.cpp:129] Top shape: 64 96 55 55 (18585600)
I0501 21:03:39.071205 24033 net.cpp:137] Memory required for data: 188260352
I0501 21:03:39.071210 24033 layer_factory.hpp:77] Creating layer norm1
I0501 21:03:39.071220 24033 net.cpp:84] Creating Layer norm1
I0501 21:03:39.071225 24033 net.cpp:406] norm1 <- conv1
I0501 21:03:39.071231 24033 net.cpp:380] norm1 -> norm1
I0501 21:03:39.075243 24033 net.cpp:122] Setting up norm1
I0501 21:03:39.075264 24033 net.cpp:129] Top shape: 64 96 55 55 (18585600)
I0501 21:03:39.075276 24033 net.cpp:137] Memory required for data: 262602752
I0501 21:03:39.075285 24033 layer_factory.hpp:77] Creating layer pool1
I0501 21:03:39.075297 24033 net.cpp:84] Creating Layer pool1
I0501 21:03:39.075302 24033 net.cpp:406] pool1 <- norm1
I0501 21:03:39.075310 24033 net.cpp:380] pool1 -> pool1
I0501 21:03:39.075350 24033 net.cpp:122] Setting up pool1
I0501 21:03:39.075372 24033 net.cpp:129] Top shape: 64 96 27 27 (4478976)
I0501 21:03:39.075407 24033 net.cpp:137] Memory required for data: 280518656
I0501 21:03:39.075412 24033 layer_factory.hpp:77] Creating layer conv2
I0501 21:03:39.075429 24033 net.cpp:84] Creating Layer conv2
I0501 21:03:39.075440 24033 net.cpp:406] conv2 <- pool1
I0501 21:03:39.075448 24033 net.cpp:380] conv2 -> conv2
I0501 21:03:39.079800 24033 net.cpp:122] Setting up conv2
I0501 21:03:39.079828 24033 net.cpp:129] Top shape: 64 256 27 27 (11943936)
I0501 21:03:39.079833 24033 net.cpp:137] Memory required for data: 328294400
I0501 21:03:39.079846 24033 layer_factory.hpp:77] Creating layer relu2
I0501 21:03:39.079857 24033 net.cpp:84] Creating Layer relu2
I0501 21:03:39.079862 24033 net.cpp:406] relu2 <- conv2
I0501 21:03:39.079871 24033 net.cpp:367] relu2 -> conv2 (in-place)
I0501 21:03:39.080018 24033 net.cpp:122] Setting up relu2
I0501 21:03:39.080027 24033 net.cpp:129] Top shape: 64 256 27 27 (11943936)
I0501 21:03:39.080031 24033 net.cpp:137] Memory required for data: 376070144
I0501 21:03:39.080037 24033 layer_factory.hpp:77] Creating layer norm2
I0501 21:03:39.080051 24033 net.cpp:84] Creating Layer norm2
I0501 21:03:39.080060 24033 net.cpp:406] norm2 <- conv2
I0501 21:03:39.080066 24033 net.cpp:380] norm2 -> norm2
I0501 21:03:39.080233 24033 net.cpp:122] Setting up norm2
I0501 21:03:39.080250 24033 net.cpp:129] Top shape: 64 256 27 27 (11943936)
I0501 21:03:39.080256 24033 net.cpp:137] Memory required for data: 423845888
I0501 21:03:39.080261 24033 layer_factory.hpp:77] Creating layer pool2
I0501 21:03:39.080269 24033 net.cpp:84] Creating Layer pool2
I0501 21:03:39.080274 24033 net.cpp:406] pool2 <- norm2
I0501 21:03:39.080282 24033 net.cpp:380] pool2 -> pool2
I0501 21:03:39.080320 24033 net.cpp:122] Setting up pool2
I0501 21:03:39.080327 24033 net.cpp:129] Top shape: 64 256 13 13 (2768896)
I0501 21:03:39.080332 24033 net.cpp:137] Memory required for data: 434921472
I0501 21:03:39.080335 24033 layer_factory.hpp:77] Creating layer conv3
I0501 21:03:39.080346 24033 net.cpp:84] Creating Layer conv3
I0501 21:03:39.080351 24033 net.cpp:406] conv3 <- pool2
I0501 21:03:39.080360 24033 net.cpp:380] conv3 -> conv3
I0501 21:03:39.092650 24033 net.cpp:122] Setting up conv3
I0501 21:03:39.092700 24033 net.cpp:129] Top shape: 64 384 13 13 (4153344)
I0501 21:03:39.092706 24033 net.cpp:137] Memory required for data: 451534848
I0501 21:03:39.092723 24033 layer_factory.hpp:77] Creating layer relu3
I0501 21:03:39.092737 24033 net.cpp:84] Creating Layer relu3
I0501 21:03:39.092744 24033 net.cpp:406] relu3 <- conv3
I0501 21:03:39.092752 24033 net.cpp:367] relu3 -> conv3 (in-place)
I0501 21:03:39.093425 24033 net.cpp:122] Setting up relu3
I0501 21:03:39.093451 24033 net.cpp:129] Top shape: 64 384 13 13 (4153344)
I0501 21:03:39.093457 24033 net.cpp:137] Memory required for data: 468148224
I0501 21:03:39.093464 24033 layer_factory.hpp:77] Creating layer conv4
I0501 21:03:39.093480 24033 net.cpp:84] Creating Layer conv4
I0501 21:03:39.093487 24033 net.cpp:406] conv4 <- conv3
I0501 21:03:39.093494 24033 net.cpp:380] conv4 -> conv4
I0501 21:03:39.104092 24033 net.cpp:122] Setting up conv4
I0501 21:03:39.104127 24033 net.cpp:129] Top shape: 64 384 13 13 (4153344)
I0501 21:03:39.104135 24033 net.cpp:137] Memory required for data: 484761600
I0501 21:03:39.104146 24033 layer_factory.hpp:77] Creating layer relu4
I0501 21:03:39.104158 24033 net.cpp:84] Creating Layer relu4
I0501 21:03:39.104164 24033 net.cpp:406] relu4 <- conv4
I0501 21:03:39.104173 24033 net.cpp:367] relu4 -> conv4 (in-place)
I0501 21:03:39.104826 24033 net.cpp:122] Setting up relu4
I0501 21:03:39.104845 24033 net.cpp:129] Top shape: 64 384 13 13 (4153344)
I0501 21:03:39.104851 24033 net.cpp:137] Memory required for data: 501374976
I0501 21:03:39.104856 24033 layer_factory.hpp:77] Creating layer conv5
I0501 21:03:39.104873 24033 net.cpp:84] Creating Layer conv5
I0501 21:03:39.104878 24033 net.cpp:406] conv5 <- conv4
I0501 21:03:39.104887 24033 net.cpp:380] conv5 -> conv5
I0501 21:03:39.114413 24033 net.cpp:122] Setting up conv5
I0501 21:03:39.114452 24033 net.cpp:129] Top shape: 64 256 13 13 (2768896)
I0501 21:03:39.114488 24033 net.cpp:137] Memory required for data: 512450560
I0501 21:03:39.114512 24033 layer_factory.hpp:77] Creating layer relu5
I0501 21:03:39.114526 24033 net.cpp:84] Creating Layer relu5
I0501 21:03:39.114533 24033 net.cpp:406] relu5 <- conv5
I0501 21:03:39.114542 24033 net.cpp:367] relu5 -> conv5 (in-place)
I0501 21:03:39.115173 24033 net.cpp:122] Setting up relu5
I0501 21:03:39.115193 24033 net.cpp:129] Top shape: 64 256 13 13 (2768896)
I0501 21:03:39.115201 24033 net.cpp:137] Memory required for data: 523526144
I0501 21:03:39.115208 24033 layer_factory.hpp:77] Creating layer pool5
I0501 21:03:39.115227 24033 net.cpp:84] Creating Layer pool5
I0501 21:03:39.115236 24033 net.cpp:406] pool5 <- conv5
I0501 21:03:39.115247 24033 net.cpp:380] pool5 -> pool5
I0501 21:03:39.115315 24033 net.cpp:122] Setting up pool5
I0501 21:03:39.115327 24033 net.cpp:129] Top shape: 64 256 6 6 (589824)
I0501 21:03:39.115335 24033 net.cpp:137] Memory required for data: 525885440
I0501 21:03:39.115341 24033 layer_factory.hpp:77] Creating layer fc6
I0501 21:03:39.115355 24033 net.cpp:84] Creating Layer fc6
I0501 21:03:39.115361 24033 net.cpp:406] fc6 <- pool5
I0501 21:03:39.115375 24033 net.cpp:380] fc6 -> fc6
I0501 21:03:39.592593 24033 net.cpp:122] Setting up fc6
I0501 21:03:39.592635 24033 net.cpp:129] Top shape: 64 4096 (262144)
I0501 21:03:39.592641 24033 net.cpp:137] Memory required for data: 526934016
I0501 21:03:39.592656 24033 layer_factory.hpp:77] Creating layer relu6
I0501 21:03:39.592669 24033 net.cpp:84] Creating Layer relu6
I0501 21:03:39.592675 24033 net.cpp:406] relu6 <- fc6
I0501 21:03:39.592684 24033 net.cpp:367] relu6 -> fc6 (in-place)
I0501 21:03:39.592900 24033 net.cpp:122] Setting up relu6
I0501 21:03:39.592911 24033 net.cpp:129] Top shape: 64 4096 (262144)
I0501 21:03:39.592916 24033 net.cpp:137] Memory required for data: 527982592
I0501 21:03:39.592922 24033 layer_factory.hpp:77] Creating layer drop6
I0501 21:03:39.592933 24033 net.cpp:84] Creating Layer drop6
I0501 21:03:39.592939 24033 net.cpp:406] drop6 <- fc6
I0501 21:03:39.592947 24033 net.cpp:367] drop6 -> fc6 (in-place)
I0501 21:03:39.592972 24033 net.cpp:122] Setting up drop6
I0501 21:03:39.592979 24033 net.cpp:129] Top shape: 64 4096 (262144)
I0501 21:03:39.592983 24033 net.cpp:137] Memory required for data: 529031168
I0501 21:03:39.592988 24033 layer_factory.hpp:77] Creating layer fc7
I0501 21:03:39.592998 24033 net.cpp:84] Creating Layer fc7
I0501 21:03:39.593005 24033 net.cpp:406] fc7 <- fc6
I0501 21:03:39.593014 24033 net.cpp:380] fc7 -> fc7
I0501 21:03:39.788126 24033 net.cpp:122] Setting up fc7
I0501 21:03:39.788172 24033 net.cpp:129] Top shape: 64 4096 (262144)
I0501 21:03:39.788179 24033 net.cpp:137] Memory required for data: 530079744
I0501 21:03:39.788194 24033 layer_factory.hpp:77] Creating layer relu7
I0501 21:03:39.788208 24033 net.cpp:84] Creating Layer relu7
I0501 21:03:39.788213 24033 net.cpp:406] relu7 <- fc7
I0501 21:03:39.788223 24033 net.cpp:367] relu7 -> fc7 (in-place)
I0501 21:03:39.788455 24033 net.cpp:122] Setting up relu7
I0501 21:03:39.788465 24033 net.cpp:129] Top shape: 64 4096 (262144)
I0501 21:03:39.788471 24033 net.cpp:137] Memory required for data: 531128320
I0501 21:03:39.788477 24033 layer_factory.hpp:77] Creating layer drop7
I0501 21:03:39.788487 24033 net.cpp:84] Creating Layer drop7
I0501 21:03:39.788491 24033 net.cpp:406] drop7 <- fc7
I0501 21:03:39.788498 24033 net.cpp:367] drop7 -> fc7 (in-place)
I0501 21:03:39.788525 24033 net.cpp:122] Setting up drop7
I0501 21:03:39.788532 24033 net.cpp:129] Top shape: 64 4096 (262144)
I0501 21:03:39.788537 24033 net.cpp:137] Memory required for data: 532176896
I0501 21:03:39.788543 24033 layer_factory.hpp:77] Creating layer fc8
I0501 21:03:39.788555 24033 net.cpp:84] Creating Layer fc8
I0501 21:03:39.788560 24033 net.cpp:406] fc8 <- fc7
I0501 21:03:39.788568 24033 net.cpp:380] fc8 -> fc8
I0501 21:03:39.788815 24033 net.cpp:122] Setting up fc8
I0501 21:03:39.788825 24033 net.cpp:129] Top shape: 64 5 (320)
I0501 21:03:39.788842 24033 net.cpp:137] Memory required for data: 532178176
I0501 21:03:39.806488 24033 layer_factory.hpp:77] Creating layer fc8_fc8_0_split
I0501 21:03:39.806514 24033 net.cpp:84] Creating Layer fc8_fc8_0_split
I0501 21:03:39.806522 24033 net.cpp:406] fc8_fc8_0_split <- fc8
I0501 21:03:39.806531 24033 net.cpp:380] fc8_fc8_0_split -> fc8_fc8_0_split_0
I0501 21:03:39.806543 24033 net.cpp:380] fc8_fc8_0_split -> fc8_fc8_0_split_1
I0501 21:03:39.806550 24033 net.cpp:380] fc8_fc8_0_split -> fc8_fc8_0_split_2
I0501 21:03:39.806565 24033 net.cpp:380] fc8_fc8_0_split -> fc8_fc8_0_split_3
I0501 21:03:39.806666 24033 net.cpp:122] Setting up fc8_fc8_0_split
I0501 21:03:39.806675 24033 net.cpp:129] Top shape: 64 5 (320)
I0501 21:03:39.806680 24033 net.cpp:129] Top shape: 64 5 (320)
I0501 21:03:39.806685 24033 net.cpp:129] Top shape: 64 5 (320)
I0501 21:03:39.806690 24033 net.cpp:129] Top shape: 64 5 (320)
I0501 21:03:39.806694 24033 net.cpp:137] Memory required for data: 532183296
I0501 21:03:39.806699 24033 layer_factory.hpp:77] Creating layer loss
I0501 21:03:39.807541 24033 net.cpp:84] Creating Layer loss
I0501 21:03:39.807559 24033 net.cpp:406] loss <- fc8_fc8_0_split_0
I0501 21:03:39.807569 24033 net.cpp:406] loss <- label_data_1_split_0
I0501 21:03:39.807579 24033 net.cpp:380] loss -> loss
…
