…
I0429 19:32:59.362491 14050 net.cpp:294] The NetState phase (0) differed from the phase (1) specified by a rule in layer accuracy_top3
I0429 19:32:59.363322 14050 net.cpp:51] Initializing net from parameters: 
name: "GoogleNet"
state {
  phase: TRAIN
  level: 0
  stage: ""
}
layer {
  name: "data"
  type: "Data"
  top: "data"
  top: "label"
  include {
    phase: TRAIN
  }
  transform_param {
    mirror: true
    crop_size: 224
    mean_file: "retina256/retina256_train_mean.binaryproto"
  }
  data_param {
    source: "retina256/retina256_train_lmdb"
    batch_size: 50
    backend: LMDB
  }
}
layer {
  name: "conv1/7x7_s2"
  type: "Convolution"
  bottom: "data"
  top: "conv1/7x7_s2"
  param {
    lr_mult: 1
    decay_mult: 1
  }
  param {
    lr_mult: 2
    decay_mult: 0
  }
  convolution_param {
    num_output: 64
    pad: 3
    kernel_size: 7
    stride: 2
    weight_filler {
      type: "xavier"
    }
    bias_filler {
      type: "constant"
      value: 0.2
    }
  }
}
layer {
  name: "conv1/relu_7x7"
  type: "ReLU"
  bottom: "conv1/7x7_s2"
  top: "conv1/7x7_s2"
}
layer {
  name: "pool1/3x3_s2"
  type: "Pooling"
  bottom: "conv1/7x7_s2"
  top: "pool1/3x3_s2"
  pooling_param {
    pool: MAX
    kernel_size: 3
    stride: 2
  }
}
layer {
  name: "pool1/norm1"
  type: "LRN"
  bottom: "pool1/3x3_s2"
  top: "pool1/norm1"
  lrn_param {
    local_size: 5
    alpha: 0.0001
    beta: 0.75
  }
}
layer {
  name: "conv2/3x3_reduce"
  type: "Convolution"
  bottom: "pool1/norm1"
  top: "conv2/3x3_reduce"
  param {
    lr_mult: 1
    decay_mult: 1
  }
  param {
    lr_mult: 2
    decay_mult: 0
  }
  convolution_param {
    num_output: 64
    kernel_size: 1
    weight_filler {
      type: "xavier"
    }
    bias_filler {
      type: "constant"
      value: 0.2
    }
  }
}
layer {
  name: "conv2/relu_3x3_reduce"
  type: "ReLU"
  bottom: "conv2/3x3_reduce"
  top: "conv2/3x3_reduce"
}
layer {
  name: "conv2/3x3"
  type: "Convolution"
  bottom: "conv2/3x3_reduce"
  top: "conv2/3x3"
  param {
    lr_mult: 1
    decay_mult: 1
  }
  param {
    lr_mult: 2
    decay_mult: 0
  }
  convolution_param {
    num_output: 192
    pad: 1
    kernel_size: 3
    weight_filler {
      type: "xavier"
    }
    bias_filler {
      type: "constant"
      value: 0.2
    }
  }
}
layer {
  name: "conv2/relu_3x3"
  type: "ReLU"
  bottom: "conv2/3x3"
  top: "conv2/3x3"
}
layer {
  name: "conv2/norm2"
  type: "LRN"
  bottom: "conv2/3x3"
  top: "conv2/norm2"
  lrn_param {
    local_size: 5
    alpha: 0.0001
    beta: 0.75
  }
}
layer {
  name: "pool2/3x3_s2"
  type: "Pooling"
  bottom: "conv2/norm2"
  top: "pool2/3x3_s2"
  pooling_param {
    pool: MAX
    kernel_size: 3
    stride: 2
  }
}
layer {
  name: "inception_3a/1x1"
  type: "Convolution"
  bottom: "pool2/3x3_s2"
  top: "inception_3a/1x1"
  param {
    lr_mult: 1
    decay_mult: 1
  }
  param {
    lr_mult: 2
    decay_mult: 0
  }
  convolution_param {
    num_output: 64
    kernel_size: 1
    weight_filler {
      type: "xavier"
    }
    bias_filler {
      type: "constant"
      value: 0.2
    }
  }
}
layer {
  name: "inception_3a/relu_1x1"
  type: "ReLU"
  bottom: "inception_3a/1x1"
  top: "inception_3a/1x1"
}
layer {
  name: "inception_3a/3x3_reduce"
  type: "Convolution"
  bottom: "pool2/3x3_s2"
  top: "inception_3a/3x3_reduce"
  param {
    lr_mult: 1
    decay_mult: 1
  }
  param {
    lr_mult: 2
    decay_mult: 0
  }
  convolution_param {
    num_output: 96
    kernel_size: 1
    weight_filler {
      type: "xavier"
    }
    bias_filler {
      type: "constant"
      value: 0.2
    }
  }
}
layer {
  name: "inception_3a/relu_3x3_reduce"
  type: "ReLU"
  bottom: "inception_3a/3x3_reduce"
  top: "inception_3a/3x3_reduce"
}
layer {
  name: "inception_3a/3x3"
  type: "Convolution"
  bottom: "inception_3a/3x3_reduce"
  top: "inception_3a/3x3"
  param {
    lr_mult: 1
    decay_mult: 1
  }
  param {
    lr_mult: 2
    decay_mult: 0
  }
  convolution_param {
    num_output: 128
    pad: 1
    kernel_size: 3
    weight_filler {
      type: "xavier"
    }
    bias_filler {
      type: "constant"
      value: 0.2
    }
  }
}
layer {
  name: "inception_3a/relu_3x3"
  type: "ReLU"
  bottom: "inception_3a/3x3"
  top: "inception_3a/3x3"
}
layer {
  name: "inception_3a/5x5_reduce"
  type: "Convolution"
  bottom: "pool2/3x3_s2"
  top: "inception_3a/5x5_reduce"
  param {
    lr_mult: 1
    decay_mult: 1
  }
  param {
    lr_mult: 2
    decay_mult: 0
  }
  convolution_param {
    num_output: 16
    kernel_size: 1
    weight_filler {
      type: "xavier"
    }
    bias_filler {
      type: "constant"
      value: 0.2
    }
  }
}
layer {
  name: "inception_3a/relu_5x5_reduce"
  type: "ReLU"
  bottom: "inception_3a/5x5_reduce"
  top: "inception_3a/5x5_reduce"
}
layer {
  name: "inception_3a/5x5"
  type: "Convolution"
  bottom: "inception_3a/5x5_reduce"
  top: "inception_3a/5x5"
  param {
    lr_mult: 1
    decay_mult: 1
  }
  param {
    lr_mult: 2
    decay_mult: 0
  }
  convolution_param {
    num_output: 32
    pad: 2
    kernel_size: 5
    weight_filler {
      type: "xavier"
    }
    bias_filler {
      type: "constant"
      value: 0.2
    }
  }
}
layer {
  name: "inception_3a/relu_5x5"
  type: "ReLU"
  bottom: "inception_3a/5x5"
  top: "inception_3a/5x5"
}
layer {
  name: "inception_3a/pool"
  type: "Pooling"
  bottom: "pool2/3x3_s2"
  top: "inception_3a/pool"
  pooling_param {
    pool: MAX
    kernel_size: 3
    stride: 1
    pad: 1
  }
}
layer {
  name: "inception_3a/pool_proj"
  type: "Convolution"
  bottom: "inception_3a/pool"
  top: "inception_3a/pool_proj"
  param {
    lr_mult: 1
    decay_mult: 1
  }
  param {
    lr_mult: 2
    decay_mult: 0
  }
  convolution_param {
    num_output: 32
    kernel_size: 1
    weight_filler {
      type: "xavier"
    }
    bias_filler {
      type: "constant"
      value: 0.2
    }
  }
}
layer {
  name: "inception_3a/relu_pool_proj"
  type: "ReLU"
  bottom: "inception_3a/pool_proj"
  top: "inception_3a/pool_proj"
}
layer {
  name: "inception_3a/output"
  type: "Concat"
  bottom: "inception_3a/1x1"
  bottom: "inception_3a/3x3"
  bottom: "inception_3a/5x5"
  bottom: "inception_3a/pool_proj"
  top: "inception_3a/output"
}
layer {
  name: "inception_3b/1x1"
  type: "Convolution"
  bottom: "inception_3a/output"
  top: "inception_3b/1x1"
  param {
    lr_mult: 1
    decay_mult: 1
  }
  param {
    lr_mult: 2
    decay_mult: 0
  }
  convolution_param {
    num_output: 128
    kernel_size: 1
    weight_filler {
      type: "xavier"
    }
    bias_filler {
      type: "constant"
      value: 0.2
    }
  }
}
layer {
  name: "inception_3b/relu_1x1"
  type: "ReLU"
  bottom: "inception_3b/1x1"
  top: "inception_3b/1x1"
}
layer {
  name: "inception_3b/3x3_reduce"
  type: "Convolution"
  bottom: "inception_3a/output"
  top: "inception_3b/3x3_reduce"
  param {
    lr_mult: 1
    decay_mult: 1
  }
  param {
    lr_mult: 2
    decay_mult: 0
  }
  convolution_param {
    num_output: 128
    kernel_size: 1
    weight_filler {
      type: "xavier"
    }
    bias_filler {
      type: "constant"
      value: 0.2
    }
  }
}
layer {
  name: "inception_3b/relu_3x3_reduce"
  type: "ReLU"
  bottom: "inception_3b/3x3_reduce"
  top: "inception_3b/3x3_reduce"
}
layer {
  name: "inception_3b/3x3"
  type: "Convolution"
  bottom: "inception_3b/3x3_reduce"
  top: "inception_3b/3x3"
  param {
    lr_mult: 1
    decay_mult: 1
  }
  param {
    lr_mult: 2
    decay_mult: 0
  }
  convolution_param {
    num_output: 192
    pad: 1
    kernel_size: 3
    weight_filler {
      type: "xavier"
    }
    bias_filler {
      type: "constant"
      value: 0.2
    }
  }
}
layer {
  name: "inception_3b/relu_3x3"
  type: "ReLU"
  bottom: "inception_3b/3x3"
  top: "inception_3b/3x3"
}
layer {
  name: "inception_3b/5x5_reduce"
  type: "Convolution"
  bottom: "inception_3a/output"
  top: "inception_3b/5x5_reduce"
  param {
    lr_mult: 1
    decay_mult: 1
  }
  param {
    lr_mult: 2
    decay_mult: 0
  }
  convolution_param {
    num_output: 32
    kernel_size: 1
    weight_filler {
      type: "xavier"
    }
    bias_filler {
      type: "constant"
      value: 0.2
    }
  }
}
layer {
  name: "inception_3b/relu_5x5_reduce"
  type: "ReLU"
  bottom: "inception_3b/5x5_reduce"
  top: "inception_3b/5x5_reduce"
}
layer {
  name: "inception_3b/5x5"
  type: "Convolution"
  bottom: "inception_3b/5x5_reduce"
  top: "inception_3b/5x5"
  param {
    lr_mult: 1
    decay_mult: 1
  }
  param {
    lr_mult: 2
    decay_mult: 0
  }
  convolution_param {
    num_output: 96
    pad: 2
    kernel_size: 5
    weight_filler {
      type: "xavier"
    }
    bias_filler {
      type: "constant"
      value: 0.2
    }
  }
}
layer {
  name: "inception_3b/relu_5x5"
  type: "ReLU"
  bottom: "inception_3b/5x5"
  top: "inception_3b/5x5"
}
layer {
  name: "inception_3b/pool"
  type: "Pooling"
  bottom: "inception_3a/output"
  top: "inception_3b/pool"
  pooling_param {
    pool: MAX
    kernel_size: 3
    stride: 1
    pad: 1
  }
}
layer {
  name: "inception_3b/pool_proj"
  type: "Convolution"
  bottom: "inception_3b/pool"
  top: "inception_3b/pool_proj"
  param {
    lr_mult: 1
    decay_mult: 1
  }
  param {
    lr_mult: 2
    decay_mult: 0
  }
  convolution_param {
    num_output: 64
    kernel_size: 1
    weight_filler {
      type: "xavier"
    }
    bias_filler {
      type: "constant"
      value: 0.2
    }
  }
}
layer {
  name: "inception_3b/relu_pool_proj"
  type: "ReLU"
  bottom: "inception_3b/pool_proj"
  top: "inception_3b/pool_proj"
}
layer {
  name: "inception_3b/output"
  type: "Concat"
  bottom: "inception_3b/1x1"
  bottom: "inception_3b/3x3"
  bottom: "inception_3b/5x5"
  bottom: "inception_3b/pool_proj"
  top: "inception_3b/output"
}
layer {
  name: "pool3/3x3_s2"
  type: "Pooling"
  bottom: "inception_3b/output"
  top: "pool3/3x3_s2"
  pooling_param {
    pool: MAX
    kernel_size: 3
    stride: 2
  }
}
layer {
  name: "inception_4a/1x1"
  type: "Convolution"
  bottom: "pool3/3x3_s2"
  top: "inception_4a/1x1"
  param {
    lr_mult: 1
    decay_mult: 1
  }
  param {
    lr_mult: 2
    decay_mult: 0
  }
  convolution_param {
    num_output: 192
    kernel_size: 1
    weight_filler {
      type: "xavier"
    }
    bias_filler {
      type: "constant"
      value: 0.2
    }
  }
}
layer {
  name: "inception_4a/relu_1x1"
  type: "ReLU"
  bottom: "inception_4a/1x1"
  top: "inception_4a/1x1"
}
layer {
  name: "inception_4a/3x3_reduce"
  type: "Convolution"
  bottom: "pool3/3x3_s2"
  top: "inception_4a/3x3_reduce"
  param {
    lr_mult: 1
    decay_mult: 1
  }
  param {
    lr_mult: 2
    decay_mult: 0
  }
  convolution_param {
    num_output: 96
    kernel_size: 1
    weight_filler {
      type: "xavier"
    }
    bias_filler {
      type: "constant"
      value: 0.2
    }
  }
}
layer {
  name: "inception_4a/relu_3x3_reduce"
  type: "ReLU"
  bottom: "inception_4a/3x3_reduce"
  top: "inception_4a/3x3_reduce"
}
layer {
  name: "inception_4a/3x3"
  type: "Convolution"
  bottom: "inception_4a/3x3_reduce"
  top: "inception_4a/3x3"
  param {
    lr_mult: 1
    decay_mult: 1
  }
  param {
    lr_mult: 2
    decay_mult: 0
  }
  convolution_param {
    num_output: 208
    pad: 1
    kernel_size: 3
    weight_filler {
      type: "xavier"
    }
    bias_filler {
      type: "constant"
      value: 0.2
    }
  }
}
layer {
  name: "inception_4a/relu_3x3"
  type: "ReLU"
  bottom: "inception_4a/3x3"
  top: "inception_4a/3x3"
}
layer {
  name: "inception_4a/5x5_reduce"
  type: "Convolution"
  bottom: "pool3/3x3_s2"
  top: "inception_4a/5x5_reduce"
  param {
    lr_mult: 1
    decay_mult: 1
  }
  param {
    lr_mult: 2
    decay_mult: 0
  }
  convolution_param {
    num_output: 16
    kernel_size: 1
    weight_filler {
      type: "xavier"
    }
    bias_filler {
      type: "constant"
      value: 0.2
    }
  }
}
layer {
  name: "inception_4a/relu_5x5_reduce"
  type: "ReLU"
  bottom: "inception_4a/5x5_reduce"
  top: "inception_4a/5x5_reduce"
}
layer {
  name: "inception_4a/5x5"
  type: "Convolution"
  bottom: "inception_4a/5x5_reduce"
  top: "inception_4a/5x5"
  param {
    lr_mult: 1
    decay_mult: 1
  }
  param {
    lr_mult: 2
    decay_mult: 0
  }
  convolution_param {
    num_output: 48
    pad: 2
    kernel_size: 5
    weight_filler {
      type: "xavier"
    }
    bias_filler {
      type: "constant"
      value: 0.2
    }
  }
}
layer {
  name: "inception_4a/relu_5x5"
  type: "ReLU"
  bottom: "inception_4a/5x5"
  top: "inception_4a/5x5"
}
layer {
  name: "inception_4a/pool"
  type: "Pooling"
  bottom: "pool3/3x3_s2"
  top: "inception_4a/pool"
  pooling_param {
    pool: MAX
    kernel_size: 3
    stride: 1
    pad: 1
  }
}
layer {
  name: "inception_4a/pool_proj"
  type: "Convolution"
  bottom: "inception_4a/pool"
  top: "inception_4a/pool_proj"
  param {
    lr_mult: 1
    decay_mult: 1
  }
  param {
    lr_mult: 2
    decay_mult: 0
  }
  convolution_param {
    num_output: 64
    kernel_size: 1
    weight_filler {
      type: "xavier"
    }
    bias_filler {
      type: "constant"
      value: 0.2
    }
  }
}
layer {
  name: "inception_4a/relu_pool_proj"
  type: "ReLU"
  bottom: "inception_4a/pool_proj"
  top: "inception_4a/pool_proj"
}
layer {
  name: "inception_4a/output"
  type: "Concat"
  bottom: "inception_4a/1x1"
  bottom: "inception_4a/3x3"
  bottom: "inception_4a/5x5"
  bottom: "inception_4a/pool_proj"
  top: "inception_4a/output"
}
layer {
  name: "loss1/ave_pool"
  type: "Pooling"
  bottom: "inception_4a/output"
  top: "loss1/ave_pool"
  pooling_param {
    pool: AVE
    kernel_size: 5
    stride: 3
  }
}
layer {
  name: "loss1/conv"
  type: "Convolution"
  bottom: "loss1/ave_pool"
  top: "loss1/conv"
  param {
    lr_mult: 1
    decay_mult: 1
  }
  param {
    lr_mult: 2
    decay_mult: 0
  }
  convolution_param {
    num_output: 128
    kernel_size: 1
    weight_filler {
      type: "xavier"
    }
    bias_filler {
      type: "constant"
      value: 0.2
    }
  }
}
layer {
  name: "loss1/relu_conv"
  type: "ReLU"
  bottom: "loss1/conv"
  top: "loss1/conv"
}
layer {
  name: "loss1/fc"
  type: "InnerProduct"
  bottom: "loss1/conv"
  top: "loss1/fc"
  param {
    lr_mult: 1
    decay_mult: 1
  }
  param {
    lr_mult: 2
    decay_mult: 0
  }
  inner_product_param {
    num_output: 1024
    weight_filler {
      type: "xavier"
    }
    bias_filler {
      type: "constant"
      value: 0.2
    }
  }
}
layer {
  name: "loss1/relu_fc"
  type: "ReLU"
  bottom: "loss1/fc"
  top: "loss1/fc"
}
layer {
  name: "loss1/drop_fc"
  type: "Dropout"
  bottom: "loss1/fc"
  top: "loss1/fc"
  dropout_param {
    dropout_ratio: 0.7
  }
}
layer {
  name: "loss1/classifier"
  type: "InnerProduct"
  bottom: "loss1/fc"
  top: "loss1/classifier"
  param {
    lr_mult: 1
    decay_mult: 1
  }
  param {
    lr_mult: 2
    decay_mult: 0
  }
  inner_product_param {
    num_output: 1000
    weight_filler {
      type: "xavier"
    }
    bias_filler {
      type: "constant"
      value: 0
    }
  }
}
layer {
  name: "loss1/loss"
  type: "SoftmaxWithLoss"
  bottom: "loss1/classifier"
  bottom: "label"
  top: "loss1/loss1"
  loss_weight: 0.3
}
layer {
  name: "inception_4b/1x1"
  type: "Convolution"
  bottom: "inception_4a/output"
  top: "inception_4b/1x1"
  param {
    lr_mult: 1
    decay_mult: 1
  }
  param {
    lr_mult: 2
    decay_mult: 0
  }
  convolution_param {
    num_output: 160
    kernel_size: 1
    weight_filler {
      type: "xavier"
    }
    bias_filler {
      type: "constant"
      value: 0.2
    }
  }
}
layer {
  name: "inception_4b/relu_1x1"
  type: "ReLU"
  bottom: "inception_4b/1x1"
  top: "inception_4b/1x1"
}
layer {
  name: "inception_4b/3x3_reduce"
  type: "Convolution"
  bottom: "inception_4a/output"
  top: "inception_4b/3x3_reduce"
  param {
    lr_mult: 1
    decay_mult: 1
  }
  param {
    lr_mult: 2
    decay_mult: 0
  }
  convolution_param {
    num_output: 112
    kernel_size: 1
    weight_filler {
      type: "xavier"
    }
    bias_filler {
      type: "constant"
      value: 0.2
    }
  }
}
layer {
  name: "inception_4b/relu_3x3_reduce"
  type: "ReLU"
  bottom: "inception_4b/3x3_reduce"
  top: "inception_4b/3x3_reduce"
}
layer {
  name: "inception_4b/3x3"
  type: "Convolution"
  bottom: "inception_4b/3x3_reduce"
  top: "inception_4b/3x3"
  param {
    lr_mult: 1
    decay_mult: 1
  }
  param {
    lr_mult: 2
    decay_mult: 0
  }
  convolution_param {
    num_output: 224
    pad: 1
    kernel_size: 3
    weight_filler {
      type: "xavier"
    }
    bias_filler {
      type: "constant"
      value: 0.2
    }
  }
}
layer {
  name: "inception_4b/relu_3x3"
  type: "ReLU"
  bottom: "inception_4b/3x3"
  top: "inception_4b/3x3"
}
layer {
  name: "inception_4b/5x5_reduce"
  type: "Convolution"
  bottom: "inception_4a/output"
  top: "inception_4b/5x5_reduce"
  param {
    lr_mult: 1
    decay_mult: 1
  }
  param {
    lr_mult: 2
    decay_mult: 0
  }
  convolution_param {
    num_output: 24
    kernel_size: 1
    weight_filler {
      type: "xavier"
    }
    bias_filler {
      type: "constant"
      value: 0.2
    }
  }
}
layer {
  name: "inception_4b/relu_5x5_reduce"
  type: "ReLU"
  bottom: "inception_4b/5x5_reduce"
  top: "inception_4b/5x5_reduce"
}
layer {
  name: "inception_4b/5x5"
  type: "Convolution"
  bottom: "inception_4b/5x5_reduce"
  top: "inception_4b/5x5"
  param {
    lr_mult: 1
    decay_mult: 1
  }
  param {
    lr_mult: 2
    decay_mult: 0
  }
  convolution_param {
    num_output: 64
    pad: 2
    kernel_size: 5
    weight_filler {
      type: "xavier"
    }
    bias_filler {
      type: "constant"
      value: 0.2
    }
  }
}
layer {
  name: "inception_4b/relu_5x5"
  type: "ReLU"
  bottom: "inception_4b/5x5"
  top: "inception_4b/5x5"
}
layer {
  name: "inception_4b/pool"
  type: "Pooling"
  bottom: "inception_4a/output"
  top: "inception_4b/pool"
  pooling_param {
    pool: MAX
    kernel_size: 3
    stride: 1
    pad: 1
  }
}
layer {
  name: "inception_4b/pool_proj"
  type: "Convolution"
  bottom: "inception_4b/pool"
  top: "inception_4b/pool_proj"
  param {
    lr_mult: 1
    decay_mult: 1
  }
  param {
    lr_mult: 2
    decay_mult: 0
  }
  convolution_param {
    num_output: 64
    kernel_size: 1
    weight_filler {
      type: "xavier"
    }
    bias_filler {
      type: "constant"
      value: 0.2
    }
  }
}
layer {
  name: "inception_4b/relu_pool_proj"
  type: "ReLU"
  bottom: "inception_4b/pool_proj"
  top: "inception_4b/pool_proj"
}
layer {
  name: "inception_4b/output"
  type: "Concat"
  bottom: "inception_4b/1x1"
  bottom: "inception_4b/3x3"
  bottom: "inception_4b/5x5"
  bottom: "inception_4b/pool_proj"
  top: "inception_4b/output"
}
layer {
  name: "inception_4c/1x1"
  type: "Convolution"
  bottom: "inception_4b/output"
  top: "inception_4c/1x1"
  param {
    lr_mult: 1
    decay_mult: 1
  }
  param {
    lr_mult: 2
    decay_mult: 0
  }
  convolution_param {
    num_output: 128
    kernel_size: 1
    weight_filler {
      type: "xavier"
    }
    bias_filler {
      type: "constant"
      value: 0.2
    }
  }
}
layer {
  name: "inception_4c/relu_1x1"
  type: "ReLU"
  bottom: "inception_4c/1x1"
  top: "inception_4c/1x1"
}
layer {
  name: "inception_4c/3x3_reduce"
  type: "Convolution"
  bottom: "inception_4b/output"
  top: "inception_4c/3x3_reduce"
  param {
    lr_mult: 1
    decay_mult: 1
  }
  param {
    lr_mult: 2
    decay_mult: 0
  }
  convolution_param {
    num_output: 128
    kernel_size: 1
    weight_filler {
      type: "xavier"
    }
    bias_filler {
      type: "constant"
      value: 0.2
    }
  }
}
layer {
  name: "inception_4c/relu_3x3_reduce"
  type: "ReLU"
  bottom: "inception_4c/3x3_reduce"
  top: "inception_4c/3x3_reduce"
}
layer {
  name: "inception_4c/3x3"
  type: "Convolution"
  bottom: "inception_4c/3x3_reduce"
  top: "inception_4c/3x3"
  param {
    lr_mult: 1
    decay_mult: 1
  }
  param {
    lr_mult: 2
    decay_mult: 0
  }
  convolution_param {
    num_output: 256
    pad: 1
    kernel_size: 3
    weight_filler {
      type: "xavier"
    }
    bias_filler {
      type: "constant"
      value: 0.2
    }
  }
}
layer {
  name: "inception_4c/relu_3x3"
  type: "ReLU"
  bottom: "inception_4c/3x3"
  top: "inception_4c/3x3"
}
layer {
  name: "inception_4c/5x5_reduce"
  type: "Convolution"
  bottom: "inception_4b/output"
  top: "inception_4c/5x5_reduce"
  param {
    lr_mult: 1
    decay_mult: 1
  }
  param {
    lr_mult: 2
    decay_mult: 0
  }
  convolution_param {
    num_output: 24
    kernel_size: 1
    weight_filler {
      type: "xavier"
    }
    bias_filler {
      type: "constant"
      value: 0.2
    }
  }
}
layer {
  name: "inception_4c/relu_5x5_reduce"
  type: "ReLU"
  bottom: "inception_4c/5x5_reduce"
  top: "inception_4c/5x5_reduce"
}
layer {
  name: "inception_4c/5x5"
  type: "Convolution"
  bottom: "inception_4c/5x5_reduce"
  top: "inception_4c/5x5"
  param {
    lr_mult: 1
    decay_mult: 1
  }
  param {
    lr_mult: 2
    decay_mult: 0
  }
  convolution_param {
    num_output: 64
    pad: 2
    kernel_size: 5
    weight_filler {
      type: "xavier"
    }
    bias_filler {
      type: "constant"
      value: 0.2
    }
  }
}
layer {
  name: "inception_4c/relu_5x5"
  type: "ReLU"
  bottom: "inception_4c/5x5"
  top: "inception_4c/5x5"
}
layer {
  name: "inception_4c/pool"
  type: "Pooling"
  bottom: "inception_4b/output"
  top: "inception_4c/pool"
  pooling_param {
    pool: MAX
    kernel_size: 3
    stride: 1
    pad: 1
  }
}
layer {
  name: "inception_4c/pool_proj"
  type: "Convolution"
  bottom: "inception_4c/pool"
  top: "inception_4c/pool_proj"
  param {
    lr_mult: 1
    decay_mult: 1
  }
  param {
    lr_mult: 2
    decay_mult: 0
  }
  convolution_param {
    num_output: 64
    kernel_size: 1
    weight_filler {
      type: "xavier"
    }
    bias_filler {
      type: "constant"
      value: 0.2
    }
  }
}
layer {
  name: "inception_4c/relu_pool_proj"
  type: "ReLU"
  bottom: "inception_4c/pool_proj"
  top: "inception_4c/pool_proj"
}
layer {
  name: "inception_4c/output"
  type: "Concat"
  bottom: "inception_4c/1x1"
  bottom: "inception_4c/3x3"
  bottom: "inception_4c/5x5"
  bottom: "inception_4c/pool_proj"
  top: "inception_4c/output"
}
layer {
  name: "inception_4d/1x1"
  type: "Convolution"
  bottom: "inception_4c/output"
  top: "inception_4d/1x1"
  param {
    lr_mult: 1
    decay_mult: 1
  }
  param {
    lr_mult: 2
    decay_mult: 0
  }
  convolution_param {
    num_output: 112
    kernel_size: 1
    weight_filler {
      type: "xavier"
    }
    bias_filler {
      type: "constant"
      value: 0.2
    }
  }
}
layer {
  name: "inception_4d/relu_1x1"
  type: "ReLU"
  bottom: "inception_4d/1x1"
  top: "inception_4d/1x1"
}
layer {
  name: "inception_4d/3x3_reduce"
  type: "Convolution"
  bottom: "inception_4c/output"
  top: "inception_4d/3x3_reduce"
  param {
    lr_mult: 1
    decay_mult: 1
  }
  param {
    lr_mult: 2
    decay_mult: 0
  }
  convolution_param {
    num_output: 144
    kernel_size: 1
    weight_filler {
      type: "xavier"
    }
    bias_filler {
      type: "constant"
      value: 0.2
    }
  }
}
layer {
  name: "inception_4d/relu_3x3_reduce"
  type: "ReLU"
  bottom: "inception_4d/3x3_reduce"
  top: "inception_4d/3x3_reduce"
}
layer {
  name: "inception_4d/3x3"
  type: "Convolution"
  bottom: "inception_4d/3x3_reduce"
  top: "inception_4d/3x3"
  param {
    lr_mult: 1
    decay_mult: 1
  }
  param {
    lr_mult: 2
    decay_mult: 0
  }
  convolution_param {
    num_output: 288
    pad: 1
    kernel_size: 3
    weight_filler {
      type: "xavier"
    }
    bias_filler {
      type: "constant"
      value: 0.2
    }
  }
}
layer {
  name: "inception_4d/relu_3x3"
  type: "ReLU"
  bottom: "inception_4d/3x3"
  top: "inception_4d/3x3"
}
layer {
  name: "inception_4d/5x5_reduce"
  type: "Convolution"
  bottom: "inception_4c/output"
  top: "inception_4d/5x5_reduce"
  param {
    lr_mult: 1
    decay_mult: 1
  }
  param {
    lr_mult: 2
    decay_mult: 0
  }
  convolution_param {
    num_output: 32
    kernel_size: 1
    weight_filler {
      type: "xavier"
    }
    bias_filler {
      type: "constant"
      value: 0.2
    }
  }
}
layer {
  name: "inception_4d/relu_5x5_reduce"
  type: "ReLU"
  bottom: "inception_4d/5x5_reduce"
  top: "inception_4d/5x5_reduce"
}
layer {
  name: "inception_4d/5x5"
  type: "Convolution"
  bottom: "inception_4d/5x5_reduce"
  top: "inception_4d/5x5"
  param {
    lr_mult: 1
    decay_mult: 1
  }
  param {
    lr_mult: 2
    decay_mult: 0
  }
  convolution_param {
    num_output: 64
    pad: 2
    kernel_size: 5
    weight_filler {
      type: "xavier"
    }
    bias_filler {
      type: "constant"
      value: 0.2
    }
  }
}
layer {
  name: "inception_4d/relu_5x5"
  type: "ReLU"
  bottom: "inception_4d/5x5"
  top: "inception_4d/5x5"
}
layer {
  name: "inception_4d/pool"
  type: "Pooling"
  bottom: "inception_4c/output"
  top: "inception_4d/pool"
  pooling_param {
    pool: MAX
    kernel_size: 3
    stride: 1
    pad: 1
  }
}
layer {
  name: "inception_4d/pool_proj"
  type: "Convolution"
  bottom: "inception_4d/pool"
  top: "inception_4d/pool_proj"
  param {
    lr_mult: 1
    decay_mult: 1
  }
  param {
    lr_mult: 2
    decay_mult: 0
  }
  convolution_param {
    num_output: 64
    kernel_size: 1
    weight_filler {
      type: "xavier"
    }
    bias_filler {
      type: "constant"
      value: 0.2
    }
  }
}
layer {
  name: "inception_4d/relu_pool_proj"
  type: "ReLU"
  bottom: "inception_4d/pool_proj"
  top: "inception_4d/pool_proj"
}
layer {
  name: "inception_4d/output"
  type: "Concat"
  bottom: "inception_4d/1x1"
  bottom: "inception_4d/3x3"
  bottom: "inception_4d/5x5"
  bottom: "inception_4d/pool_proj"
  top: "inception_4d/output"
}
layer {
  name: "loss2/ave_pool"
  type: "Pooling"
  bottom: "inception_4d/output"
  top: "loss2/ave_pool"
  pooling_param {
    pool: AVE
    kernel_size: 5
    stride: 3
  }
}
layer {
  name: "loss2/conv"
  type: "Convolution"
  bottom: "loss2/ave_pool"
  top: "loss2/conv"
  param {
    lr_mult: 1
    decay_mult: 1
  }
  param {
    lr_mult: 2
    decay_mult: 0
  }
  convolution_param {
    num_output: 128
    kernel_size: 1
    weight_filler {
      type: "xavier"
    }
    bias_filler {
      type: "constant"
      value: 0.2
    }
  }
}
layer {
  name: "loss2/relu_conv"
  type: "ReLU"
  bottom: "loss2/conv"
  top: "loss2/conv"
}
layer {
  name: "loss2/fc"
  type: "InnerProduct"
  bottom: "loss2/conv"
  top: "loss2/fc"
  param {
    lr_mult: 1
    decay_mult: 1
  }
  param {
    lr_mult: 2
    decay_mult: 0
  }
  inner_product_param {
    num_output: 1024
    weight_filler {
      type: "xavier"
    }
    bias_filler {
      type: "constant"
      value: 0.2
    }
  }
}
layer {
  name: "loss2/relu_fc"
  type: "ReLU"
  bottom: "loss2/fc"
  top: "loss2/fc"
}
layer {
  name: "loss2/drop_fc"
  type: "Dropout"
  bottom: "loss2/fc"
  top: "loss2/fc"
  dropout_param {
    dropout_ratio: 0.7
  }
}
layer {
  name: "loss2/classifier"
  type: "InnerProduct"
  bottom: "loss2/fc"
  top: "loss2/classifier"
  param {
    lr_mult: 1
    decay_mult: 1
  }
  param {
    lr_mult: 2
    decay_mult: 0
  }
  inner_product_param {
    num_output: 1000
    weight_filler {
      type: "xavier"
    }
    bias_filler {
      type: "constant"
      value: 0
    }
  }
}
layer {
  name: "loss2/loss"
  type: "SoftmaxWithLoss"
  bottom: "loss2/classifier"
  bottom: "label"
  top: "loss2/loss2"
  loss_weight: 0.3
}
layer {
  name: "inception_4e/1x1"
  type: "Convolution"
  bottom: "inception_4d/output"
  top: "inception_4e/1x1"
  param {
    lr_mult: 1
    decay_mult: 1
  }
  param {
    lr_mult: 2
    decay_mult: 0
  }
  convolution_param {
    num_output: 256
    kernel_size: 1
    weight_filler {
      type: "xavier"
    }
    bias_filler {
      type: "constant"
      value: 0.2
    }
  }
}
layer {
  name: "inception_4e/relu_1x1"
  type: "ReLU"
  bottom: "inception_4e/1x1"
  top: "inception_4e/1x1"
}
layer {
  name: "inception_4e/3x3_reduce"
  type: "Convolution"
  bottom: "inception_4d/output"
  top: "inception_4e/3x3_reduce"
  param {
    lr_mult: 1
    decay_mult: 1
  }
  param {
    lr_mult: 2
    decay_mult: 0
  }
  convolution_param {
    num_output: 160
    kernel_size: 1
    weight_filler {
      type: "xavier"
    }
    bias_filler {
      type: "constant"
      value: 0.2
    }
  }
}
layer {
  name: "inception_4e/relu_3x3_reduce"
  type: "ReLU"
  bottom: "inception_4e/3x3_reduce"
  top: "inception_4e/3x3_reduce"
}
layer {
  name: "inception_4e/3x3"
  type: "Convolution"
  bottom: "inception_4e/3x3_reduce"
  top: "inception_4e/3x3"
  param {
    lr_mult: 1
    decay_mult: 1
  }
  param {
    lr_mult: 2
    decay_mult: 0
  }
  convolution_param {
    num_output: 320
    pad: 1
    kernel_size: 3
    weight_filler {
      type: "xavier"
    }
    bias_filler {
      type: "constant"
      value: 0.2
    }
  }
}
layer {
  name: "inception_4e/relu_3x3"
  type: "ReLU"
  bottom: "inception_4e/3x3"
  top: "inception_4e/3x3"
}
layer {
  name: "inception_4e/5x5_reduce"
  type: "Convolution"
  bottom: "inception_4d/output"
  top: "inception_4e/5x5_reduce"
  param {
    lr_mult: 1
    decay_mult: 1
  }
  param {
    lr_mult: 2
    decay_mult: 0
  }
  convolution_param {
    num_output: 32
    kernel_size: 1
    weight_filler {
      type: "xavier"
    }
    bias_filler {
      type: "constant"
      value: 0.2
    }
  }
}
layer {
  name: "inception_4e/relu_5x5_reduce"
  type: "ReLU"
  bottom: "inception_4e/5x5_reduce"
  top: "inception_4e/5x5_reduce"
}
layer {
  name: "inception_4e/5x5"
  type: "Convolution"
  bottom: "inception_4e/5x5_reduce"
  top: "inception_4e/5x5"
  param {
    lr_mult: 1
    decay_mult: 1
  }
  param {
    lr_mult: 2
    decay_mult: 0
  }
  convolution_param {
    num_output: 128
    pad: 2
    kernel_size: 5
    weight_filler {
      type: "xavier"
    }
    bias_filler {
      type: "constant"
      value: 0.2
    }
  }
}
layer {
  name: "inception_4e/relu_5x5"
  type: "ReLU"
  bottom: "inception_4e/5x5"
  top: "inception_4e/5x5"
}
layer {
  name: "inception_4e/pool"
  type: "Pooling"
  bottom: "inception_4d/output"
  top: "inception_4e/pool"
  pooling_param {
    pool: MAX
    kernel_size: 
I0429 19:32:59.364081 14050 layer_factory.hpp:77] Creating layer data
I0429 19:32:59.364192 14050 db_lmdb.cpp:35] Opened lmdb retina256/retina256_train_lmdb
I0429 19:32:59.364223 14050 net.cpp:84] Creating Layer data
I0429 19:32:59.364233 14050 net.cpp:380] data -> data
I0429 19:32:59.364264 14050 net.cpp:380] data -> label
I0429 19:32:59.364280 14050 data_transformer.cpp:25] Loading mean file from: retina256/retina256_train_mean.binaryproto
I0429 19:32:59.368527 14050 data_layer.cpp:45] output data size: 50,3,224,224
I0429 19:32:59.463685 14050 net.cpp:122] Setting up data
I0429 19:32:59.463742 14050 net.cpp:129] Top shape: 50 3 224 224 (7526400)
I0429 19:32:59.463752 14050 net.cpp:129] Top shape: 50 (50)
I0429 19:32:59.463757 14050 net.cpp:137] Memory required for data: 30105800
I0429 19:32:59.463773 14050 layer_factory.hpp:77] Creating layer label_data_1_split
I0429 19:32:59.463796 14050 net.cpp:84] Creating Layer label_data_1_split
I0429 19:32:59.463805 14050 net.cpp:406] label_data_1_split <- label
I0429 19:32:59.463822 14050 net.cpp:380] label_data_1_split -> label_data_1_split_0
I0429 19:32:59.463850 14050 net.cpp:380] label_data_1_split -> label_data_1_split_1
I0429 19:32:59.463898 14050 net.cpp:380] label_data_1_split -> label_data_1_split_2
I0429 19:32:59.463974 14050 net.cpp:122] Setting up label_data_1_split
I0429 19:32:59.463985 14050 net.cpp:129] Top shape: 50 (50)
I0429 19:32:59.463994 14050 net.cpp:129] Top shape: 50 (50)
I0429 19:32:59.464002 14050 net.cpp:129] Top shape: 50 (50)
I0429 19:32:59.464009 14050 net.cpp:137] Memory required for data: 30106400
I0429 19:32:59.464015 14050 layer_factory.hpp:77] Creating layer conv1/7x7_s2
I0429 19:32:59.464040 14050 net.cpp:84] Creating Layer conv1/7x7_s2
I0429 19:32:59.464046 14050 net.cpp:406] conv1/7x7_s2 <- data
I0429 19:32:59.464056 14050 net.cpp:380] conv1/7x7_s2 -> conv1/7x7_s2
I0429 19:33:02.898922 14050 net.cpp:122] Setting up conv1/7x7_s2
I0429 19:33:02.898963 14050 net.cpp:129] Top shape: 50 64 112 112 (40140800)
I0429 19:33:02.898972 14050 net.cpp:137] Memory required for data: 190669600
I0429 19:33:02.898999 14050 layer_factory.hpp:77] Creating layer conv1/relu_7x7
I0429 19:33:02.899013 14050 net.cpp:84] Creating Layer conv1/relu_7x7
I0429 19:33:02.899021 14050 net.cpp:406] conv1/relu_7x7 <- conv1/7x7_s2
I0429 19:33:02.899032 14050 net.cpp:367] conv1/relu_7x7 -> conv1/7x7_s2 (in-place)
I0429 19:33:02.899221 14050 net.cpp:122] Setting up conv1/relu_7x7
I0429 19:33:02.899235 14050 net.cpp:129] Top shape: 50 64 112 112 (40140800)
I0429 19:33:02.899241 14050 net.cpp:137] Memory required for data: 351232800
I0429 19:33:02.899248 14050 layer_factory.hpp:77] Creating layer pool1/3x3_s2
I0429 19:33:02.899260 14050 net.cpp:84] Creating Layer pool1/3x3_s2
I0429 19:33:02.899266 14050 net.cpp:406] pool1/3x3_s2 <- conv1/7x7_s2
I0429 19:33:02.899274 14050 net.cpp:380] pool1/3x3_s2 -> pool1/3x3_s2
I0429 19:33:02.899333 14050 net.cpp:122] Setting up pool1/3x3_s2
I0429 19:33:02.899343 14050 net.cpp:129] Top shape: 50 64 56 56 (10035200)
I0429 19:33:02.899348 14050 net.cpp:137] Memory required for data: 391373600
I0429 19:33:02.899353 14050 layer_factory.hpp:77] Creating layer pool1/norm1
I0429 19:33:02.899368 14050 net.cpp:84] Creating Layer pool1/norm1
I0429 19:33:02.899374 14050 net.cpp:406] pool1/norm1 <- pool1/3x3_s2
I0429 19:33:02.899381 14050 net.cpp:380] pool1/norm1 -> pool1/norm1
I0429 19:33:02.899577 14050 net.cpp:122] Setting up pool1/norm1
I0429 19:33:02.899591 14050 net.cpp:129] Top shape: 50 64 56 56 (10035200)
I0429 19:33:02.899597 14050 net.cpp:137] Memory required for data: 431514400
I0429 19:33:02.899603 14050 layer_factory.hpp:77] Creating layer conv2/3x3_reduce
I0429 19:33:02.899619 14050 net.cpp:84] Creating Layer conv2/3x3_reduce
I0429 19:33:02.899626 14050 net.cpp:406] conv2/3x3_reduce <- pool1/norm1
I0429 19:33:02.899636 14050 net.cpp:380] conv2/3x3_reduce -> conv2/3x3_reduce
I0429 19:33:02.904719 14050 net.cpp:122] Setting up conv2/3x3_reduce
I0429 19:33:02.904752 14050 net.cpp:129] Top shape: 50 64 56 56 (10035200)
I0429 19:33:02.904762 14050 net.cpp:137] Memory required for data: 471655200
I0429 19:33:02.904780 14050 layer_factory.hpp:77] Creating layer conv2/relu_3x3_reduce
I0429 19:33:02.904794 14050 net.cpp:84] Creating Layer conv2/relu_3x3_reduce
I0429 19:33:02.904803 14050 net.cpp:406] conv2/relu_3x3_reduce <- conv2/3x3_reduce
I0429 19:33:02.904814 14050 net.cpp:367] conv2/relu_3x3_reduce -> conv2/3x3_reduce (in-place)
I0429 19:33:02.905032 14050 net.cpp:122] Setting up conv2/relu_3x3_reduce
I0429 19:33:02.905048 14050 net.cpp:129] Top shape: 50 64 56 56 (10035200)
I0429 19:33:02.905055 14050 net.cpp:137] Memory required for data: 511796000
I0429 19:33:02.905063 14050 layer_factory.hpp:77] Creating layer conv2/3x3
I0429 19:33:02.905082 14050 net.cpp:84] Creating Layer conv2/3x3
I0429 19:33:02.905092 14050 net.cpp:406] conv2/3x3 <- conv2/3x3_reduce
I0429 19:33:02.905105 14050 net.cpp:380] conv2/3x3 -> conv2/3x3
I0429 19:33:02.908027 14050 net.cpp:122] Setting up conv2/3x3
I0429 19:33:02.908048 14050 net.cpp:129] Top shape: 50 192 56 56 (30105600)
I0429 19:33:02.908056 14050 net.cpp:137] Memory required for data: 632218400
I0429 19:33:02.908126 14050 layer_factory.hpp:77] Creating layer conv2/relu_3x3
I0429 19:33:02.908144 14050 net.cpp:84] Creating Layer conv2/relu_3x3
I0429 19:33:02.908152 14050 net.cpp:406] conv2/relu_3x3 <- conv2/3x3
I0429 19:33:02.908162 14050 net.cpp:367] conv2/relu_3x3 -> conv2/3x3 (in-place)
I0429 19:33:02.910634 14050 net.cpp:122] Setting up conv2/relu_3x3
I0429 19:33:02.910655 14050 net.cpp:129] Top shape: 50 192 56 56 (30105600)
I0429 19:33:02.910662 14050 net.cpp:137] Memory required for data: 752640800
I0429 19:33:02.910670 14050 layer_factory.hpp:77] Creating layer conv2/norm2
I0429 19:33:02.910686 14050 net.cpp:84] Creating Layer conv2/norm2
I0429 19:33:02.910696 14050 net.cpp:406] conv2/norm2 <- conv2/3x3
I0429 19:33:02.910708 14050 net.cpp:380] conv2/norm2 -> conv2/norm2
I0429 19:33:02.910993 14050 net.cpp:122] Setting up conv2/norm2
I0429 19:33:02.911010 14050 net.cpp:129] Top shape: 50 192 56 56 (30105600)
I0429 19:33:02.911020 14050 net.cpp:137] Memory required for data: 873063200
I0429 19:33:02.911027 14050 layer_factory.hpp:77] Creating layer pool2/3x3_s2
I0429 19:33:02.911043 14050 net.cpp:84] Creating Layer pool2/3x3_s2
I0429 19:33:02.911051 14050 net.cpp:406] pool2/3x3_s2 <- conv2/norm2
I0429 19:33:02.911062 14050 net.cpp:380] pool2/3x3_s2 -> pool2/3x3_s2
I0429 19:33:02.911118 14050 net.cpp:122] Setting up pool2/3x3_s2
I0429 19:33:02.911132 14050 net.cpp:129] Top shape: 50 192 28 28 (7526400)
I0429 19:33:02.911139 14050 net.cpp:137] Memory required for data: 903168800
I0429 19:33:02.911149 14050 layer_factory.hpp:77] Creating layer pool2/3x3_s2_pool2/3x3_s2_0_split
I0429 19:33:02.911162 14050 net.cpp:84] Creating Layer pool2/3x3_s2_pool2/3x3_s2_0_split
I0429 19:33:02.911171 14050 net.cpp:406] pool2/3x3_s2_pool2/3x3_s2_0_split <- pool2/3x3_s2
I0429 19:33:02.911183 14050 net.cpp:380] pool2/3x3_s2_pool2/3x3_s2_0_split -> pool2/3x3_s2_pool2/3x3_s2_0_split_0
I0429 19:33:02.911197 14050 net.cpp:380] pool2/3x3_s2_pool2/3x3_s2_0_split -> pool2/3x3_s2_pool2/3x3_s2_0_split_1
I0429 19:33:02.911212 14050 net.cpp:380] pool2/3x3_s2_pool2/3x3_s2_0_split -> pool2/3x3_s2_pool2/3x3_s2_0_split_2
I0429 19:33:02.911226 14050 net.cpp:380] pool2/3x3_s2_pool2/3x3_s2_0_split -> pool2/3x3_s2_pool2/3x3_s2_0_split_3
I0429 19:33:02.911308 14050 net.cpp:122] Setting up pool2/3x3_s2_pool2/3x3_s2_0_split
I0429 19:33:02.911322 14050 net.cpp:129] Top shape: 50 192 28 28 (7526400)
I0429 19:33:02.911332 14050 net.cpp:129] Top shape: 50 192 28 28 (7526400)
I0429 19:33:02.911340 14050 net.cpp:129] Top shape: 50 192 28 28 (7526400)
I0429 19:33:02.911348 14050 net.cpp:129] Top shape: 50 192 28 28 (7526400)
I0429 19:33:02.911355 14050 net.cpp:137] Memory required for data: 1023591200
I0429 19:33:02.911362 14050 layer_factory.hpp:77] Creating layer inception_3a/1x1
I0429 19:33:02.911382 14050 net.cpp:84] Creating Layer inception_3a/1x1
I0429 19:33:02.911391 14050 net.cpp:406] inception_3a/1x1 <- pool2/3x3_s2_pool2/3x3_s2_0_split_0
I0429 19:33:02.911404 14050 net.cpp:380] inception_3a/1x1 -> inception_3a/1x1
I0429 19:33:02.917855 14050 net.cpp:122] Setting up inception_3a/1x1
I0429 19:33:02.917887 14050 net.cpp:129] Top shape: 50 64 28 28 (2508800)
I0429 19:33:02.917896 14050 net.cpp:137] Memory required for data: 1033626400
I0429 19:33:02.917912 14050 layer_factory.hpp:77] Creating layer inception_3a/relu_1x1
I0429 19:33:02.917924 14050 net.cpp:84] Creating Layer inception_3a/relu_1x1
I0429 19:33:02.917933 14050 net.cpp:406] inception_3a/relu_1x1 <- inception_3a/1x1
I0429 19:33:02.917948 14050 net.cpp:367] inception_3a/relu_1x1 -> inception_3a/1x1 (in-place)
I0429 19:33:02.918200 14050 net.cpp:122] Setting up inception_3a/relu_1x1
I0429 19:33:02.918215 14050 net.cpp:129] Top shape: 50 64 28 28 (2508800)
I0429 19:33:02.918222 14050 net.cpp:137] Memory required for data: 1043661600
I0429 19:33:02.918231 14050 layer_factory.hpp:77] Creating layer inception_3a/3x3_reduce
I0429 19:33:02.918249 14050 net.cpp:84] Creating Layer inception_3a/3x3_reduce
I0429 19:33:02.918258 14050 net.cpp:406] inception_3a/3x3_reduce <- pool2/3x3_s2_pool2/3x3_s2_0_split_1
I0429 19:33:02.918309 14050 net.cpp:380] inception_3a/3x3_reduce -> inception_3a/3x3_reduce
I0429 19:33:02.921213 14050 net.cpp:122] Setting up inception_3a/3x3_reduce
I0429 19:33:02.921234 14050 net.cpp:129] Top shape: 50 96 28 28 (3763200)
I0429 19:33:02.921242 14050 net.cpp:137] Memory required for data: 1058714400
I0429 19:33:02.921262 14050 layer_factory.hpp:77] Creating layer inception_3a/relu_3x3_reduce
I0429 19:33:02.921284 14050 net.cpp:84] Creating Layer inception_3a/relu_3x3_reduce
I0429 19:33:02.921296 14050 net.cpp:406] inception_3a/relu_3x3_reduce <- inception_3a/3x3_reduce
I0429 19:33:02.921308 14050 net.cpp:367] inception_3a/relu_3x3_reduce -> inception_3a/3x3_reduce (in-place)
I0429 19:33:02.921533 14050 net.cpp:122] Setting up inception_3a/relu_3x3_reduce
I0429 19:33:02.921548 14050 net.cpp:129] Top shape: 50 96 28 28 (3763200)
I0429 19:33:02.921557 14050 net.cpp:137] Memory required for data: 1073767200
I0429 19:33:02.921564 14050 layer_factory.hpp:77] Creating layer inception_3a/3x3
I0429 19:33:02.921581 14050 net.cpp:84] Creating Layer inception_3a/3x3
I0429 19:33:02.921592 14050 net.cpp:406] inception_3a/3x3 <- inception_3a/3x3_reduce
I0429 19:33:02.921608 14050 net.cpp:380] inception_3a/3x3 -> inception_3a/3x3
I0429 19:33:02.930742 14050 net.cpp:122] Setting up inception_3a/3x3
I0429 19:33:02.930770 14050 net.cpp:129] Top shape: 50 128 28 28 (5017600)
I0429 19:33:02.930778 14050 net.cpp:137] Memory required for data: 1093837600
I0429 19:33:02.930793 14050 layer_factory.hpp:77] Creating layer inception_3a/relu_3x3
I0429 19:33:02.930805 14050 net.cpp:84] Creating Layer inception_3a/relu_3x3
I0429 19:33:02.930814 14050 net.cpp:406] inception_3a/relu_3x3 <- inception_3a/3x3
I0429 19:33:02.930827 14050 net.cpp:367] inception_3a/relu_3x3 -> inception_3a/3x3 (in-place)
I0429 19:33:02.931073 14050 net.cpp:122] Setting up inception_3a/relu_3x3
I0429 19:33:02.931087 14050 net.cpp:129] Top shape: 50 128 28 28 (5017600)
I0429 19:33:02.931094 14050 net.cpp:137] Memory required for data: 1113908000
I0429 19:33:02.931102 14050 layer_factory.hpp:77] Creating layer inception_3a/5x5_reduce
I0429 19:33:02.931119 14050 net.cpp:84] Creating Layer inception_3a/5x5_reduce
I0429 19:33:02.931128 14050 net.cpp:406] inception_3a/5x5_reduce <- pool2/3x3_s2_pool2/3x3_s2_0_split_2
I0429 19:33:02.931143 14050 net.cpp:380] inception_3a/5x5_reduce -> inception_3a/5x5_reduce
I0429 19:33:02.932817 14050 net.cpp:122] Setting up inception_3a/5x5_reduce
I0429 19:33:02.932847 14050 net.cpp:129] Top shape: 50 16 28 28 (627200)
I0429 19:33:02.932853 14050 net.cpp:137] Memory required for data: 1116416800
I0429 19:33:02.932865 14050 layer_factory.hpp:77] Creating layer inception_3a/relu_5x5_reduce
I0429 19:33:02.932876 14050 net.cpp:84] Creating Layer inception_3a/relu_5x5_reduce
I0429 19:33:02.932884 14050 net.cpp:406] inception_3a/relu_5x5_reduce <- inception_3a/5x5_reduce
I0429 19:33:02.932896 14050 net.cpp:367] inception_3a/relu_5x5_reduce -> inception_3a/5x5_reduce (in-place)
I0429 19:33:02.933104 14050 net.cpp:122] Setting up inception_3a/relu_5x5_reduce
I0429 19:33:02.933120 14050 net.cpp:129] Top shape: 50 16 28 28 (627200)
I0429 19:33:02.933125 14050 net.cpp:137] Memory required for data: 1118925600
I0429 19:33:02.933130 14050 layer_factory.hpp:77] Creating layer inception_3a/5x5
I0429 19:33:02.933151 14050 net.cpp:84] Creating Layer inception_3a/5x5
I0429 19:33:02.933156 14050 net.cpp:406] inception_3a/5x5 <- inception_3a/5x5_reduce
I0429 19:33:02.933171 14050 net.cpp:380] inception_3a/5x5 -> inception_3a/5x5
I0429 19:33:02.938737 14050 net.cpp:122] Setting up inception_3a/5x5
I0429 19:33:02.938755 14050 net.cpp:129] Top shape: 50 32 28 28 (1254400)
I0429 19:33:02.938758 14050 net.cpp:137] Memory required for data: 1123943200
I0429 19:33:02.938767 14050 layer_factory.hpp:77] Creating layer inception_3a/relu_5x5
I0429 19:33:02.938774 14050 net.cpp:84] Creating Layer inception_3a/relu_5x5
I0429 19:33:02.938779 14050 net.cpp:406] inception_3a/relu_5x5 <- inception_3a/5x5
I0429 19:33:02.938794 14050 net.cpp:367] inception_3a/relu_5x5 -> inception_3a/5x5 (in-place)
I0429 19:33:02.939328 14050 net.cpp:122] Setting up inception_3a/relu_5x5
I0429 19:33:02.939342 14050 net.cpp:129] Top shape: 50 32 28 28 (1254400)
I0429 19:33:02.939345 14050 net.cpp:137] Memory required for data: 1128960800
I0429 19:33:02.939349 14050 layer_factory.hpp:77] Creating layer inception_3a/pool
I0429 19:33:02.939359 14050 net.cpp:84] Creating Layer inception_3a/pool
I0429 19:33:02.939364 14050 net.cpp:406] inception_3a/pool <- pool2/3x3_s2_pool2/3x3_s2_0_split_3
I0429 19:33:02.939371 14050 net.cpp:380] inception_3a/pool -> inception_3a/pool
I0429 19:33:02.939414 14050 net.cpp:122] Setting up inception_3a/pool
I0429 19:33:02.939421 14050 net.cpp:129] Top shape: 50 192 28 28 (7526400)
I0429 19:33:02.939425 14050 net.cpp:137] Memory required for data: 1159066400
I0429 19:33:02.939430 14050 layer_factory.hpp:77] Creating layer inception_3a/pool_proj
I0429 19:33:02.939441 14050 net.cpp:84] Creating Layer inception_3a/pool_proj
I0429 19:33:02.939447 14050 net.cpp:406] inception_3a/pool_proj <- inception_3a/pool
I0429 19:33:02.939455 14050 net.cpp:380] inception_3a/pool_proj -> inception_3a/pool_proj
I0429 19:33:02.940457 14050 net.cpp:122] Setting up inception_3a/pool_proj
I0429 19:33:02.940469 14050 net.cpp:129] Top shape: 50 32 28 28 (1254400)
I0429 19:33:02.940474 14050 net.cpp:137] Memory required for data: 1164084000
I0429 19:33:02.940485 14050 layer_factory.hpp:77] Creating layer inception_3a/relu_pool_proj
I0429 19:33:02.940495 14050 net.cpp:84] Creating Layer inception_3a/relu_pool_proj
I0429 19:33:02.940500 14050 net.cpp:406] inception_3a/relu_pool_proj <- inception_3a/pool_proj
I0429 19:33:02.940507 14050 net.cpp:367] inception_3a/relu_pool_proj -> inception_3a/pool_proj (in-place)
I0429 19:33:02.940647 14050 net.cpp:122] Setting up inception_3a/relu_pool_proj
I0429 19:33:02.940655 14050 net.cpp:129] Top shape: 50 32 28 28 (1254400)
I0429 19:33:02.940659 14050 net.cpp:137] Memory required for data: 1169101600
I0429 19:33:02.940665 14050 layer_factory.hpp:77] Creating layer inception_3a/output
I0429 19:33:02.940672 14050 net.cpp:84] Creating Layer inception_3a/output
I0429 19:33:02.940676 14050 net.cpp:406] inception_3a/output <- inception_3a/1x1
I0429 19:33:02.940681 14050 net.cpp:406] inception_3a/output <- inception_3a/3x3
I0429 19:33:02.940687 14050 net.cpp:406] inception_3a/output <- inception_3a/5x5
I0429 19:33:02.940691 14050 net.cpp:406] inception_3a/output <- inception_3a/pool_proj
I0429 19:33:02.940697 14050 net.cpp:380] inception_3a/output -> inception_3a/output
I0429 19:33:02.940724 14050 net.cpp:122] Setting up inception_3a/output
I0429 19:33:02.940732 14050 net.cpp:129] Top shape: 50 256 28 28 (10035200)
I0429 19:33:02.940737 14050 net.cpp:137] Memory required for data: 1209242400
I0429 19:33:02.940740 14050 layer_factory.hpp:77] Creating layer inception_3a/output_inception_3a/output_0_split
I0429 19:33:02.940747 14050 net.cpp:84] Creating Layer inception_3a/output_inception_3a/output_0_split
I0429 19:33:02.940752 14050 net.cpp:406] inception_3a/output_inception_3a/output_0_split <- inception_3a/output
I0429 19:33:02.940760 14050 net.cpp:380] inception_3a/output_inception_3a/output_0_split -> inception_3a/output_inception_3a/output_0_split_0
I0429 19:33:02.940768 14050 net.cpp:380] inception_3a/output_inception_3a/output_0_split -> inception_3a/output_inception_3a/output_0_split_1
I0429 19:33:02.940774 14050 net.cpp:380] inception_3a/output_inception_3a/output_0_split -> inception_3a/output_inception_3a/output_0_split_2
I0429 19:33:02.940784 14050 net.cpp:380] inception_3a/output_inception_3a/output_0_split -> inception_3a/output_inception_3a/output_0_split_3
I0429 19:33:02.940834 14050 net.cpp:122] Setting up inception_3a/output_inception_3a/output_0_split
I0429 19:33:02.940840 14050 net.cpp:129] Top shape: 50 256 28 28 (10035200)
I0429 19:33:02.940845 14050 net.cpp:129] Top shape: 50 256 28 28 (10035200)
I0429 19:33:02.940850 14050 net.cpp:129] Top shape: 50 256 28 28 (10035200)
I0429 19:33:02.940853 14050 net.cpp:129] Top shape: 50 256 28 28 (10035200)
I0429 19:33:02.940870 14050 net.cpp:137] Memory required for data: 1369805600
I0429 19:33:02.940873 14050 layer_factory.hpp:77] Creating layer inception_3b/1x1
I0429 19:33:02.940884 14050 net.cpp:84] Creating Layer inception_3b/1x1
I0429 19:33:02.940889 14050 net.cpp:406] inception_3b/1x1 <- inception_3a/output_inception_3a/output_0_split_0
I0429 19:33:02.940896 14050 net.cpp:380] inception_3b/1x1 -> inception_3b/1x1
I0429 19:33:02.942239 14050 net.cpp:122] Setting up inception_3b/1x1
I0429 19:33:02.942261 14050 net.cpp:129] Top shape: 50 128 28 28 (5017600)
I0429 19:33:02.942268 14050 net.cpp:137] Memory required for data: 1389876000
I0429 19:33:02.942278 14050 layer_factory.hpp:77] Creating layer inception_3b/relu_1x1
I0429 19:33:02.942288 14050 net.cpp:84] Creating Layer inception_3b/relu_1x1
I0429 19:33:02.942298 14050 net.cpp:406] inception_3b/relu_1x1 <- inception_3b/1x1
I0429 19:33:02.942308 14050 net.cpp:367] inception_3b/relu_1x1 -> inception_3b/1x1 (in-place)
I0429 19:33:02.942553 14050 net.cpp:122] Setting up inception_3b/relu_1x1
I0429 19:33:02.942566 14050 net.cpp:129] Top shape: 50 128 28 28 (5017600)
I0429 19:33:02.942572 14050 net.cpp:137] Memory required for data: 1409946400
I0429 19:33:02.942580 14050 layer_factory.hpp:77] Creating layer inception_3b/3x3_reduce
I0429 19:33:02.942601 14050 net.cpp:84] Creating Layer inception_3b/3x3_reduce
I0429 19:33:02.942607 14050 net.cpp:406] inception_3b/3x3_reduce <- inception_3a/output_inception_3a/output_0_split_1
I0429 19:33:02.942623 14050 net.cpp:380] inception_3b/3x3_reduce -> inception_3b/3x3_reduce
I0429 19:33:02.953007 14050 net.cpp:122] Setting up inception_3b/3x3_reduce
I0429 19:33:02.953032 14050 net.cpp:129] Top shape: 50 128 28 28 (5017600)
I0429 19:33:02.953037 14050 net.cpp:137] Memory required for data: 1430016800
I0429 19:33:02.953048 14050 layer_factory.hpp:77] Creating layer inception_3b/relu_3x3_reduce
I0429 19:33:02.953060 14050 net.cpp:84] Creating Layer inception_3b/relu_3x3_reduce
I0429 19:33:02.953068 14050 net.cpp:406] inception_3b/relu_3x3_reduce <- inception_3b/3x3_reduce
I0429 19:33:02.953078 14050 net.cpp:367] inception_3b/relu_3x3_reduce -> inception_3b/3x3_reduce (in-place)
I0429 19:33:02.953269 14050 net.cpp:122] Setting up inception_3b/relu_3x3_reduce
I0429 19:33:02.953284 14050 net.cpp:129] Top shape: 50 128 28 28 (5017600)
I0429 19:33:02.953289 14050 net.cpp:137] Memory required for data: 1450087200
I0429 19:33:02.953295 14050 layer_factory.hpp:77] Creating layer inception_3b/3x3
I0429 19:33:02.953320 14050 net.cpp:84] Creating Layer inception_3b/3x3
I0429 19:33:02.953326 14050 net.cpp:406] inception_3b/3x3 <- inception_3b/3x3_reduce
I0429 19:33:02.953336 14050 net.cpp:380] inception_3b/3x3 -> inception_3b/3x3
I0429 19:33:02.977779 14050 net.cpp:122] Setting up inception_3b/3x3
I0429 19:33:02.977824 14050 net.cpp:129] Top shape: 50 192 28 28 (7526400)
I0429 19:33:02.977833 14050 net.cpp:137] Memory required for data: 1480192800
I0429 19:33:02.977849 14050 layer_factory.hpp:77] Creating layer inception_3b/relu_3x3
I0429 19:33:02.977864 14050 net.cpp:84] Creating Layer inception_3b/relu_3x3
I0429 19:33:02.977874 14050 net.cpp:406] inception_3b/relu_3x3 <- inception_3b/3x3
I0429 19:33:02.977891 14050 net.cpp:367] inception_3b/relu_3x3 -> inception_3b/3x3 (in-place)
I0429 19:33:02.978127 14050 net.cpp:122] Setting up inception_3b/relu_3x3
I0429 19:33:02.978142 14050 net.cpp:129] Top shape: 50 192 28 28 (7526400)
I0429 19:33:02.978149 14050 net.cpp:137] Memory required for data: 1510298400
I0429 19:33:02.978157 14050 layer_factory.hpp:77] Creating layer inception_3b/5x5_reduce
I0429 19:33:02.978178 14050 net.cpp:84] Creating Layer inception_3b/5x5_reduce
I0429 19:33:02.978185 14050 net.cpp:406] inception_3b/5x5_reduce <- inception_3a/output_inception_3a/output_0_split_2
I0429 19:33:02.978201 14050 net.cpp:380] inception_3b/5x5_reduce -> inception_3b/5x5_reduce
I0429 19:33:02.979825 14050 net.cpp:122] Setting up inception_3b/5x5_reduce
I0429 19:33:02.979843 14050 net.cpp:129] Top shape: 50 32 28 28 (1254400)
I0429 19:33:02.979861 14050 net.cpp:137] Memory required for data: 1515316000
I0429 19:33:02.979892 14050 layer_factory.hpp:77] Creating layer inception_3b/relu_5x5_reduce
I0429 19:33:02.979903 14050 net.cpp:84] Creating Layer inception_3b/relu_5x5_reduce
I0429 19:33:02.979912 14050 net.cpp:406] inception_3b/relu_5x5_reduce <- inception_3b/5x5_reduce
I0429 19:33:02.979925 14050 net.cpp:367] inception_3b/relu_5x5_reduce -> inception_3b/5x5_reduce (in-place)
I0429 19:33:02.980159 14050 net.cpp:122] Setting up inception_3b/relu_5x5_reduce
I0429 19:33:02.980171 14050 net.cpp:129] Top shape: 50 32 28 28 (1254400)
I0429 19:33:02.980178 14050 net.cpp:137] Memory required for data: 1520333600
I0429 19:33:02.980186 14050 layer_factory.hpp:77] Creating layer inception_3b/5x5
I0429 19:33:02.980206 14050 net.cpp:84] Creating Layer inception_3b/5x5
I0429 19:33:02.980216 14050 net.cpp:406] inception_3b/5x5 <- inception_3b/5x5_reduce
I0429 19:33:02.980228 14050 net.cpp:380] inception_3b/5x5 -> inception_3b/5x5
I0429 19:33:02.982868 14050 net.cpp:122] Setting up inception_3b/5x5
I0429 19:33:02.982887 14050 net.cpp:129] Top shape: 50 96 28 28 (3763200)
I0429 19:33:02.982895 14050 net.cpp:137] Memory required for data: 1535386400
I0429 19:33:02.982906 14050 layer_factory.hpp:77] Creating layer inception_3b/relu_5x5
I0429 19:33:02.982920 14050 net.cpp:84] Creating Layer inception_3b/relu_5x5
I0429 19:33:02.982930 14050 net.cpp:406] inception_3b/relu_5x5 <- inception_3b/5x5
I0429 19:33:02.982942 14050 net.cpp:367] inception_3b/relu_5x5 -> inception_3b/5x5 (in-place)
I0429 19:33:02.983685 14050 net.cpp:122] Setting up inception_3b/relu_5x5
I0429 19:33:02.983702 14050 net.cpp:129] Top shape: 50 96 28 28 (3763200)
I0429 19:33:02.983711 14050 net.cpp:137] Memory required for data: 1550439200
I0429 19:33:02.983717 14050 layer_factory.hpp:77] Creating layer inception_3b/pool
I0429 19:33:02.983729 14050 net.cpp:84] Creating Layer inception_3b/pool
I0429 19:33:02.983739 14050 net.cpp:406] inception_3b/pool <- inception_3a/output_inception_3a/output_0_split_3
I0429 19:33:02.983752 14050 net.cpp:380] inception_3b/pool -> inception_3b/pool
I0429 19:33:02.983815 14050 net.cpp:122] Setting up inception_3b/pool
I0429 19:33:02.983827 14050 net.cpp:129] Top shape: 50 256 28 28 (10035200)
I0429 19:33:02.983834 14050 net.cpp:137] Memory required for data: 1590580000
I0429 19:33:02.983842 14050 layer_factory.hpp:77] Creating layer inception_3b/pool_proj
I0429 19:33:02.983858 14050 net.cpp:84] Creating Layer inception_3b/pool_proj
I0429 19:33:02.983867 14050 net.cpp:406] inception_3b/pool_proj <- inception_3b/pool
I0429 19:33:02.983880 14050 net.cpp:380] inception_3b/pool_proj -> inception_3b/pool_proj
I0429 19:33:02.985627 14050 net.cpp:122] Setting up inception_3b/pool_proj
I0429 19:33:02.985646 14050 net.cpp:129] Top shape: 50 64 28 28 (2508800)
I0429 19:33:02.985654 14050 net.cpp:137] Memory required for data: 1600615200
I0429 19:33:02.985666 14050 layer_factory.hpp:77] Creating layer inception_3b/relu_pool_proj
I0429 19:33:02.985678 14050 net.cpp:84] Creating Layer inception_3b/relu_pool_proj
I0429 19:33:02.985687 14050 net.cpp:406] inception_3b/relu_pool_proj <- inception_3b/pool_proj
I0429 19:33:02.985700 14050 net.cpp:367] inception_3b/relu_pool_proj -> inception_3b/pool_proj (in-place)
I0429 19:33:02.985999 14050 net.cpp:122] Setting up inception_3b/relu_pool_proj
I0429 19:33:02.986013 14050 net.cpp:129] Top shape: 50 64 28 28 (2508800)
I0429 19:33:02.986021 14050 net.cpp:137] Memory required for data: 1610650400
I0429 19:33:02.986029 14050 layer_factory.hpp:77] Creating layer inception_3b/output
I0429 19:33:02.986039 14050 net.cpp:84] Creating Layer inception_3b/output
I0429 19:33:02.986048 14050 net.cpp:406] inception_3b/output <- inception_3b/1x1
I0429 19:33:02.986058 14050 net.cpp:406] inception_3b/output <- inception_3b/3x3
I0429 19:33:02.986068 14050 net.cpp:406] inception_3b/output <- inception_3b/5x5
I0429 19:33:02.986075 14050 net.cpp:406] inception_3b/output <- inception_3b/pool_proj
I0429 19:33:02.986088 14050 net.cpp:380] inception_3b/output -> inception_3b/output
I0429 19:33:02.986145 14050 net.cpp:122] Setting up inception_3b/output
I0429 19:33:02.986157 14050 net.cpp:129] Top shape: 50 480 28 28 (18816000)
I0429 19:33:02.986165 14050 net.cpp:137] Memory required for data: 1685914400
I0429 19:33:02.986172 14050 layer_factory.hpp:77] Creating layer pool3/3x3_s2
I0429 19:33:02.986182 14050 net.cpp:84] Creating Layer pool3/3x3_s2
I0429 19:33:02.986189 14050 net.cpp:406] pool3/3x3_s2 <- inception_3b/output
I0429 19:33:02.986199 14050 net.cpp:380] pool3/3x3_s2 -> pool3/3x3_s2
I0429 19:33:02.986258 14050 net.cpp:122] Setting up pool3/3x3_s2
I0429 19:33:02.986269 14050 net.cpp:129] Top shape: 50 480 14 14 (4704000)
I0429 19:33:02.986276 14050 net.cpp:137] Memory required for data: 1704730400
I0429 19:33:02.986284 14050 layer_factory.hpp:77] Creating layer pool3/3x3_s2_pool3/3x3_s2_0_split
I0429 19:33:02.986296 14050 net.cpp:84] Creating Layer pool3/3x3_s2_pool3/3x3_s2_0_split
I0429 19:33:02.986304 14050 net.cpp:406] pool3/3x3_s2_pool3/3x3_s2_0_split <- pool3/3x3_s2
I0429 19:33:02.986315 14050 net.cpp:380] pool3/3x3_s2_pool3/3x3_s2_0_split -> pool3/3x3_s2_pool3/3x3_s2_0_split_0
I0429 19:33:02.986330 14050 net.cpp:380] pool3/3x3_s2_pool3/3x3_s2_0_split -> pool3/3x3_s2_pool3/3x3_s2_0_split_1
I0429 19:33:02.986344 14050 net.cpp:380] pool3/3x3_s2_pool3/3x3_s2_0_split -> pool3/3x3_s2_pool3/3x3_s2_0_split_2
I0429 19:33:02.986358 14050 net.cpp:380] pool3/3x3_s2_pool3/3x3_s2_0_split -> pool3/3x3_s2_pool3/3x3_s2_0_split_3
I0429 19:33:02.986454 14050 net.cpp:122] Setting up pool3/3x3_s2_pool3/3x3_s2_0_split
I0429 19:33:02.986465 14050 net.cpp:129] Top shape: 50 480 14 14 (4704000)
I0429 19:33:02.986476 14050 net.cpp:129] Top shape: 50 480 14 14 (4704000)
I0429 19:33:02.986485 14050 net.cpp:129] Top shape: 50 480 14 14 (4704000)
I0429 19:33:02.986492 14050 net.cpp:129] Top shape: 50 480 14 14 (4704000)
I0429 19:33:02.986500 14050 net.cpp:137] Memory required for data: 1779994400
I0429 19:33:02.986507 14050 layer_factory.hpp:77] Creating layer inception_4a/1x1
I0429 19:33:02.986522 14050 net.cpp:84] Creating Layer inception_4a/1x1
I0429 19:33:02.986531 14050 net.cpp:406] inception_4a/1x1 <- pool3/3x3_s2_pool3/3x3_s2_0_split_0
I0429 19:33:02.986542 14050 net.cpp:380] inception_4a/1x1 -> inception_4a/1x1
I0429 19:33:02.989442 14050 net.cpp:122] Setting up inception_4a/1x1
I0429 19:33:02.989461 14050 net.cpp:129] Top shape: 50 192 14 14 (1881600)
I0429 19:33:02.989470 14050 net.cpp:137] Memory required for data: 1787520800
I0429 19:33:02.989481 14050 layer_factory.hpp:77] Creating layer inception_4a/relu_1x1
I0429 19:33:02.989495 14050 net.cpp:84] Creating Layer inception_4a/relu_1x1
I0429 19:33:02.989502 14050 net.cpp:406] inception_4a/relu_1x1 <- inception_4a/1x1
I0429 19:33:02.989513 14050 net.cpp:367] inception_4a/relu_1x1 -> inception_4a/1x1 (in-place)
I0429 19:33:02.989799 14050 net.cpp:122] Setting up inception_4a/relu_1x1
I0429 19:33:02.989816 14050 net.cpp:129] Top shape: 50 192 14 14 (1881600)
I0429 19:33:02.989823 14050 net.cpp:137] Memory required for data: 1795047200
I0429 19:33:02.989830 14050 layer_factory.hpp:77] Creating layer inception_4a/3x3_reduce
I0429 19:33:02.989847 14050 net.cpp:84] Creating Layer inception_4a/3x3_reduce
I0429 19:33:02.989857 14050 net.cpp:406] inception_4a/3x3_reduce <- pool3/3x3_s2_pool3/3x3_s2_0_split_1
I0429 19:33:02.989869 14050 net.cpp:380] inception_4a/3x3_reduce -> inception_4a/3x3_reduce
I0429 19:33:02.997462 14050 net.cpp:122] Setting up inception_4a/3x3_reduce
I0429 19:33:02.997488 14050 net.cpp:129] Top shape: 50 96 14 14 (940800)
I0429 19:33:02.997498 14050 net.cpp:137] Memory required for data: 1798810400
I0429 19:33:02.997519 14050 layer_factory.hpp:77] Creating layer inception_4a/relu_3x3_reduce
I0429 19:33:02.997532 14050 net.cpp:84] Creating Layer inception_4a/relu_3x3_reduce
I0429 19:33:02.997540 14050 net.cpp:406] inception_4a/relu_3x3_reduce <- inception_4a/3x3_reduce
I0429 19:33:02.997555 14050 net.cpp:367] inception_4a/relu_3x3_reduce -> inception_4a/3x3_reduce (in-place)
I0429 19:33:02.997824 14050 net.cpp:122] Setting up inception_4a/relu_3x3_reduce
I0429 19:33:02.997860 14050 net.cpp:129] Top shape: 50 96 14 14 (940800)
I0429 19:33:02.997869 14050 net.cpp:137] Memory required for data: 1802573600
I0429 19:33:02.997875 14050 layer_factory.hpp:77] Creating layer inception_4a/3x3
I0429 19:33:02.997894 14050 net.cpp:84] Creating Layer inception_4a/3x3
I0429 19:33:02.997902 14050 net.cpp:406] inception_4a/3x3 <- inception_4a/3x3_reduce
I0429 19:33:02.997916 14050 net.cpp:380] inception_4a/3x3 -> inception_4a/3x3
I0429 19:33:03.001904 14050 net.cpp:122] Setting up inception_4a/3x3
I0429 19:33:03.001924 14050 net.cpp:129] Top shape: 50 208 14 14 (2038400)
I0429 19:33:03.001929 14050 net.cpp:137] Memory required for data: 1810727200
I0429 19:33:03.001936 14050 layer_factory.hpp:77] Creating layer inception_4a/relu_3x3
I0429 19:33:03.001946 14050 net.cpp:84] Creating Layer inception_4a/relu_3x3
I0429 19:33:03.001952 14050 net.cpp:406] inception_4a/relu_3x3 <- inception_4a/3x3
I0429 19:33:03.001958 14050 net.cpp:367] inception_4a/relu_3x3 -> inception_4a/3x3 (in-place)
I0429 19:33:03.002110 14050 net.cpp:122] Setting up inception_4a/relu_3x3
I0429 19:33:03.002123 14050 net.cpp:129] Top shape: 50 208 14 14 (2038400)
I0429 19:33:03.002130 14050 net.cpp:137] Memory required for data: 1818880800
I0429 19:33:03.002137 14050 layer_factory.hpp:77] Creating layer inception_4a/5x5_reduce
I0429 19:33:03.002153 14050 net.cpp:84] Creating Layer inception_4a/5x5_reduce
I0429 19:33:03.002164 14050 net.cpp:406] inception_4a/5x5_reduce <- pool3/3x3_s2_pool3/3x3_s2_0_split_2
I0429 19:33:03.002180 14050 net.cpp:380] inception_4a/5x5_reduce -> inception_4a/5x5_reduce
I0429 19:33:03.003849 14050 net.cpp:122] Setting up inception_4a/5x5_reduce
I0429 19:33:03.003866 14050 net.cpp:129] Top shape: 50 16 14 14 (156800)
I0429 19:33:03.003875 14050 net.cpp:137] Memory required for data: 1819508000
I0429 19:33:03.003886 14050 layer_factory.hpp:77] Creating layer inception_4a/relu_5x5_reduce
I0429 19:33:03.003901 14050 net.cpp:84] Creating Layer inception_4a/relu_5x5_reduce
I0429 19:33:03.003909 14050 net.cpp:406] inception_4a/relu_5x5_reduce <- inception_4a/5x5_reduce
I0429 19:33:03.003921 14050 net.cpp:367] inception_4a/relu_5x5_reduce -> inception_4a/5x5_reduce (in-place)
I0429 19:33:03.004150 14050 net.cpp:122] Setting up inception_4a/relu_5x5_reduce
I0429 19:33:03.004165 14050 net.cpp:129] Top shape: 50 16 14 14 (156800)
I0429 19:33:03.004173 14050 net.cpp:137] Memory required for data: 1820135200
I0429 19:33:03.004181 14050 layer_factory.hpp:77] Creating layer inception_4a/5x5
I0429 19:33:03.004200 14050 net.cpp:84] Creating Layer inception_4a/5x5
I0429 19:33:03.004209 14050 net.cpp:406] inception_4a/5x5 <- inception_4a/5x5_reduce
I0429 19:33:03.004222 14050 net.cpp:380] inception_4a/5x5 -> inception_4a/5x5
I0429 19:33:03.006557 14050 net.cpp:122] Setting up inception_4a/5x5
I0429 19:33:03.006580 14050 net.cpp:129] Top shape: 50 48 14 14 (470400)
I0429 19:33:03.006589 14050 net.cpp:137] Memory required for data: 1822016800
I0429 19:33:03.006602 14050 layer_factory.hpp:77] Creating layer inception_4a/relu_5x5
I0429 19:33:03.006614 14050 net.cpp:84] Creating Layer inception_4a/relu_5x5
I0429 19:33:03.006623 14050 net.cpp:406] inception_4a/relu_5x5 <- inception_4a/5x5
I0429 19:33:03.006633 14050 net.cpp:367] inception_4a/relu_5x5 -> inception_4a/5x5 (in-place)
I0429 19:33:03.008038 14050 net.cpp:122] Setting up inception_4a/relu_5x5
I0429 19:33:03.008057 14050 net.cpp:129] Top shape: 50 48 14 14 (470400)
I0429 19:33:03.008065 14050 net.cpp:137] Memory required for data: 1823898400
I0429 19:33:03.008072 14050 layer_factory.hpp:77] Creating layer inception_4a/pool
I0429 19:33:03.008085 14050 net.cpp:84] Creating Layer inception_4a/pool
I0429 19:33:03.008095 14050 net.cpp:406] inception_4a/pool <- pool3/3x3_s2_pool3/3x3_s2_0_split_3
I0429 19:33:03.008107 14050 net.cpp:380] inception_4a/pool -> inception_4a/pool
I0429 19:33:03.008177 14050 net.cpp:122] Setting up inception_4a/pool
I0429 19:33:03.008191 14050 net.cpp:129] Top shape: 50 480 14 14 (4704000)
I0429 19:33:03.008210 14050 net.cpp:137] Memory required for data: 1842714400
I0429 19:33:03.008244 14050 layer_factory.hpp:77] Creating layer inception_4a/pool_proj
I0429 19:33:03.008272 14050 net.cpp:84] Creating Layer inception_4a/pool_proj
I0429 19:33:03.008287 14050 net.cpp:406] inception_4a/pool_proj <- inception_4a/pool
I0429 19:33:03.008313 14050 net.cpp:380] inception_4a/pool_proj -> inception_4a/pool_proj
I0429 19:33:03.010031 14050 net.cpp:122] Setting up inception_4a/pool_proj
I0429 19:33:03.010047 14050 net.cpp:129] Top shape: 50 64 14 14 (627200)
I0429 19:33:03.010053 14050 net.cpp:137] Memory required for data: 1845223200
I0429 19:33:03.010066 14050 layer_factory.hpp:77] Creating layer inception_4a/relu_pool_proj
I0429 19:33:03.010076 14050 net.cpp:84] Creating Layer inception_4a/relu_pool_proj
I0429 19:33:03.010082 14050 net.cpp:406] inception_4a/relu_pool_proj <- inception_4a/pool_proj
I0429 19:33:03.010092 14050 net.cpp:367] inception_4a/relu_pool_proj -> inception_4a/pool_proj (in-place)
I0429 19:33:03.010296 14050 net.cpp:122] Setting up inception_4a/relu_pool_proj
I0429 19:33:03.010308 14050 net.cpp:129] Top shape: 50 64 14 14 (627200)
I0429 19:33:03.010313 14050 net.cpp:137] Memory required for data: 1847732000
I0429 19:33:03.010319 14050 layer_factory.hpp:77] Creating layer inception_4a/output
I0429 19:33:03.010330 14050 net.cpp:84] Creating Layer inception_4a/output
I0429 19:33:03.010337 14050 net.cpp:406] inception_4a/output <- inception_4a/1x1
I0429 19:33:03.010344 14050 net.cpp:406] inception_4a/output <- inception_4a/3x3
I0429 19:33:03.010351 14050 net.cpp:406] inception_4a/output <- inception_4a/5x5
I0429 19:33:03.010359 14050 net.cpp:406] inception_4a/output <- inception_4a/pool_proj
I0429 19:33:03.010368 14050 net.cpp:380] inception_4a/output -> inception_4a/output
I0429 19:33:03.010406 14050 net.cpp:122] Setting up inception_4a/output
I0429 19:33:03.010416 14050 net.cpp:129] Top shape: 50 512 14 14 (5017600)
I0429 19:33:03.010423 14050 net.cpp:137] Memory required for data: 1867802400
I0429 19:33:03.010429 14050 layer_factory.hpp:77] Creating layer inception_4a/output_inception_4a/output_0_split
I0429 19:33:03.010440 14050 net.cpp:84] Creating Layer inception_4a/output_inception_4a/output_0_split
I0429 19:33:03.010448 14050 net.cpp:406] inception_4a/output_inception_4a/output_0_split <- inception_4a/output
I0429 19:33:03.010462 14050 net.cpp:380] inception_4a/output_inception_4a/output_0_split -> inception_4a/output_inception_4a/output_0_split_0
I0429 19:33:03.010473 14050 net.cpp:380] inception_4a/output_inception_4a/output_0_split -> inception_4a/output_inception_4a/output_0_split_1
I0429 19:33:03.010483 14050 net.cpp:380] inception_4a/output_inception_4a/output_0_split -> inception_4a/output_inception_4a/output_0_split_2
I0429 19:33:03.010493 14050 net.cpp:380] inception_4a/output_inception_4a/output_0_split -> inception_4a/output_inception_4a/output_0_split_3
I0429 19:33:03.010504 14050 net.cpp:380] inception_4a/output_inception_4a/output_0_split -> inception_4a/output_inception_4a/output_0_split_4
I0429 19:33:03.010586 14050 net.cpp:122] Setting up inception_4a/output_inception_4a/output_0_split
I0429 19:33:03.010596 14050 net.cpp:129] Top shape: 50 512 14 14 (5017600)
I0429 19:33:03.010602 14050 net.cpp:129] Top shape: 50 512 14 14 (5017600)
I0429 19:33:03.010609 14050 net.cpp:129] Top shape: 50 512 14 14 (5017600)
I0429 19:33:03.010617 14050 net.cpp:129] Top shape: 50 512 14 14 (5017600)
I0429 19:33:03.010623 14050 net.cpp:129] Top shape: 50 512 14 14 (5017600)
I0429 19:33:03.010628 14050 net.cpp:137] Memory required for data: 1968154400
I0429 19:33:03.010634 14050 layer_factory.hpp:77] Creating layer loss1/ave_pool
I0429 19:33:03.010643 14050 net.cpp:84] Creating Layer loss1/ave_pool
I0429 19:33:03.010653 14050 net.cpp:406] loss1/ave_pool <- inception_4a/output_inception_4a/output_0_split_0
I0429 19:33:03.010663 14050 net.cpp:380] loss1/ave_pool -> loss1/ave_pool
I0429 19:33:03.010886 14050 net.cpp:122] Setting up loss1/ave_pool
I0429 19:33:03.010897 14050 net.cpp:129] Top shape: 50 512 4 4 (409600)
I0429 19:33:03.010910 14050 net.cpp:137] Memory required for data: 1969792800
I0429 19:33:03.010939 14050 layer_factory.hpp:77] Creating layer loss1/conv
I0429 19:33:03.010958 14050 net.cpp:84] Creating Layer loss1/conv
I0429 19:33:03.010965 14050 net.cpp:406] loss1/conv <- loss1/ave_pool
I0429 19:33:03.010974 14050 net.cpp:380] loss1/conv -> loss1/conv
I0429 19:33:03.012761 14050 net.cpp:122] Setting up loss1/conv
I0429 19:33:03.012778 14050 net.cpp:129] Top shape: 50 128 4 4 (102400)
I0429 19:33:03.012784 14050 net.cpp:137] Memory required for data: 1970202400
I0429 19:33:03.012794 14050 layer_factory.hpp:77] Creating layer loss1/relu_conv
I0429 19:33:03.012804 14050 net.cpp:84] Creating Layer loss1/relu_conv
I0429 19:33:03.012811 14050 net.cpp:406] loss1/relu_conv <- loss1/conv
I0429 19:33:03.012820 14050 net.cpp:367] loss1/relu_conv -> loss1/conv (in-place)
I0429 19:33:03.013010 14050 net.cpp:122] Setting up loss1/relu_conv
I0429 19:33:03.013021 14050 net.cpp:129] Top shape: 50 128 4 4 (102400)
I0429 19:33:03.013027 14050 net.cpp:137] Memory required for data: 1970612000
I0429 19:33:03.013033 14050 layer_factory.hpp:77] Creating layer loss1/fc
I0429 19:33:03.013046 14050 net.cpp:84] Creating Layer loss1/fc
I0429 19:33:03.013053 14050 net.cpp:406] loss1/fc <- loss1/conv
I0429 19:33:03.013064 14050 net.cpp:380] loss1/fc -> loss1/fc
I0429 19:33:03.030462 14050 net.cpp:122] Setting up loss1/fc
I0429 19:33:03.030501 14050 net.cpp:129] Top shape: 50 1024 (51200)
I0429 19:33:03.030508 14050 net.cpp:137] Memory required for data: 1970816800
I0429 19:33:03.030524 14050 layer_factory.hpp:77] Creating layer loss1/relu_fc
I0429 19:33:03.030539 14050 net.cpp:84] Creating Layer loss1/relu_fc
I0429 19:33:03.030549 14050 net.cpp:406] loss1/relu_fc <- loss1/fc
I0429 19:33:03.030560 14050 net.cpp:367] loss1/relu_fc -> loss1/fc (in-place)
I0429 19:33:03.030827 14050 net.cpp:122] Setting up loss1/relu_fc
I0429 19:33:03.030840 14050 net.cpp:129] Top shape: 50 1024 (51200)
I0429 19:33:03.030848 14050 net.cpp:137] Memory required for data: 1971021600
I0429 19:33:03.030853 14050 layer_factory.hpp:77] Creating layer loss1/drop_fc
I0429 19:33:03.030889 14050 net.cpp:84] Creating Layer loss1/drop_fc
I0429 19:33:03.030895 14050 net.cpp:406] loss1/drop_fc <- loss1/fc
I0429 19:33:03.030903 14050 net.cpp:367] loss1/drop_fc -> loss1/fc (in-place)
I0429 19:33:03.030946 14050 net.cpp:122] Setting up loss1/drop_fc
I0429 19:33:03.030957 14050 net.cpp:129] Top shape: 50 1024 (51200)
I0429 19:33:03.030963 14050 net.cpp:137] Memory required for data: 1971226400
I0429 19:33:03.030970 14050 layer_factory.hpp:77] Creating layer loss1/classifier
I0429 19:33:03.030982 14050 net.cpp:84] Creating Layer loss1/classifier
I0429 19:33:03.030989 14050 net.cpp:406] loss1/classifier <- loss1/fc
I0429 19:33:03.031002 14050 net.cpp:380] loss1/classifier -> loss1/classifier
I0429 19:33:03.049548 14050 net.cpp:122] Setting up loss1/classifier
I0429 19:33:03.049592 14050 net.cpp:129] Top shape: 50 1000 (50000)
I0429 19:33:03.049602 14050 net.cpp:137] Memory required for data: 1971426400
I0429 19:33:03.049620 14050 layer_factory.hpp:77] Creating layer loss1/loss
I0429 19:33:03.049638 14050 net.cpp:84] Creating Layer loss1/loss
I0429 19:33:03.049650 14050 net.cpp:406] loss1/loss <- loss1/classifier
I0429 19:33:03.049662 14050 net.cpp:406] loss1/loss <- label_data_1_split_0
I0429 19:33:03.049676 14050 net.cpp:380] loss1/loss -> loss1/loss1
I0429 19:33:03.049700 14050 layer_factory.hpp:77] Creating layer loss1/loss
I0429 19:33:03.059725 14050 net.cpp:122] Setting up loss1/loss
I0429 19:33:03.059757 14050 net.cpp:129] Top shape: (1)
I0429 19:33:03.059765 14050 net.cpp:132]     with loss weight 0.3
I0429 19:33:03.059794 14050 net.cpp:137] Memory required for data: 1971426404
I0429 19:33:03.059804 14050 layer_factory.hpp:77] Creating layer inception_4b/1x1
I0429 19:33:03.059828 14050 net.cpp:84] Creating Layer inception_4b/1x1
I0429 19:33:03.059840 14050 net.cpp:406] inception_4b/1x1 <- inception_4a/output_inception_4a/output_0_split_1
I0429 19:33:03.059870 14050 net.cpp:380] inception_4b/1x1 -> inception_4b/1x1
I0429 19:33:03.062409 14050 net.cpp:122] Setting up inception_4b/1x1
I0429 19:33:03.062431 14050 net.cpp:129] Top shape: 50 160 14 14 (1568000)
I0429 19:33:03.062443 14050 net.cpp:137] Memory required for data: 1977698404
I0429 19:33:03.062456 14050 layer_factory.hpp:77] Creating layer inception_4b/relu_1x1
I0429 19:33:03.062469 14050 net.cpp:84] Creating Layer inception_4b/relu_1x1
I0429 19:33:03.062477 14050 net.cpp:406] inception_4b/relu_1x1 <- inception_4b/1x1
I0429 19:33:03.062489 14050 net.cpp:367] inception_4b/relu_1x1 -> inception_4b/1x1 (in-place)
I0429 19:33:03.062731 14050 net.cpp:122] Setting up inception_4b/relu_1x1
I0429 19:33:03.062747 14050 net.cpp:129] Top shape: 50 160 14 14 (1568000)
I0429 19:33:03.062755 14050 net.cpp:137] Memory required for data: 1983970404
I0429 19:33:03.062762 14050 layer_factory.hpp:77] Creating layer inception_4b/3x3_reduce
I0429 19:33:03.062782 14050 net.cpp:84] Creating Layer inception_4b/3x3_reduce
I0429 19:33:03.062791 14050 net.cpp:406] inception_4b/3x3_reduce <- inception_4a/output_inception_4a/output_0_split_2
I0429 19:33:03.062808 14050 net.cpp:380] inception_4b/3x3_reduce -> inception_4b/3x3_reduce
I0429 19:33:03.064985 14050 net.cpp:122] Setting up inception_4b/3x3_reduce
I0429 19:33:03.065001 14050 net.cpp:129] Top shape: 50 112 14 14 (1097600)
I0429 19:33:03.065011 14050 net.cpp:137] Memory required for data: 1988360804
I0429 19:33:03.065021 14050 layer_factory.hpp:77] Creating layer inception_4b/relu_3x3_reduce
I0429 19:33:03.065035 14050 net.cpp:84] Creating Layer inception_4b/relu_3x3_reduce
I0429 19:33:03.065044 14050 net.cpp:406] inception_4b/relu_3x3_reduce <- inception_4b/3x3_reduce
I0429 19:33:03.065057 14050 net.cpp:367] inception_4b/relu_3x3_reduce -> inception_4b/3x3_reduce (in-place)
I0429 19:33:03.065299 14050 net.cpp:122] Setting up inception_4b/relu_3x3_reduce
I0429 19:33:03.065315 14050 net.cpp:129] Top shape: 50 112 14 14 (1097600)
I0429 19:33:03.065325 14050 net.cpp:137] Memory required for data: 1992751204
I0429 19:33:03.065333 14050 layer_factory.hpp:77] Creating layer inception_4b/3x3
I0429 19:33:03.065351 14050 net.cpp:84] Creating Layer inception_4b/3x3
I0429 19:33:03.065362 14050 net.cpp:406] inception_4b/3x3 <- inception_4b/3x3_reduce
I0429 19:33:03.065376 14050 net.cpp:380] inception_4b/3x3 -> inception_4b/3x3
I0429 19:33:03.070312 14050 net.cpp:122] Setting up inception_4b/3x3
I0429 19:33:03.070338 14050 net.cpp:129] Top shape: 50 224 14 14 (2195200)
I0429 19:33:03.070346 14050 net.cpp:137] Memory required for data: 2001532004
I0429 19:33:03.070358 14050 layer_factory.hpp:77] Creating layer inception_4b/relu_3x3
I0429 19:33:03.070372 14050 net.cpp:84] Creating Layer inception_4b/relu_3x3
I0429 19:33:03.070381 14050 net.cpp:406] inception_4b/relu_3x3 <- inception_4b/3x3
I0429 19:33:03.070392 14050 net.cpp:367] inception_4b/relu_3x3 -> inception_4b/3x3 (in-place)
I0429 19:33:03.070618 14050 net.cpp:122] Setting up inception_4b/relu_3x3
I0429 19:33:03.070632 14050 net.cpp:129] Top shape: 50 224 14 14 (2195200)
I0429 19:33:03.070642 14050 net.cpp:137] Memory required for data: 2010312804
I0429 19:33:03.070650 14050 layer_factory.hpp:77] Creating layer inception_4b/5x5_reduce
I0429 19:33:03.070667 14050 net.cpp:84] Creating Layer inception_4b/5x5_reduce
I0429 19:33:03.070674 14050 net.cpp:406] inception_4b/5x5_reduce <- inception_4a/output_inception_4a/output_0_split_3
I0429 19:33:03.070688 14050 net.cpp:380] inception_4b/5x5_reduce -> inception_4b/5x5_reduce
I0429 19:33:03.072356 14050 net.cpp:122] Setting up inception_4b/5x5_reduce
I0429 19:33:03.072376 14050 net.cpp:129] Top shape: 50 24 14 14 (235200)
I0429 19:33:03.072382 14050 net.cpp:137] Memory required for data: 2011253604
I0429 19:33:03.072396 14050 layer_factory.hpp:77] Creating layer inception_4b/relu_5x5_reduce
I0429 19:33:03.072409 14050 net.cpp:84] Creating Layer inception_4b/relu_5x5_reduce
I0429 19:33:03.072417 14050 net.cpp:406] inception_4b/relu_5x5_reduce <- inception_4b/5x5_reduce
I0429 19:33:03.072428 14050 net.cpp:367] inception_4b/relu_5x5_reduce -> inception_4b/5x5_reduce (in-place)
I0429 19:33:03.072674 14050 net.cpp:122] Setting up inception_4b/relu_5x5_reduce
I0429 19:33:03.072690 14050 net.cpp:129] Top shape: 50 24 14 14 (235200)
I0429 19:33:03.072696 14050 net.cpp:137] Memory required for data: 2012194404
I0429 19:33:03.072702 14050 layer_factory.hpp:77] Creating layer inception_4b/5x5
I0429 19:33:03.072721 14050 net.cpp:84] Creating Layer inception_4b/5x5
I0429 19:33:03.072729 14050 net.cpp:406] inception_4b/5x5 <- inception_4b/5x5_reduce
I0429 19:33:03.072741 14050 net.cpp:380] inception_4b/5x5 -> inception_4b/5x5
I0429 19:33:03.074724 14050 net.cpp:122] Setting up inception_4b/5x5
I0429 19:33:03.074748 14050 net.cpp:129] Top shape: 50 64 14 14 (627200)
I0429 19:33:03.074754 14050 net.cpp:137] Memory required for data: 2014703204
I0429 19:33:03.074762 14050 layer_factory.hpp:77] Creating layer inception_4b/relu_5x5
I0429 19:33:03.074772 14050 net.cpp:84] Creating Layer inception_4b/relu_5x5
I0429 19:33:03.074779 14050 net.cpp:406] inception_4b/relu_5x5 <- inception_4b/5x5
I0429 19:33:03.074784 14050 net.cpp:367] inception_4b/relu_5x5 -> inception_4b/5x5 (in-place)
I0429 19:33:03.075366 14050 net.cpp:122] Setting up inception_4b/relu_5x5
I0429 19:33:03.075378 14050 net.cpp:129] Top shape: 50 64 14 14 (627200)
I0429 19:33:03.075383 14050 net.cpp:137] Memory required for data: 2017212004
I0429 19:33:03.075388 14050 layer_factory.hpp:77] Creating layer inception_4b/pool
I0429 19:33:03.075398 14050 net.cpp:84] Creating Layer inception_4b/pool
I0429 19:33:03.075404 14050 net.cpp:406] inception_4b/pool <- inception_4a/output_inception_4a/output_0_split_4
I0429 19:33:03.075412 14050 net.cpp:380] inception_4b/pool -> inception_4b/pool
I0429 19:33:03.075476 14050 net.cpp:122] Setting up inception_4b/pool
I0429 19:33:03.075486 14050 net.cpp:129] Top shape: 50 512 14 14 (5017600)
I0429 19:33:03.075491 14050 net.cpp:137] Memory required for data: 2037282404
I0429 19:33:03.075496 14050 layer_factory.hpp:77] Creating layer inception_4b/pool_proj
I0429 19:33:03.075507 14050 net.cpp:84] Creating Layer inception_4b/pool_proj
I0429 19:33:03.075512 14050 net.cpp:406] inception_4b/pool_proj <- inception_4b/pool
I0429 19:33:03.075523 14050 net.cpp:380] inception_4b/pool_proj -> inception_4b/pool_proj
I0429 19:33:03.076306 14050 net.cpp:122] Setting up inception_4b/pool_proj
I0429 19:33:03.076316 14050 net.cpp:129] Top shape: 50 64 14 14 (627200)
I0429 19:33:03.076320 14050 net.cpp:137] Memory required for data: 2039791204
I0429 19:33:03.076328 14050 layer_factory.hpp:77] Creating layer inception_4b/relu_pool_proj
I0429 19:33:03.076335 14050 net.cpp:84] Creating Layer inception_4b/relu_pool_proj
I0429 19:33:03.076339 14050 net.cpp:406] inception_4b/relu_pool_proj <- inception_4b/pool_proj
I0429 19:33:03.076347 14050 net.cpp:367] inception_4b/relu_pool_proj -> inception_4b/pool_proj (in-place)
I0429 19:33:03.077256 14050 net.cpp:122] Setting up inception_4b/relu_pool_proj
I0429 19:33:03.077270 14050 net.cpp:129] Top shape: 50 64 14 14 (627200)
I0429 19:33:03.077275 14050 net.cpp:137] Memory required for data: 2042300004
I0429 19:33:03.077280 14050 layer_factory.hpp:77] Creating layer inception_4b/output
I0429 19:33:03.077287 14050 net.cpp:84] Creating Layer inception_4b/output
I0429 19:33:03.077293 14050 net.cpp:406] inception_4b/output <- inception_4b/1x1
I0429 19:33:03.077299 14050 net.cpp:406] inception_4b/output <- inception_4b/3x3
I0429 19:33:03.077304 14050 net.cpp:406] inception_4b/output <- inception_4b/5x5
I0429 19:33:03.077311 14050 net.cpp:406] inception_4b/output <- inception_4b/pool_proj
I0429 19:33:03.077316 14050 net.cpp:380] inception_4b/output -> inception_4b/output
I0429 19:33:03.077347 14050 net.cpp:122] Setting up inception_4b/output
I0429 19:33:03.077354 14050 net.cpp:129] Top shape: 50 512 14 14 (5017600)
I0429 19:33:03.077358 14050 net.cpp:137] Memory required for data: 2062370404
I0429 19:33:03.077363 14050 layer_factory.hpp:77] Creating layer inception_4b/output_inception_4b/output_0_split
I0429 19:33:03.077371 14050 net.cpp:84] Creating Layer inception_4b/output_inception_4b/output_0_split
I0429 19:33:03.077394 14050 net.cpp:406] inception_4b/output_inception_4b/output_0_split <- inception_4b/output
I0429 19:33:03.077401 14050 net.cpp:380] inception_4b/output_inception_4b/output_0_split -> inception_4b/output_inception_4b/output_0_split_0
I0429 19:33:03.077409 14050 net.cpp:380] inception_4b/output_inception_4b/output_0_split -> inception_4b/output_inception_4b/output_0_split_1
I0429 19:33:03.077417 14050 net.cpp:380] inception_4b/output_inception_4b/output_0_split -> inception_4b/output_inception_4b/output_0_split_2
I0429 19:33:03.077425 14050 net.cpp:380] inception_4b/output_inception_4b/output_0_split -> inception_4b/output_inception_4b/output_0_split_3
I0429 19:33:03.077481 14050 net.cpp:122] Setting up inception_4b/output_inception_4b/output_0_split
I0429 19:33:03.077491 14050 net.cpp:129] Top shape: 50 512 14 14 (5017600)
I0429 19:33:03.077495 14050 net.cpp:129] Top shape: 50 512 14 14 (5017600)
I0429 19:33:03.077500 14050 net.cpp:129] Top shape: 50 512 14 14 (5017600)
I0429 19:33:03.077505 14050 net.cpp:129] Top shape: 50 512 14 14 (5017600)
I0429 19:33:03.077510 14050 net.cpp:137] Memory required for data: 2142652004
I0429 19:33:03.077514 14050 layer_factory.hpp:77] Creating layer inception_4c/1x1
I0429 19:33:03.077522 14050 net.cpp:84] Creating Layer inception_4c/1x1
I0429 19:33:03.077527 14050 net.cpp:406] inception_4c/1x1 <- inception_4b/output_inception_4b/output_0_split_0
I0429 19:33:03.077535 14050 net.cpp:380] inception_4c/1x1 -> inception_4c/1x1
I0429 19:33:03.078914 14050 net.cpp:122] Setting up inception_4c/1x1
I0429 19:33:03.078927 14050 net.cpp:129] Top shape: 50 128 14 14 (1254400)
I0429 19:33:03.078930 14050 net.cpp:137] Memory required for data: 2147669604
I0429 19:33:03.078940 14050 layer_factory.hpp:77] Creating layer inception_4c/relu_1x1
I0429 19:33:03.078948 14050 net.cpp:84] Creating Layer inception_4c/relu_1x1
I0429 19:33:03.078954 14050 net.cpp:406] inception_4c/relu_1x1 <- inception_4c/1x1
I0429 19:33:03.078960 14050 net.cpp:367] inception_4c/relu_1x1 -> inception_4c/1x1 (in-place)
I0429 19:33:03.079102 14050 net.cpp:122] Setting up inception_4c/relu_1x1
I0429 19:33:03.079111 14050 net.cpp:129] Top shape: 50 128 14 14 (1254400)
I0429 19:33:03.079115 14050 net.cpp:137] Memory required for data: 2152687204
I0429 19:33:03.079119 14050 layer_factory.hpp:77] Creating layer inception_4c/3x3_reduce
I0429 19:33:03.079130 14050 net.cpp:84] Creating Layer inception_4c/3x3_reduce
I0429 19:33:03.079135 14050 net.cpp:406] inception_4c/3x3_reduce <- inception_4b/output_inception_4b/output_0_split_1
I0429 19:33:03.079144 14050 net.cpp:380] inception_4c/3x3_reduce -> inception_4c/3x3_reduce
I0429 19:33:03.081481 14050 net.cpp:122] Setting up inception_4c/3x3_reduce
I0429 19:33:03.081498 14050 net.cpp:129] Top shape: 50 128 14 14 (1254400)
I0429 19:33:03.081502 14050 net.cpp:137] Memory required for data: 2157704804
I0429 19:33:03.081509 14050 layer_factory.hpp:77] Creating layer inception_4c/relu_3x3_reduce
I0429 19:33:03.081518 14050 net.cpp:84] Creating Layer inception_4c/relu_3x3_reduce
I0429 19:33:03.081524 14050 net.cpp:406] inception_4c/relu_3x3_reduce <- inception_4c/3x3_reduce
I0429 19:33:03.081533 14050 net.cpp:367] inception_4c/relu_3x3_reduce -> inception_4c/3x3_reduce (in-place)
I0429 19:33:03.081678 14050 net.cpp:122] Setting up inception_4c/relu_3x3_reduce
I0429 19:33:03.081687 14050 net.cpp:129] Top shape: 50 128 14 14 (1254400)
I0429 19:33:03.081691 14050 net.cpp:137] Memory required for data: 2162722404
I0429 19:33:03.081696 14050 layer_factory.hpp:77] Creating layer inception_4c/3x3
I0429 19:33:03.081779 14050 net.cpp:84] Creating Layer inception_4c/3x3
I0429 19:33:03.081789 14050 net.cpp:406] inception_4c/3x3 <- inception_4c/3x3_reduce
I0429 19:33:03.081801 14050 net.cpp:380] inception_4c/3x3 -> inception_4c/3x3
I0429 19:33:03.085523 14050 net.cpp:122] Setting up inception_4c/3x3
I0429 19:33:03.085539 14050 net.cpp:129] Top shape: 50 256 14 14 (2508800)
I0429 19:33:03.085543 14050 net.cpp:137] Memory required for data: 2172757604
I0429 19:33:03.085570 14050 layer_factory.hpp:77] Creating layer inception_4c/relu_3x3
I0429 19:33:03.085592 14050 net.cpp:84] Creating Layer inception_4c/relu_3x3
I0429 19:33:03.085597 14050 net.cpp:406] inception_4c/relu_3x3 <- inception_4c/3x3
I0429 19:33:03.085604 14050 net.cpp:367] inception_4c/relu_3x3 -> inception_4c/3x3 (in-place)
I0429 19:33:03.085819 14050 net.cpp:122] Setting up inception_4c/relu_3x3
I0429 19:33:03.085832 14050 net.cpp:129] Top shape: 50 256 14 14 (2508800)
I0429 19:33:03.085836 14050 net.cpp:137] Memory required for data: 2182792804
I0429 19:33:03.085841 14050 layer_factory.hpp:77] Creating layer inception_4c/5x5_reduce
I0429 19:33:03.085853 14050 net.cpp:84] Creating Layer inception_4c/5x5_reduce
I0429 19:33:03.085860 14050 net.cpp:406] inception_4c/5x5_reduce <- inception_4b/output_inception_4b/output_0_split_2
I0429 19:33:03.085870 14050 net.cpp:380] inception_4c/5x5_reduce -> inception_4c/5x5_reduce
I0429 19:33:03.087085 14050 net.cpp:122] Setting up inception_4c/5x5_reduce
I0429 19:33:03.087097 14050 net.cpp:129] Top shape: 50 24 14 14 (235200)
I0429 19:33:03.087101 14050 net.cpp:137] Memory required for data: 2183733604
I0429 19:33:03.087108 14050 layer_factory.hpp:77] Creating layer inception_4c/relu_5x5_reduce
I0429 19:33:03.087116 14050 net.cpp:84] Creating Layer inception_4c/relu_5x5_reduce
I0429 19:33:03.087121 14050 net.cpp:406] inception_4c/relu_5x5_reduce <- inception_4c/5x5_reduce
I0429 19:33:03.087129 14050 net.cpp:367] inception_4c/relu_5x5_reduce -> inception_4c/5x5_reduce (in-place)
I0429 19:33:03.088023 14050 net.cpp:122] Setting up inception_4c/relu_5x5_reduce
I0429 19:33:03.088035 14050 net.cpp:129] Top shape: 50 24 14 14 (235200)
I0429 19:33:03.088039 14050 net.cpp:137] Memory required for data: 2184674404
I0429 19:33:03.088044 14050 layer_factory.hpp:77] Creating layer inception_4c/5x5
I0429 19:33:03.088057 14050 net.cpp:84] Creating Layer inception_4c/5x5
I0429 19:33:03.088062 14050 net.cpp:406] inception_4c/5x5 <- inception_4c/5x5_reduce
I0429 19:33:03.088071 14050 net.cpp:380] inception_4c/5x5 -> inception_4c/5x5
I0429 19:33:03.089262 14050 net.cpp:122] Setting up inception_4c/5x5
I0429 19:33:03.089275 14050 net.cpp:129] Top shape: 50 64 14 14 (627200)
I0429 19:33:03.089279 14050 net.cpp:137] Memory required for data: 2187183204
I0429 19:33:03.089287 14050 layer_factory.hpp:77] Creating layer inception_4c/relu_5x5
I0429 19:33:03.089293 14050 net.cpp:84] Creating Layer inception_4c/relu_5x5
I0429 19:33:03.089298 14050 net.cpp:406] inception_4c/relu_5x5 <- inception_4c/5x5
I0429 19:33:03.089306 14050 net.cpp:367] inception_4c/relu_5x5 -> inception_4c/5x5 (in-place)
I0429 19:33:03.096093 14050 net.cpp:122] Setting up inception_4c/relu_5x5
I0429 19:33:03.096119 14050 net.cpp:129] Top shape: 50 64 14 14 (627200)
I0429 19:33:03.096127 14050 net.cpp:137] Memory required for data: 2189692004
I0429 19:33:03.096132 14050 layer_factory.hpp:77] Creating layer inception_4c/pool
I0429 19:33:03.096145 14050 net.cpp:84] Creating Layer inception_4c/pool
I0429 19:33:03.096153 14050 net.cpp:406] inception_4c/pool <- inception_4b/output_inception_4b/output_0_split_3
I0429 19:33:03.096168 14050 net.cpp:380] inception_4c/pool -> inception_4c/pool
I0429 19:33:03.096246 14050 net.cpp:122] Setting up inception_4c/pool
I0429 19:33:03.096261 14050 net.cpp:129] Top shape: 50 512 14 14 (5017600)
I0429 19:33:03.096266 14050 net.cpp:137] Memory required for data: 2209762404
I0429 19:33:03.096273 14050 layer_factory.hpp:77] Creating layer inception_4c/pool_proj
I0429 19:33:03.096289 14050 net.cpp:84] Creating Layer inception_4c/pool_proj
I0429 19:33:03.096297 14050 net.cpp:406] inception_4c/pool_proj <- inception_4c/pool
I0429 19:33:03.096309 14050 net.cpp:380] inception_4c/pool_proj -> inception_4c/pool_proj
I0429 19:33:03.097223 14050 net.cpp:122] Setting up inception_4c/pool_proj
I0429 19:33:03.097236 14050 net.cpp:129] Top shape: 50 64 14 14 (627200)
I0429 19:33:03.097241 14050 net.cpp:137] Memory required for data: 2212271204
I0429 19:33:03.097249 14050 layer_factory.hpp:77] Creating layer inception_4c/relu_pool_proj
I0429 19:33:03.097272 14050 net.cpp:84] Creating Layer inception_4c/relu_pool_proj
I0429 19:33:03.097277 14050 net.cpp:406] inception_4c/relu_pool_proj <- inception_4c/pool_proj
I0429 19:33:03.097286 14050 net.cpp:367] inception_4c/relu_pool_proj -> inception_4c/pool_proj (in-place)
I0429 19:33:03.097882 14050 net.cpp:122] Setting up inception_4c/relu_pool_proj
I0429 19:33:03.097896 14050 net.cpp:129] Top shape: 50 64 14 14 (627200)
I0429 19:33:03.097901 14050 net.cpp:137] Memory required for data: 2214780004
I0429 19:33:03.097908 14050 layer_factory.hpp:77] Creating layer inception_4c/output
I0429 19:33:03.097914 14050 net.cpp:84] Creating Layer inception_4c/output
I0429 19:33:03.097919 14050 net.cpp:406] inception_4c/output <- inception_4c/1x1
I0429 19:33:03.097925 14050 net.cpp:406] inception_4c/output <- inception_4c/3x3
I0429 19:33:03.097930 14050 net.cpp:406] inception_4c/output <- inception_4c/5x5
I0429 19:33:03.097936 14050 net.cpp:406] inception_4c/output <- inception_4c/pool_proj
I0429 19:33:03.097944 14050 net.cpp:380] inception_4c/output -> inception_4c/output
I0429 19:33:03.097973 14050 net.cpp:122] Setting up inception_4c/output
I0429 19:33:03.097982 14050 net.cpp:129] Top shape: 50 512 14 14 (5017600)
I0429 19:33:03.097986 14050 net.cpp:137] Memory required for data: 2234850404
I0429 19:33:03.097990 14050 layer_factory.hpp:77] Creating layer inception_4c/output_inception_4c/output_0_split
I0429 19:33:03.098000 14050 net.cpp:84] Creating Layer inception_4c/output_inception_4c/output_0_split
I0429 19:33:03.098004 14050 net.cpp:406] inception_4c/output_inception_4c/output_0_split <- inception_4c/output
I0429 19:33:03.098011 14050 net.cpp:380] inception_4c/output_inception_4c/output_0_split -> inception_4c/output_inception_4c/output_0_split_0
I0429 19:33:03.098021 14050 net.cpp:380] inception_4c/output_inception_4c/output_0_split -> inception_4c/output_inception_4c/output_0_split_1
I0429 19:33:03.098027 14050 net.cpp:380] inception_4c/output_inception_4c/output_0_split -> inception_4c/output_inception_4c/output_0_split_2
I0429 19:33:03.098035 14050 net.cpp:380] inception_4c/output_inception_4c/output_0_split -> inception_4c/output_inception_4c/output_0_split_3
I0429 19:33:03.098091 14050 net.cpp:122] Setting up inception_4c/output_inception_4c/output_0_split
I0429 19:33:03.098098 14050 net.cpp:129] Top shape: 50 512 14 14 (5017600)
I0429 19:33:03.098104 14050 net.cpp:129] Top shape: 50 512 14 14 (5017600)
I0429 19:33:03.098109 14050 net.cpp:129] Top shape: 50 512 14 14 (5017600)
I0429 19:33:03.098114 14050 net.cpp:129] Top shape: 50 512 14 14 (5017600)
I0429 19:33:03.098119 14050 net.cpp:137] Memory required for data: 2315132004
I0429 19:33:03.098124 14050 layer_factory.hpp:77] Creating layer inception_4d/1x1
I0429 19:33:03.098134 14050 net.cpp:84] Creating Layer inception_4d/1x1
I0429 19:33:03.098139 14050 net.cpp:406] inception_4d/1x1 <- inception_4c/output_inception_4c/output_0_split_0
I0429 19:33:03.098146 14050 net.cpp:380] inception_4d/1x1 -> inception_4d/1x1
I0429 19:33:03.099432 14050 net.cpp:122] Setting up inception_4d/1x1
I0429 19:33:03.099445 14050 net.cpp:129] Top shape: 50 112 14 14 (1097600)
I0429 19:33:03.099452 14050 net.cpp:137] Memory required for data: 2319522404
I0429 19:33:03.099458 14050 layer_factory.hpp:77] Creating layer inception_4d/relu_1x1
I0429 19:33:03.099465 14050 net.cpp:84] Creating Layer inception_4d/relu_1x1
I0429 19:33:03.099470 14050 net.cpp:406] inception_4d/relu_1x1 <- inception_4d/1x1
I0429 19:33:03.099478 14050 net.cpp:367] inception_4d/relu_1x1 -> inception_4d/1x1 (in-place)
I0429 19:33:03.099623 14050 net.cpp:122] Setting up inception_4d/relu_1x1
I0429 19:33:03.099632 14050 net.cpp:129] Top shape: 50 112 14 14 (1097600)
I0429 19:33:03.099637 14050 net.cpp:137] Memory required for data: 2323912804
I0429 19:33:03.099642 14050 layer_factory.hpp:77] Creating layer inception_4d/3x3_reduce
I0429 19:33:03.099651 14050 net.cpp:84] Creating Layer inception_4d/3x3_reduce
I0429 19:33:03.099658 14050 net.cpp:406] inception_4d/3x3_reduce <- inception_4c/output_inception_4c/output_0_split_1
I0429 19:33:03.099679 14050 net.cpp:380] inception_4d/3x3_reduce -> inception_4d/3x3_reduce
I0429 19:33:03.101042 14050 net.cpp:122] Setting up inception_4d/3x3_reduce
I0429 19:33:03.101053 14050 net.cpp:129] Top shape: 50 144 14 14 (1411200)
I0429 19:33:03.101058 14050 net.cpp:137] Memory required for data: 2329557604
I0429 19:33:03.101065 14050 layer_factory.hpp:77] Creating layer inception_4d/relu_3x3_reduce
I0429 19:33:03.101073 14050 net.cpp:84] Creating Layer inception_4d/relu_3x3_reduce
I0429 19:33:03.101078 14050 net.cpp:406] inception_4d/relu_3x3_reduce <- inception_4d/3x3_reduce
I0429 19:33:03.101085 14050 net.cpp:367] inception_4d/relu_3x3_reduce -> inception_4d/3x3_reduce (in-place)
I0429 19:33:03.101233 14050 net.cpp:122] Setting up inception_4d/relu_3x3_reduce
I0429 19:33:03.101241 14050 net.cpp:129] Top shape: 50 144 14 14 (1411200)
I0429 19:33:03.101245 14050 net.cpp:137] Memory required for data: 2335202404
I0429 19:33:03.101250 14050 layer_factory.hpp:77] Creating layer inception_4d/3x3
I0429 19:33:03.101261 14050 net.cpp:84] Creating Layer inception_4d/3x3
I0429 19:33:03.101267 14050 net.cpp:406] inception_4d/3x3 <- inception_4d/3x3_reduce
I0429 19:33:03.101275 14050 net.cpp:380] inception_4d/3x3 -> inception_4d/3x3
I0429 19:33:03.126413 14050 net.cpp:122] Setting up inception_4d/3x3
I0429 19:33:03.126448 14050 net.cpp:129] Top shape: 50 288 14 14 (2822400)
I0429 19:33:03.126459 14050 net.cpp:137] Memory required for data: 2346492004
I0429 19:33:03.126474 14050 layer_factory.hpp:77] Creating layer inception_4d/relu_3x3
I0429 19:33:03.126487 14050 net.cpp:84] Creating Layer inception_4d/relu_3x3
I0429 19:33:03.126498 14050 net.cpp:406] inception_4d/relu_3x3 <- inception_4d/3x3
I0429 19:33:03.126508 14050 net.cpp:367] inception_4d/relu_3x3 -> inception_4d/3x3 (in-place)
I0429 19:33:03.126720 14050 net.cpp:122] Setting up inception_4d/relu_3x3
I0429 19:33:03.126732 14050 net.cpp:129] Top shape: 50 288 14 14 (2822400)
I0429 19:33:03.126739 14050 net.cpp:137] Memory required for data: 2357781604
I0429 19:33:03.126745 14050 layer_factory.hpp:77] Creating layer inception_4d/5x5_reduce
I0429 19:33:03.126762 14050 net.cpp:84] Creating Layer inception_4d/5x5_reduce
I0429 19:33:03.126768 14050 net.cpp:406] inception_4d/5x5_reduce <- inception_4c/output_inception_4c/output_0_split_2
I0429 19:33:03.126780 14050 net.cpp:380] inception_4d/5x5_reduce -> inception_4d/5x5_reduce
I0429 19:33:03.129331 14050 net.cpp:122] Setting up inception_4d/5x5_reduce
I0429 19:33:03.129355 14050 net.cpp:129] Top shape: 50 32 14 14 (313600)
I0429 19:33:03.129364 14050 net.cpp:137] Memory required for data: 2359036004
I0429 19:33:03.129374 14050 layer_factory.hpp:77] Creating layer inception_4d/relu_5x5_reduce
I0429 19:33:03.129385 14050 net.cpp:84] Creating Layer inception_4d/relu_5x5_reduce
I0429 19:33:03.129393 14050 net.cpp:406] inception_4d/relu_5x5_reduce <- inception_4d/5x5_reduce
I0429 19:33:03.129403 14050 net.cpp:367] inception_4d/relu_5x5_reduce -> inception_4d/5x5_reduce (in-place)
I0429 19:33:03.129597 14050 net.cpp:122] Setting up inception_4d/relu_5x5_reduce
I0429 19:33:03.129608 14050 net.cpp:129] Top shape: 50 32 14 14 (313600)
I0429 19:33:03.129616 14050 net.cpp:137] Memory required for data: 2360290404
I0429 19:33:03.129624 14050 layer_factory.hpp:77] Creating layer inception_4d/5x5
I0429 19:33:03.129643 14050 net.cpp:84] Creating Layer inception_4d/5x5
I0429 19:33:03.129652 14050 net.cpp:406] inception_4d/5x5 <- inception_4d/5x5_reduce
I0429 19:33:03.129663 14050 net.cpp:380] inception_4d/5x5 -> inception_4d/5x5
I0429 19:33:03.133028 14050 net.cpp:122] Setting up inception_4d/5x5
I0429 19:33:03.133050 14050 net.cpp:129] Top shape: 50 64 14 14 (627200)
I0429 19:33:03.133056 14050 net.cpp:137] Memory required for data: 2362799204
I0429 19:33:03.133067 14050 layer_factory.hpp:77] Creating layer inception_4d/relu_5x5
I0429 19:33:03.133080 14050 net.cpp:84] Creating Layer inception_4d/relu_5x5
I0429 19:33:03.133086 14050 net.cpp:406] inception_4d/relu_5x5 <- inception_4d/5x5
I0429 19:33:03.133105 14050 net.cpp:367] inception_4d/relu_5x5 -> inception_4d/5x5 (in-place)
I0429 19:33:03.133944 14050 net.cpp:122] Setting up inception_4d/relu_5x5
I0429 19:33:03.133962 14050 net.cpp:129] Top shape: 50 64 14 14 (627200)
I0429 19:33:03.133970 14050 net.cpp:137] Memory required for data: 2365308004
I0429 19:33:03.133977 14050 layer_factory.hpp:77] Creating layer inception_4d/pool
I0429 19:33:03.133988 14050 net.cpp:84] Creating Layer inception_4d/pool
I0429 19:33:03.133996 14050 net.cpp:406] inception_4d/pool <- inception_4c/output_inception_4c/output_0_split_3
I0429 19:33:03.134008 14050 net.cpp:380] inception_4d/pool -> inception_4d/pool
I0429 19:33:03.134068 14050 net.cpp:122] Setting up inception_4d/pool
I0429 19:33:03.134079 14050 net.cpp:129] Top shape: 50 512 14 14 (5017600)
I0429 19:33:03.134084 14050 net.cpp:137] Memory required for data: 2385378404
I0429 19:33:03.134093 14050 layer_factory.hpp:77] Creating layer inception_4d/pool_proj
I0429 19:33:03.134109 14050 net.cpp:84] Creating Layer inception_4d/pool_proj
I0429 19:33:03.134115 14050 net.cpp:406] inception_4d/pool_proj <- inception_4d/pool
I0429 19:33:03.134126 14050 net.cpp:380] inception_4d/pool_proj -> inception_4d/pool_proj
I0429 19:33:03.135316 14050 net.cpp:122] Setting up inception_4d/pool_proj
I0429 19:33:03.135330 14050 net.cpp:129] Top shape: 50 64 14 14 (627200)
I0429 19:33:03.135336 14050 net.cpp:137] Memory required for data: 2387887204
I0429 19:33:03.135346 14050 layer_factory.hpp:77] Creating layer inception_4d/relu_pool_proj
I0429 19:33:03.135360 14050 net.cpp:84] Creating Layer inception_4d/relu_pool_proj
I0429 19:33:03.135366 14050 net.cpp:406] inception_4d/relu_pool_proj <- inception_4d/pool_proj
I0429 19:33:03.135378 14050 net.cpp:367] inception_4d/relu_pool_proj -> inception_4d/pool_proj (in-place)
I0429 19:33:03.138001 14050 net.cpp:122] Setting up inception_4d/relu_pool_proj
I0429 19:33:03.138018 14050 net.cpp:129] Top shape: 50 64 14 14 (627200)
I0429 19:33:03.138028 14050 net.cpp:137] Memory required for data: 2390396004
I0429 19:33:03.138036 14050 layer_factory.hpp:77] Creating layer inception_4d/output
I0429 19:33:03.138049 14050 net.cpp:84] Creating Layer inception_4d/output
I0429 19:33:03.138056 14050 net.cpp:406] inception_4d/output <- inception_4d/1x1
I0429 19:33:03.138063 14050 net.cpp:406] inception_4d/output <- inception_4d/3x3
I0429 19:33:03.138069 14050 net.cpp:406] inception_4d/output <- inception_4d/5x5
I0429 19:33:03.138075 14050 net.cpp:406] inception_4d/output <- inception_4d/pool_proj
I0429 19:33:03.138085 14050 net.cpp:380] inception_4d/output -> inception_4d/output
I0429 19:33:03.138125 14050 net.cpp:122] Setting up inception_4d/output
I0429 19:33:03.138136 14050 net.cpp:129] Top shape: 50 528 14 14 (5174400)
I0429 19:33:03.138141 14050 net.cpp:137] Memory required for data: 2411093604
I0429 19:33:03.138149 14050 layer_factory.hpp:77] Creating layer inception_4d/output_inception_4d/output_0_split
I0429 19:33:03.138161 14050 net.cpp:84] Creating Layer inception_4d/output_inception_4d/output_0_split
I0429 19:33:03.138167 14050 net.cpp:406] inception_4d/output_inception_4d/output_0_split <- inception_4d/output
I0429 19:33:03.138178 14050 net.cpp:380] inception_4d/output_inception_4d/output_0_split -> inception_4d/output_inception_4d/output_0_split_0
I0429 19:33:03.138191 14050 net.cpp:380] inception_4d/output_inception_4d/output_0_split -> inception_4d/output_inception_4d/output_0_split_1
I0429 19:33:03.138202 14050 net.cpp:380] inception_4d/output_inception_4d/output_0_split -> inception_4d/output_inception_4d/output_0_split_2
I0429 19:33:03.138213 14050 net.cpp:380] inception_4d/output_inception_4d/output_0_split -> inception_4d/output_inception_4d/output_0_split_3
I0429 19:33:03.138222 14050 net.cpp:380] inception_4d/output_inception_4d/output_0_split -> inception_4d/output_inception_4d/output_0_split_4
I0429 19:33:03.138312 14050 net.cpp:122] Setting up inception_4d/output_inception_4d/output_0_split
I0429 19:33:03.138324 14050 net.cpp:129] Top shape: 50 528 14 14 (5174400)
I0429 19:33:03.138335 14050 net.cpp:129] Top shape: 50 528 14 14 (5174400)
I0429 19:33:03.138352 14050 net.cpp:129] Top shape: 50 528 14 14 (5174400)
I0429 19:33:03.138361 14050 net.cpp:129] Top shape: 50 528 14 14 (5174400)
I0429 19:33:03.138368 14050 net.cpp:129] Top shape: 50 528 14 14 (5174400)
I0429 19:33:03.138373 14050 net.cpp:137] Memory required for data: 2514581604
I0429 19:33:03.138381 14050 layer_factory.hpp:77] Creating layer loss2/ave_pool
I0429 19:33:03.138391 14050 net.cpp:84] Creating Layer loss2/ave_pool
I0429 19:33:03.138397 14050 net.cpp:406] loss2/ave_pool <- inception_4d/output_inception_4d/output_0_split_0
I0429 19:33:03.138411 14050 net.cpp:380] loss2/ave_pool -> loss2/ave_pool
I0429 19:33:03.138625 14050 net.cpp:122] Setting up loss2/ave_pool
I0429 19:33:03.138641 14050 net.cpp:129] Top shape: 50 528 4 4 (422400)
I0429 19:33:03.138648 14050 net.cpp:137] Memory required for data: 2516271204
I0429 19:33:03.138654 14050 layer_factory.hpp:77] Creating layer loss2/conv
I0429 19:33:03.138667 14050 net.cpp:84] Creating Layer loss2/conv
I0429 19:33:03.138675 14050 net.cpp:406] loss2/conv <- loss2/ave_pool
I0429 19:33:03.138686 14050 net.cpp:380] loss2/conv -> loss2/conv
I0429 19:33:03.140902 14050 net.cpp:122] Setting up loss2/conv
I0429 19:33:03.140921 14050 net.cpp:129] Top shape: 50 128 4 4 (102400)
I0429 19:33:03.140928 14050 net.cpp:137] Memory required for data: 2516680804
I0429 19:33:03.140938 14050 layer_factory.hpp:77] Creating layer loss2/relu_conv
I0429 19:33:03.140949 14050 net.cpp:84] Creating Layer loss2/relu_conv
I0429 19:33:03.140959 14050 net.cpp:406] loss2/relu_conv <- loss2/conv
I0429 19:33:03.140969 14050 net.cpp:367] loss2/relu_conv -> loss2/conv (in-place)
I0429 19:33:03.141160 14050 net.cpp:122] Setting up loss2/relu_conv
I0429 19:33:03.141173 14050 net.cpp:129] Top shape: 50 128 4 4 (102400)
I0429 19:33:03.141181 14050 net.cpp:137] Memory required for data: 2517090404
I0429 19:33:03.141193 14050 layer_factory.hpp:77] Creating layer loss2/fc
I0429 19:33:03.141207 14050 net.cpp:84] Creating Layer loss2/fc
I0429 19:33:03.141217 14050 net.cpp:406] loss2/fc <- loss2/conv
I0429 19:33:03.141228 14050 net.cpp:380] loss2/fc -> loss2/fc
I0429 19:33:03.159104 14050 net.cpp:122] Setting up loss2/fc
I0429 19:33:03.159145 14050 net.cpp:129] Top shape: 50 1024 (51200)
I0429 19:33:03.159152 14050 net.cpp:137] Memory required for data: 2517295204
I0429 19:33:03.159170 14050 layer_factory.hpp:77] Creating layer loss2/relu_fc
I0429 19:33:03.159188 14050 net.cpp:84] Creating Layer loss2/relu_fc
I0429 19:33:03.159198 14050 net.cpp:406] loss2/relu_fc <- loss2/fc
I0429 19:33:03.159210 14050 net.cpp:367] loss2/relu_fc -> loss2/fc (in-place)
I0429 19:33:03.159500 14050 net.cpp:122] Setting up loss2/relu_fc
I0429 19:33:03.159520 14050 net.cpp:129] Top shape: 50 1024 (51200)
I0429 19:33:03.159526 14050 net.cpp:137] Memory required for data: 2517500004
I0429 19:33:03.159539 14050 layer_factory.hpp:77] Creating layer loss2/drop_fc
I0429 19:33:03.159554 14050 net.cpp:84] Creating Layer loss2/drop_fc
I0429 19:33:03.159562 14050 net.cpp:406] loss2/drop_fc <- loss2/fc
I0429 19:33:03.159571 14050 net.cpp:367] loss2/drop_fc -> loss2/fc (in-place)
I0429 19:33:03.159613 14050 net.cpp:122] Setting up loss2/drop_fc
I0429 19:33:03.159626 14050 net.cpp:129] Top shape: 50 1024 (51200)
I0429 19:33:03.159631 14050 net.cpp:137] Memory required for data: 2517704804
I0429 19:33:03.159638 14050 layer_factory.hpp:77] Creating layer loss2/classifier
I0429 19:33:03.159652 14050 net.cpp:84] Creating Layer loss2/classifier
I0429 19:33:03.159659 14050 net.cpp:406] loss2/classifier <- loss2/fc
I0429 19:33:03.159670 14050 net.cpp:380] loss2/classifier -> loss2/classifier
I0429 19:33:03.166406 14050 net.cpp:122] Setting up loss2/classifier
I0429 19:33:03.166438 14050 net.cpp:129] Top shape: 50 1000 (50000)
I0429 19:33:03.166443 14050 net.cpp:137] Memory required for data: 2517904804
I0429 19:33:03.166458 14050 layer_factory.hpp:77] Creating layer loss2/loss
I0429 19:33:03.166477 14050 net.cpp:84] Creating Layer loss2/loss
I0429 19:33:03.166493 14050 net.cpp:406] loss2/loss <- loss2/classifier
I0429 19:33:03.166519 14050 net.cpp:406] loss2/loss <- label_data_1_split_1
I0429 19:33:03.166538 14050 net.cpp:380] loss2/loss -> loss2/loss2
I0429 19:33:03.166553 14050 layer_factory.hpp:77] Creating layer loss2/loss
I0429 19:33:03.173311 14050 net.cpp:122] Setting up loss2/loss
I0429 19:33:03.173333 14050 net.cpp:129] Top shape: (1)
I0429 19:33:03.173341 14050 net.cpp:132]     with loss weight 0.3
I0429 19:33:03.173362 14050 net.cpp:137] Memory required for data: 2517904808
I0429 19:33:03.173370 14050 layer_factory.hpp:77] Creating layer inception_4e/1x1
I0429 19:33:03.173394 14050 net.cpp:84] Creating Layer inception_4e/1x1
I0429 19:33:03.173403 14050 net.cpp:406] inception_4e/1x1 <- inception_4d/output_inception_4d/output_0_split_1
I0429 19:33:03.173415 14050 net.cpp:380] inception_4e/1x1 -> inception_4e/1x1
I0429 19:33:03.188825 14050 net.cpp:122] Setting up inception_4e/1x1
I0429 19:33:03.188850 14050 net.cpp:129] Top shape: 50 256 14 14 (2508800)
I0429 19:33:03.188856 14050 net.cpp:137] Memory required for data: 2527940008
I0429 19:33:03.188868 14050 layer_factory.hpp:77] Creating layer inception_4e/relu_1x1
I0429 19:33:03.188880 14050 net.cpp:84] Creating Layer inception_4e/relu_1x1
I0429 19:33:03.188889 14050 net.cpp:406] inception_4e/relu_1x1 <- inception_4e/1x1
I0429 19:33:03.188897 14050 net.cpp:367] inception_4e/relu_1x1 -> inception_4e/1x1 (in-place)
I0429 19:33:03.189077 14050 net.cpp:122] Setting up inception_4e/relu_1x1
I0429 19:33:03.189088 14050 net.cpp:129] Top shape: 50 256 14 14 (2508800)
I0429 19:33:03.189092 14050 net.cpp:137] Memory required for data: 2537975208
I0429 19:33:03.189096 14050 layer_factory.hpp:77] Creating layer inception_4e/3x3_reduce
I0429 19:33:03.189116 14050 net.cpp:84] Creating Layer inception_4e/3x3_reduce
I0429 19:33:03.189124 14050 net.cpp:406] inception_4e/3x3_reduce <- inception_4d/output_inception_4d/output_0_split_2
I0429 19:33:03.189132 14050 net.cpp:380] inception_4e/3x3_reduce -> inception_4e/3x3_reduce
I0429 19:33:03.190973 14050 net.cpp:122] Setting up inception_4e/3x3_reduce
I0429 19:33:03.190996 14050 net.cpp:129] Top shape: 50 160 14 14 (1568000)
I0429 19:33:03.191005 14050 net.cpp:137] Memory required for data: 2544247208
I0429 19:33:03.191018 14050 layer_factory.hpp:77] Creating layer inception_4e/relu_3x3_reduce
I0429 19:33:03.191030 14050 net.cpp:84] Creating Layer inception_4e/relu_3x3_reduce
I0429 19:33:03.191037 14050 net.cpp:406] inception_4e/relu_3x3_reduce <- inception_4e/3x3_reduce
I0429 19:33:03.191045 14050 net.cpp:367] inception_4e/relu_3x3_reduce -> inception_4e/3x3_reduce (in-place)
I0429 19:33:03.191215 14050 net.cpp:122] Setting up inception_4e/relu_3x3_reduce
I0429 19:33:03.191226 14050 net.cpp:129] Top shape: 50 160 14 14 (1568000)
I0429 19:33:03.191229 14050 net.cpp:137] Memory required for data: 2550519208
I0429 19:33:03.191236 14050 layer_factory.hpp:77] Creating layer inception_4e/3x3
I0429 19:33:03.191248 14050 net.cpp:84] Creating Layer inception_4e/3x3
I0429 19:33:03.191257 14050 net.cpp:406] inception_4e/3x3 <- inception_4e/3x3_reduce
I0429 19:33:03.191267 14050 net.cpp:380] inception_4e/3x3 -> inception_4e/3x3
I0429 19:33:03.196013 14050 net.cpp:122] Setting up inception_4e/3x3
I0429 19:33:03.196030 14050 net.cpp:129] Top shape: 50 320 14 14 (3136000)
I0429 19:33:03.196036 14050 net.cpp:137] Memory required for data: 2563063208
I0429 19:33:03.196044 14050 layer_factory.hpp:77] Creating layer inception_4e/relu_3x3
I0429 19:33:03.196051 14050 net.cpp:84] Creating Layer inception_4e/relu_3x3
I0429 19:33:03.196056 14050 net.cpp:406] inception_4e/relu_3x3 <- inception_4e/3x3
I0429 19:33:03.196064 14050 net.cpp:367] inception_4e/relu_3x3 -> inception_4e/3x3 (in-place)
I0429 19:33:03.196221 14050 net.cpp:122] Setting up inception_4e/relu_3x3
I0429 19:33:03.196231 14050 net.cpp:129] Top shape: 50 320 14 14 (3136000)
I0429 19:33:03.196236 14050 net.cpp:137] Memory required for data: 2575607208
I0429 19:33:03.196240 14050 layer_factory.hpp:77] Creating layer inception_4e/5x5_reduce
I0429 19:33:03.196259 14050 net.cpp:84] Creating Layer inception_4e/5x5_reduce
I0429 19:33:03.196279 14050 net.cpp:406] inception_4e/5x5_reduce <- inception_4d/output_inception_4d/output_0_split_3
I0429 19:33:03.196287 14050 net.cpp:380] inception_4e/5x5_reduce -> inception_4e/5x5_reduce
I0429 19:33:03.197466 14050 net.cpp:122] Setting up inception_4e/5x5_reduce
I0429 19:33:03.197480 14050 net.cpp:129] Top shape: 50 32 14 14 (313600)
I0429 19:33:03.197485 14050 net.cpp:137] Memory required for data: 2576861608
I0429 19:33:03.197494 14050 layer_factory.hpp:77] Creating layer inception_4e/relu_5x5_reduce
I0429 19:33:03.197501 14050 net.cpp:84] Creating Layer inception_4e/relu_5x5_reduce
I0429 19:33:03.197506 14050 net.cpp:406] inception_4e/relu_5x5_reduce <- inception_4e/5x5_reduce
I0429 19:33:03.197513 14050 net.cpp:367] inception_4e/relu_5x5_reduce -> inception_4e/5x5_reduce (in-place)
I0429 19:33:03.197671 14050 net.cpp:122] Setting up inception_4e/relu_5x5_reduce
I0429 19:33:03.197681 14050 net.cpp:129] Top shape: 50 32 14 14 (313600)
I0429 19:33:03.197686 14050 net.cpp:137] Memory required for data: 2578116008
I0429 19:33:03.197690 14050 layer_factory.hpp:77] Creating layer inception_4e/5x5
I0429 19:33:03.197780 14050 net.cpp:84] Creating Layer inception_4e/5x5
I0429 19:33:03.197793 14050 net.cpp:406] inception_4e/5x5 <- inception_4e/5x5_reduce
I0429 19:33:03.197804 14050 net.cpp:380] inception_4e/5x5 -> inception_4e/5x5
I0429 19:33:03.199335 14050 net.cpp:122] Setting up inception_4e/5x5
I0429 19:33:03.199348 14050 net.cpp:129] Top shape: 50 128 14 14 (1254400)
I0429 19:33:03.199353 14050 net.cpp:137] Memory required for data: 2583133608
I0429 19:33:03.199363 14050 layer_factory.hpp:77] Creating layer inception_4e/relu_5x5
I0429 19:33:03.199369 14050 net.cpp:84] Creating Layer inception_4e/relu_5x5
I0429 19:33:03.199374 14050 net.cpp:406] inception_4e/relu_5x5 <- inception_4e/5x5
I0429 19:33:03.199383 14050 net.cpp:367] inception_4e/relu_5x5 -> inception_4e/5x5 (in-place)
I0429 19:33:03.199939 14050 net.cpp:122] Setting up inception_4e/relu_5x5
I0429 19:33:03.199954 14050 net.cpp:129] Top shape: 50 128 14 14 (1254400)
I0429 19:33:03.199959 14050 net.cpp:137] Memory required for data: 2588151208
I0429 19:33:03.199966 14050 layer_factory.hpp:77] Creating layer inception_4e/pool
I0429 19:33:03.199975 14050 net.cpp:84] Creating Layer inception_4e/pool
I0429 19:33:03.199981 14050 net.cpp:406] inception_4e/pool <- inception_4d/output_inception_4d/output_0_split_4
I0429 19:33:03.199990 14050 net.cpp:380] inception_4e/pool -> inception_4e/pool
I0429 19:33:03.200039 14050 net.cpp:122] Setting up inception_4e/pool
I0429 19:33:03.200047 14050 net.cpp:129] Top shape: 50 528 14 14 (5174400)
I0429 19:33:03.200052 14050 net.cpp:137] Memory required for data: 2608848808
I0429 19:33:03.200055 14050 layer_factory.hpp:77] Creating layer inception_4e/pool_proj
I0429 19:33:03.200067 14050 net.cpp:84] Creating Layer inception_4e/pool_proj
I0429 19:33:03.200073 14050 net.cpp:406] inception_4e/pool_proj <- inception_4e/pool
I0429 19:33:03.200079 14050 net.cpp:380] inception_4e/pool_proj -> inception_4e/pool_proj
I0429 19:33:03.201038 14050 net.cpp:122] Setting up inception_4e/pool_proj
I0429 19:33:03.201050 14050 net.cpp:129] Top shape: 50 128 14 14 (1254400)
I0429 19:33:03.201056 14050 net.cpp:137] Memory required for data: 2613866408
I0429 19:33:03.201061 14050 layer_factory.hpp:77] Creating layer inception_4e/relu_pool_proj
I0429 19:33:03.201071 14050 net.cpp:84] Creating Layer inception_4e/relu_pool_proj
I0429 19:33:03.201076 14050 net.cpp:406] inception_4e/relu_pool_proj <- inception_4e/pool_proj
I0429 19:33:03.201082 14050 net.cpp:367] inception_4e/relu_pool_proj -> inception_4e/pool_proj (in-place)
I0429 19:33:03.201627 14050 net.cpp:122] Setting up inception_4e/relu_pool_proj
I0429 19:33:03.201639 14050 net.cpp:129] Top shape: 50 128 14 14 (1254400)
I0429 19:33:03.201644 14050 net.cpp:137] Memory required for data: 2618884008
I0429 19:33:03.201650 14050 layer_factory.hpp:77] Creating layer inception_4e/output
I0429 19:33:03.201658 14050 net.cpp:84] Creating Layer inception_4e/output
I0429 19:33:03.201678 14050 net.cpp:406] inception_4e/output <- inception_4e/1x1
I0429 19:33:03.201687 14050 net.cpp:406] inception_4e/output <- inception_4e/3x3
I0429 19:33:03.201692 14050 net.cpp:406] inception_4e/output <- inception_4e/5x5
I0429 19:33:03.201697 14050 net.cpp:406] inception_4e/output <- inception_4e/pool_proj
I0429 19:33:03.201742 14050 net.cpp:380] inception_4e/output -> inception_4e/output
I0429 19:33:03.201786 14050 net.cpp:122] Setting up inception_4e/output
I0429 19:33:03.201794 14050 net.cpp:129] Top shape: 50 832 14 14 (8153600)
I0429 19:33:03.201798 14050 net.cpp:137] Memory required for data: 2651498408
I0429 19:33:03.201802 14050 layer_factory.hpp:77] Creating layer pool4/3x3_s2
I0429 19:33:03.201812 14050 net.cpp:84] Creating Layer pool4/3x3_s2
I0429 19:33:03.201815 14050 net.cpp:406] pool4/3x3_s2 <- inception_4e/output
I0429 19:33:03.201823 14050 net.cpp:380] pool4/3x3_s2 -> pool4/3x3_s2
I0429 19:33:03.201864 14050 net.cpp:122] Setting up pool4/3x3_s2
I0429 19:33:03.201871 14050 net.cpp:129] Top shape: 50 832 7 7 (2038400)
I0429 19:33:03.201876 14050 net.cpp:137] Memory required for data: 2659652008
I0429 19:33:03.201879 14050 layer_factory.hpp:77] Creating layer pool4/3x3_s2_pool4/3x3_s2_0_split
I0429 19:33:03.201886 14050 net.cpp:84] Creating Layer pool4/3x3_s2_pool4/3x3_s2_0_split
I0429 19:33:03.201892 14050 net.cpp:406] pool4/3x3_s2_pool4/3x3_s2_0_split <- pool4/3x3_s2
I0429 19:33:03.201900 14050 net.cpp:380] pool4/3x3_s2_pool4/3x3_s2_0_split -> pool4/3x3_s2_pool4/3x3_s2_0_split_0
I0429 19:33:03.201907 14050 net.cpp:380] pool4/3x3_s2_pool4/3x3_s2_0_split -> pool4/3x3_s2_pool4/3x3_s2_0_split_1
I0429 19:33:03.201915 14050 net.cpp:380] pool4/3x3_s2_pool4/3x3_s2_0_split -> pool4/3x3_s2_pool4/3x3_s2_0_split_2
I0429 19:33:03.201923 14050 net.cpp:380] pool4/3x3_s2_pool4/3x3_s2_0_split -> pool4/3x3_s2_pool4/3x3_s2_0_split_3
I0429 19:33:03.201979 14050 net.cpp:122] Setting up pool4/3x3_s2_pool4/3x3_s2_0_split
I0429 19:33:03.201987 14050 net.cpp:129] Top shape: 50 832 7 7 (2038400)
I0429 19:33:03.201992 14050 net.cpp:129] Top shape: 50 832 7 7 (2038400)
I0429 19:33:03.201997 14050 net.cpp:129] Top shape: 50 832 7 7 (2038400)
I0429 19:33:03.202003 14050 net.cpp:129] Top shape: 50 832 7 7 (2038400)
I0429 19:33:03.202006 14050 net.cpp:137] Memory required for data: 2692266408
I0429 19:33:03.202011 14050 layer_factory.hpp:77] Creating layer inception_5a/1x1
I0429 19:33:03.202023 14050 net.cpp:84] Creating Layer inception_5a/1x1
I0429 19:33:03.202028 14050 net.cpp:406] inception_5a/1x1 <- pool4/3x3_s2_pool4/3x3_s2_0_split_0
I0429 19:33:03.202038 14050 net.cpp:380] inception_5a/1x1 -> inception_5a/1x1
I0429 19:33:03.204912 14050 net.cpp:122] Setting up inception_5a/1x1
I0429 19:33:03.204927 14050 net.cpp:129] Top shape: 50 256 7 7 (627200)
I0429 19:33:03.204931 14050 net.cpp:137] Memory required for data: 2694775208
I0429 19:33:03.204938 14050 layer_factory.hpp:77] Creating layer inception_5a/relu_1x1
I0429 19:33:03.204947 14050 net.cpp:84] Creating Layer inception_5a/relu_1x1
I0429 19:33:03.204954 14050 net.cpp:406] inception_5a/relu_1x1 <- inception_5a/1x1
I0429 19:33:03.204962 14050 net.cpp:367] inception_5a/relu_1x1 -> inception_5a/1x1 (in-place)
I0429 19:33:03.205107 14050 net.cpp:122] Setting up inception_5a/relu_1x1
I0429 19:33:03.205118 14050 net.cpp:129] Top shape: 50 256 7 7 (627200)
I0429 19:33:03.205124 14050 net.cpp:137] Memory required for data: 2697284008
I0429 19:33:03.205128 14050 layer_factory.hpp:77] Creating layer inception_5a/3x3_reduce
I0429 19:33:03.205139 14050 net.cpp:84] Creating Layer inception_5a/3x3_reduce
I0429 19:33:03.205145 14050 net.cpp:406] inception_5a/3x3_reduce <- pool4/3x3_s2_pool4/3x3_s2_0_split_1
I0429 19:33:03.205154 14050 net.cpp:380] inception_5a/3x3_reduce -> inception_5a/3x3_reduce
I0429 19:33:03.206832 14050 net.cpp:122] Setting up inception_5a/3x3_reduce
I0429 19:33:03.206845 14050 net.cpp:129] Top shape: 50 160 7 7 (392000)
I0429 19:33:03.206849 14050 net.cpp:137] Memory required for data: 2698852008
I0429 19:33:03.206862 14050 layer_factory.hpp:77] Creating layer inception_5a/relu_3x3_reduce
I0429 19:33:03.206881 14050 net.cpp:84] Creating Layer inception_5a/relu_3x3_reduce
I0429 19:33:03.206887 14050 net.cpp:406] inception_5a/relu_3x3_reduce <- inception_5a/3x3_reduce
I0429 19:33:03.206895 14050 net.cpp:367] inception_5a/relu_3x3_reduce -> inception_5a/3x3_reduce (in-place)
I0429 19:33:03.207046 14050 net.cpp:122] Setting up inception_5a/relu_3x3_reduce
I0429 19:33:03.207054 14050 net.cpp:129] Top shape: 50 160 7 7 (392000)
I0429 19:33:03.207058 14050 net.cpp:137] Memory required for data: 2700420008
I0429 19:33:03.207062 14050 layer_factory.hpp:77] Creating layer inception_5a/3x3
I0429 19:33:03.207073 14050 net.cpp:84] Creating Layer inception_5a/3x3
I0429 19:33:03.207079 14050 net.cpp:406] inception_5a/3x3 <- inception_5a/3x3_reduce
I0429 19:33:03.207088 14050 net.cpp:380] inception_5a/3x3 -> inception_5a/3x3
I0429 19:33:03.218614 14050 net.cpp:122] Setting up inception_5a/3x3
I0429 19:33:03.218641 14050 net.cpp:129] Top shape: 50 320 7 7 (784000)
I0429 19:33:03.218646 14050 net.cpp:137] Memory required for data: 2703556008
I0429 19:33:03.218655 14050 layer_factory.hpp:77] Creating layer inception_5a/relu_3x3
I0429 19:33:03.218667 14050 net.cpp:84] Creating Layer inception_5a/relu_3x3
I0429 19:33:03.218674 14050 net.cpp:406] inception_5a/relu_3x3 <- inception_5a/3x3
I0429 19:33:03.218683 14050 net.cpp:367] inception_5a/relu_3x3 -> inception_5a/3x3 (in-place)
I0429 19:33:03.218854 14050 net.cpp:122] Setting up inception_5a/relu_3x3
I0429 19:33:03.218864 14050 net.cpp:129] Top shape: 50 320 7 7 (784000)
I0429 19:33:03.218869 14050 net.cpp:137] Memory required for data: 2706692008
I0429 19:33:03.218874 14050 layer_factory.hpp:77] Creating layer inception_5a/5x5_reduce
I0429 19:33:03.218885 14050 net.cpp:84] Creating Layer inception_5a/5x5_reduce
I0429 19:33:03.218892 14050 net.cpp:406] inception_5a/5x5_reduce <- pool4/3x3_s2_pool4/3x3_s2_0_split_2
I0429 19:33:03.218905 14050 net.cpp:380] inception_5a/5x5_reduce -> inception_5a/5x5_reduce
I0429 19:33:03.220629 14050 net.cpp:122] Setting up inception_5a/5x5_reduce
I0429 19:33:03.220649 14050 net.cpp:129] Top shape: 50 32 7 7 (78400)
I0429 19:33:03.220655 14050 net.cpp:137] Memory required for data: 2707005608
I0429 19:33:03.220669 14050 layer_factory.hpp:77] Creating layer inception_5a/relu_5x5_reduce
I0429 19:33:03.220679 14050 net.cpp:84] Creating Layer inception_5a/relu_5x5_reduce
I0429 19:33:03.220685 14050 net.cpp:406] inception_5a/relu_5x5_reduce <- inception_5a/5x5_reduce
I0429 19:33:03.220696 14050 net.cpp:367] inception_5a/relu_5x5_reduce -> inception_5a/5x5_reduce (in-place)
I0429 19:33:03.220893 14050 net.cpp:122] Setting up inception_5a/relu_5x5_reduce
I0429 19:33:03.220906 14050 net.cpp:129] Top shape: 50 32 7 7 (78400)
I0429 19:33:03.220911 14050 net.cpp:137] Memory required for data: 2707319208
I0429 19:33:03.220918 14050 layer_factory.hpp:77] Creating layer inception_5a/5x5
I0429 19:33:03.220933 14050 net.cpp:84] Creating Layer inception_5a/5x5
I0429 19:33:03.220942 14050 net.cpp:406] inception_5a/5x5 <- inception_5a/5x5_reduce
I0429 19:33:03.220954 14050 net.cpp:380] inception_5a/5x5 -> inception_5a/5x5
I0429 19:33:03.223081 14050 net.cpp:122] Setting up inception_5a/5x5
I0429 19:33:03.223101 14050 net.cpp:129] Top shape: 50 128 7 7 (313600)
I0429 19:33:03.223107 14050 net.cpp:137] Memory required for data: 2708573608
I0429 19:33:03.223119 14050 layer_factory.hpp:77] Creating layer inception_5a/relu_5x5
I0429 19:33:03.223129 14050 net.cpp:84] Creating Layer inception_5a/relu_5x5
I0429 19:33:03.223136 14050 net.cpp:406] inception_5a/relu_5x5 <- inception_5a/5x5
I0429 19:33:03.223147 14050 net.cpp:367] inception_5a/relu_5x5 -> inception_5a/5x5 (in-place)
I0429 19:33:03.223845 14050 net.cpp:122] Setting up inception_5a/relu_5x5
I0429 19:33:03.223861 14050 net.cpp:129] Top shape: 50 128 7 7 (313600)
I0429 19:33:03.223870 14050 net.cpp:137] Memory required for data: 2709828008
I0429 19:33:03.223876 14050 layer_factory.hpp:77] Creating layer inception_5a/pool
I0429 19:33:03.223896 14050 net.cpp:84] Creating Layer inception_5a/pool
I0429 19:33:03.223947 14050 net.cpp:406] inception_5a/pool <- pool4/3x3_s2_pool4/3x3_s2_0_split_3
I0429 19:33:03.223959 14050 net.cpp:380] inception_5a/pool -> inception_5a/pool
I0429 19:33:03.224022 14050 net.cpp:122] Setting up inception_5a/pool
I0429 19:33:03.224033 14050 net.cpp:129] Top shape: 50 832 7 7 (2038400)
I0429 19:33:03.224040 14050 net.cpp:137] Memory required for data: 2717981608
I0429 19:33:03.224047 14050 layer_factory.hpp:77] Creating layer inception_5a/pool_proj
I0429 19:33:03.224063 14050 net.cpp:84] Creating Layer inception_5a/pool_proj
I0429 19:33:03.224071 14050 net.cpp:406] inception_5a/pool_proj <- inception_5a/pool
I0429 19:33:03.224082 14050 net.cpp:380] inception_5a/pool_proj -> inception_5a/pool_proj
I0429 19:33:03.226415 14050 net.cpp:122] Setting up inception_5a/pool_proj
I0429 19:33:03.226447 14050 net.cpp:129] Top shape: 50 128 7 7 (313600)
I0429 19:33:03.226451 14050 net.cpp:137] Memory required for data: 2719236008
I0429 19:33:03.226461 14050 layer_factory.hpp:77] Creating layer inception_5a/relu_pool_proj
I0429 19:33:03.226475 14050 net.cpp:84] Creating Layer inception_5a/relu_pool_proj
I0429 19:33:03.226481 14050 net.cpp:406] inception_5a/relu_pool_proj <- inception_5a/pool_proj
I0429 19:33:03.226488 14050 net.cpp:367] inception_5a/relu_pool_proj -> inception_5a/pool_proj (in-place)
I0429 19:33:03.227180 14050 net.cpp:122] Setting up inception_5a/relu_pool_proj
I0429 19:33:03.227196 14050 net.cpp:129] Top shape: 50 128 7 7 (313600)
I0429 19:33:03.227200 14050 net.cpp:137] Memory required for data: 2720490408
I0429 19:33:03.227205 14050 layer_factory.hpp:77] Creating layer inception_5a/output
I0429 19:33:03.227214 14050 net.cpp:84] Creating Layer inception_5a/output
I0429 19:33:03.227221 14050 net.cpp:406] inception_5a/output <- inception_5a/1x1
I0429 19:33:03.227227 14050 net.cpp:406] inception_5a/output <- inception_5a/3x3
I0429 19:33:03.227232 14050 net.cpp:406] inception_5a/output <- inception_5a/5x5
I0429 19:33:03.227236 14050 net.cpp:406] inception_5a/output <- inception_5a/pool_proj
I0429 19:33:03.227243 14050 net.cpp:380] inception_5a/output -> inception_5a/output
I0429 19:33:03.227286 14050 net.cpp:122] Setting up inception_5a/output
I0429 19:33:03.227294 14050 net.cpp:129] Top shape: 50 832 7 7 (2038400)
I0429 19:33:03.227298 14050 net.cpp:137] Memory required for data: 2728644008
I0429 19:33:03.227303 14050 layer_factory.hpp:77] Creating layer inception_5a/output_inception_5a/output_0_split
I0429 19:33:03.227311 14050 net.cpp:84] Creating Layer inception_5a/output_inception_5a/output_0_split
I0429 19:33:03.227315 14050 net.cpp:406] inception_5a/output_inception_5a/output_0_split <- inception_5a/output
I0429 19:33:03.227321 14050 net.cpp:380] inception_5a/output_inception_5a/output_0_split -> inception_5a/output_inception_5a/output_0_split_0
I0429 19:33:03.227331 14050 net.cpp:380] inception_5a/output_inception_5a/output_0_split -> inception_5a/output_inception_5a/output_0_split_1
I0429 19:33:03.227339 14050 net.cpp:380] inception_5a/output_inception_5a/output_0_split -> inception_5a/output_inception_5a/output_0_split_2
I0429 19:33:03.227345 14050 net.cpp:380] inception_5a/output_inception_5a/output_0_split -> inception_5a/output_inception_5a/output_0_split_3
I0429 19:33:03.227406 14050 net.cpp:122] Setting up inception_5a/output_inception_5a/output_0_split
I0429 19:33:03.227413 14050 net.cpp:129] Top shape: 50 832 7 7 (2038400)
I0429 19:33:03.227418 14050 net.cpp:129] Top shape: 50 832 7 7 (2038400)
I0429 19:33:03.227422 14050 net.cpp:129] Top shape: 50 832 7 7 (2038400)
I0429 19:33:03.227427 14050 net.cpp:129] Top shape: 50 832 7 7 (2038400)
I0429 19:33:03.227432 14050 net.cpp:137] Memory required for data: 2761258408
I0429 19:33:03.227435 14050 layer_factory.hpp:77] Creating layer inception_5b/1x1
I0429 19:33:03.227447 14050 net.cpp:84] Creating Layer inception_5b/1x1
I0429 19:33:03.227452 14050 net.cpp:406] inception_5b/1x1 <- inception_5a/output_inception_5a/output_0_split_0
I0429 19:33:03.227460 14050 net.cpp:380] inception_5b/1x1 -> inception_5b/1x1
I0429 19:33:03.230630 14050 net.cpp:122] Setting up inception_5b/1x1
I0429 19:33:03.230656 14050 net.cpp:129] Top shape: 50 384 7 7 (940800)
I0429 19:33:03.230660 14050 net.cpp:137] Memory required for data: 2765021608
I0429 19:33:03.230670 14050 layer_factory.hpp:77] Creating layer inception_5b/relu_1x1
I0429 19:33:03.230679 14050 net.cpp:84] Creating Layer inception_5b/relu_1x1
I0429 19:33:03.230684 14050 net.cpp:406] inception_5b/relu_1x1 <- inception_5b/1x1
I0429 19:33:03.230692 14050 net.cpp:367] inception_5b/relu_1x1 -> inception_5b/1x1 (in-place)
I0429 19:33:03.230871 14050 net.cpp:122] Setting up inception_5b/relu_1x1
I0429 19:33:03.230885 14050 net.cpp:129] Top shape: 50 384 7 7 (940800)
I0429 19:33:03.230890 14050 net.cpp:137] Memory required for data: 2768784808
I0429 19:33:03.230896 14050 layer_factory.hpp:77] Creating layer inception_5b/3x3_reduce
I0429 19:33:03.230913 14050 net.cpp:84] Creating Layer inception_5b/3x3_reduce
I0429 19:33:03.230921 14050 net.cpp:406] inception_5b/3x3_reduce <- inception_5a/output_inception_5a/output_0_split_1
I0429 19:33:03.230932 14050 net.cpp:380] inception_5b/3x3_reduce -> inception_5b/3x3_reduce
I0429 19:33:03.240037 14050 net.cpp:122] Setting up inception_5b/3x3_reduce
I0429 19:33:03.240067 14050 net.cpp:129] Top shape: 50 192 7 7 (470400)
I0429 19:33:03.240072 14050 net.cpp:137] Memory required for data: 2770666408
I0429 19:33:03.240082 14050 layer_factory.hpp:77] Creating layer inception_5b/relu_3x3_reduce
I0429 19:33:03.240092 14050 net.cpp:84] Creating Layer inception_5b/relu_3x3_reduce
I0429 19:33:03.240099 14050 net.cpp:406] inception_5b/relu_3x3_reduce <- inception_5b/3x3_reduce
I0429 19:33:03.240110 14050 net.cpp:367] inception_5b/relu_3x3_reduce -> inception_5b/3x3_reduce (in-place)
I0429 19:33:03.240263 14050 net.cpp:122] Setting up inception_5b/relu_3x3_reduce
I0429 19:33:03.240272 14050 net.cpp:129] Top shape: 50 192 7 7 (470400)
I0429 19:33:03.240278 14050 net.cpp:137] Memory required for data: 2772548008
I0429 19:33:03.240283 14050 layer_factory.hpp:77] Creating layer inception_5b/3x3
I0429 19:33:03.240296 14050 net.cpp:84] Creating Layer inception_5b/3x3
I0429 19:33:03.240301 14050 net.cpp:406] inception_5b/3x3 <- inception_5b/3x3_reduce
I0429 19:33:03.240309 14050 net.cpp:380] inception_5b/3x3 -> inception_5b/3x3
I0429 19:33:03.247006 14050 net.cpp:122] Setting up inception_5b/3x3
I0429 19:33:03.247031 14050 net.cpp:129] Top shape: 50 384 7 7 (940800)
I0429 19:33:03.247036 14050 net.cpp:137] Memory required for data: 2776311208
I0429 19:33:03.247048 14050 layer_factory.hpp:77] Creating layer inception_5b/relu_3x3
I0429 19:33:03.247058 14050 net.cpp:84] Creating Layer inception_5b/relu_3x3
I0429 19:33:03.247063 14050 net.cpp:406] inception_5b/relu_3x3 <- inception_5b/3x3
I0429 19:33:03.247071 14050 net.cpp:367] inception_5b/relu_3x3 -> inception_5b/3x3 (in-place)
I0429 19:33:03.247251 14050 net.cpp:122] Setting up inception_5b/relu_3x3
I0429 19:33:03.247259 14050 net.cpp:129] Top shape: 50 384 7 7 (940800)
I0429 19:33:03.247263 14050 net.cpp:137] Memory required for data: 2780074408
I0429 19:33:03.247267 14050 layer_factory.hpp:77] Creating layer inception_5b/5x5_reduce
I0429 19:33:03.247280 14050 net.cpp:84] Creating Layer inception_5b/5x5_reduce
I0429 19:33:03.247285 14050 net.cpp:406] inception_5b/5x5_reduce <- inception_5a/output_inception_5a/output_0_split_2
I0429 19:33:03.247293 14050 net.cpp:380] inception_5b/5x5_reduce -> inception_5b/5x5_reduce
I0429 19:33:03.248710 14050 net.cpp:122] Setting up inception_5b/5x5_reduce
I0429 19:33:03.248723 14050 net.cpp:129] Top shape: 50 48 7 7 (117600)
I0429 19:33:03.248728 14050 net.cpp:137] Memory required for data: 2780544808
I0429 19:33:03.248735 14050 layer_factory.hpp:77] Creating layer inception_5b/relu_5x5_reduce
I0429 19:33:03.248742 14050 net.cpp:84] Creating Layer inception_5b/relu_5x5_reduce
I0429 19:33:03.248749 14050 net.cpp:406] inception_5b/relu_5x5_reduce <- inception_5b/5x5_reduce
I0429 19:33:03.248754 14050 net.cpp:367] inception_5b/relu_5x5_reduce -> inception_5b/5x5_reduce (in-place)
I0429 19:33:03.248924 14050 net.cpp:122] Setting up inception_5b/relu_5x5_reduce
I0429 19:33:03.248934 14050 net.cpp:129] Top shape: 50 48 7 7 (117600)
I0429 19:33:03.248939 14050 net.cpp:137] Memory required for data: 2781015208
I0429 19:33:03.248942 14050 layer_factory.hpp:77] Creating layer inception_5b/5x5
I0429 19:33:03.248953 14050 net.cpp:84] Creating Layer inception_5b/5x5
I0429 19:33:03.248960 14050 net.cpp:406] inception_5b/5x5 <- inception_5b/5x5_reduce
I0429 19:33:03.248967 14050 net.cpp:380] inception_5b/5x5 -> inception_5b/5x5
I0429 19:33:03.250778 14050 net.cpp:122] Setting up inception_5b/5x5
I0429 19:33:03.250794 14050 net.cpp:129] Top shape: 50 128 7 7 (313600)
I0429 19:33:03.250798 14050 net.cpp:137] Memory required for data: 2782269608
I0429 19:33:03.250808 14050 layer_factory.hpp:77] Creating layer inception_5b/relu_5x5
I0429 19:33:03.250816 14050 net.cpp:84] Creating Layer inception_5b/relu_5x5
I0429 19:33:03.250821 14050 net.cpp:406] inception_5b/relu_5x5 <- inception_5b/5x5
I0429 19:33:03.250828 14050 net.cpp:367] inception_5b/relu_5x5 -> inception_5b/5x5 (in-place)
I0429 19:33:03.251386 14050 net.cpp:122] Setting up inception_5b/relu_5x5
I0429 19:33:03.251397 14050 net.cpp:129] Top shape: 50 128 7 7 (313600)
I0429 19:33:03.251401 14050 net.cpp:137] Memory required for data: 2783524008
I0429 19:33:03.251405 14050 layer_factory.hpp:77] Creating layer inception_5b/pool
I0429 19:33:03.251415 14050 net.cpp:84] Creating Layer inception_5b/pool
I0429 19:33:03.251420 14050 net.cpp:406] inception_5b/pool <- inception_5a/output_inception_5a/output_0_split_3
I0429 19:33:03.251426 14050 net.cpp:380] inception_5b/pool -> inception_5b/pool
I0429 19:33:03.251477 14050 net.cpp:122] Setting up inception_5b/pool
I0429 19:33:03.251484 14050 net.cpp:129] Top shape: 50 832 7 7 (2038400)
I0429 19:33:03.251488 14050 net.cpp:137] Memory required for data: 2791677608
I0429 19:33:03.251492 14050 layer_factory.hpp:77] Creating layer inception_5b/pool_proj
I0429 19:33:03.251503 14050 net.cpp:84] Creating Layer inception_5b/pool_proj
I0429 19:33:03.251508 14050 net.cpp:406] inception_5b/pool_proj <- inception_5b/pool
I0429 19:33:03.251518 14050 net.cpp:380] inception_5b/pool_proj -> inception_5b/pool_proj
I0429 19:33:03.252701 14050 net.cpp:122] Setting up inception_5b/pool_proj
I0429 19:33:03.252712 14050 net.cpp:129] Top shape: 50 128 7 7 (313600)
I0429 19:33:03.252717 14050 net.cpp:137] Memory required for data: 2792932008
I0429 19:33:03.252723 14050 layer_factory.hpp:77] Creating layer inception_5b/relu_pool_proj
I0429 19:33:03.252730 14050 net.cpp:84] Creating Layer inception_5b/relu_pool_proj
I0429 19:33:03.252735 14050 net.cpp:406] inception_5b/relu_pool_proj <- inception_5b/pool_proj
I0429 19:33:03.252743 14050 net.cpp:367] inception_5b/relu_pool_proj -> inception_5b/pool_proj (in-place)
I0429 19:33:03.253298 14050 net.cpp:122] Setting up inception_5b/relu_pool_proj
I0429 19:33:03.253311 14050 net.cpp:129] Top shape: 50 128 7 7 (313600)
I0429 19:33:03.253315 14050 net.cpp:137] Memory required for data: 2794186408
I0429 19:33:03.253320 14050 layer_factory.hpp:77] Creating layer inception_5b/output
I0429 19:33:03.253327 14050 net.cpp:84] Creating Layer inception_5b/output
I0429 19:33:03.253332 14050 net.cpp:406] inception_5b/output <- inception_5b/1x1
I0429 19:33:03.253337 14050 net.cpp:406] inception_5b/output <- inception_5b/3x3
I0429 19:33:03.253343 14050 net.cpp:406] inception_5b/output <- inception_5b/5x5
I0429 19:33:03.253347 14050 net.cpp:406] inception_5b/output <- inception_5b/pool_proj
I0429 19:33:03.253353 14050 net.cpp:380] inception_5b/output -> inception_5b/output
I0429 19:33:03.253387 14050 net.cpp:122] Setting up inception_5b/output
I0429 19:33:03.253396 14050 net.cpp:129] Top shape: 50 1024 7 7 (2508800)
I0429 19:33:03.253399 14050 net.cpp:137] Memory required for data: 2804221608
I0429 19:33:03.253403 14050 layer_factory.hpp:77] Creating layer pool5/7x7_s1
I0429 19:33:03.253412 14050 net.cpp:84] Creating Layer pool5/7x7_s1
I0429 19:33:03.253417 14050 net.cpp:406] pool5/7x7_s1 <- inception_5b/output
I0429 19:33:03.253439 14050 net.cpp:380] pool5/7x7_s1 -> pool5/7x7_s1
I0429 19:33:03.254017 14050 net.cpp:122] Setting up pool5/7x7_s1
I0429 19:33:03.254029 14050 net.cpp:129] Top shape: 50 1024 1 1 (51200)
I0429 19:33:03.254034 14050 net.cpp:137] Memory required for data: 2804426408
I0429 19:33:03.254039 14050 layer_factory.hpp:77] Creating layer pool5/drop_7x7_s1
I0429 19:33:03.254046 14050 net.cpp:84] Creating Layer pool5/drop_7x7_s1
I0429 19:33:03.254051 14050 net.cpp:406] pool5/drop_7x7_s1 <- pool5/7x7_s1
I0429 19:33:03.254058 14050 net.cpp:367] pool5/drop_7x7_s1 -> pool5/7x7_s1 (in-place)
I0429 19:33:03.254087 14050 net.cpp:122] Setting up pool5/drop_7x7_s1
I0429 19:33:03.254094 14050 net.cpp:129] Top shape: 50 1024 1 1 (51200)
I0429 19:33:03.254098 14050 net.cpp:137] Memory required for data: 2804631208
I0429 19:33:03.254102 14050 layer_factory.hpp:77] Creating layer loss3/classifier
I0429 19:33:03.254112 14050 net.cpp:84] Creating Layer loss3/classifier
I0429 19:33:03.254115 14050 net.cpp:406] loss3/classifier <- pool5/7x7_s1
I0429 19:33:03.254122 14050 net.cpp:380] loss3/classifier -> loss3/classifier
I0429 19:33:03.254261 14050 net.cpp:122] Setting up loss3/classifier
I0429 19:33:03.254268 14050 net.cpp:129] Top shape: 50 5 (250)
I0429 19:33:03.254272 14050 net.cpp:137] Memory required for data: 2804632208
I0429 19:33:03.254278 14050 layer_factory.hpp:77] Creating layer loss3/loss3
I0429 19:33:03.254287 14050 net.cpp:84] Creating Layer loss3/loss3
I0429 19:33:03.254292 14050 net.cpp:406] loss3/loss3 <- loss3/classifier
I0429 19:33:03.254297 14050 net.cpp:406] loss3/loss3 <- label_data_1_split_2
I0429 19:33:03.254302 14050 net.cpp:380] loss3/loss3 -> loss3/loss3
…
I0429 19:33:03.257176 14050 net.cpp:294] The NetState phase (1) differed from the phase (0) specified by a rule in layer data
I0429 19:33:03.258108 14050 net.cpp:51] Initializing net from parameters: 
name: "GoogleNet"
state {
  phase: TEST
}
layer {
  name: "data"
  type: "Data"
  top: "data"
  top: "label"
  include {
    phase: TEST
  }
  transform_param {
    mirror: false
    crop_size: 224
    mean_file: "retina256/retina256_train_mean.binaryproto"
  }
  data_param {
    source: "retina256/retina256_test_lmdb"
    batch_size: 1
    backend: LMDB
  }
}
layer {
  name: "conv1/7x7_s2"
  type: "Convolution"
  bottom: "data"
  top: "conv1/7x7_s2"
  param {
    lr_mult: 1
    decay_mult: 1
  }
  param {
    lr_mult: 2
    decay_mult: 0
  }
  convolution_param {
    num_output: 64
    pad: 3
    kernel_size: 7
    stride: 2
    weight_filler {
      type: "xavier"
    }
    bias_filler {
      type: "constant"
      value: 0.2
    }
  }
}
layer {
  name: "conv1/relu_7x7"
  type: "ReLU"
  bottom: "conv1/7x7_s2"
  top: "conv1/7x7_s2"
}
layer {
  name: "pool1/3x3_s2"
  type: "Pooling"
  bottom: "conv1/7x7_s2"
  top: "pool1/3x3_s2"
  pooling_param {
    pool: MAX
    kernel_size: 3
    stride: 2
  }
}
layer {
  name: "pool1/norm1"
  type: "LRN"
  bottom: "pool1/3x3_s2"
  top: "pool1/norm1"
  lrn_param {
    local_size: 5
    alpha: 0.0001
    beta: 0.75
  }
}
layer {
  name: "conv2/3x3_reduce"
  type: "Convolution"
  bottom: "pool1/norm1"
  top: "conv2/3x3_reduce"
  param {
    lr_mult: 1
    decay_mult: 1
  }
  param {
    lr_mult: 2
    decay_mult: 0
  }
  convolution_param {
    num_output: 64
    kernel_size: 1
    weight_filler {
      type: "xavier"
    }
    bias_filler {
      type: "constant"
      value: 0.2
    }
  }
}
layer {
  name: "conv2/relu_3x3_reduce"
  type: "ReLU"
  bottom: "conv2/3x3_reduce"
  top: "conv2/3x3_reduce"
}
layer {
  name: "conv2/3x3"
  type: "Convolution"
  bottom: "conv2/3x3_reduce"
  top: "conv2/3x3"
  param {
    lr_mult: 1
    decay_mult: 1
  }
  param {
    lr_mult: 2
    decay_mult: 0
  }
  convolution_param {
    num_output: 192
    pad: 1
    kernel_size: 3
    weight_filler {
      type: "xavier"
    }
    bias_filler {
      type: "constant"
      value: 0.2
    }
  }
}
layer {
  name: "conv2/relu_3x3"
  type: "ReLU"
  bottom: "conv2/3x3"
  top: "conv2/3x3"
}
layer {
  name: "conv2/norm2"
  type: "LRN"
  bottom: "conv2/3x3"
  top: "conv2/norm2"
  lrn_param {
    local_size: 5
    alpha: 0.0001
    beta: 0.75
  }
}
layer {
  name: "pool2/3x3_s2"
  type: "Pooling"
  bottom: "conv2/norm2"
  top: "pool2/3x3_s2"
  pooling_param {
    pool: MAX
    kernel_size: 3
    stride: 2
  }
}
layer {
  name: "inception_3a/1x1"
  type: "Convolution"
  bottom: "pool2/3x3_s2"
  top: "inception_3a/1x1"
  param {
    lr_mult: 1
    decay_mult: 1
  }
  param {
    lr_mult: 2
    decay_mult: 0
  }
  convolution_param {
    num_output: 64
    kernel_size: 1
    weight_filler {
      type: "xavier"
    }
    bias_filler {
      type: "constant"
      value: 0.2
    }
  }
}
layer {
  name: "inception_3a/relu_1x1"
  type: "ReLU"
  bottom: "inception_3a/1x1"
  top: "inception_3a/1x1"
}
layer {
  name: "inception_3a/3x3_reduce"
  type: "Convolution"
  bottom: "pool2/3x3_s2"
  top: "inception_3a/3x3_reduce"
  param {
    lr_mult: 1
    decay_mult: 1
  }
  param {
    lr_mult: 2
    decay_mult: 0
  }
  convolution_param {
    num_output: 96
    kernel_size: 1
    weight_filler {
      type: "xavier"
    }
    bias_filler {
      type: "constant"
      value: 0.2
    }
  }
}
layer {
  name: "inception_3a/relu_3x3_reduce"
  type: "ReLU"
  bottom: "inception_3a/3x3_reduce"
  top: "inception_3a/3x3_reduce"
}
layer {
  name: "inception_3a/3x3"
  type: "Convolution"
  bottom: "inception_3a/3x3_reduce"
  top: "inception_3a/3x3"
  param {
    lr_mult: 1
    decay_mult: 1
  }
  param {
    lr_mult: 2
    decay_mult: 0
  }
  convolution_param {
    num_output: 128
    pad: 1
    kernel_size: 3
    weight_filler {
      type: "xavier"
    }
    bias_filler {
      type: "constant"
      value: 0.2
    }
  }
}
layer {
  name: "inception_3a/relu_3x3"
  type: "ReLU"
  bottom: "inception_3a/3x3"
  top: "inception_3a/3x3"
}
layer {
  name: "inception_3a/5x5_reduce"
  type: "Convolution"
  bottom: "pool2/3x3_s2"
  top: "inception_3a/5x5_reduce"
  param {
    lr_mult: 1
    decay_mult: 1
  }
  param {
    lr_mult: 2
    decay_mult: 0
  }
  convolution_param {
    num_output: 16
    kernel_size: 1
    weight_filler {
      type: "xavier"
    }
    bias_filler {
      type: "constant"
      value: 0.2
    }
  }
}
layer {
  name: "inception_3a/relu_5x5_reduce"
  type: "ReLU"
  bottom: "inception_3a/5x5_reduce"
  top: "inception_3a/5x5_reduce"
}
layer {
  name: "inception_3a/5x5"
  type: "Convolution"
  bottom: "inception_3a/5x5_reduce"
  top: "inception_3a/5x5"
  param {
    lr_mult: 1
    decay_mult: 1
  }
  param {
    lr_mult: 2
    decay_mult: 0
  }
  convolution_param {
    num_output: 32
    pad: 2
    kernel_size: 5
    weight_filler {
      type: "xavier"
    }
    bias_filler {
      type: "constant"
      value: 0.2
    }
  }
}
layer {
  name: "inception_3a/relu_5x5"
  type: "ReLU"
  bottom: "inception_3a/5x5"
  top: "inception_3a/5x5"
}
layer {
  name: "inception_3a/pool"
  type: "Pooling"
  bottom: "pool2/3x3_s2"
  top: "inception_3a/pool"
  pooling_param {
    pool: MAX
    kernel_size: 3
    stride: 1
    pad: 1
  }
}
layer {
  name: "inception_3a/pool_proj"
  type: "Convolution"
  bottom: "inception_3a/pool"
  top: "inception_3a/pool_proj"
  param {
    lr_mult: 1
    decay_mult: 1
  }
  param {
    lr_mult: 2
    decay_mult: 0
  }
  convolution_param {
    num_output: 32
    kernel_size: 1
    weight_filler {
      type: "xavier"
    }
    bias_filler {
      type: "constant"
      value: 0.2
    }
  }
}
layer {
  name: "inception_3a/relu_pool_proj"
  type: "ReLU"
  bottom: "inception_3a/pool_proj"
  top: "inception_3a/pool_proj"
}
layer {
  name: "inception_3a/output"
  type: "Concat"
  bottom: "inception_3a/1x1"
  bottom: "inception_3a/3x3"
  bottom: "inception_3a/5x5"
  bottom: "inception_3a/pool_proj"
  top: "inception_3a/output"
}
layer {
  name: "inception_3b/1x1"
  type: "Convolution"
  bottom: "inception_3a/output"
  top: "inception_3b/1x1"
  param {
    lr_mult: 1
    decay_mult: 1
  }
  param {
    lr_mult: 2
    decay_mult: 0
  }
  convolution_param {
    num_output: 128
    kernel_size: 1
    weight_filler {
      type: "xavier"
    }
    bias_filler {
      type: "constant"
      value: 0.2
    }
  }
}
layer {
  name: "inception_3b/relu_1x1"
  type: "ReLU"
  bottom: "inception_3b/1x1"
  top: "inception_3b/1x1"
}
layer {
  name: "inception_3b/3x3_reduce"
  type: "Convolution"
  bottom: "inception_3a/output"
  top: "inception_3b/3x3_reduce"
  param {
    lr_mult: 1
    decay_mult: 1
  }
  param {
    lr_mult: 2
    decay_mult: 0
  }
  convolution_param {
    num_output: 128
    kernel_size: 1
    weight_filler {
      type: "xavier"
    }
    bias_filler {
      type: "constant"
      value: 0.2
    }
  }
}
layer {
  name: "inception_3b/relu_3x3_reduce"
  type: "ReLU"
  bottom: "inception_3b/3x3_reduce"
  top: "inception_3b/3x3_reduce"
}
layer {
  name: "inception_3b/3x3"
  type: "Convolution"
  bottom: "inception_3b/3x3_reduce"
  top: "inception_3b/3x3"
  param {
    lr_mult: 1
    decay_mult: 1
  }
  param {
    lr_mult: 2
    decay_mult: 0
  }
  convolution_param {
    num_output: 192
    pad: 1
    kernel_size: 3
    weight_filler {
      type: "xavier"
    }
    bias_filler {
      type: "constant"
      value: 0.2
    }
  }
}
layer {
  name: "inception_3b/relu_3x3"
  type: "ReLU"
  bottom: "inception_3b/3x3"
  top: "inception_3b/3x3"
}
layer {
  name: "inception_3b/5x5_reduce"
  type: "Convolution"
  bottom: "inception_3a/output"
  top: "inception_3b/5x5_reduce"
  param {
    lr_mult: 1
    decay_mult: 1
  }
  param {
    lr_mult: 2
    decay_mult: 0
  }
  convolution_param {
    num_output: 32
    kernel_size: 1
    weight_filler {
      type: "xavier"
    }
    bias_filler {
      type: "constant"
      value: 0.2
    }
  }
}
layer {
  name: "inception_3b/relu_5x5_reduce"
  type: "ReLU"
  bottom: "inception_3b/5x5_reduce"
  top: "inception_3b/5x5_reduce"
}
layer {
  name: "inception_3b/5x5"
  type: "Convolution"
  bottom: "inception_3b/5x5_reduce"
  top: "inception_3b/5x5"
  param {
    lr_mult: 1
    decay_mult: 1
  }
  param {
    lr_mult: 2
    decay_mult: 0
  }
  convolution_param {
    num_output: 96
    pad: 2
    kernel_size: 5
    weight_filler {
      type: "xavier"
    }
    bias_filler {
      type: "constant"
      value: 0.2
    }
  }
}
layer {
  name: "inception_3b/relu_5x5"
  type: "ReLU"
  bottom: "inception_3b/5x5"
  top: "inception_3b/5x5"
}
layer {
  name: "inception_3b/pool"
  type: "Pooling"
  bottom: "inception_3a/output"
  top: "inception_3b/pool"
  pooling_param {
    pool: MAX
    kernel_size: 3
    stride: 1
    pad: 1
  }
}
layer {
  name: "inception_3b/pool_proj"
  type: "Convolution"
  bottom: "inception_3b/pool"
  top: "inception_3b/pool_proj"
  param {
    lr_mult: 1
    decay_mult: 1
  }
  param {
    lr_mult: 2
    decay_mult: 0
  }
  convolution_param {
    num_output: 64
    kernel_size: 1
    weight_filler {
      type: "xavier"
    }
    bias_filler {
      type: "constant"
      value: 0.2
    }
  }
}
layer {
  name: "inception_3b/relu_pool_proj"
  type: "ReLU"
  bottom: "inception_3b/pool_proj"
  top: "inception_3b/pool_proj"
}
layer {
  name: "inception_3b/output"
  type: "Concat"
  bottom: "inception_3b/1x1"
  bottom: "inception_3b/3x3"
  bottom: "inception_3b/5x5"
  bottom: "inception_3b/pool_proj"
  top: "inception_3b/output"
}
layer {
  name: "pool3/3x3_s2"
  type: "Pooling"
  bottom: "inception_3b/output"
  top: "pool3/3x3_s2"
  pooling_param {
    pool: MAX
    kernel_size: 3
    stride: 2
  }
}
layer {
  name: "inception_4a/1x1"
  type: "Convolution"
  bottom: "pool3/3x3_s2"
  top: "inception_4a/1x1"
  param {
    lr_mult: 1
    decay_mult: 1
  }
  param {
    lr_mult: 2
    decay_mult: 0
  }
  convolution_param {
    num_output: 192
    kernel_size: 1
    weight_filler {
      type: "xavier"
    }
    bias_filler {
      type: "constant"
      value: 0.2
    }
  }
}
layer {
  name: "inception_4a/relu_1x1"
  type: "ReLU"
  bottom: "inception_4a/1x1"
  top: "inception_4a/1x1"
}
layer {
  name: "inception_4a/3x3_reduce"
  type: "Convolution"
  bottom: "pool3/3x3_s2"
  top: "inception_4a/3x3_reduce"
  param {
    lr_mult: 1
    decay_mult: 1
  }
  param {
    lr_mult: 2
    decay_mult: 0
  }
  convolution_param {
    num_output: 96
    kernel_size: 1
    weight_filler {
      type: "xavier"
    }
    bias_filler {
      type: "constant"
      value: 0.2
    }
  }
}
layer {
  name: "inception_4a/relu_3x3_reduce"
  type: "ReLU"
  bottom: "inception_4a/3x3_reduce"
  top: "inception_4a/3x3_reduce"
}
layer {
  name: "inception_4a/3x3"
  type: "Convolution"
  bottom: "inception_4a/3x3_reduce"
  top: "inception_4a/3x3"
  param {
    lr_mult: 1
    decay_mult: 1
  }
  param {
    lr_mult: 2
    decay_mult: 0
  }
  convolution_param {
    num_output: 208
    pad: 1
    kernel_size: 3
    weight_filler {
      type: "xavier"
    }
    bias_filler {
      type: "constant"
      value: 0.2
    }
  }
}
layer {
  name: "inception_4a/relu_3x3"
  type: "ReLU"
  bottom: "inception_4a/3x3"
  top: "inception_4a/3x3"
}
layer {
  name: "inception_4a/5x5_reduce"
  type: "Convolution"
  bottom: "pool3/3x3_s2"
  top: "inception_4a/5x5_reduce"
  param {
    lr_mult: 1
    decay_mult: 1
  }
  param {
    lr_mult: 2
    decay_mult: 0
  }
  convolution_param {
    num_output: 16
    kernel_size: 1
    weight_filler {
      type: "xavier"
    }
    bias_filler {
      type: "constant"
      value: 0.2
    }
  }
}
layer {
  name: "inception_4a/relu_5x5_reduce"
  type: "ReLU"
  bottom: "inception_4a/5x5_reduce"
  top: "inception_4a/5x5_reduce"
}
layer {
  name: "inception_4a/5x5"
  type: "Convolution"
  bottom: "inception_4a/5x5_reduce"
  top: "inception_4a/5x5"
  param {
    lr_mult: 1
    decay_mult: 1
  }
  param {
    lr_mult: 2
    decay_mult: 0
  }
  convolution_param {
    num_output: 48
    pad: 2
    kernel_size: 5
    weight_filler {
      type: "xavier"
    }
    bias_filler {
      type: "constant"
      value: 0.2
    }
  }
}
layer {
  name: "inception_4a/relu_5x5"
  type: "ReLU"
  bottom: "inception_4a/5x5"
  top: "inception_4a/5x5"
}
layer {
  name: "inception_4a/pool"
  type: "Pooling"
  bottom: "pool3/3x3_s2"
  top: "inception_4a/pool"
  pooling_param {
    pool: MAX
    kernel_size: 3
    stride: 1
    pad: 1
  }
}
layer {
  name: "inception_4a/pool_proj"
  type: "Convolution"
  bottom: "inception_4a/pool"
  top: "inception_4a/pool_proj"
  param {
    lr_mult: 1
    decay_mult: 1
  }
  param {
    lr_mult: 2
    decay_mult: 0
  }
  convolution_param {
    num_output: 64
    kernel_size: 1
    weight_filler {
      type: "xavier"
    }
    bias_filler {
      type: "constant"
      value: 0.2
    }
  }
}
layer {
  name: "inception_4a/relu_pool_proj"
  type: "ReLU"
  bottom: "inception_4a/pool_proj"
  top: "inception_4a/pool_proj"
}
layer {
  name: "inception_4a/output"
  type: "Concat"
  bottom: "inception_4a/1x1"
  bottom: "inception_4a/3x3"
  bottom: "inception_4a/5x5"
  bottom: "inception_4a/pool_proj"
  top: "inception_4a/output"
}
layer {
  name: "loss1/ave_pool"
  type: "Pooling"
  bottom: "inception_4a/output"
  top: "loss1/ave_pool"
  pooling_param {
    pool: AVE
    kernel_size: 5
    stride: 3
  }
}
layer {
  name: "loss1/conv"
  type: "Convolution"
  bottom: "loss1/ave_pool"
  top: "loss1/conv"
  param {
    lr_mult: 1
    decay_mult: 1
  }
  param {
    lr_mult: 2
    decay_mult: 0
  }
  convolution_param {
    num_output: 128
    kernel_size: 1
    weight_filler {
      type: "xavier"
    }
    bias_filler {
      type: "constant"
      value: 0.2
    }
  }
}
layer {
  name: "loss1/relu_conv"
  type: "ReLU"
  bottom: "loss1/conv"
  top: "loss1/conv"
}
layer {
  name: "loss1/fc"
  type: "InnerProduct"
  bottom: "loss1/conv"
  top: "loss1/fc"
  param {
    lr_mult: 1
    decay_mult: 1
  }
  param {
    lr_mult: 2
    decay_mult: 0
  }
  inner_product_param {
    num_output: 1024
    weight_filler {
      type: "xavier"
    }
    bias_filler {
      type: "constant"
      value: 0.2
    }
  }
}
layer {
  name: "loss1/relu_fc"
  type: "ReLU"
  bottom: "loss1/fc"
  top: "loss1/fc"
}
layer {
  name: "loss1/drop_fc"
  type: "Dropout"
  bottom: "loss1/fc"
  top: "loss1/fc"
  dropout_param {
    dropout_ratio: 0.7
  }
}
layer {
  name: "loss1/classifier"
  type: "InnerProduct"
  bottom: "loss1/fc"
…
I0429 19:33:03.545161 14050 net.cpp:406] inception_4c/relu_5x5 <- inception_4c/5x5
I0429 19:33:03.545176 14050 net.cpp:367] inception_4c/relu_5x5 -> inception_4c/5x5 (in-place)
I0429 19:33:03.545449 14050 net.cpp:122] Setting up inception_4c/relu_5x5
I0429 19:33:03.545465 14050 net.cpp:129] Top shape: 1 64 14 14 (12544)
I0429 19:33:03.545472 14050 net.cpp:137] Memory required for data: 43805880
I0429 19:33:03.545480 14050 layer_factory.hpp:77] Creating layer inception_4c/pool
I0429 19:33:03.545496 14050 net.cpp:84] Creating Layer inception_4c/pool
I0429 19:33:03.545505 14050 net.cpp:406] inception_4c/pool <- inception_4b/output_inception_4b/output_0_split_3
I0429 19:33:03.545518 14050 net.cpp:380] inception_4c/pool -> inception_4c/pool
I0429 19:33:03.545636 14050 net.cpp:122] Setting up inception_4c/pool
I0429 19:33:03.545650 14050 net.cpp:129] Top shape: 1 512 14 14 (100352)
I0429 19:33:03.545655 14050 net.cpp:137] Memory required for data: 44207288
I0429 19:33:03.545662 14050 layer_factory.hpp:77] Creating layer inception_4c/pool_proj
I0429 19:33:03.545682 14050 net.cpp:84] Creating Layer inception_4c/pool_proj
I0429 19:33:03.545691 14050 net.cpp:406] inception_4c/pool_proj <- inception_4c/pool
I0429 19:33:03.545737 14050 net.cpp:380] inception_4c/pool_proj -> inception_4c/pool_proj
I0429 19:33:03.552363 14050 net.cpp:122] Setting up inception_4c/pool_proj
I0429 19:33:03.552393 14050 net.cpp:129] Top shape: 1 64 14 14 (12544)
I0429 19:33:03.552398 14050 net.cpp:137] Memory required for data: 44257464
I0429 19:33:03.552408 14050 layer_factory.hpp:77] Creating layer inception_4c/relu_pool_proj
I0429 19:33:03.552423 14050 net.cpp:84] Creating Layer inception_4c/relu_pool_proj
I0429 19:33:03.552430 14050 net.cpp:406] inception_4c/relu_pool_proj <- inception_4c/pool_proj
I0429 19:33:03.552438 14050 net.cpp:367] inception_4c/relu_pool_proj -> inception_4c/pool_proj (in-place)
I0429 19:33:03.552603 14050 net.cpp:122] Setting up inception_4c/relu_pool_proj
I0429 19:33:03.552615 14050 net.cpp:129] Top shape: 1 64 14 14 (12544)
I0429 19:33:03.552619 14050 net.cpp:137] Memory required for data: 44307640
I0429 19:33:03.552624 14050 layer_factory.hpp:77] Creating layer inception_4c/output
I0429 19:33:03.552634 14050 net.cpp:84] Creating Layer inception_4c/output
I0429 19:33:03.552640 14050 net.cpp:406] inception_4c/output <- inception_4c/1x1
I0429 19:33:03.552646 14050 net.cpp:406] inception_4c/output <- inception_4c/3x3
I0429 19:33:03.552652 14050 net.cpp:406] inception_4c/output <- inception_4c/5x5
I0429 19:33:03.552656 14050 net.cpp:406] inception_4c/output <- inception_4c/pool_proj
I0429 19:33:03.552664 14050 net.cpp:380] inception_4c/output -> inception_4c/output
I0429 19:33:03.552706 14050 net.cpp:122] Setting up inception_4c/output
I0429 19:33:03.552714 14050 net.cpp:129] Top shape: 1 512 14 14 (100352)
I0429 19:33:03.552719 14050 net.cpp:137] Memory required for data: 44709048
I0429 19:33:03.552723 14050 layer_factory.hpp:77] Creating layer inception_4c/output_inception_4c/output_0_split
I0429 19:33:03.552752 14050 net.cpp:84] Creating Layer inception_4c/output_inception_4c/output_0_split
I0429 19:33:03.552755 14050 net.cpp:406] inception_4c/output_inception_4c/output_0_split <- inception_4c/output
I0429 19:33:03.552763 14050 net.cpp:380] inception_4c/output_inception_4c/output_0_split -> inception_4c/output_inception_4c/output_0_split_0
I0429 19:33:03.552772 14050 net.cpp:380] inception_4c/output_inception_4c/output_0_split -> inception_4c/output_inception_4c/output_0_split_1
I0429 19:33:03.552781 14050 net.cpp:380] inception_4c/output_inception_4c/output_0_split -> inception_4c/output_inception_4c/output_0_split_2
I0429 19:33:03.552789 14050 net.cpp:380] inception_4c/output_inception_4c/output_0_split -> inception_4c/output_inception_4c/output_0_split_3
I0429 19:33:03.552861 14050 net.cpp:122] Setting up inception_4c/output_inception_4c/output_0_split
I0429 19:33:03.552870 14050 net.cpp:129] Top shape: 1 512 14 14 (100352)
I0429 19:33:03.552875 14050 net.cpp:129] Top shape: 1 512 14 14 (100352)
I0429 19:33:03.552880 14050 net.cpp:129] Top shape: 1 512 14 14 (100352)
I0429 19:33:03.552884 14050 net.cpp:129] Top shape: 1 512 14 14 (100352)
I0429 19:33:03.552889 14050 net.cpp:137] Memory required for data: 46314680
I0429 19:33:03.552893 14050 layer_factory.hpp:77] Creating layer inception_4d/1x1
I0429 19:33:03.552906 14050 net.cpp:84] Creating Layer inception_4d/1x1
I0429 19:33:03.552911 14050 net.cpp:406] inception_4d/1x1 <- inception_4c/output_inception_4c/output_0_split_0
I0429 19:33:03.552919 14050 net.cpp:380] inception_4d/1x1 -> inception_4d/1x1
I0429 19:33:03.557379 14050 net.cpp:122] Setting up inception_4d/1x1
I0429 19:33:03.557402 14050 net.cpp:129] Top shape: 1 112 14 14 (21952)
I0429 19:33:03.557406 14050 net.cpp:137] Memory required for data: 46402488
I0429 19:33:03.557415 14050 layer_factory.hpp:77] Creating layer inception_4d/relu_1x1
I0429 19:33:03.557425 14050 net.cpp:84] Creating Layer inception_4d/relu_1x1
I0429 19:33:03.557430 14050 net.cpp:406] inception_4d/relu_1x1 <- inception_4d/1x1
I0429 19:33:03.557438 14050 net.cpp:367] inception_4d/relu_1x1 -> inception_4d/1x1 (in-place)
I0429 19:33:03.557603 14050 net.cpp:122] Setting up inception_4d/relu_1x1
I0429 19:33:03.557612 14050 net.cpp:129] Top shape: 1 112 14 14 (21952)
I0429 19:33:03.557615 14050 net.cpp:137] Memory required for data: 46490296
I0429 19:33:03.557620 14050 layer_factory.hpp:77] Creating layer inception_4d/3x3_reduce
I0429 19:33:03.557632 14050 net.cpp:84] Creating Layer inception_4d/3x3_reduce
I0429 19:33:03.557637 14050 net.cpp:406] inception_4d/3x3_reduce <- inception_4c/output_inception_4c/output_0_split_1
I0429 19:33:03.557646 14050 net.cpp:380] inception_4d/3x3_reduce -> inception_4d/3x3_reduce
I0429 19:33:03.559432 14050 net.cpp:122] Setting up inception_4d/3x3_reduce
I0429 19:33:03.559445 14050 net.cpp:129] Top shape: 1 144 14 14 (28224)
I0429 19:33:03.559450 14050 net.cpp:137] Memory required for data: 46603192
I0429 19:33:03.559458 14050 layer_factory.hpp:77] Creating layer inception_4d/relu_3x3_reduce
I0429 19:33:03.559464 14050 net.cpp:84] Creating Layer inception_4d/relu_3x3_reduce
I0429 19:33:03.559470 14050 net.cpp:406] inception_4d/relu_3x3_reduce <- inception_4d/3x3_reduce
I0429 19:33:03.559478 14050 net.cpp:367] inception_4d/relu_3x3_reduce -> inception_4d/3x3_reduce (in-place)
I0429 19:33:03.560066 14050 net.cpp:122] Setting up inception_4d/relu_3x3_reduce
I0429 19:33:03.560079 14050 net.cpp:129] Top shape: 1 144 14 14 (28224)
I0429 19:33:03.560084 14050 net.cpp:137] Memory required for data: 46716088
I0429 19:33:03.560088 14050 layer_factory.hpp:77] Creating layer inception_4d/3x3
I0429 19:33:03.560099 14050 net.cpp:84] Creating Layer inception_4d/3x3
I0429 19:33:03.560104 14050 net.cpp:406] inception_4d/3x3 <- inception_4d/3x3_reduce
I0429 19:33:03.560113 14050 net.cpp:380] inception_4d/3x3 -> inception_4d/3x3
I0429 19:33:03.566376 14050 net.cpp:122] Setting up inception_4d/3x3
I0429 19:33:03.566409 14050 net.cpp:129] Top shape: 1 288 14 14 (56448)
I0429 19:33:03.566426 14050 net.cpp:137] Memory required for data: 46941880
I0429 19:33:03.566455 14050 layer_factory.hpp:77] Creating layer inception_4d/relu_3x3
I0429 19:33:03.566468 14050 net.cpp:84] Creating Layer inception_4d/relu_3x3
I0429 19:33:03.566478 14050 net.cpp:406] inception_4d/relu_3x3 <- inception_4d/3x3
I0429 19:33:03.566488 14050 net.cpp:367] inception_4d/relu_3x3 -> inception_4d/3x3 (in-place)
I0429 19:33:03.566736 14050 net.cpp:122] Setting up inception_4d/relu_3x3
I0429 19:33:03.566751 14050 net.cpp:129] Top shape: 1 288 14 14 (56448)
I0429 19:33:03.566758 14050 net.cpp:137] Memory required for data: 47167672
I0429 19:33:03.566764 14050 layer_factory.hpp:77] Creating layer inception_4d/5x5_reduce
I0429 19:33:03.566782 14050 net.cpp:84] Creating Layer inception_4d/5x5_reduce
I0429 19:33:03.566793 14050 net.cpp:406] inception_4d/5x5_reduce <- inception_4c/output_inception_4c/output_0_split_2
I0429 19:33:03.566805 14050 net.cpp:380] inception_4d/5x5_reduce -> inception_4d/5x5_reduce
I0429 19:33:03.569897 14050 net.cpp:122] Setting up inception_4d/5x5_reduce
I0429 19:33:03.569912 14050 net.cpp:129] Top shape: 1 32 14 14 (6272)
I0429 19:33:03.569917 14050 net.cpp:137] Memory required for data: 47192760
I0429 19:33:03.569926 14050 layer_factory.hpp:77] Creating layer inception_4d/relu_5x5_reduce
I0429 19:33:03.569934 14050 net.cpp:84] Creating Layer inception_4d/relu_5x5_reduce
I0429 19:33:03.569941 14050 net.cpp:406] inception_4d/relu_5x5_reduce <- inception_4d/5x5_reduce
I0429 19:33:03.569947 14050 net.cpp:367] inception_4d/relu_5x5_reduce -> inception_4d/5x5_reduce (in-place)
I0429 19:33:03.570112 14050 net.cpp:122] Setting up inception_4d/relu_5x5_reduce
I0429 19:33:03.570122 14050 net.cpp:129] Top shape: 1 32 14 14 (6272)
I0429 19:33:03.570127 14050 net.cpp:137] Memory required for data: 47217848
I0429 19:33:03.570130 14050 layer_factory.hpp:77] Creating layer inception_4d/5x5
I0429 19:33:03.570142 14050 net.cpp:84] Creating Layer inception_4d/5x5
I0429 19:33:03.570147 14050 net.cpp:406] inception_4d/5x5 <- inception_4d/5x5_reduce
I0429 19:33:03.570156 14050 net.cpp:380] inception_4d/5x5 -> inception_4d/5x5
I0429 19:33:03.571949 14050 net.cpp:122] Setting up inception_4d/5x5
I0429 19:33:03.571960 14050 net.cpp:129] Top shape: 1 64 14 14 (12544)
I0429 19:33:03.571965 14050 net.cpp:137] Memory required for data: 47268024
I0429 19:33:03.571974 14050 layer_factory.hpp:77] Creating layer inception_4d/relu_5x5
I0429 19:33:03.571981 14050 net.cpp:84] Creating Layer inception_4d/relu_5x5
I0429 19:33:03.571987 14050 net.cpp:406] inception_4d/relu_5x5 <- inception_4d/5x5
I0429 19:33:03.571995 14050 net.cpp:367] inception_4d/relu_5x5 -> inception_4d/5x5 (in-place)
I0429 19:33:03.572158 14050 net.cpp:122] Setting up inception_4d/relu_5x5
I0429 19:33:03.572167 14050 net.cpp:129] Top shape: 1 64 14 14 (12544)
I0429 19:33:03.572172 14050 net.cpp:137] Memory required for data: 47318200
I0429 19:33:03.572176 14050 layer_factory.hpp:77] Creating layer inception_4d/pool
I0429 19:33:03.572186 14050 net.cpp:84] Creating Layer inception_4d/pool
I0429 19:33:03.572191 14050 net.cpp:406] inception_4d/pool <- inception_4c/output_inception_4c/output_0_split_3
I0429 19:33:03.572198 14050 net.cpp:380] inception_4d/pool -> inception_4d/pool
I0429 19:33:03.572252 14050 net.cpp:122] Setting up inception_4d/pool
I0429 19:33:03.572259 14050 net.cpp:129] Top shape: 1 512 14 14 (100352)
I0429 19:33:03.572263 14050 net.cpp:137] Memory required for data: 47719608
I0429 19:33:03.572268 14050 layer_factory.hpp:77] Creating layer inception_4d/pool_proj
I0429 19:33:03.572278 14050 net.cpp:84] Creating Layer inception_4d/pool_proj
I0429 19:33:03.572283 14050 net.cpp:406] inception_4d/pool_proj <- inception_4d/pool
I0429 19:33:03.572293 14050 net.cpp:380] inception_4d/pool_proj -> inception_4d/pool_proj
I0429 19:33:03.574669 14050 net.cpp:122] Setting up inception_4d/pool_proj
I0429 19:33:03.574687 14050 net.cpp:129] Top shape: 1 64 14 14 (12544)
I0429 19:33:03.574695 14050 net.cpp:137] Memory required for data: 47769784
I0429 19:33:03.574710 14050 layer_factory.hpp:77] Creating layer inception_4d/relu_pool_proj
I0429 19:33:03.574729 14050 net.cpp:84] Creating Layer inception_4d/relu_pool_proj
I0429 19:33:03.574735 14050 net.cpp:406] inception_4d/relu_pool_proj <- inception_4d/pool_proj
I0429 19:33:03.574745 14050 net.cpp:367] inception_4d/relu_pool_proj -> inception_4d/pool_proj (in-place)
I0429 19:33:03.574998 14050 net.cpp:122] Setting up inception_4d/relu_pool_proj
I0429 19:33:03.575013 14050 net.cpp:129] Top shape: 1 64 14 14 (12544)
I0429 19:33:03.575019 14050 net.cpp:137] Memory required for data: 47819960
I0429 19:33:03.575026 14050 layer_factory.hpp:77] Creating layer inception_4d/output
I0429 19:33:03.575038 14050 net.cpp:84] Creating Layer inception_4d/output
I0429 19:33:03.575045 14050 net.cpp:406] inception_4d/output <- inception_4d/1x1
I0429 19:33:03.575054 14050 net.cpp:406] inception_4d/output <- inception_4d/3x3
I0429 19:33:03.575062 14050 net.cpp:406] inception_4d/output <- inception_4d/5x5
I0429 19:33:03.575069 14050 net.cpp:406] inception_4d/output <- inception_4d/pool_proj
I0429 19:33:03.575078 14050 net.cpp:380] inception_4d/output -> inception_4d/output
I0429 19:33:03.575129 14050 net.cpp:122] Setting up inception_4d/output
I0429 19:33:03.575143 14050 net.cpp:129] Top shape: 1 528 14 14 (103488)
I0429 19:33:03.575151 14050 net.cpp:137] Memory required for data: 48233912
I0429 19:33:03.575158 14050 layer_factory.hpp:77] Creating layer inception_4d/output_inception_4d/output_0_split
I0429 19:33:03.575168 14050 net.cpp:84] Creating Layer inception_4d/output_inception_4d/output_0_split
I0429 19:33:03.575177 14050 net.cpp:406] inception_4d/output_inception_4d/output_0_split <- inception_4d/output
I0429 19:33:03.575191 14050 net.cpp:380] inception_4d/output_inception_4d/output_0_split -> inception_4d/output_inception_4d/output_0_split_0
I0429 19:33:03.575206 14050 net.cpp:380] inception_4d/output_inception_4d/output_0_split -> inception_4d/output_inception_4d/output_0_split_1
I0429 19:33:03.575223 14050 net.cpp:380] inception_4d/output_inception_4d/output_0_split -> inception_4d/output_inception_4d/output_0_split_2
I0429 19:33:03.575239 14050 net.cpp:380] inception_4d/output_inception_4d/output_0_split -> inception_4d/output_inception_4d/output_0_split_3
I0429 19:33:03.575251 14050 net.cpp:380] inception_4d/output_inception_4d/output_0_split -> inception_4d/output_inception_4d/output_0_split_4
I0429 19:33:03.575390 14050 net.cpp:122] Setting up inception_4d/output_inception_4d/output_0_split
I0429 19:33:03.575405 14050 net.cpp:129] Top shape: 1 528 14 14 (103488)
I0429 19:33:03.575412 14050 net.cpp:129] Top shape: 1 528 14 14 (103488)
I0429 19:33:03.575417 14050 net.cpp:129] Top shape: 1 528 14 14 (103488)
I0429 19:33:03.575422 14050 net.cpp:129] Top shape: 1 528 14 14 (103488)
I0429 19:33:03.575426 14050 net.cpp:129] Top shape: 1 528 14 14 (103488)
I0429 19:33:03.575431 14050 net.cpp:137] Memory required for data: 50303672
I0429 19:33:03.575435 14050 layer_factory.hpp:77] Creating layer loss2/ave_pool
I0429 19:33:03.575441 14050 net.cpp:84] Creating Layer loss2/ave_pool
I0429 19:33:03.575448 14050 net.cpp:406] loss2/ave_pool <- inception_4d/output_inception_4d/output_0_split_0
I0429 19:33:03.575458 14050 net.cpp:380] loss2/ave_pool -> loss2/ave_pool
I0429 19:33:03.576216 14050 net.cpp:122] Setting up loss2/ave_pool
I0429 19:33:03.576233 14050 net.cpp:129] Top shape: 1 528 4 4 (8448)
I0429 19:33:03.576239 14050 net.cpp:137] Memory required for data: 50337464
I0429 19:33:03.576246 14050 layer_factory.hpp:77] Creating layer loss2/conv
I0429 19:33:03.576261 14050 net.cpp:84] Creating Layer loss2/conv
I0429 19:33:03.576268 14050 net.cpp:406] loss2/conv <- loss2/ave_pool
I0429 19:33:03.576278 14050 net.cpp:380] loss2/conv -> loss2/conv
I0429 19:33:03.577960 14050 net.cpp:122] Setting up loss2/conv
I0429 19:33:03.577977 14050 net.cpp:129] Top shape: 1 128 4 4 (2048)
I0429 19:33:03.577985 14050 net.cpp:137] Memory required for data: 50345656
I0429 19:33:03.577994 14050 layer_factory.hpp:77] Creating layer loss2/relu_conv
I0429 19:33:03.578011 14050 net.cpp:84] Creating Layer loss2/relu_conv
I0429 19:33:03.578028 14050 net.cpp:406] loss2/relu_conv <- loss2/conv
I0429 19:33:03.578037 14050 net.cpp:367] loss2/relu_conv -> loss2/conv (in-place)
I0429 19:33:03.578833 14050 net.cpp:122] Setting up loss2/relu_conv
I0429 19:33:03.578850 14050 net.cpp:129] Top shape: 1 128 4 4 (2048)
I0429 19:33:03.578856 14050 net.cpp:137] Memory required for data: 50353848
I0429 19:33:03.578860 14050 layer_factory.hpp:77] Creating layer loss2/fc
I0429 19:33:03.578871 14050 net.cpp:84] Creating Layer loss2/fc
I0429 19:33:03.578876 14050 net.cpp:406] loss2/fc <- loss2/conv
I0429 19:33:03.578882 14050 net.cpp:380] loss2/fc -> loss2/fc
I0429 19:33:03.595046 14050 net.cpp:122] Setting up loss2/fc
I0429 19:33:03.595083 14050 net.cpp:129] Top shape: 1 1024 (1024)
I0429 19:33:03.595091 14050 net.cpp:137] Memory required for data: 50357944
I0429 19:33:03.595105 14050 layer_factory.hpp:77] Creating layer loss2/relu_fc
I0429 19:33:03.595120 14050 net.cpp:84] Creating Layer loss2/relu_fc
I0429 19:33:03.595130 14050 net.cpp:406] loss2/relu_fc <- loss2/fc
I0429 19:33:03.595142 14050 net.cpp:367] loss2/relu_fc -> loss2/fc (in-place)
I0429 19:33:03.595449 14050 net.cpp:122] Setting up loss2/relu_fc
I0429 19:33:03.595461 14050 net.cpp:129] Top shape: 1 1024 (1024)
I0429 19:33:03.595468 14050 net.cpp:137] Memory required for data: 50362040
I0429 19:33:03.595474 14050 layer_factory.hpp:77] Creating layer loss2/drop_fc
I0429 19:33:03.595486 14050 net.cpp:84] Creating Layer loss2/drop_fc
I0429 19:33:03.595494 14050 net.cpp:406] loss2/drop_fc <- loss2/fc
I0429 19:33:03.595502 14050 net.cpp:367] loss2/drop_fc -> loss2/fc (in-place)
I0429 19:33:03.595546 14050 net.cpp:122] Setting up loss2/drop_fc
I0429 19:33:03.595554 14050 net.cpp:129] Top shape: 1 1024 (1024)
I0429 19:33:03.595561 14050 net.cpp:137] Memory required for data: 50366136
I0429 19:33:03.595567 14050 layer_factory.hpp:77] Creating layer loss2/classifier
I0429 19:33:03.595582 14050 net.cpp:84] Creating Layer loss2/classifier
I0429 19:33:03.595589 14050 net.cpp:406] loss2/classifier <- loss2/fc
I0429 19:33:03.595600 14050 net.cpp:380] loss2/classifier -> loss2/classifier
I0429 19:33:03.604447 14050 net.cpp:122] Setting up loss2/classifier
I0429 19:33:03.604473 14050 net.cpp:129] Top shape: 1 1000 (1000)
I0429 19:33:03.604480 14050 net.cpp:137] Memory required for data: 50370136
I0429 19:33:03.604495 14050 layer_factory.hpp:77] Creating layer loss2/classifier_loss2/classifier_0_split
I0429 19:33:03.604511 14050 net.cpp:84] Creating Layer loss2/classifier_loss2/classifier_0_split
I0429 19:33:03.604519 14050 net.cpp:406] loss2/classifier_loss2/classifier_0_split <- loss2/classifier
I0429 19:33:03.604531 14050 net.cpp:380] loss2/classifier_loss2/classifier_0_split -> loss2/classifier_loss2/classifier_0_split_0
I0429 19:33:03.604542 14050 net.cpp:380] loss2/classifier_loss2/classifier_0_split -> loss2/classifier_loss2/classifier_0_split_1
I0429 19:33:03.604550 14050 net.cpp:380] loss2/classifier_loss2/classifier_0_split -> loss2/classifier_loss2/classifier_0_split_2
I0429 19:33:03.604624 14050 net.cpp:122] Setting up loss2/classifier_loss2/classifier_0_split
I0429 19:33:03.604632 14050 net.cpp:129] Top shape: 1 1000 (1000)
I0429 19:33:03.604640 14050 net.cpp:129] Top shape: 1 1000 (1000)
I0429 19:33:03.604650 14050 net.cpp:129] Top shape: 1 1000 (1000)
I0429 19:33:03.604660 14050 net.cpp:137] Memory required for data: 50382136
I0429 19:33:03.604668 14050 layer_factory.hpp:77] Creating layer loss2/loss
I0429 19:33:03.604681 14050 net.cpp:84] Creating Layer loss2/loss
I0429 19:33:03.604686 14050 net.cpp:406] loss2/loss <- loss2/classifier_loss2/classifier_0_split_0
I0429 19:33:03.604692 14050 net.cpp:406] loss2/loss <- label_data_1_split_3
…
I0429 19:33:03.605255 14050 net.cpp:122] Setting up loss2/top-5
I0429 19:33:03.605260 14050 net.cpp:129] Top shape: (1)
I0429 19:33:03.605265 14050 net.cpp:137] Memory required for data: 50382148
I0429 19:33:03.605269 14050 layer_factory.hpp:77] Creating layer inception_4e/1x1
I0429 19:33:03.605283 14050 net.cpp:84] Creating Layer inception_4e/1x1
I0429 19:33:03.605294 14050 net.cpp:406] inception_4e/1x1 <- inception_4d/output_inception_4d/output_0_split_1
I0429 19:33:03.605306 14050 net.cpp:380] inception_4e/1x1 -> inception_4e/1x1
I0429 19:33:03.613384 14050 net.cpp:122] Setting up inception_4e/1x1
I0429 19:33:03.613409 14050 net.cpp:129] Top shape: 1 256 14 14 (50176)
I0429 19:33:03.613416 14050 net.cpp:137] Memory required for data: 50582852
I0429 19:33:03.613428 14050 layer_factory.hpp:77] Creating layer inception_4e/relu_1x1
I0429 19:33:03.613443 14050 net.cpp:84] Creating Layer inception_4e/relu_1x1
I0429 19:33:03.613452 14050 net.cpp:406] inception_4e/relu_1x1 <- inception_4e/1x1
I0429 19:33:03.613462 14050 net.cpp:367] inception_4e/relu_1x1 -> inception_4e/1x1 (in-place)
I0429 19:33:03.613762 14050 net.cpp:122] Setting up inception_4e/relu_1x1
I0429 19:33:03.613780 14050 net.cpp:129] Top shape: 1 256 14 14 (50176)
I0429 19:33:03.613788 14050 net.cpp:137] Memory required for data: 50783556
I0429 19:33:03.613795 14050 layer_factory.hpp:77] Creating layer inception_4e/3x3_reduce
I0429 19:33:03.613852 14050 net.cpp:84] Creating Layer inception_4e/3x3_reduce
I0429 19:33:03.613860 14050 net.cpp:406] inception_4e/3x3_reduce <- inception_4d/output_inception_4d/output_0_split_2
I0429 19:33:03.613873 14050 net.cpp:380] inception_4e/3x3_reduce -> inception_4e/3x3_reduce
I0429 19:33:03.618609 14050 net.cpp:122] Setting up inception_4e/3x3_reduce
I0429 19:33:03.618628 14050 net.cpp:129] Top shape: 1 160 14 14 (31360)
I0429 19:33:03.618631 14050 net.cpp:137] Memory required for data: 50908996
I0429 19:33:03.618640 14050 layer_factory.hpp:77] Creating layer inception_4e/relu_3x3_reduce
I0429 19:33:03.618647 14050 net.cpp:84] Creating Layer inception_4e/relu_3x3_reduce
I0429 19:33:03.618652 14050 net.cpp:406] inception_4e/relu_3x3_reduce <- inception_4e/3x3_reduce
I0429 19:33:03.618660 14050 net.cpp:367] inception_4e/relu_3x3_reduce -> inception_4e/3x3_reduce (in-place)
I0429 19:33:03.619427 14050 net.cpp:122] Setting up inception_4e/relu_3x3_reduce
I0429 19:33:03.619441 14050 net.cpp:129] Top shape: 1 160 14 14 (31360)
I0429 19:33:03.619446 14050 net.cpp:137] Memory required for data: 51034436
I0429 19:33:03.619451 14050 layer_factory.hpp:77] Creating layer inception_4e/3x3
I0429 19:33:03.619462 14050 net.cpp:84] Creating Layer inception_4e/3x3
I0429 19:33:03.619467 14050 net.cpp:406] inception_4e/3x3 <- inception_4e/3x3_reduce
I0429 19:33:03.619477 14050 net.cpp:380] inception_4e/3x3 -> inception_4e/3x3
I0429 19:33:03.624591 14050 net.cpp:122] Setting up inception_4e/3x3
I0429 19:33:03.624614 14050 net.cpp:129] Top shape: 1 320 14 14 (62720)
I0429 19:33:03.624619 14050 net.cpp:137] Memory required for data: 51285316
I0429 19:33:03.624658 14050 layer_factory.hpp:77] Creating layer inception_4e/relu_3x3
I0429 19:33:03.624670 14050 net.cpp:84] Creating Layer inception_4e/relu_3x3
I0429 19:33:03.624677 14050 net.cpp:406] inception_4e/relu_3x3 <- inception_4e/3x3
I0429 19:33:03.624685 14050 net.cpp:367] inception_4e/relu_3x3 -> inception_4e/3x3 (in-place)
I0429 19:33:03.636437 14050 net.cpp:122] Setting up inception_4e/relu_3x3
I0429 19:33:03.636466 14050 net.cpp:129] Top shape: 1 320 14 14 (62720)
I0429 19:33:03.636473 14050 net.cpp:137] Memory required for data: 51536196
I0429 19:33:03.636482 14050 layer_factory.hpp:77] Creating layer inception_4e/5x5_reduce
I0429 19:33:03.636499 14050 net.cpp:84] Creating Layer inception_4e/5x5_reduce
I0429 19:33:03.636507 14050 net.cpp:406] inception_4e/5x5_reduce <- inception_4d/output_inception_4d/output_0_split_3
I0429 19:33:03.636523 14050 net.cpp:380] inception_4e/5x5_reduce -> inception_4e/5x5_reduce
I0429 19:33:03.646757 14050 net.cpp:122] Setting up inception_4e/5x5_reduce
I0429 19:33:03.646780 14050 net.cpp:129] Top shape: 1 32 14 14 (6272)
I0429 19:33:03.646786 14050 net.cpp:137] Memory required for data: 51561284
I0429 19:33:03.646798 14050 layer_factory.hpp:77] Creating layer inception_4e/relu_5x5_reduce
I0429 19:33:03.646809 14050 net.cpp:84] Creating Layer inception_4e/relu_5x5_reduce
I0429 19:33:03.646817 14050 net.cpp:406] inception_4e/relu_5x5_reduce <- inception_4e/5x5_reduce
I0429 19:33:03.646826 14050 net.cpp:367] inception_4e/relu_5x5_reduce -> inception_4e/5x5_reduce (in-place)
I0429 19:33:03.646997 14050 net.cpp:122] Setting up inception_4e/relu_5x5_reduce
I0429 19:33:03.647006 14050 net.cpp:129] Top shape: 1 32 14 14 (6272)
I0429 19:33:03.647009 14050 net.cpp:137] Memory required for data: 51586372
I0429 19:33:03.647013 14050 layer_factory.hpp:77] Creating layer inception_4e/5x5
I0429 19:33:03.647025 14050 net.cpp:84] Creating Layer inception_4e/5x5
I0429 19:33:03.647029 14050 net.cpp:406] inception_4e/5x5 <- inception_4e/5x5_reduce
I0429 19:33:03.647038 14050 net.cpp:380] inception_4e/5x5 -> inception_4e/5x5
I0429 19:33:03.651077 14050 net.cpp:122] Setting up inception_4e/5x5
I0429 19:33:03.651103 14050 net.cpp:129] Top shape: 1 128 14 14 (25088)
I0429 19:33:03.651106 14050 net.cpp:137] Memory required for data: 51686724
I0429 19:33:03.651115 14050 layer_factory.hpp:77] Creating layer inception_4e/relu_5x5
I0429 19:33:03.651125 14050 net.cpp:84] Creating Layer inception_4e/relu_5x5
I0429 19:33:03.651134 14050 net.cpp:406] inception_4e/relu_5x5 <- inception_4e/5x5
I0429 19:33:03.651144 14050 net.cpp:367] inception_4e/relu_5x5 -> inception_4e/5x5 (in-place)
I0429 19:33:03.651330 14050 net.cpp:122] Setting up inception_4e/relu_5x5
I0429 19:33:03.651340 14050 net.cpp:129] Top shape: 1 128 14 14 (25088)
I0429 19:33:03.651345 14050 net.cpp:137] Memory required for data: 51787076
I0429 19:33:03.651351 14050 layer_factory.hpp:77] Creating layer inception_4e/pool
I0429 19:33:03.651361 14050 net.cpp:84] Creating Layer inception_4e/pool
I0429 19:33:03.651366 14050 net.cpp:406] inception_4e/pool <- inception_4d/output_inception_4d/output_0_split_4
I0429 19:33:03.651376 14050 net.cpp:380] inception_4e/pool -> inception_4e/pool
I0429 19:33:03.651446 14050 net.cpp:122] Setting up inception_4e/pool
I0429 19:33:03.651454 14050 net.cpp:129] Top shape: 1 528 14 14 (103488)
I0429 19:33:03.651458 14050 net.cpp:137] Memory required for data: 52201028
I0429 19:33:03.651463 14050 layer_factory.hpp:77] Creating layer inception_4e/pool_proj
I0429 19:33:03.651475 14050 net.cpp:84] Creating Layer inception_4e/pool_proj
I0429 19:33:03.651480 14050 net.cpp:406] inception_4e/pool_proj <- inception_4e/pool
I0429 19:33:03.651489 14050 net.cpp:380] inception_4e/pool_proj -> inception_4e/pool_proj
I0429 19:33:03.653434 14050 net.cpp:122] Setting up inception_4e/pool_proj
I0429 19:33:03.653452 14050 net.cpp:129] Top shape: 1 128 14 14 (25088)
I0429 19:33:03.653458 14050 net.cpp:137] Memory required for data: 52301380
I0429 19:33:03.653468 14050 layer_factory.hpp:77] Creating layer inception_4e/relu_pool_proj
I0429 19:33:03.653501 14050 net.cpp:84] Creating Layer inception_4e/relu_pool_proj
I0429 19:33:03.653508 14050 net.cpp:406] inception_4e/relu_pool_proj <- inception_4e/pool_proj
I0429 19:33:03.653518 14050 net.cpp:367] inception_4e/relu_pool_proj -> inception_4e/pool_proj (in-place)
I0429 19:33:03.653777 14050 net.cpp:122] Setting up inception_4e/relu_pool_proj
I0429 19:33:03.653793 14050 net.cpp:129] Top shape: 1 128 14 14 (25088)
I0429 19:33:03.653800 14050 net.cpp:137] Memory required for data: 52401732
I0429 19:33:03.653803 14050 layer_factory.hpp:77] Creating layer inception_4e/output
I0429 19:33:03.653811 14050 net.cpp:84] Creating Layer inception_4e/output
I0429 19:33:03.653816 14050 net.cpp:406] inception_4e/output <- inception_4e/1x1
I0429 19:33:03.653822 14050 net.cpp:406] inception_4e/output <- inception_4e/3x3
I0429 19:33:03.653826 14050 net.cpp:406] inception_4e/output <- inception_4e/5x5
I0429 19:33:03.653831 14050 net.cpp:406] inception_4e/output <- inception_4e/pool_proj
I0429 19:33:03.653839 14050 net.cpp:380] inception_4e/output -> inception_4e/output
I0429 19:33:03.653892 14050 net.cpp:122] Setting up inception_4e/output
I0429 19:33:03.653905 14050 net.cpp:129] Top shape: 1 832 14 14 (163072)
I0429 19:33:03.653911 14050 net.cpp:137] Memory required for data: 53054020
I0429 19:33:03.653918 14050 layer_factory.hpp:77] Creating layer pool4/3x3_s2
I0429 19:33:03.653928 14050 net.cpp:84] Creating Layer pool4/3x3_s2
I0429 19:33:03.653936 14050 net.cpp:406] pool4/3x3_s2 <- inception_4e/output
I0429 19:33:03.653945 14050 net.cpp:380] pool4/3x3_s2 -> pool4/3x3_s2
I0429 19:33:03.654019 14050 net.cpp:122] Setting up pool4/3x3_s2
I0429 19:33:03.654029 14050 net.cpp:129] Top shape: 1 832 7 7 (40768)
I0429 19:33:03.654036 14050 net.cpp:137] Memory required for data: 53217092
I0429 19:33:03.654040 14050 layer_factory.hpp:77] Creating layer pool4/3x3_s2_pool4/3x3_s2_0_split
I0429 19:33:03.654050 14050 net.cpp:84] Creating Layer pool4/3x3_s2_pool4/3x3_s2_0_split
I0429 19:33:03.654057 14050 net.cpp:406] pool4/3x3_s2_pool4/3x3_s2_0_split <- pool4/3x3_s2
I0429 19:33:03.654067 14050 net.cpp:380] pool4/3x3_s2_pool4/3x3_s2_0_split -> pool4/3x3_s2_pool4/3x3_s2_0_split_0
I0429 19:33:03.654078 14050 net.cpp:380] pool4/3x3_s2_pool4/3x3_s2_0_split -> pool4/3x3_s2_pool4/3x3_s2_0_split_1
I0429 19:33:03.654132 14050 net.cpp:380] pool4/3x3_s2_pool4/3x3_s2_0_split -> pool4/3x3_s2_pool4/3x3_s2_0_split_2
I0429 19:33:03.654145 14050 net.cpp:380] pool4/3x3_s2_pool4/3x3_s2_0_split -> pool4/3x3_s2_pool4/3x3_s2_0_split_3
I0429 19:33:03.654263 14050 net.cpp:122] Setting up pool4/3x3_s2_pool4/3x3_s2_0_split
I0429 19:33:03.654274 14050 net.cpp:129] Top shape: 1 832 7 7 (40768)
I0429 19:33:03.654284 14050 net.cpp:129] Top shape: 1 832 7 7 (40768)
I0429 19:33:03.654291 14050 net.cpp:129] Top shape: 1 832 7 7 (40768)
I0429 19:33:03.654297 14050 net.cpp:129] Top shape: 1 832 7 7 (40768)
I0429 19:33:03.654302 14050 net.cpp:137] Memory required for data: 53869380
I0429 19:33:03.654309 14050 layer_factory.hpp:77] Creating layer inception_5a/1x1
I0429 19:33:03.654322 14050 net.cpp:84] Creating Layer inception_5a/1x1
I0429 19:33:03.654328 14050 net.cpp:406] inception_5a/1x1 <- pool4/3x3_s2_pool4/3x3_s2_0_split_0
I0429 19:33:03.654341 14050 net.cpp:380] inception_5a/1x1 -> inception_5a/1x1
I0429 19:33:03.658255 14050 net.cpp:122] Setting up inception_5a/1x1
I0429 19:33:03.658272 14050 net.cpp:129] Top shape: 1 256 7 7 (12544)
I0429 19:33:03.658277 14050 net.cpp:137] Memory required for data: 53919556
I0429 19:33:03.658284 14050 layer_factory.hpp:77] Creating layer inception_5a/relu_1x1
I0429 19:33:03.658293 14050 net.cpp:84] Creating Layer inception_5a/relu_1x1
I0429 19:33:03.658298 14050 net.cpp:406] inception_5a/relu_1x1 <- inception_5a/1x1
I0429 19:33:03.658305 14050 net.cpp:367] inception_5a/relu_1x1 -> inception_5a/1x1 (in-place)
I0429 19:33:03.658511 14050 net.cpp:122] Setting up inception_5a/relu_1x1
I0429 19:33:03.658524 14050 net.cpp:129] Top shape: 1 256 7 7 (12544)
I0429 19:33:03.658530 14050 net.cpp:137] Memory required for data: 53969732
I0429 19:33:03.658542 14050 layer_factory.hpp:77] Creating layer inception_5a/3x3_reduce
I0429 19:33:03.658568 14050 net.cpp:84] Creating Layer inception_5a/3x3_reduce
I0429 19:33:03.658576 14050 net.cpp:406] inception_5a/3x3_reduce <- pool4/3x3_s2_pool4/3x3_s2_0_split_1
I0429 19:33:03.658588 14050 net.cpp:380] inception_5a/3x3_reduce -> inception_5a/3x3_reduce
I0429 19:33:03.660950 14050 net.cpp:122] Setting up inception_5a/3x3_reduce
I0429 19:33:03.660969 14050 net.cpp:129] Top shape: 1 160 7 7 (7840)
I0429 19:33:03.660975 14050 net.cpp:137] Memory required for data: 54001092
I0429 19:33:03.660985 14050 layer_factory.hpp:77] Creating layer inception_5a/relu_3x3_reduce
I0429 19:33:03.660993 14050 net.cpp:84] Creating Layer inception_5a/relu_3x3_reduce
I0429 19:33:03.661000 14050 net.cpp:406] inception_5a/relu_3x3_reduce <- inception_5a/3x3_reduce
I0429 19:33:03.661012 14050 net.cpp:367] inception_5a/relu_3x3_reduce -> inception_5a/3x3_reduce (in-place)
I0429 19:33:03.661856 14050 net.cpp:122] Setting up inception_5a/relu_3x3_reduce
I0429 19:33:03.661871 14050 net.cpp:129] Top shape: 1 160 7 7 (7840)
I0429 19:33:03.661875 14050 net.cpp:137] Memory required for data: 54032452
I0429 19:33:03.661880 14050 layer_factory.hpp:77] Creating layer inception_5a/3x3
I0429 19:33:03.661890 14050 net.cpp:84] Creating Layer inception_5a/3x3
I0429 19:33:03.661895 14050 net.cpp:406] inception_5a/3x3 <- inception_5a/3x3_reduce
I0429 19:33:03.661904 14050 net.cpp:380] inception_5a/3x3 -> inception_5a/3x3
I0429 19:33:03.669829 14050 net.cpp:122] Setting up inception_5a/3x3
I0429 19:33:03.669857 14050 net.cpp:129] Top shape: 1 320 7 7 (15680)
I0429 19:33:03.669863 14050 net.cpp:137] Memory required for data: 54095172
I0429 19:33:03.669875 14050 layer_factory.hpp:77] Creating layer inception_5a/relu_3x3
I0429 19:33:03.669888 14050 net.cpp:84] Creating Layer inception_5a/relu_3x3
I0429 19:33:03.669896 14050 net.cpp:406] inception_5a/relu_3x3 <- inception_5a/3x3
I0429 19:33:03.669905 14050 net.cpp:367] inception_5a/relu_3x3 -> inception_5a/3x3 (in-place)
I0429 19:33:03.671339 14050 net.cpp:122] Setting up inception_5a/relu_3x3
I0429 19:33:03.671353 14050 net.cpp:129] Top shape: 1 320 7 7 (15680)
I0429 19:33:03.671357 14050 net.cpp:137] Memory required for data: 54157892
I0429 19:33:03.671362 14050 layer_factory.hpp:77] Creating layer inception_5a/5x5_reduce
I0429 19:33:03.671375 14050 net.cpp:84] Creating Layer inception_5a/5x5_reduce
I0429 19:33:03.671381 14050 net.cpp:406] inception_5a/5x5_reduce <- pool4/3x3_s2_pool4/3x3_s2_0_split_2
I0429 19:33:03.671391 14050 net.cpp:380] inception_5a/5x5_reduce -> inception_5a/5x5_reduce
I0429 19:33:03.673189 14050 net.cpp:122] Setting up inception_5a/5x5_reduce
I0429 19:33:03.673202 14050 net.cpp:129] Top shape: 1 32 7 7 (1568)
I0429 19:33:03.673207 14050 net.cpp:137] Memory required for data: 54164164
I0429 19:33:03.673213 14050 layer_factory.hpp:77] Creating layer inception_5a/relu_5x5_reduce
I0429 19:33:03.673221 14050 net.cpp:84] Creating Layer inception_5a/relu_5x5_reduce
I0429 19:33:03.673226 14050 net.cpp:406] inception_5a/relu_5x5_reduce <- inception_5a/5x5_reduce
I0429 19:33:03.673234 14050 net.cpp:367] inception_5a/relu_5x5_reduce -> inception_5a/5x5_reduce (in-place)
I0429 19:33:03.673401 14050 net.cpp:122] Setting up inception_5a/relu_5x5_reduce
I0429 19:33:03.673410 14050 net.cpp:129] Top shape: 1 32 7 7 (1568)
I0429 19:33:03.673413 14050 net.cpp:137] Memory required for data: 54170436
I0429 19:33:03.673418 14050 layer_factory.hpp:77] Creating layer inception_5a/5x5
I0429 19:33:03.673429 14050 net.cpp:84] Creating Layer inception_5a/5x5
I0429 19:33:03.673434 14050 net.cpp:406] inception_5a/5x5 <- inception_5a/5x5_reduce
I0429 19:33:03.673441 14050 net.cpp:380] inception_5a/5x5 -> inception_5a/5x5
I0429 19:33:03.675168 14050 net.cpp:122] Setting up inception_5a/5x5
I0429 19:33:03.675180 14050 net.cpp:129] Top shape: 1 128 7 7 (6272)
I0429 19:33:03.675184 14050 net.cpp:137] Memory required for data: 54195524
I0429 19:33:03.675191 14050 layer_factory.hpp:77] Creating layer inception_5a/relu_5x5
I0429 19:33:03.675205 14050 net.cpp:84] Creating Layer inception_5a/relu_5x5
I0429 19:33:03.675222 14050 net.cpp:406] inception_5a/relu_5x5 <- inception_5a/5x5
I0429 19:33:03.675230 14050 net.cpp:367] inception_5a/relu_5x5 -> inception_5a/5x5 (in-place)
I0429 19:33:03.675393 14050 net.cpp:122] Setting up inception_5a/relu_5x5
I0429 19:33:03.675402 14050 net.cpp:129] Top shape: 1 128 7 7 (6272)
I0429 19:33:03.675406 14050 net.cpp:137] Memory required for data: 54220612
I0429 19:33:03.675410 14050 layer_factory.hpp:77] Creating layer inception_5a/pool
I0429 19:33:03.675418 14050 net.cpp:84] Creating Layer inception_5a/pool
I0429 19:33:03.675426 14050 net.cpp:406] inception_5a/pool <- pool4/3x3_s2_pool4/3x3_s2_0_split_3
I0429 19:33:03.675432 14050 net.cpp:380] inception_5a/pool -> inception_5a/pool
I0429 19:33:03.675488 14050 net.cpp:122] Setting up inception_5a/pool
I0429 19:33:03.675496 14050 net.cpp:129] Top shape: 1 832 7 7 (40768)
I0429 19:33:03.675500 14050 net.cpp:137] Memory required for data: 54383684
I0429 19:33:03.675505 14050 layer_factory.hpp:77] Creating layer inception_5a/pool_proj
I0429 19:33:03.675516 14050 net.cpp:84] Creating Layer inception_5a/pool_proj
I0429 19:33:03.675520 14050 net.cpp:406] inception_5a/pool_proj <- inception_5a/pool
I0429 19:33:03.675529 14050 net.cpp:380] inception_5a/pool_proj -> inception_5a/pool_proj
I0429 19:33:03.678164 14050 net.cpp:122] Setting up inception_5a/pool_proj
I0429 19:33:03.678177 14050 net.cpp:129] Top shape: 1 128 7 7 (6272)
I0429 19:33:03.678181 14050 net.cpp:137] Memory required for data: 54408772
I0429 19:33:03.678189 14050 layer_factory.hpp:77] Creating layer inception_5a/relu_pool_proj
I0429 19:33:03.678196 14050 net.cpp:84] Creating Layer inception_5a/relu_pool_proj
I0429 19:33:03.678201 14050 net.cpp:406] inception_5a/relu_pool_proj <- inception_5a/pool_proj
I0429 19:33:03.678210 14050 net.cpp:367] inception_5a/relu_pool_proj -> inception_5a/pool_proj (in-place)
I0429 19:33:03.678375 14050 net.cpp:122] Setting up inception_5a/relu_pool_proj
I0429 19:33:03.678385 14050 net.cpp:129] Top shape: 1 128 7 7 (6272)
I0429 19:33:03.678390 14050 net.cpp:137] Memory required for data: 54433860
I0429 19:33:03.678393 14050 layer_factory.hpp:77] Creating layer inception_5a/output
I0429 19:33:03.678400 14050 net.cpp:84] Creating Layer inception_5a/output
I0429 19:33:03.678405 14050 net.cpp:406] inception_5a/output <- inception_5a/1x1
I0429 19:33:03.678411 14050 net.cpp:406] inception_5a/output <- inception_5a/3x3
I0429 19:33:03.678414 14050 net.cpp:406] inception_5a/output <- inception_5a/5x5
I0429 19:33:03.678419 14050 net.cpp:406] inception_5a/output <- inception_5a/pool_proj
I0429 19:33:03.678427 14050 net.cpp:380] inception_5a/output -> inception_5a/output
I0429 19:33:03.678463 14050 net.cpp:122] Setting up inception_5a/output
I0429 19:33:03.678470 14050 net.cpp:129] Top shape: 1 832 7 7 (40768)
I0429 19:33:03.678475 14050 net.cpp:137] Memory required for data: 54596932
I0429 19:33:03.678479 14050 layer_factory.hpp:77] Creating layer inception_5a/output_inception_5a/output_0_split
I0429 19:33:03.678488 14050 net.cpp:84] Creating Layer inception_5a/output_inception_5a/output_0_split
I0429 19:33:03.678493 14050 net.cpp:406] inception_5a/output_inception_5a/output_0_split <- inception_5a/output
I0429 19:33:03.678500 14050 net.cpp:380] inception_5a/output_inception_5a/output_0_split -> inception_5a/output_inception_5a/output_0_split_0
I0429 19:33:03.678508 14050 net.cpp:380] inception_5a/output_inception_5a/output_0_split -> inception_5a/output_inception_5a/output_0_split_1
I0429 19:33:03.678515 14050 net.cpp:380] inception_5a/output_inception_5a/output_0_split -> inception_5a/output_inception_5a/output_0_split_2
I0429 19:33:03.678522 14050 net.cpp:380] inception_5a/output_inception_5a/output_0_split -> inception_5a/output_inception_5a/output_0_split_3
I0429 19:33:03.678598 14050 net.cpp:122] Setting up inception_5a/output_inception_5a/output_0_split
I0429 19:33:03.678606 14050 net.cpp:129] Top shape: 1 832 7 7 (40768)
I0429 19:33:03.678616 14050 net.cpp:129] Top shape: 1 832 7 7 (40768)
I0429 19:33:03.678629 14050 net.cpp:129] Top shape: 1 832 7 7 (40768)
I0429 19:33:03.678634 14050 net.cpp:129] Top shape: 1 832 7 7 (40768)
I0429 19:33:03.678637 14050 net.cpp:137] Memory required for data: 55249220
I0429 19:33:03.678642 14050 layer_factory.hpp:77] Creating layer inception_5b/1x1
I0429 19:33:03.678653 14050 net.cpp:84] Creating Layer inception_5b/1x1
I0429 19:33:03.678658 14050 net.cpp:406] inception_5b/1x1 <- inception_5a/output_inception_5a/output_0_split_0
I0429 19:33:03.678665 14050 net.cpp:380] inception_5b/1x1 -> inception_5b/1x1
I0429 19:33:03.681282 14050 net.cpp:122] Setting up inception_5b/1x1
I0429 19:33:03.681295 14050 net.cpp:129] Top shape: 1 384 7 7 (18816)
I0429 19:33:03.681300 14050 net.cpp:137] Memory required for data: 55324484
I0429 19:33:03.681308 14050 layer_factory.hpp:77] Creating layer inception_5b/relu_1x1
I0429 19:33:03.681314 14050 net.cpp:84] Creating Layer inception_5b/relu_1x1
I0429 19:33:03.681319 14050 net.cpp:406] inception_5b/relu_1x1 <- inception_5b/1x1
I0429 19:33:03.681326 14050 net.cpp:367] inception_5b/relu_1x1 -> inception_5b/1x1 (in-place)
I0429 19:33:03.681478 14050 net.cpp:122] Setting up inception_5b/relu_1x1
I0429 19:33:03.681488 14050 net.cpp:129] Top shape: 1 384 7 7 (18816)
I0429 19:33:03.681491 14050 net.cpp:137] Memory required for data: 55399748
I0429 19:33:03.681496 14050 layer_factory.hpp:77] Creating layer inception_5b/3x3_reduce
I0429 19:33:03.681504 14050 net.cpp:84] Creating Layer inception_5b/3x3_reduce
I0429 19:33:03.681509 14050 net.cpp:406] inception_5b/3x3_reduce <- inception_5a/output_inception_5a/output_0_split_1
I0429 19:33:03.681515 14050 net.cpp:380] inception_5b/3x3_reduce -> inception_5b/3x3_reduce
I0429 19:33:03.684373 14050 net.cpp:122] Setting up inception_5b/3x3_reduce
I0429 19:33:03.684391 14050 net.cpp:129] Top shape: 1 192 7 7 (9408)
I0429 19:33:03.684396 14050 net.cpp:137] Memory required for data: 55437380
I0429 19:33:03.684403 14050 layer_factory.hpp:77] Creating layer inception_5b/relu_3x3_reduce
I0429 19:33:03.684411 14050 net.cpp:84] Creating Layer inception_5b/relu_3x3_reduce
I0429 19:33:03.684417 14050 net.cpp:406] inception_5b/relu_3x3_reduce <- inception_5b/3x3_reduce
I0429 19:33:03.684424 14050 net.cpp:367] inception_5b/relu_3x3_reduce -> inception_5b/3x3_reduce (in-place)
I0429 19:33:03.685032 14050 net.cpp:122] Setting up inception_5b/relu_3x3_reduce
I0429 19:33:03.685046 14050 net.cpp:129] Top shape: 1 192 7 7 (9408)
I0429 19:33:03.685050 14050 net.cpp:137] Memory required for data: 55475012
I0429 19:33:03.685055 14050 layer_factory.hpp:77] Creating layer inception_5b/3x3
I0429 19:33:03.685066 14050 net.cpp:84] Creating Layer inception_5b/3x3
I0429 19:33:03.685072 14050 net.cpp:406] inception_5b/3x3 <- inception_5b/3x3_reduce
I0429 19:33:03.685079 14050 net.cpp:380] inception_5b/3x3 -> inception_5b/3x3
I0429 19:33:03.692215 14050 net.cpp:122] Setting up inception_5b/3x3
I0429 19:33:03.692240 14050 net.cpp:129] Top shape: 1 384 7 7 (18816)
I0429 19:33:03.692245 14050 net.cpp:137] Memory required for data: 55550276
I0429 19:33:03.692255 14050 layer_factory.hpp:77] Creating layer inception_5b/relu_3x3
I0429 19:33:03.692263 14050 net.cpp:84] Creating Layer inception_5b/relu_3x3
I0429 19:33:03.692271 14050 net.cpp:406] inception_5b/relu_3x3 <- inception_5b/3x3
I0429 19:33:03.692283 14050 net.cpp:367] inception_5b/relu_3x3 -> inception_5b/3x3 (in-place)
I0429 19:33:03.692929 14050 net.cpp:122] Setting up inception_5b/relu_3x3
I0429 19:33:03.692940 14050 net.cpp:129] Top shape: 1 384 7 7 (18816)
I0429 19:33:03.692945 14050 net.cpp:137] Memory required for data: 55625540
I0429 19:33:03.692950 14050 layer_factory.hpp:77] Creating layer inception_5b/5x5_reduce
I0429 19:33:03.692962 14050 net.cpp:84] Creating Layer inception_5b/5x5_reduce
I0429 19:33:03.692968 14050 net.cpp:406] inception_5b/5x5_reduce <- inception_5a/output_inception_5a/output_0_split_2
I0429 19:33:03.692975 14050 net.cpp:380] inception_5b/5x5_reduce -> inception_5b/5x5_reduce
I0429 19:33:03.694545 14050 net.cpp:122] Setting up inception_5b/5x5_reduce
I0429 19:33:03.694577 14050 net.cpp:129] Top shape: 1 48 7 7 (2352)
I0429 19:33:03.694582 14050 net.cpp:137] Memory required for data: 55634948
I0429 19:33:03.694589 14050 layer_factory.hpp:77] Creating layer inception_5b/relu_5x5_reduce
I0429 19:33:03.694597 14050 net.cpp:84] Creating Layer inception_5b/relu_5x5_reduce
I0429 19:33:03.694602 14050 net.cpp:406] inception_5b/relu_5x5_reduce <- inception_5b/5x5_reduce
I0429 19:33:03.694607 14050 net.cpp:367] inception_5b/relu_5x5_reduce -> inception_5b/5x5_reduce (in-place)
I0429 19:33:03.694777 14050 net.cpp:122] Setting up inception_5b/relu_5x5_reduce
I0429 19:33:03.694785 14050 net.cpp:129] Top shape: 1 48 7 7 (2352)
I0429 19:33:03.694789 14050 net.cpp:137] Memory required for data: 55644356
I0429 19:33:03.694793 14050 layer_factory.hpp:77] Creating layer inception_5b/5x5
I0429 19:33:03.694805 14050 net.cpp:84] Creating Layer inception_5b/5x5
I0429 19:33:03.694813 14050 net.cpp:406] inception_5b/5x5 <- inception_5b/5x5_reduce
I0429 19:33:03.694823 14050 net.cpp:380] inception_5b/5x5 -> inception_5b/5x5
I0429 19:33:03.696763 14050 net.cpp:122] Setting up inception_5b/5x5
I0429 19:33:03.696776 14050 net.cpp:129] Top shape: 1 128 7 7 (6272)
I0429 19:33:03.696780 14050 net.cpp:137] Memory required for data: 55669444
I0429 19:33:03.696789 14050 layer_factory.hpp:77] Creating layer inception_5b/relu_5x5
I0429 19:33:03.696795 14050 net.cpp:84] Creating Layer inception_5b/relu_5x5
I0429 19:33:03.696799 14050 net.cpp:406] inception_5b/relu_5x5 <- inception_5b/5x5
I0429 19:33:03.696806 14050 net.cpp:367] inception_5b/relu_5x5 -> inception_5b/5x5 (in-place)
I0429 19:33:03.696981 14050 net.cpp:122] Setting up inception_5b/relu_5x5
I0429 19:33:03.696990 14050 net.cpp:129] Top shape: 1 128 7 7 (6272)
I0429 19:33:03.696995 14050 net.cpp:137] Memory required for data: 55694532
I0429 19:33:03.697000 14050 layer_factory.hpp:77] Creating layer inception_5b/pool
I0429 19:33:03.697008 14050 net.cpp:84] Creating Layer inception_5b/pool
I0429 19:33:03.697012 14050 net.cpp:406] inception_5b/pool <- inception_5a/output_inception_5a/output_0_split_3
I0429 19:33:03.697019 14050 net.cpp:380] inception_5b/pool -> inception_5b/pool
I0429 19:33:03.697078 14050 net.cpp:122] Setting up inception_5b/pool
I0429 19:33:03.697087 14050 net.cpp:129] Top shape: 1 832 7 7 (40768)
I0429 19:33:03.697090 14050 net.cpp:137] Memory required for data: 55857604
I0429 19:33:03.697094 14050 layer_factory.hpp:77] Creating layer inception_5b/pool_proj
I0429 19:33:03.697104 14050 net.cpp:84] Creating Layer inception_5b/pool_proj
I0429 19:33:03.697108 14050 net.cpp:406] inception_5b/pool_proj <- inception_5b/pool
I0429 19:33:03.697116 14050 net.cpp:380] inception_5b/pool_proj -> inception_5b/pool_proj
I0429 19:33:03.699332 14050 net.cpp:122] Setting up inception_5b/pool_proj
I0429 19:33:03.699347 14050 net.cpp:129] Top shape: 1 128 7 7 (6272)
I0429 19:33:03.699350 14050 net.cpp:137] Memory required for data: 55882692
I0429 19:33:03.699357 14050 layer_factory.hpp:77] Creating layer inception_5b/relu_pool_proj
I0429 19:33:03.699365 14050 net.cpp:84] Creating Layer inception_5b/relu_pool_proj
I0429 19:33:03.699371 14050 net.cpp:406] inception_5b/relu_pool_proj <- inception_5b/pool_proj
I0429 19:33:03.699378 14050 net.cpp:367] inception_5b/relu_pool_proj -> inception_5b/pool_proj (in-place)
I0429 19:33:03.699540 14050 net.cpp:122] Setting up inception_5b/relu_pool_proj
I0429 19:33:03.699549 14050 net.cpp:129] Top shape: 1 128 7 7 (6272)
I0429 19:33:03.699554 14050 net.cpp:137] Memory required for data: 55907780
I0429 19:33:03.699558 14050 layer_factory.hpp:77] Creating layer inception_5b/output
I0429 19:33:03.699566 14050 net.cpp:84] Creating Layer inception_5b/output
I0429 19:33:03.699571 14050 net.cpp:406] inception_5b/output <- inception_5b/1x1
I0429 19:33:03.699578 14050 net.cpp:406] inception_5b/output <- inception_5b/3x3
I0429 19:33:03.699582 14050 net.cpp:406] inception_5b/output <- inception_5b/5x5
I0429 19:33:03.699586 14050 net.cpp:406] inception_5b/output <- inception_5b/pool_proj
I0429 19:33:03.699599 14050 net.cpp:380] inception_5b/output -> inception_5b/output
I0429 19:33:03.699647 14050 net.cpp:122] Setting up inception_5b/output
I0429 19:33:03.699654 14050 net.cpp:129] Top shape: 1 1024 7 7 (50176)
I0429 19:33:03.699658 14050 net.cpp:137] Memory required for data: 56108484
I0429 19:33:03.699662 14050 layer_factory.hpp:77] Creating layer pool5/7x7_s1
I0429 19:33:03.699669 14050 net.cpp:84] Creating Layer pool5/7x7_s1
I0429 19:33:03.699674 14050 net.cpp:406] pool5/7x7_s1 <- inception_5b/output
I0429 19:33:03.699682 14050 net.cpp:380] pool5/7x7_s1 -> pool5/7x7_s1
I0429 19:33:03.700335 14050 net.cpp:122] Setting up pool5/7x7_s1
I0429 19:33:03.700348 14050 net.cpp:129] Top shape: 1 1024 1 1 (1024)
I0429 19:33:03.700352 14050 net.cpp:137] Memory required for data: 56112580
I0429 19:33:03.700356 14050 layer_factory.hpp:77] Creating layer pool5/drop_7x7_s1
I0429 19:33:03.700364 14050 net.cpp:84] Creating Layer pool5/drop_7x7_s1
I0429 19:33:03.700369 14050 net.cpp:406] pool5/drop_7x7_s1 <- pool5/7x7_s1
I0429 19:33:03.700376 14050 net.cpp:367] pool5/drop_7x7_s1 -> pool5/7x7_s1 (in-place)
I0429 19:33:03.700410 14050 net.cpp:122] Setting up pool5/drop_7x7_s1
I0429 19:33:03.700417 14050 net.cpp:129] Top shape: 1 1024 1 1 (1024)
I0429 19:33:03.700422 14050 net.cpp:137] Memory required for data: 56116676
I0429 19:33:03.700425 14050 layer_factory.hpp:77] Creating layer loss3/classifier
I0429 19:33:03.700435 14050 net.cpp:84] Creating Layer loss3/classifier
I0429 19:33:03.700440 14050 net.cpp:406] loss3/classifier <- pool5/7x7_s1
I0429 19:33:03.700448 14050 net.cpp:380] loss3/classifier -> loss3/classifier
I0429 19:33:03.700623 14050 net.cpp:122] Setting up loss3/classifier
I0429 19:33:03.700631 14050 net.cpp:129] Top shape: 1 5 (5)
I0429 19:33:03.700634 14050 net.cpp:137] Memory required for data: 56116696
I0429 19:33:03.700641 14050 layer_factory.hpp:77] Creating layer loss3/classifier_loss3/classifier_0_split
I0429 19:33:03.700649 14050 net.cpp:84] Creating Layer loss3/classifier_loss3/classifier_0_split
I0429 19:33:03.700654 14050 net.cpp:406] loss3/classifier_loss3/classifier_0_split <- loss3/classifier
I0429 19:33:03.700659 14050 net.cpp:380] loss3/classifier_loss3/classifier_0_split -> loss3/classifier_loss3/classifier_0_split_0
I0429 19:33:03.700667 14050 net.cpp:380] loss3/classifier_loss3/classifier_0_split -> loss3/classifier_loss3/classifier_0_split_1
I0429 19:33:03.700675 14050 net.cpp:380] loss3/classifier_loss3/classifier_0_split -> loss3/classifier_loss3/classifier_0_split_2
I0429 19:33:03.700682 14050 net.cpp:380] loss3/classifier_loss3/classifier_0_split -> loss3/classifier_loss3/classifier_0_split_3
I0429 19:33:03.700757 14050 net.cpp:122] Setting up loss3/classifier_loss3/classifier_0_split
I0429 19:33:03.700764 14050 net.cpp:129] Top shape: 1 5 (5)
I0429 19:33:03.700768 14050 net.cpp:129] Top shape: 1 5 (5)
I0429 19:33:03.700774 14050 net.cpp:129] Top shape: 1 5 (5)
I0429 19:33:03.700780 14050 net.cpp:129] Top shape: 1 5 (5)
I0429 19:33:03.700786 14050 net.cpp:137] Memory required for data: 56116776
I0429 19:33:03.700791 14050 layer_factory.hpp:77] Creating layer loss3/loss3
I0429 19:33:03.700798 14050 net.cpp:84] Creating Layer loss3/loss3
I0429 19:33:03.700803 14050 net.cpp:406] loss3/loss3 <- loss3/classifier_loss3/classifier_0_split_0
I0429 19:33:03.700809 14050 net.cpp:406] loss3/loss3 <- label_data_1_split_6
…
