…
I0501 21:05:38.213140 25707 net.cpp:294] The NetState phase (0) differed from the phase (1) specified by a rule in layer accuracy_top3
I0501 21:05:38.214315 25707 net.cpp:51] Initializing net from parameters: 
name: "GoogleNet"
state {
  phase: TRAIN
  level: 0
  stage: ""
}
layer {
  name: "data"
  type: "Data"
  top: "data"
  top: "label"
  include {
    phase: TRAIN
  }
  transform_param {
    mirror: true
    crop_size: 224
    mean_file: "retina256/retina256_train_mean.binaryproto"
  }
  data_param {
    source: "retina256/retina256_train_lmdb"
    batch_size: 50
    backend: LMDB
  }
}
layer {
  name: "conv1/7x7_s2"
  type: "Convolution"
  bottom: "data"
  top: "conv1/7x7_s2"
  param {
    lr_mult: 1
    decay_mult: 1
  }
  param {
    lr_mult: 2
    decay_mult: 0
  }
  convolution_param {
    num_output: 64
    pad: 3
    kernel_size: 7
    stride: 2
    weight_filler {
      type: "xavier"
    }
    bias_filler {
      type: "constant"
      value: 0.2
    }
  }
}
layer {
  name: "conv1/relu_7x7"
  type: "ReLU"
  bottom: "conv1/7x7_s2"
  top: "conv1/7x7_s2"
}
layer {
  name: "pool1/3x3_s2"
  type: "Pooling"
  bottom: "conv1/7x7_s2"
  top: "pool1/3x3_s2"
  pooling_param {
    pool: MAX
    kernel_size: 3
    stride: 2
  }
}
layer {
  name: "pool1/norm1"
  type: "LRN"
  bottom: "pool1/3x3_s2"
  top: "pool1/norm1"
  lrn_param {
    local_size: 5
    alpha: 0.0001
    beta: 0.75
  }
}
layer {
  name: "conv2/3x3_reduce"
  type: "Convolution"
  bottom: "pool1/norm1"
  top: "conv2/3x3_reduce"
  param {
    lr_mult: 1
    decay_mult: 1
  }
  param {
    lr_mult: 2
    decay_mult: 0
  }
  convolution_param {
    num_output: 64
    kernel_size: 1
    weight_filler {
      type: "xavier"
    }
    bias_filler {
      type: "constant"
      value: 0.2
    }
  }
}
layer {
  name: "conv2/relu_3x3_reduce"
  type: "ReLU"
  bottom: "conv2/3x3_reduce"
  top: "conv2/3x3_reduce"
}
layer {
  name: "conv2/3x3"
  type: "Convolution"
  bottom: "conv2/3x3_reduce"
  top: "conv2/3x3"
  param {
    lr_mult: 1
    decay_mult: 1
  }
  param {
    lr_mult: 2
    decay_mult: 0
  }
  convolution_param {
    num_output: 192
    pad: 1
    kernel_size: 3
    weight_filler {
      type: "xavier"
    }
    bias_filler {
      type: "constant"
      value: 0.2
    }
  }
}
layer {
  name: "conv2/relu_3x3"
  type: "ReLU"
  bottom: "conv2/3x3"
  top: "conv2/3x3"
}
layer {
  name: "conv2/norm2"
  type: "LRN"
  bottom: "conv2/3x3"
  top: "conv2/norm2"
  lrn_param {
    local_size: 5
    alpha: 0.0001
    beta: 0.75
  }
}
layer {
  name: "pool2/3x3_s2"
  type: "Pooling"
  bottom: "conv2/norm2"
  top: "pool2/3x3_s2"
  pooling_param {
    pool: MAX
    kernel_size: 3
    stride: 2
  }
}
layer {
  name: "inception_3a/1x1"
  type: "Convolution"
  bottom: "pool2/3x3_s2"
  top: "inception_3a/1x1"
  param {
    lr_mult: 1
    decay_mult: 1
  }
  param {
    lr_mult: 2
    decay_mult: 0
  }
  convolution_param {
    num_output: 64
    kernel_size: 1
    weight_filler {
      type: "xavier"
    }
    bias_filler {
      type: "constant"
      value: 0.2
    }
  }
}
layer {
  name: "inception_3a/relu_1x1"
  type: "ReLU"
  bottom: "inception_3a/1x1"
  top: "inception_3a/1x1"
}
layer {
  name: "inception_3a/3x3_reduce"
  type: "Convolution"
  bottom: "pool2/3x3_s2"
  top: "inception_3a/3x3_reduce"
  param {
    lr_mult: 1
    decay_mult: 1
  }
  param {
    lr_mult: 2
    decay_mult: 0
  }
  convolution_param {
    num_output: 96
    kernel_size: 1
    weight_filler {
      type: "xavier"
    }
    bias_filler {
      type: "constant"
      value: 0.2
    }
  }
}
layer {
  name: "inception_3a/relu_3x3_reduce"
  type: "ReLU"
  bottom: "inception_3a/3x3_reduce"
  top: "inception_3a/3x3_reduce"
}
layer {
  name: "inception_3a/3x3"
  type: "Convolution"
  bottom: "inception_3a/3x3_reduce"
  top: "inception_3a/3x3"
  param {
    lr_mult: 1
    decay_mult: 1
  }
  param {
    lr_mult: 2
    decay_mult: 0
  }
  convolution_param {
    num_output: 128
    pad: 1
    kernel_size: 3
    weight_filler {
      type: "xavier"
    }
    bias_filler {
      type: "constant"
      value: 0.2
    }
  }
}
layer {
  name: "inception_3a/relu_3x3"
  type: "ReLU"
  bottom: "inception_3a/3x3"
  top: "inception_3a/3x3"
}
layer {
  name: "inception_3a/5x5_reduce"
  type: "Convolution"
  bottom: "pool2/3x3_s2"
  top: "inception_3a/5x5_reduce"
  param {
    lr_mult: 1
    decay_mult: 1
  }
  param {
    lr_mult: 2
    decay_mult: 0
  }
  convolution_param {
    num_output: 16
    kernel_size: 1
    weight_filler {
      type: "xavier"
    }
    bias_filler {
      type: "constant"
      value: 0.2
    }
  }
}
layer {
  name: "inception_3a/relu_5x5_reduce"
  type: "ReLU"
  bottom: "inception_3a/5x5_reduce"
  top: "inception_3a/5x5_reduce"
}
layer {
  name: "inception_3a/5x5"
  type: "Convolution"
  bottom: "inception_3a/5x5_reduce"
  top: "inception_3a/5x5"
  param {
    lr_mult: 1
    decay_mult: 1
  }
  param {
    lr_mult: 2
    decay_mult: 0
  }
  convolution_param {
    num_output: 32
    pad: 2
    kernel_size: 5
    weight_filler {
      type: "xavier"
    }
    bias_filler {
      type: "constant"
      value: 0.2
    }
  }
}
layer {
  name: "inception_3a/relu_5x5"
  type: "ReLU"
  bottom: "inception_3a/5x5"
  top: "inception_3a/5x5"
}
layer {
  name: "inception_3a/pool"
  type: "Pooling"
  bottom: "pool2/3x3_s2"
  top: "inception_3a/pool"
  pooling_param {
    pool: MAX
    kernel_size: 3
    stride: 1
    pad: 1
  }
}
layer {
  name: "inception_3a/pool_proj"
  type: "Convolution"
  bottom: "inception_3a/pool"
  top: "inception_3a/pool_proj"
  param {
    lr_mult: 1
    decay_mult: 1
  }
  param {
    lr_mult: 2
    decay_mult: 0
  }
  convolution_param {
    num_output: 32
    kernel_size: 1
    weight_filler {
      type: "xavier"
    }
    bias_filler {
      type: "constant"
      value: 0.2
    }
  }
}
layer {
  name: "inception_3a/relu_pool_proj"
  type: "ReLU"
  bottom: "inception_3a/pool_proj"
  top: "inception_3a/pool_proj"
}
layer {
  name: "inception_3a/output"
  type: "Concat"
  bottom: "inception_3a/1x1"
  bottom: "inception_3a/3x3"
  bottom: "inception_3a/5x5"
  bottom: "inception_3a/pool_proj"
  top: "inception_3a/output"
}
layer {
  name: "inception_3b/1x1"
  type: "Convolution"
  bottom: "inception_3a/output"
  top: "inception_3b/1x1"
  param {
    lr_mult: 1
    decay_mult: 1
  }
  param {
    lr_mult: 2
    decay_mult: 0
  }
  convolution_param {
    num_output: 128
    kernel_size: 1
    weight_filler {
      type: "xavier"
    }
    bias_filler {
      type: "constant"
      value: 0.2
    }
  }
}
layer {
  name: "inception_3b/relu_1x1"
  type: "ReLU"
  bottom: "inception_3b/1x1"
  top: "inception_3b/1x1"
}
layer {
  name: "inception_3b/3x3_reduce"
  type: "Convolution"
  bottom: "inception_3a/output"
  top: "inception_3b/3x3_reduce"
  param {
    lr_mult: 1
    decay_mult: 1
  }
  param {
    lr_mult: 2
    decay_mult: 0
  }
  convolution_param {
    num_output: 128
    kernel_size: 1
    weight_filler {
      type: "xavier"
    }
    bias_filler {
      type: "constant"
      value: 0.2
    }
  }
}
layer {
  name: "inception_3b/relu_3x3_reduce"
  type: "ReLU"
  bottom: "inception_3b/3x3_reduce"
  top: "inception_3b/3x3_reduce"
}
layer {
  name: "inception_3b/3x3"
  type: "Convolution"
  bottom: "inception_3b/3x3_reduce"
  top: "inception_3b/3x3"
  param {
    lr_mult: 1
    decay_mult: 1
  }
  param {
    lr_mult: 2
    decay_mult: 0
  }
  convolution_param {
    num_output: 192
    pad: 1
    kernel_size: 3
    weight_filler {
      type: "xavier"
    }
    bias_filler {
      type: "constant"
      value: 0.2
    }
  }
}
layer {
  name: "inception_3b/relu_3x3"
  type: "ReLU"
  bottom: "inception_3b/3x3"
  top: "inception_3b/3x3"
}
layer {
  name: "inception_3b/5x5_reduce"
  type: "Convolution"
  bottom: "inception_3a/output"
  top: "inception_3b/5x5_reduce"
  param {
    lr_mult: 1
    decay_mult: 1
  }
  param {
    lr_mult: 2
    decay_mult: 0
  }
  convolution_param {
    num_output: 32
    kernel_size: 1
    weight_filler {
      type: "xavier"
    }
    bias_filler {
      type: "constant"
      value: 0.2
    }
  }
}
layer {
  name: "inception_3b/relu_5x5_reduce"
  type: "ReLU"
  bottom: "inception_3b/5x5_reduce"
  top: "inception_3b/5x5_reduce"
}
layer {
  name: "inception_3b/5x5"
  type: "Convolution"
  bottom: "inception_3b/5x5_reduce"
  top: "inception_3b/5x5"
  param {
    lr_mult: 1
    decay_mult: 1
  }
  param {
    lr_mult: 2
    decay_mult: 0
  }
  convolution_param {
    num_output: 96
    pad: 2
    kernel_size: 5
    weight_filler {
      type: "xavier"
    }
    bias_filler {
      type: "constant"
      value: 0.2
    }
  }
}
layer {
  name: "inception_3b/relu_5x5"
  type: "ReLU"
  bottom: "inception_3b/5x5"
  top: "inception_3b/5x5"
}
layer {
  name: "inception_3b/pool"
  type: "Pooling"
  bottom: "inception_3a/output"
  top: "inception_3b/pool"
  pooling_param {
    pool: MAX
    kernel_size: 3
    stride: 1
    pad: 1
  }
}
layer {
  name: "inception_3b/pool_proj"
  type: "Convolution"
  bottom: "inception_3b/pool"
  top: "inception_3b/pool_proj"
  param {
    lr_mult: 1
    decay_mult: 1
  }
  param {
    lr_mult: 2
    decay_mult: 0
  }
  convolution_param {
    num_output: 64
    kernel_size: 1
    weight_filler {
      type: "xavier"
    }
    bias_filler {
      type: "constant"
      value: 0.2
    }
  }
}
layer {
  name: "inception_3b/relu_pool_proj"
  type: "ReLU"
  bottom: "inception_3b/pool_proj"
  top: "inception_3b/pool_proj"
}
layer {
  name: "inception_3b/output"
  type: "Concat"
  bottom: "inception_3b/1x1"
  bottom: "inception_3b/3x3"
  bottom: "inception_3b/5x5"
  bottom: "inception_3b/pool_proj"
  top: "inception_3b/output"
}
layer {
  name: "pool3/3x3_s2"
  type: "Pooling"
  bottom: "inception_3b/output"
  top: "pool3/3x3_s2"
  pooling_param {
    pool: MAX
    kernel_size: 3
    stride: 2
  }
}
layer {
  name: "inception_4a/1x1"
  type: "Convolution"
  bottom: "pool3/3x3_s2"
  top: "inception_4a/1x1"
  param {
    lr_mult: 1
    decay_mult: 1
  }
  param {
    lr_mult: 2
    decay_mult: 0
  }
  convolution_param {
    num_output: 192
    kernel_size: 1
    weight_filler {
      type: "xavier"
    }
    bias_filler {
      type: "constant"
      value: 0.2
    }
  }
}
layer {
  name: "inception_4a/relu_1x1"
  type: "ReLU"
  bottom: "inception_4a/1x1"
  top: "inception_4a/1x1"
}
layer {
  name: "inception_4a/3x3_reduce"
  type: "Convolution"
  bottom: "pool3/3x3_s2"
  top: "inception_4a/3x3_reduce"
  param {
    lr_mult: 1
    decay_mult: 1
  }
  param {
    lr_mult: 2
    decay_mult: 0
  }
  convolution_param {
    num_output: 96
    kernel_size: 1
    weight_filler {
      type: "xavier"
    }
    bias_filler {
      type: "constant"
      value: 0.2
    }
  }
}
layer {
  name: "inception_4a/relu_3x3_reduce"
  type: "ReLU"
  bottom: "inception_4a/3x3_reduce"
  top: "inception_4a/3x3_reduce"
}
layer {
  name: "inception_4a/3x3"
  type: "Convolution"
  bottom: "inception_4a/3x3_reduce"
  top: "inception_4a/3x3"
  param {
    lr_mult: 1
    decay_mult: 1
  }
  param {
    lr_mult: 2
    decay_mult: 0
  }
  convolution_param {
    num_output: 208
    pad: 1
    kernel_size: 3
    weight_filler {
      type: "xavier"
    }
    bias_filler {
      type: "constant"
      value: 0.2
    }
  }
}
layer {
  name: "inception_4a/relu_3x3"
  type: "ReLU"
  bottom: "inception_4a/3x3"
  top: "inception_4a/3x3"
}
layer {
  name: "inception_4a/5x5_reduce"
  type: "Convolution"
  bottom: "pool3/3x3_s2"
  top: "inception_4a/5x5_reduce"
  param {
    lr_mult: 1
    decay_mult: 1
  }
  param {
    lr_mult: 2
    decay_mult: 0
  }
  convolution_param {
    num_output: 16
    kernel_size: 1
    weight_filler {
      type: "xavier"
    }
    bias_filler {
      type: "constant"
      value: 0.2
    }
  }
}
layer {
  name: "inception_4a/relu_5x5_reduce"
  type: "ReLU"
  bottom: "inception_4a/5x5_reduce"
  top: "inception_4a/5x5_reduce"
}
layer {
  name: "inception_4a/5x5"
  type: "Convolution"
  bottom: "inception_4a/5x5_reduce"
  top: "inception_4a/5x5"
  param {
    lr_mult: 1
    decay_mult: 1
  }
  param {
    lr_mult: 2
    decay_mult: 0
  }
  convolution_param {
    num_output: 48
    pad: 2
    kernel_size: 5
    weight_filler {
      type: "xavier"
    }
    bias_filler {
      type: "constant"
      value: 0.2
    }
  }
}
layer {
  name: "inception_4a/relu_5x5"
  type: "ReLU"
  bottom: "inception_4a/5x5"
  top: "inception_4a/5x5"
}
layer {
  name: "inception_4a/pool"
  type: "Pooling"
  bottom: "pool3/3x3_s2"
  top: "inception_4a/pool"
  pooling_param {
    pool: MAX
    kernel_size: 3
    stride: 1
    pad: 1
  }
}
layer {
  name: "inception_4a/pool_proj"
  type: "Convolution"
  bottom: "inception_4a/pool"
  top: "inception_4a/pool_proj"
  param {
    lr_mult: 1
    decay_mult: 1
  }
  param {
    lr_mult: 2
    decay_mult: 0
  }
  convolution_param {
    num_output: 64
    kernel_size: 1
    weight_filler {
      type: "xavier"
    }
    bias_filler {
      type: "constant"
      value: 0.2
    }
  }
}
layer {
  name: "inception_4a/relu_pool_proj"
  type: "ReLU"
  bottom: "inception_4a/pool_proj"
  top: "inception_4a/pool_proj"
}
layer {
  name: "inception_4a/output"
  type: "Concat"
  bottom: "inception_4a/1x1"
  bottom: "inception_4a/3x3"
  bottom: "inception_4a/5x5"
  bottom: "inception_4a/pool_proj"
  top: "inception_4a/output"
}
layer {
  name: "loss1/ave_pool"
  type: "Pooling"
  bottom: "inception_4a/output"
  top: "loss1/ave_pool"
  pooling_param {
    pool: AVE
    kernel_size: 5
    stride: 3
  }
}
layer {
  name: "loss1/conv"
  type: "Convolution"
  bottom: "loss1/ave_pool"
  top: "loss1/conv"
  param {
    lr_mult: 1
    decay_mult: 1
  }
  param {
    lr_mult: 2
    decay_mult: 0
  }
  convolution_param {
    num_output: 128
    kernel_size: 1
    weight_filler {
      type: "xavier"
    }
    bias_filler {
      type: "constant"
      value: 0.2
    }
  }
}
layer {
  name: "loss1/relu_conv"
  type: "ReLU"
  bottom: "loss1/conv"
  top: "loss1/conv"
}
layer {
  name: "loss1/fc"
  type: "InnerProduct"
  bottom: "loss1/conv"
  top: "loss1/fc"
  param {
    lr_mult: 1
    decay_mult: 1
  }
  param {
    lr_mult: 2
    decay_mult: 0
  }
  inner_product_param {
    num_output: 1024
    weight_filler {
      type: "xavier"
    }
    bias_filler {
      type: "constant"
      value: 0.2
    }
  }
}
layer {
  name: "loss1/relu_fc"
  type: "ReLU"
  bottom: "loss1/fc"
  top: "loss1/fc"
}
layer {
  name: "loss1/drop_fc"
  type: "Dropout"
  bottom: "loss1/fc"
  top: "loss1/fc"
  dropout_param {
    dropout_ratio: 0.7
  }
}
layer {
  name: "loss1/classifier"
  type: "InnerProduct"
  bottom: "loss1/fc"
  top: "loss1/classifier"
  param {
    lr_mult: 1
    decay_mult: 1
  }
  param {
    lr_mult: 2
    decay_mult: 0
  }
  inner_product_param {
    num_output: 1000
    weight_filler {
      type: "xavier"
    }
    bias_filler {
      type: "constant"
      value: 0
    }
  }
}
layer {
  name: "loss1/loss"
  type: "SoftmaxWithLoss"
  bottom: "loss1/classifier"
  bottom: "label"
  top: "loss1/loss1"
  loss_weight: 0.3
}
layer {
  name: "inception_4b/1x1"
  type: "Convolution"
  bottom: "inception_4a/output"
  top: "inception_4b/1x1"
  param {
    lr_mult: 1
    decay_mult: 1
  }
  param {
    lr_mult: 2
    decay_mult: 0
  }
  convolution_param {
    num_output: 160
    kernel_size: 1
    weight_filler {
      type: "xavier"
    }
    bias_filler {
      type: "constant"
      value: 0.2
    }
  }
}
layer {
  name: "inception_4b/relu_1x1"
  type: "ReLU"
  bottom: "inception_4b/1x1"
  top: "inception_4b/1x1"
}
layer {
  name: "inception_4b/3x3_reduce"
  type: "Convolution"
  bottom: "inception_4a/output"
  top: "inception_4b/3x3_reduce"
  param {
    lr_mult: 1
    decay_mult: 1
  }
  param {
    lr_mult: 2
    decay_mult: 0
  }
  convolution_param {
    num_output: 112
    kernel_size: 1
    weight_filler {
      type: "xavier"
    }
    bias_filler {
      type: "constant"
      value: 0.2
    }
  }
}
layer {
  name: "inception_4b/relu_3x3_reduce"
  type: "ReLU"
  bottom: "inception_4b/3x3_reduce"
  top: "inception_4b/3x3_reduce"
}
layer {
  name: "inception_4b/3x3"
  type: "Convolution"
  bottom: "inception_4b/3x3_reduce"
  top: "inception_4b/3x3"
  param {
    lr_mult: 1
    decay_mult: 1
  }
  param {
    lr_mult: 2
    decay_mult: 0
  }
  convolution_param {
    num_output: 224
    pad: 1
    kernel_size: 3
    weight_filler {
      type: "xavier"
    }
    bias_filler {
      type: "constant"
      value: 0.2
    }
  }
}
layer {
  name: "inception_4b/relu_3x3"
  type: "ReLU"
  bottom: "inception_4b/3x3"
  top: "inception_4b/3x3"
}
layer {
  name: "inception_4b/5x5_reduce"
  type: "Convolution"
  bottom: "inception_4a/output"
  top: "inception_4b/5x5_reduce"
  param {
    lr_mult: 1
    decay_mult: 1
  }
  param {
    lr_mult: 2
    decay_mult: 0
  }
  convolution_param {
    num_output: 24
    kernel_size: 1
    weight_filler {
      type: "xavier"
    }
    bias_filler {
      type: "constant"
      value: 0.2
    }
  }
}
layer {
  name: "inception_4b/relu_5x5_reduce"
  type: "ReLU"
  bottom: "inception_4b/5x5_reduce"
  top: "inception_4b/5x5_reduce"
}
layer {
  name: "inception_4b/5x5"
  type: "Convolution"
  bottom: "inception_4b/5x5_reduce"
  top: "inception_4b/5x5"
  param {
    lr_mult: 1
    decay_mult: 1
  }
  param {
    lr_mult: 2
    decay_mult: 0
  }
  convolution_param {
    num_output: 64
    pad: 2
    kernel_size: 5
    weight_filler {
      type: "xavier"
    }
    bias_filler {
      type: "constant"
      value: 0.2
    }
  }
}
layer {
  name: "inception_4b/relu_5x5"
  type: "ReLU"
  bottom: "inception_4b/5x5"
  top: "inception_4b/5x5"
}
layer {
  name: "inception_4b/pool"
  type: "Pooling"
  bottom: "inception_4a/output"
  top: "inception_4b/pool"
  pooling_param {
    pool: MAX
    kernel_size: 3
    stride: 1
    pad: 1
  }
}
layer {
  name: "inception_4b/pool_proj"
  type: "Convolution"
  bottom: "inception_4b/pool"
  top: "inception_4b/pool_proj"
  param {
    lr_mult: 1
    decay_mult: 1
  }
  param {
    lr_mult: 2
    decay_mult: 0
  }
  convolution_param {
    num_output: 64
    kernel_size: 1
    weight_filler {
      type: "xavier"
    }
    bias_filler {
      type: "constant"
      value: 0.2
    }
  }
}
layer {
  name: "inception_4b/relu_pool_proj"
  type: "ReLU"
  bottom: "inception_4b/pool_proj"
  top: "inception_4b/pool_proj"
}
layer {
  name: "inception_4b/output"
  type: "Concat"
  bottom: "inception_4b/1x1"
  bottom: "inception_4b/3x3"
  bottom: "inception_4b/5x5"
  bottom: "inception_4b/pool_proj"
  top: "inception_4b/output"
}
layer {
  name: "inception_4c/1x1"
  type: "Convolution"
  bottom: "inception_4b/output"
  top: "inception_4c/1x1"
  param {
    lr_mult: 1
    decay_mult: 1
  }
  param {
    lr_mult: 2
    decay_mult: 0
  }
  convolution_param {
    num_output: 128
    kernel_size: 1
    weight_filler {
      type: "xavier"
    }
    bias_filler {
      type: "constant"
      value: 0.2
    }
  }
}
layer {
  name: "inception_4c/relu_1x1"
  type: "ReLU"
  bottom: "inception_4c/1x1"
  top: "inception_4c/1x1"
}
layer {
  name: "inception_4c/3x3_reduce"
  type: "Convolution"
  bottom: "inception_4b/output"
  top: "inception_4c/3x3_reduce"
  param {
    lr_mult: 1
    decay_mult: 1
  }
  param {
    lr_mult: 2
    decay_mult: 0
  }
  convolution_param {
    num_output: 128
    kernel_size: 1
    weight_filler {
      type: "xavier"
    }
    bias_filler {
      type: "constant"
      value: 0.2
    }
  }
}
layer {
  name: "inception_4c/relu_3x3_reduce"
  type: "ReLU"
  bottom: "inception_4c/3x3_reduce"
  top: "inception_4c/3x3_reduce"
}
layer {
  name: "inception_4c/3x3"
  type: "Convolution"
  bottom: "inception_4c/3x3_reduce"
  top: "inception_4c/3x3"
  param {
    lr_mult: 1
    decay_mult: 1
  }
  param {
    lr_mult: 2
    decay_mult: 0
  }
  convolution_param {
    num_output: 256
    pad: 1
    kernel_size: 3
    weight_filler {
      type: "xavier"
    }
    bias_filler {
      type: "constant"
      value: 0.2
    }
  }
}
layer {
  name: "inception_4c/relu_3x3"
  type: "ReLU"
  bottom: "inception_4c/3x3"
  top: "inception_4c/3x3"
}
layer {
  name: "inception_4c/5x5_reduce"
  type: "Convolution"
  bottom: "inception_4b/output"
  top: "inception_4c/5x5_reduce"
  param {
    lr_mult: 1
    decay_mult: 1
  }
  param {
    lr_mult: 2
    decay_mult: 0
  }
  convolution_param {
    num_output: 24
    kernel_size: 1
    weight_filler {
      type: "xavier"
    }
    bias_filler {
      type: "constant"
      value: 0.2
    }
  }
}
layer {
  name: "inception_4c/relu_5x5_reduce"
  type: "ReLU"
  bottom: "inception_4c/5x5_reduce"
  top: "inception_4c/5x5_reduce"
}
layer {
  name: "inception_4c/5x5"
  type: "Convolution"
  bottom: "inception_4c/5x5_reduce"
  top: "inception_4c/5x5"
  param {
    lr_mult: 1
    decay_mult: 1
  }
  param {
    lr_mult: 2
    decay_mult: 0
  }
  convolution_param {
    num_output: 64
    pad: 2
    kernel_size: 5
    weight_filler {
      type: "xavier"
    }
    bias_filler {
      type: "constant"
      value: 0.2
    }
  }
}
layer {
  name: "inception_4c/relu_5x5"
  type: "ReLU"
  bottom: "inception_4c/5x5"
  top: "inception_4c/5x5"
}
layer {
  name: "inception_4c/pool"
  type: "Pooling"
  bottom: "inception_4b/output"
  top: "inception_4c/pool"
  pooling_param {
    pool: MAX
    kernel_size: 3
    stride: 1
    pad: 1
  }
}
layer {
  name: "inception_4c/pool_proj"
  type: "Convolution"
  bottom: "inception_4c/pool"
  top: "inception_4c/pool_proj"
  param {
    lr_mult: 1
    decay_mult: 1
  }
  param {
    lr_mult: 2
    decay_mult: 0
  }
  convolution_param {
    num_output: 64
    kernel_size: 1
    weight_filler {
      type: "xavier"
    }
    bias_filler {
      type: "constant"
      value: 0.2
    }
  }
}
layer {
  name: "inception_4c/relu_pool_proj"
  type: "ReLU"
  bottom: "inception_4c/pool_proj"
  top: "inception_4c/pool_proj"
}
layer {
  name: "inception_4c/output"
  type: "Concat"
  bottom: "inception_4c/1x1"
  bottom: "inception_4c/3x3"
  bottom: "inception_4c/5x5"
  bottom: "inception_4c/pool_proj"
  top: "inception_4c/output"
}
layer {
  name: "inception_4d/1x1"
  type: "Convolution"
  bottom: "inception_4c/output"
  top: "inception_4d/1x1"
  param {
    lr_mult: 1
    decay_mult: 1
  }
  param {
    lr_mult: 2
    decay_mult: 0
  }
  convolution_param {
    num_output: 112
    kernel_size: 1
    weight_filler {
      type: "xavier"
    }
    bias_filler {
      type: "constant"
      value: 0.2
    }
  }
}
layer {
  name: "inception_4d/relu_1x1"
  type: "ReLU"
  bottom: "inception_4d/1x1"
  top: "inception_4d/1x1"
}
layer {
  name: "inception_4d/3x3_reduce"
  type: "Convolution"
  bottom: "inception_4c/output"
  top: "inception_4d/3x3_reduce"
  param {
    lr_mult: 1
    decay_mult: 1
  }
  param {
    lr_mult: 2
    decay_mult: 0
  }
  convolution_param {
    num_output: 144
    kernel_size: 1
    weight_filler {
      type: "xavier"
    }
    bias_filler {
      type: "constant"
      value: 0.2
    }
  }
}
layer {
  name: "inception_4d/relu_3x3_reduce"
  type: "ReLU"
  bottom: "inception_4d/3x3_reduce"
  top: "inception_4d/3x3_reduce"
}
layer {
  name: "inception_4d/3x3"
  type: "Convolution"
  bottom: "inception_4d/3x3_reduce"
  top: "inception_4d/3x3"
  param {
    lr_mult: 1
    decay_mult: 1
  }
  param {
    lr_mult: 2
    decay_mult: 0
  }
  convolution_param {
    num_output: 288
    pad: 1
    kernel_size: 3
    weight_filler {
      type: "xavier"
    }
    bias_filler {
      type: "constant"
      value: 0.2
    }
  }
}
layer {
  name: "inception_4d/relu_3x3"
  type: "ReLU"
  bottom: "inception_4d/3x3"
  top: "inception_4d/3x3"
}
layer {
  name: "inception_4d/5x5_reduce"
  type: "Convolution"
  bottom: "inception_4c/output"
  top: "inception_4d/5x5_reduce"
  param {
    lr_mult: 1
    decay_mult: 1
  }
  param {
    lr_mult: 2
    decay_mult: 0
  }
  convolution_param {
    num_output: 32
    kernel_size: 1
    weight_filler {
      type: "xavier"
    }
    bias_filler {
      type: "constant"
      value: 0.2
    }
  }
}
layer {
  name: "inception_4d/relu_5x5_reduce"
  type: "ReLU"
  bottom: "inception_4d/5x5_reduce"
  top: "inception_4d/5x5_reduce"
}
layer {
  name: "inception_4d/5x5"
  type: "Convolution"
  bottom: "inception_4d/5x5_reduce"
  top: "inception_4d/5x5"
  param {
    lr_mult: 1
    decay_mult: 1
  }
  param {
    lr_mult: 2
    decay_mult: 0
  }
  convolution_param {
    num_output: 64
    pad: 2
    kernel_size: 5
    weight_filler {
      type: "xavier"
    }
    bias_filler {
      type: "constant"
      value: 0.2
    }
  }
}
layer {
  name: "inception_4d/relu_5x5"
  type: "ReLU"
  bottom: "inception_4d/5x5"
  top: "inception_4d/5x5"
}
layer {
  name: "inception_4d/pool"
  type: "Pooling"
  bottom: "inception_4c/output"
  top: "inception_4d/pool"
  pooling_param {
    pool: MAX
    kernel_size: 3
    stride: 1
    pad: 1
  }
}
layer {
  name: "inception_4d/pool_proj"
  type: "Convolution"
  bottom: "inception_4d/pool"
  top: "inception_4d/pool_proj"
  param {
    lr_mult: 1
    decay_mult: 1
  }
  param {
    lr_mult: 2
    decay_mult: 0
  }
  convolution_param {
    num_output: 64
    kernel_size: 1
    weight_filler {
      type: "xavier"
    }
    bias_filler {
      type: "constant"
      value: 0.2
    }
  }
}
layer {
  name: "inception_4d/relu_pool_proj"
  type: "ReLU"
  bottom: "inception_4d/pool_proj"
  top: "inception_4d/pool_proj"
}
layer {
  name: "inception_4d/output"
  type: "Concat"
  bottom: "inception_4d/1x1"
  bottom: "inception_4d/3x3"
  bottom: "inception_4d/5x5"
  bottom: "inception_4d/pool_proj"
  top: "inception_4d/output"
}
layer {
  name: "loss2/ave_pool"
  type: "Pooling"
  bottom: "inception_4d/output"
  top: "loss2/ave_pool"
  pooling_param {
    pool: AVE
    kernel_size: 5
    stride: 3
  }
}
layer {
  name: "loss2/conv"
  type: "Convolution"
  bottom: "loss2/ave_pool"
  top: "loss2/conv"
  param {
    lr_mult: 1
    decay_mult: 1
  }
  param {
    lr_mult: 2
    decay_mult: 0
  }
  convolution_param {
    num_output: 128
    kernel_size: 1
    weight_filler {
      type: "xavier"
    }
    bias_filler {
      type: "constant"
      value: 0.2
    }
  }
}
layer {
  name: "loss2/relu_conv"
  type: "ReLU"
  bottom: "loss2/conv"
  top: "loss2/conv"
}
layer {
  name: "loss2/fc"
  type: "InnerProduct"
  bottom: "loss2/conv"
  top: "loss2/fc"
  param {
    lr_mult: 1
    decay_mult: 1
  }
  param {
    lr_mult: 2
    decay_mult: 0
  }
  inner_product_param {
    num_output: 1024
    weight_filler {
      type: "xavier"
    }
    bias_filler {
      type: "constant"
      value: 0.2
    }
  }
}
layer {
  name: "loss2/relu_fc"
  type: "ReLU"
  bottom: "loss2/fc"
  top: "loss2/fc"
}
layer {
  name: "loss2/drop_fc"
  type: "Dropout"
  bottom: "loss2/fc"
  top: "loss2/fc"
  dropout_param {
    dropout_ratio: 0.7
  }
}
layer {
  name: "loss2/classifier"
  type: "InnerProduct"
  bottom: "loss2/fc"
  top: "loss2/classifier"
  param {
    lr_mult: 1
    decay_mult: 1
  }
  param {
    lr_mult: 2
    decay_mult: 0
  }
  inner_product_param {
    num_output: 1000
    weight_filler {
      type: "xavier"
    }
    bias_filler {
      type: "constant"
      value: 0
    }
  }
}
layer {
  name: "loss2/loss"
  type: "SoftmaxWithLoss"
  bottom: "loss2/classifier"
  bottom: "label"
  top: "loss2/loss2"
  loss_weight: 0.3
}
layer {
  name: "inception_4e/1x1"
  type: "Convolution"
  bottom: "inception_4d/output"
  top: "inception_4e/1x1"
  param {
    lr_mult: 1
    decay_mult: 1
  }
  param {
    lr_mult: 2
    decay_mult: 0
  }
  convolution_param {
    num_output: 256
    kernel_size: 1
    weight_filler {
      type: "xavier"
    }
    bias_filler {
      type: "constant"
      value: 0.2
    }
  }
}
layer {
  name: "inception_4e/relu_1x1"
  type: "ReLU"
  bottom: "inception_4e/1x1"
  top: "inception_4e/1x1"
}
layer {
  name: "inception_4e/3x3_reduce"
  type: "Convolution"
  bottom: "inception_4d/output"
  top: "inception_4e/3x3_reduce"
  param {
    lr_mult: 1
    decay_mult: 1
  }
  param {
    lr_mult: 2
    decay_mult: 0
  }
  convolution_param {
    num_output: 160
    kernel_size: 1
    weight_filler {
      type: "xavier"
    }
    bias_filler {
      type: "constant"
      value: 0.2
    }
  }
}
layer {
  name: "inception_4e/relu_3x3_reduce"
  type: "ReLU"
  bottom: "inception_4e/3x3_reduce"
  top: "inception_4e/3x3_reduce"
}
layer {
  name: "inception_4e/3x3"
  type: "Convolution"
  bottom: "inception_4e/3x3_reduce"
  top: "inception_4e/3x3"
  param {
    lr_mult: 1
    decay_mult: 1
  }
  param {
    lr_mult: 2
    decay_mult: 0
  }
  convolution_param {
    num_output: 320
    pad: 1
    kernel_size: 3
    weight_filler {
      type: "xavier"
    }
    bias_filler {
      type: "constant"
      value: 0.2
    }
  }
}
layer {
  name: "inception_4e/relu_3x3"
  type: "ReLU"
  bottom: "inception_4e/3x3"
  top: "inception_4e/3x3"
}
layer {
  name: "inception_4e/5x5_reduce"
  type: "Convolution"
  bottom: "inception_4d/output"
  top: "inception_4e/5x5_reduce"
  param {
    lr_mult: 1
    decay_mult: 1
  }
  param {
    lr_mult: 2
    decay_mult: 0
  }
  convolution_param {
    num_output: 32
    kernel_size: 1
    weight_filler {
      type: "xavier"
    }
    bias_filler {
      type: "constant"
      value: 0.2
    }
  }
}
layer {
  name: "inception_4e/relu_5x5_reduce"
  type: "ReLU"
  bottom: "inception_4e/5x5_reduce"
  top: "inception_4e/5x5_reduce"
}
layer {
  name: "inception_4e/5x5"
  type: "Convolution"
  bottom: "inception_4e/5x5_reduce"
  top: "inception_4e/5x5"
  param {
    lr_mult: 1
    decay_mult: 1
  }
  param {
    lr_mult: 2
    decay_mult: 0
  }
  convolution_param {
    num_output: 128
    pad: 2
    kernel_size: 5
    weight_filler {
      type: "xavier"
    }
    bias_filler {
      type: "constant"
      value: 0.2
    }
  }
}
layer {
  name: "inception_4e/relu_5x5"
  type: "ReLU"
  bottom: "inception_4e/5x5"
  top: "inception_4e/5x5"
}
layer {
  name: "inception_4e/pool"
  type: "Pooling"
  bottom: "inception_4d/output"
  top: "inception_4e/pool"
  pooling_param {
    pool: MAX
    kernel_size: 
I0501 21:05:38.215701 25707 layer_factory.hpp:77] Creating layer data
I0501 21:05:38.219266 25707 db_lmdb.cpp:35] Opened lmdb retina256/retina256_train_lmdb
I0501 21:05:38.220626 25707 net.cpp:84] Creating Layer data
I0501 21:05:38.220646 25707 net.cpp:380] data -> data
I0501 21:05:38.221778 25707 net.cpp:380] data -> label
I0501 21:05:38.222419 25707 data_transformer.cpp:25] Loading mean file from: retina256/retina256_train_mean.binaryproto
I0501 21:05:38.236750 25707 data_layer.cpp:45] output data size: 50,3,224,224
I0501 21:05:38.327937 25707 net.cpp:122] Setting up data
I0501 21:05:38.327988 25707 net.cpp:129] Top shape: 50 3 224 224 (7526400)
I0501 21:05:38.327998 25707 net.cpp:129] Top shape: 50 (50)
I0501 21:05:38.328003 25707 net.cpp:137] Memory required for data: 30105800
I0501 21:05:38.328018 25707 layer_factory.hpp:77] Creating layer label_data_1_split
I0501 21:05:38.328037 25707 net.cpp:84] Creating Layer label_data_1_split
I0501 21:05:38.328047 25707 net.cpp:406] label_data_1_split <- label
I0501 21:05:38.328061 25707 net.cpp:380] label_data_1_split -> label_data_1_split_0
I0501 21:05:38.328088 25707 net.cpp:380] label_data_1_split -> label_data_1_split_1
I0501 21:05:38.328145 25707 net.cpp:380] label_data_1_split -> label_data_1_split_2
I0501 21:05:38.328212 25707 net.cpp:122] Setting up label_data_1_split
I0501 21:05:38.328222 25707 net.cpp:129] Top shape: 50 (50)
I0501 21:05:38.328229 25707 net.cpp:129] Top shape: 50 (50)
I0501 21:05:38.328238 25707 net.cpp:129] Top shape: 50 (50)
I0501 21:05:38.328245 25707 net.cpp:137] Memory required for data: 30106400
I0501 21:05:38.328251 25707 layer_factory.hpp:77] Creating layer conv1/7x7_s2
I0501 21:05:38.328704 25707 net.cpp:84] Creating Layer conv1/7x7_s2
I0501 21:05:38.328716 25707 net.cpp:406] conv1/7x7_s2 <- data
I0501 21:05:38.328727 25707 net.cpp:380] conv1/7x7_s2 -> conv1/7x7_s2
I0501 21:05:39.997189 25707 net.cpp:122] Setting up conv1/7x7_s2
I0501 21:05:39.997239 25707 net.cpp:129] Top shape: 50 64 112 112 (40140800)
I0501 21:05:39.997249 25707 net.cpp:137] Memory required for data: 190669600
I0501 21:05:39.997287 25707 layer_factory.hpp:77] Creating layer conv1/relu_7x7
I0501 21:05:39.997303 25707 net.cpp:84] Creating Layer conv1/relu_7x7
I0501 21:05:39.997309 25707 net.cpp:406] conv1/relu_7x7 <- conv1/7x7_s2
I0501 21:05:39.997320 25707 net.cpp:367] conv1/relu_7x7 -> conv1/7x7_s2 (in-place)
I0501 21:05:39.997556 25707 net.cpp:122] Setting up conv1/relu_7x7
I0501 21:05:39.997573 25707 net.cpp:129] Top shape: 50 64 112 112 (40140800)
I0501 21:05:39.997579 25707 net.cpp:137] Memory required for data: 351232800
I0501 21:05:39.997587 25707 layer_factory.hpp:77] Creating layer pool1/3x3_s2
I0501 21:05:39.997598 25707 net.cpp:84] Creating Layer pool1/3x3_s2
I0501 21:05:39.997603 25707 net.cpp:406] pool1/3x3_s2 <- conv1/7x7_s2
I0501 21:05:39.997611 25707 net.cpp:380] pool1/3x3_s2 -> pool1/3x3_s2
I0501 21:05:39.997685 25707 net.cpp:122] Setting up pool1/3x3_s2
I0501 21:05:39.997694 25707 net.cpp:129] Top shape: 50 64 56 56 (10035200)
I0501 21:05:39.997766 25707 net.cpp:137] Memory required for data: 391373600
I0501 21:05:39.997778 25707 layer_factory.hpp:77] Creating layer pool1/norm1
I0501 21:05:39.997794 25707 net.cpp:84] Creating Layer pool1/norm1
I0501 21:05:39.997807 25707 net.cpp:406] pool1/norm1 <- pool1/3x3_s2
I0501 21:05:39.997817 25707 net.cpp:380] pool1/norm1 -> pool1/norm1
I0501 21:05:39.998025 25707 net.cpp:122] Setting up pool1/norm1
I0501 21:05:39.998037 25707 net.cpp:129] Top shape: 50 64 56 56 (10035200)
I0501 21:05:39.998042 25707 net.cpp:137] Memory required for data: 431514400
I0501 21:05:39.998047 25707 layer_factory.hpp:77] Creating layer conv2/3x3_reduce
I0501 21:05:39.998064 25707 net.cpp:84] Creating Layer conv2/3x3_reduce
I0501 21:05:39.998073 25707 net.cpp:406] conv2/3x3_reduce <- pool1/norm1
I0501 21:05:39.998085 25707 net.cpp:380] conv2/3x3_reduce -> conv2/3x3_reduce
I0501 21:05:40.012575 25707 net.cpp:122] Setting up conv2/3x3_reduce
I0501 21:05:40.012629 25707 net.cpp:129] Top shape: 50 64 56 56 (10035200)
I0501 21:05:40.012635 25707 net.cpp:137] Memory required for data: 471655200
I0501 21:05:40.012655 25707 layer_factory.hpp:77] Creating layer conv2/relu_3x3_reduce
I0501 21:05:40.012675 25707 net.cpp:84] Creating Layer conv2/relu_3x3_reduce
I0501 21:05:40.012686 25707 net.cpp:406] conv2/relu_3x3_reduce <- conv2/3x3_reduce
I0501 21:05:40.012698 25707 net.cpp:367] conv2/relu_3x3_reduce -> conv2/3x3_reduce (in-place)
I0501 21:05:40.012882 25707 net.cpp:122] Setting up conv2/relu_3x3_reduce
I0501 21:05:40.012897 25707 net.cpp:129] Top shape: 50 64 56 56 (10035200)
I0501 21:05:40.012904 25707 net.cpp:137] Memory required for data: 511796000
I0501 21:05:40.012914 25707 layer_factory.hpp:77] Creating layer conv2/3x3
I0501 21:05:40.012935 25707 net.cpp:84] Creating Layer conv2/3x3
I0501 21:05:40.012943 25707 net.cpp:406] conv2/3x3 <- conv2/3x3_reduce
I0501 21:05:40.012955 25707 net.cpp:380] conv2/3x3 -> conv2/3x3
I0501 21:05:40.024302 25707 net.cpp:122] Setting up conv2/3x3
I0501 21:05:40.024365 25707 net.cpp:129] Top shape: 50 192 56 56 (30105600)
I0501 21:05:40.024377 25707 net.cpp:137] Memory required for data: 632218400
I0501 21:05:40.025017 25707 layer_factory.hpp:77] Creating layer conv2/relu_3x3
I0501 21:05:40.025034 25707 net.cpp:84] Creating Layer conv2/relu_3x3
I0501 21:05:40.025046 25707 net.cpp:406] conv2/relu_3x3 <- conv2/3x3
I0501 21:05:40.025056 25707 net.cpp:367] conv2/relu_3x3 -> conv2/3x3 (in-place)
I0501 21:05:40.025872 25707 net.cpp:122] Setting up conv2/relu_3x3
I0501 21:05:40.025897 25707 net.cpp:129] Top shape: 50 192 56 56 (30105600)
I0501 21:05:40.025908 25707 net.cpp:137] Memory required for data: 752640800
I0501 21:05:40.025915 25707 layer_factory.hpp:77] Creating layer conv2/norm2
I0501 21:05:40.025933 25707 net.cpp:84] Creating Layer conv2/norm2
I0501 21:05:40.025943 25707 net.cpp:406] conv2/norm2 <- conv2/3x3
I0501 21:05:40.025954 25707 net.cpp:380] conv2/norm2 -> conv2/norm2
I0501 21:05:40.026208 25707 net.cpp:122] Setting up conv2/norm2
I0501 21:05:40.026219 25707 net.cpp:129] Top shape: 50 192 56 56 (30105600)
I0501 21:05:40.026226 25707 net.cpp:137] Memory required for data: 873063200
I0501 21:05:40.026230 25707 layer_factory.hpp:77] Creating layer pool2/3x3_s2
I0501 21:05:40.026242 25707 net.cpp:84] Creating Layer pool2/3x3_s2
I0501 21:05:40.026247 25707 net.cpp:406] pool2/3x3_s2 <- conv2/norm2
I0501 21:05:40.026254 25707 net.cpp:380] pool2/3x3_s2 -> pool2/3x3_s2
I0501 21:05:40.026286 25707 net.cpp:122] Setting up pool2/3x3_s2
I0501 21:05:40.026294 25707 net.cpp:129] Top shape: 50 192 28 28 (7526400)
I0501 21:05:40.026299 25707 net.cpp:137] Memory required for data: 903168800
I0501 21:05:40.026304 25707 layer_factory.hpp:77] Creating layer pool2/3x3_s2_pool2/3x3_s2_0_split
I0501 21:05:40.026312 25707 net.cpp:84] Creating Layer pool2/3x3_s2_pool2/3x3_s2_0_split
I0501 21:05:40.026317 25707 net.cpp:406] pool2/3x3_s2_pool2/3x3_s2_0_split <- pool2/3x3_s2
I0501 21:05:40.026324 25707 net.cpp:380] pool2/3x3_s2_pool2/3x3_s2_0_split -> pool2/3x3_s2_pool2/3x3_s2_0_split_0
I0501 21:05:40.026332 25707 net.cpp:380] pool2/3x3_s2_pool2/3x3_s2_0_split -> pool2/3x3_s2_pool2/3x3_s2_0_split_1
I0501 21:05:40.026340 25707 net.cpp:380] pool2/3x3_s2_pool2/3x3_s2_0_split -> pool2/3x3_s2_pool2/3x3_s2_0_split_2
I0501 21:05:40.026346 25707 net.cpp:380] pool2/3x3_s2_pool2/3x3_s2_0_split -> pool2/3x3_s2_pool2/3x3_s2_0_split_3
I0501 21:05:40.026412 25707 net.cpp:122] Setting up pool2/3x3_s2_pool2/3x3_s2_0_split
I0501 21:05:40.026427 25707 net.cpp:129] Top shape: 50 192 28 28 (7526400)
I0501 21:05:40.026437 25707 net.cpp:129] Top shape: 50 192 28 28 (7526400)
I0501 21:05:40.026443 25707 net.cpp:129] Top shape: 50 192 28 28 (7526400)
I0501 21:05:40.026448 25707 net.cpp:129] Top shape: 50 192 28 28 (7526400)
I0501 21:05:40.026453 25707 net.cpp:137] Memory required for data: 1023591200
I0501 21:05:40.026458 25707 layer_factory.hpp:77] Creating layer inception_3a/1x1
I0501 21:05:40.026471 25707 net.cpp:84] Creating Layer inception_3a/1x1
I0501 21:05:40.026475 25707 net.cpp:406] inception_3a/1x1 <- pool2/3x3_s2_pool2/3x3_s2_0_split_0
I0501 21:05:40.026484 25707 net.cpp:380] inception_3a/1x1 -> inception_3a/1x1
I0501 21:05:40.029371 25707 net.cpp:122] Setting up inception_3a/1x1
I0501 21:05:40.029433 25707 net.cpp:129] Top shape: 50 64 28 28 (2508800)
I0501 21:05:40.029443 25707 net.cpp:137] Memory required for data: 1033626400
I0501 21:05:40.029471 25707 layer_factory.hpp:77] Creating layer inception_3a/relu_1x1
I0501 21:05:40.029505 25707 net.cpp:84] Creating Layer inception_3a/relu_1x1
I0501 21:05:40.029520 25707 net.cpp:406] inception_3a/relu_1x1 <- inception_3a/1x1
I0501 21:05:40.029546 25707 net.cpp:367] inception_3a/relu_1x1 -> inception_3a/1x1 (in-place)
I0501 21:05:40.029824 25707 net.cpp:122] Setting up inception_3a/relu_1x1
I0501 21:05:40.029836 25707 net.cpp:129] Top shape: 50 64 28 28 (2508800)
I0501 21:05:40.029840 25707 net.cpp:137] Memory required for data: 1043661600
I0501 21:05:40.029845 25707 layer_factory.hpp:77] Creating layer inception_3a/3x3_reduce
I0501 21:05:40.029863 25707 net.cpp:84] Creating Layer inception_3a/3x3_reduce
I0501 21:05:40.029870 25707 net.cpp:406] inception_3a/3x3_reduce <- pool2/3x3_s2_pool2/3x3_s2_0_split_1
I0501 21:05:40.029950 25707 net.cpp:380] inception_3a/3x3_reduce -> inception_3a/3x3_reduce
I0501 21:05:40.033828 25707 net.cpp:122] Setting up inception_3a/3x3_reduce
I0501 21:05:40.033861 25707 net.cpp:129] Top shape: 50 96 28 28 (3763200)
I0501 21:05:40.033865 25707 net.cpp:137] Memory required for data: 1058714400
I0501 21:05:40.033888 25707 layer_factory.hpp:77] Creating layer inception_3a/relu_3x3_reduce
I0501 21:05:40.033908 25707 net.cpp:84] Creating Layer inception_3a/relu_3x3_reduce
I0501 21:05:40.033915 25707 net.cpp:406] inception_3a/relu_3x3_reduce <- inception_3a/3x3_reduce
I0501 21:05:40.033946 25707 net.cpp:367] inception_3a/relu_3x3_reduce -> inception_3a/3x3_reduce (in-place)
I0501 21:05:40.034101 25707 net.cpp:122] Setting up inception_3a/relu_3x3_reduce
I0501 21:05:40.034111 25707 net.cpp:129] Top shape: 50 96 28 28 (3763200)
I0501 21:05:40.034114 25707 net.cpp:137] Memory required for data: 1073767200
I0501 21:05:40.034119 25707 layer_factory.hpp:77] Creating layer inception_3a/3x3
I0501 21:05:40.034135 25707 net.cpp:84] Creating Layer inception_3a/3x3
I0501 21:05:40.034142 25707 net.cpp:406] inception_3a/3x3 <- inception_3a/3x3_reduce
I0501 21:05:40.034149 25707 net.cpp:380] inception_3a/3x3 -> inception_3a/3x3
I0501 21:05:40.036206 25707 net.cpp:122] Setting up inception_3a/3x3
I0501 21:05:40.036231 25707 net.cpp:129] Top shape: 50 128 28 28 (5017600)
I0501 21:05:40.036237 25707 net.cpp:137] Memory required for data: 1093837600
I0501 21:05:40.036247 25707 layer_factory.hpp:77] Creating layer inception_3a/relu_3x3
I0501 21:05:40.036257 25707 net.cpp:84] Creating Layer inception_3a/relu_3x3
I0501 21:05:40.036263 25707 net.cpp:406] inception_3a/relu_3x3 <- inception_3a/3x3
I0501 21:05:40.036273 25707 net.cpp:367] inception_3a/relu_3x3 -> inception_3a/3x3 (in-place)
I0501 21:05:40.036444 25707 net.cpp:122] Setting up inception_3a/relu_3x3
I0501 21:05:40.036454 25707 net.cpp:129] Top shape: 50 128 28 28 (5017600)
I0501 21:05:40.036458 25707 net.cpp:137] Memory required for data: 1113908000
I0501 21:05:40.036463 25707 layer_factory.hpp:77] Creating layer inception_3a/5x5_reduce
I0501 21:05:40.036478 25707 net.cpp:84] Creating Layer inception_3a/5x5_reduce
I0501 21:05:40.036484 25707 net.cpp:406] inception_3a/5x5_reduce <- pool2/3x3_s2_pool2/3x3_s2_0_split_2
I0501 21:05:40.036494 25707 net.cpp:380] inception_3a/5x5_reduce -> inception_3a/5x5_reduce
I0501 21:05:40.037940 25707 net.cpp:122] Setting up inception_3a/5x5_reduce
I0501 21:05:40.037973 25707 net.cpp:129] Top shape: 50 16 28 28 (627200)
I0501 21:05:40.037979 25707 net.cpp:137] Memory required for data: 1116416800
I0501 21:05:40.037994 25707 layer_factory.hpp:77] Creating layer inception_3a/relu_5x5_reduce
I0501 21:05:40.038008 25707 net.cpp:84] Creating Layer inception_3a/relu_5x5_reduce
I0501 21:05:40.038019 25707 net.cpp:406] inception_3a/relu_5x5_reduce <- inception_3a/5x5_reduce
I0501 21:05:40.038045 25707 net.cpp:367] inception_3a/relu_5x5_reduce -> inception_3a/5x5_reduce (in-place)
I0501 21:05:40.038259 25707 net.cpp:122] Setting up inception_3a/relu_5x5_reduce
I0501 21:05:40.038275 25707 net.cpp:129] Top shape: 50 16 28 28 (627200)
I0501 21:05:40.038298 25707 net.cpp:137] Memory required for data: 1118925600
I0501 21:05:40.038305 25707 layer_factory.hpp:77] Creating layer inception_3a/5x5
I0501 21:05:40.038326 25707 net.cpp:84] Creating Layer inception_3a/5x5
I0501 21:05:40.038333 25707 net.cpp:406] inception_3a/5x5 <- inception_3a/5x5_reduce
I0501 21:05:40.038345 25707 net.cpp:380] inception_3a/5x5 -> inception_3a/5x5
I0501 21:05:40.040313 25707 net.cpp:122] Setting up inception_3a/5x5
I0501 21:05:40.040339 25707 net.cpp:129] Top shape: 50 32 28 28 (1254400)
I0501 21:05:40.040347 25707 net.cpp:137] Memory required for data: 1123943200
I0501 21:05:40.040375 25707 layer_factory.hpp:77] Creating layer inception_3a/relu_5x5
I0501 21:05:40.040390 25707 net.cpp:84] Creating Layer inception_3a/relu_5x5
I0501 21:05:40.040400 25707 net.cpp:406] inception_3a/relu_5x5 <- inception_3a/5x5
I0501 21:05:40.040422 25707 net.cpp:367] inception_3a/relu_5x5 -> inception_3a/5x5 (in-place)
I0501 21:05:40.041230 25707 net.cpp:122] Setting up inception_3a/relu_5x5
I0501 21:05:40.041265 25707 net.cpp:129] Top shape: 50 32 28 28 (1254400)
I0501 21:05:40.041271 25707 net.cpp:137] Memory required for data: 1128960800
I0501 21:05:40.041281 25707 layer_factory.hpp:77] Creating layer inception_3a/pool
I0501 21:05:40.041296 25707 net.cpp:84] Creating Layer inception_3a/pool
I0501 21:05:40.041306 25707 net.cpp:406] inception_3a/pool <- pool2/3x3_s2_pool2/3x3_s2_0_split_3
I0501 21:05:40.041318 25707 net.cpp:380] inception_3a/pool -> inception_3a/pool
I0501 21:05:40.041383 25707 net.cpp:122] Setting up inception_3a/pool
I0501 21:05:40.041394 25707 net.cpp:129] Top shape: 50 192 28 28 (7526400)
I0501 21:05:40.041401 25707 net.cpp:137] Memory required for data: 1159066400
I0501 21:05:40.041407 25707 layer_factory.hpp:77] Creating layer inception_3a/pool_proj
I0501 21:05:40.041429 25707 net.cpp:84] Creating Layer inception_3a/pool_proj
I0501 21:05:40.041435 25707 net.cpp:406] inception_3a/pool_proj <- inception_3a/pool
I0501 21:05:40.041450 25707 net.cpp:380] inception_3a/pool_proj -> inception_3a/pool_proj
I0501 21:05:40.042910 25707 net.cpp:122] Setting up inception_3a/pool_proj
I0501 21:05:40.042927 25707 net.cpp:129] Top shape: 50 32 28 28 (1254400)
I0501 21:05:40.042946 25707 net.cpp:137] Memory required for data: 1164084000
I0501 21:05:40.042963 25707 layer_factory.hpp:77] Creating layer inception_3a/relu_pool_proj
I0501 21:05:40.042971 25707 net.cpp:84] Creating Layer inception_3a/relu_pool_proj
I0501 21:05:40.042978 25707 net.cpp:406] inception_3a/relu_pool_proj <- inception_3a/pool_proj
I0501 21:05:40.042987 25707 net.cpp:367] inception_3a/relu_pool_proj -> inception_3a/pool_proj (in-place)
I0501 21:05:40.043136 25707 net.cpp:122] Setting up inception_3a/relu_pool_proj
I0501 21:05:40.043148 25707 net.cpp:129] Top shape: 50 32 28 28 (1254400)
I0501 21:05:40.043153 25707 net.cpp:137] Memory required for data: 1169101600
I0501 21:05:40.043157 25707 layer_factory.hpp:77] Creating layer inception_3a/output
I0501 21:05:40.043166 25707 net.cpp:84] Creating Layer inception_3a/output
I0501 21:05:40.043171 25707 net.cpp:406] inception_3a/output <- inception_3a/1x1
I0501 21:05:40.043177 25707 net.cpp:406] inception_3a/output <- inception_3a/3x3
I0501 21:05:40.043185 25707 net.cpp:406] inception_3a/output <- inception_3a/5x5
I0501 21:05:40.043192 25707 net.cpp:406] inception_3a/output <- inception_3a/pool_proj
I0501 21:05:40.043200 25707 net.cpp:380] inception_3a/output -> inception_3a/output
I0501 21:05:40.043226 25707 net.cpp:122] Setting up inception_3a/output
I0501 21:05:40.043233 25707 net.cpp:129] Top shape: 50 256 28 28 (10035200)
I0501 21:05:40.043237 25707 net.cpp:137] Memory required for data: 1209242400
I0501 21:05:40.043244 25707 layer_factory.hpp:77] Creating layer inception_3a/output_inception_3a/output_0_split
I0501 21:05:40.043267 25707 net.cpp:84] Creating Layer inception_3a/output_inception_3a/output_0_split
I0501 21:05:40.043272 25707 net.cpp:406] inception_3a/output_inception_3a/output_0_split <- inception_3a/output
I0501 21:05:40.043280 25707 net.cpp:380] inception_3a/output_inception_3a/output_0_split -> inception_3a/output_inception_3a/output_0_split_0
I0501 21:05:40.043288 25707 net.cpp:380] inception_3a/output_inception_3a/output_0_split -> inception_3a/output_inception_3a/output_0_split_1
I0501 21:05:40.043296 25707 net.cpp:380] inception_3a/output_inception_3a/output_0_split -> inception_3a/output_inception_3a/output_0_split_2
I0501 21:05:40.043304 25707 net.cpp:380] inception_3a/output_inception_3a/output_0_split -> inception_3a/output_inception_3a/output_0_split_3
I0501 21:05:40.043352 25707 net.cpp:122] Setting up inception_3a/output_inception_3a/output_0_split
I0501 21:05:40.043359 25707 net.cpp:129] Top shape: 50 256 28 28 (10035200)
I0501 21:05:40.043365 25707 net.cpp:129] Top shape: 50 256 28 28 (10035200)
I0501 21:05:40.043371 25707 net.cpp:129] Top shape: 50 256 28 28 (10035200)
I0501 21:05:40.043376 25707 net.cpp:129] Top shape: 50 256 28 28 (10035200)
I0501 21:05:40.043406 25707 net.cpp:137] Memory required for data: 1369805600
I0501 21:05:40.043412 25707 layer_factory.hpp:77] Creating layer inception_3b/1x1
I0501 21:05:40.043426 25707 net.cpp:84] Creating Layer inception_3b/1x1
I0501 21:05:40.043431 25707 net.cpp:406] inception_3b/1x1 <- inception_3a/output_inception_3a/output_0_split_0
I0501 21:05:40.043440 25707 net.cpp:380] inception_3b/1x1 -> inception_3b/1x1
I0501 21:05:40.044684 25707 net.cpp:122] Setting up inception_3b/1x1
I0501 21:05:40.044703 25707 net.cpp:129] Top shape: 50 128 28 28 (5017600)
I0501 21:05:40.044708 25707 net.cpp:137] Memory required for data: 1389876000
I0501 21:05:40.044716 25707 layer_factory.hpp:77] Creating layer inception_3b/relu_1x1
I0501 21:05:40.044725 25707 net.cpp:84] Creating Layer inception_3b/relu_1x1
I0501 21:05:40.044731 25707 net.cpp:406] inception_3b/relu_1x1 <- inception_3b/1x1
I0501 21:05:40.044739 25707 net.cpp:367] inception_3b/relu_1x1 -> inception_3b/1x1 (in-place)
I0501 21:05:40.044890 25707 net.cpp:122] Setting up inception_3b/relu_1x1
I0501 21:05:40.044899 25707 net.cpp:129] Top shape: 50 128 28 28 (5017600)
I0501 21:05:40.044905 25707 net.cpp:137] Memory required for data: 1409946400
I0501 21:05:40.044909 25707 layer_factory.hpp:77] Creating layer inception_3b/3x3_reduce
I0501 21:05:40.044934 25707 net.cpp:84] Creating Layer inception_3b/3x3_reduce
I0501 21:05:40.044940 25707 net.cpp:406] inception_3b/3x3_reduce <- inception_3a/output_inception_3a/output_0_split_1
I0501 21:05:40.044950 25707 net.cpp:380] inception_3b/3x3_reduce -> inception_3b/3x3_reduce
I0501 21:05:40.046237 25707 net.cpp:122] Setting up inception_3b/3x3_reduce
I0501 21:05:40.046254 25707 net.cpp:129] Top shape: 50 128 28 28 (5017600)
I0501 21:05:40.046260 25707 net.cpp:137] Memory required for data: 1430016800
I0501 21:05:40.046270 25707 layer_factory.hpp:77] Creating layer inception_3b/relu_3x3_reduce
I0501 21:05:40.046290 25707 net.cpp:84] Creating Layer inception_3b/relu_3x3_reduce
I0501 21:05:40.046298 25707 net.cpp:406] inception_3b/relu_3x3_reduce <- inception_3b/3x3_reduce
I0501 21:05:40.046305 25707 net.cpp:367] inception_3b/relu_3x3_reduce -> inception_3b/3x3_reduce (in-place)
I0501 21:05:40.046453 25707 net.cpp:122] Setting up inception_3b/relu_3x3_reduce
I0501 21:05:40.046463 25707 net.cpp:129] Top shape: 50 128 28 28 (5017600)
I0501 21:05:40.046466 25707 net.cpp:137] Memory required for data: 1450087200
I0501 21:05:40.046471 25707 layer_factory.hpp:77] Creating layer inception_3b/3x3
I0501 21:05:40.046494 25707 net.cpp:84] Creating Layer inception_3b/3x3
I0501 21:05:40.046500 25707 net.cpp:406] inception_3b/3x3 <- inception_3b/3x3_reduce
I0501 21:05:40.046507 25707 net.cpp:380] inception_3b/3x3 -> inception_3b/3x3
I0501 21:05:40.050068 25707 net.cpp:122] Setting up inception_3b/3x3
I0501 21:05:40.050097 25707 net.cpp:129] Top shape: 50 192 28 28 (7526400)
I0501 21:05:40.050103 25707 net.cpp:137] Memory required for data: 1480192800
I0501 21:05:40.050113 25707 layer_factory.hpp:77] Creating layer inception_3b/relu_3x3
I0501 21:05:40.050123 25707 net.cpp:84] Creating Layer inception_3b/relu_3x3
I0501 21:05:40.050130 25707 net.cpp:406] inception_3b/relu_3x3 <- inception_3b/3x3
I0501 21:05:40.050139 25707 net.cpp:367] inception_3b/relu_3x3 -> inception_3b/3x3 (in-place)
I0501 21:05:40.050305 25707 net.cpp:122] Setting up inception_3b/relu_3x3
I0501 21:05:40.050315 25707 net.cpp:129] Top shape: 50 192 28 28 (7526400)
I0501 21:05:40.050321 25707 net.cpp:137] Memory required for data: 1510298400
I0501 21:05:40.050326 25707 layer_factory.hpp:77] Creating layer inception_3b/5x5_reduce
I0501 21:05:40.050340 25707 net.cpp:84] Creating Layer inception_3b/5x5_reduce
I0501 21:05:40.050345 25707 net.cpp:406] inception_3b/5x5_reduce <- inception_3a/output_inception_3a/output_0_split_2
I0501 21:05:40.050356 25707 net.cpp:380] inception_3b/5x5_reduce -> inception_3b/5x5_reduce
I0501 21:05:40.051473 25707 net.cpp:122] Setting up inception_3b/5x5_reduce
I0501 21:05:40.051487 25707 net.cpp:129] Top shape: 50 32 28 28 (1254400)
I0501 21:05:40.051497 25707 net.cpp:137] Memory required for data: 1515316000
I0501 21:05:40.051518 25707 layer_factory.hpp:77] Creating layer inception_3b/relu_5x5_reduce
I0501 21:05:40.051527 25707 net.cpp:84] Creating Layer inception_3b/relu_5x5_reduce
I0501 21:05:40.051532 25707 net.cpp:406] inception_3b/relu_5x5_reduce <- inception_3b/5x5_reduce
I0501 21:05:40.051540 25707 net.cpp:367] inception_3b/relu_5x5_reduce -> inception_3b/5x5_reduce (in-place)
I0501 21:05:40.051702 25707 net.cpp:122] Setting up inception_3b/relu_5x5_reduce
I0501 21:05:40.051712 25707 net.cpp:129] Top shape: 50 32 28 28 (1254400)
I0501 21:05:40.051715 25707 net.cpp:137] Memory required for data: 1520333600
I0501 21:05:40.051720 25707 layer_factory.hpp:77] Creating layer inception_3b/5x5
I0501 21:05:40.051734 25707 net.cpp:84] Creating Layer inception_3b/5x5
I0501 21:05:40.051739 25707 net.cpp:406] inception_3b/5x5 <- inception_3b/5x5_reduce
I0501 21:05:40.051748 25707 net.cpp:380] inception_3b/5x5 -> inception_3b/5x5
I0501 21:05:40.055562 25707 net.cpp:122] Setting up inception_3b/5x5
I0501 21:05:40.055598 25707 net.cpp:129] Top shape: 50 96 28 28 (3763200)
I0501 21:05:40.055604 25707 net.cpp:137] Memory required for data: 1535386400
I0501 21:05:40.055619 25707 layer_factory.hpp:77] Creating layer inception_3b/relu_5x5
I0501 21:05:40.055632 25707 net.cpp:84] Creating Layer inception_3b/relu_5x5
I0501 21:05:40.055641 25707 net.cpp:406] inception_3b/relu_5x5 <- inception_3b/5x5
I0501 21:05:40.055655 25707 net.cpp:367] inception_3b/relu_5x5 -> inception_3b/5x5 (in-place)
I0501 21:05:40.056424 25707 net.cpp:122] Setting up inception_3b/relu_5x5
I0501 21:05:40.056442 25707 net.cpp:129] Top shape: 50 96 28 28 (3763200)
I0501 21:05:40.056448 25707 net.cpp:137] Memory required for data: 1550439200
I0501 21:05:40.056455 25707 layer_factory.hpp:77] Creating layer inception_3b/pool
I0501 21:05:40.056468 25707 net.cpp:84] Creating Layer inception_3b/pool
I0501 21:05:40.056476 25707 net.cpp:406] inception_3b/pool <- inception_3a/output_inception_3a/output_0_split_3
I0501 21:05:40.056488 25707 net.cpp:380] inception_3b/pool -> inception_3b/pool
I0501 21:05:40.056550 25707 net.cpp:122] Setting up inception_3b/pool
I0501 21:05:40.056561 25707 net.cpp:129] Top shape: 50 256 28 28 (10035200)
I0501 21:05:40.056568 25707 net.cpp:137] Memory required for data: 1590580000
I0501 21:05:40.056576 25707 layer_factory.hpp:77] Creating layer inception_3b/pool_proj
I0501 21:05:40.056593 25707 net.cpp:84] Creating Layer inception_3b/pool_proj
I0501 21:05:40.056602 25707 net.cpp:406] inception_3b/pool_proj <- inception_3b/pool
I0501 21:05:40.056613 25707 net.cpp:380] inception_3b/pool_proj -> inception_3b/pool_proj
I0501 21:05:40.058284 25707 net.cpp:122] Setting up inception_3b/pool_proj
I0501 21:05:40.058303 25707 net.cpp:129] Top shape: 50 64 28 28 (2508800)
I0501 21:05:40.058311 25707 net.cpp:137] Memory required for data: 1600615200
I0501 21:05:40.058323 25707 layer_factory.hpp:77] Creating layer inception_3b/relu_pool_proj
I0501 21:05:40.058334 25707 net.cpp:84] Creating Layer inception_3b/relu_pool_proj
I0501 21:05:40.058342 25707 net.cpp:406] inception_3b/relu_pool_proj <- inception_3b/pool_proj
I0501 21:05:40.058354 25707 net.cpp:367] inception_3b/relu_pool_proj -> inception_3b/pool_proj (in-place)
I0501 21:05:40.058565 25707 net.cpp:122] Setting up inception_3b/relu_pool_proj
I0501 21:05:40.058580 25707 net.cpp:129] Top shape: 50 64 28 28 (2508800)
I0501 21:05:40.058589 25707 net.cpp:137] Memory required for data: 1610650400
I0501 21:05:40.058596 25707 layer_factory.hpp:77] Creating layer inception_3b/output
I0501 21:05:40.058607 25707 net.cpp:84] Creating Layer inception_3b/output
I0501 21:05:40.058614 25707 net.cpp:406] inception_3b/output <- inception_3b/1x1
I0501 21:05:40.058622 25707 net.cpp:406] inception_3b/output <- inception_3b/3x3
I0501 21:05:40.058632 25707 net.cpp:406] inception_3b/output <- inception_3b/5x5
I0501 21:05:40.058640 25707 net.cpp:406] inception_3b/output <- inception_3b/pool_proj
I0501 21:05:40.058651 25707 net.cpp:380] inception_3b/output -> inception_3b/output
I0501 21:05:40.058720 25707 net.cpp:122] Setting up inception_3b/output
I0501 21:05:40.058730 25707 net.cpp:129] Top shape: 50 480 28 28 (18816000)
I0501 21:05:40.058737 25707 net.cpp:137] Memory required for data: 1685914400
I0501 21:05:40.058743 25707 layer_factory.hpp:77] Creating layer pool3/3x3_s2
I0501 21:05:40.058754 25707 net.cpp:84] Creating Layer pool3/3x3_s2
I0501 21:05:40.058760 25707 net.cpp:406] pool3/3x3_s2 <- inception_3b/output
I0501 21:05:40.058773 25707 net.cpp:380] pool3/3x3_s2 -> pool3/3x3_s2
I0501 21:05:40.058820 25707 net.cpp:122] Setting up pool3/3x3_s2
I0501 21:05:40.058830 25707 net.cpp:129] Top shape: 50 480 14 14 (4704000)
I0501 21:05:40.058835 25707 net.cpp:137] Memory required for data: 1704730400
I0501 21:05:40.058842 25707 layer_factory.hpp:77] Creating layer pool3/3x3_s2_pool3/3x3_s2_0_split
I0501 21:05:40.058854 25707 net.cpp:84] Creating Layer pool3/3x3_s2_pool3/3x3_s2_0_split
I0501 21:05:40.058861 25707 net.cpp:406] pool3/3x3_s2_pool3/3x3_s2_0_split <- pool3/3x3_s2
I0501 21:05:40.058871 25707 net.cpp:380] pool3/3x3_s2_pool3/3x3_s2_0_split -> pool3/3x3_s2_pool3/3x3_s2_0_split_0
I0501 21:05:40.058881 25707 net.cpp:380] pool3/3x3_s2_pool3/3x3_s2_0_split -> pool3/3x3_s2_pool3/3x3_s2_0_split_1
I0501 21:05:40.058892 25707 net.cpp:380] pool3/3x3_s2_pool3/3x3_s2_0_split -> pool3/3x3_s2_pool3/3x3_s2_0_split_2
I0501 21:05:40.058903 25707 net.cpp:380] pool3/3x3_s2_pool3/3x3_s2_0_split -> pool3/3x3_s2_pool3/3x3_s2_0_split_3
I0501 21:05:40.058971 25707 net.cpp:122] Setting up pool3/3x3_s2_pool3/3x3_s2_0_split
I0501 21:05:40.058981 25707 net.cpp:129] Top shape: 50 480 14 14 (4704000)
I0501 21:05:40.058992 25707 net.cpp:129] Top shape: 50 480 14 14 (4704000)
I0501 21:05:40.059000 25707 net.cpp:129] Top shape: 50 480 14 14 (4704000)
I0501 21:05:40.059007 25707 net.cpp:129] Top shape: 50 480 14 14 (4704000)
I0501 21:05:40.059013 25707 net.cpp:137] Memory required for data: 1779994400
I0501 21:05:40.059020 25707 layer_factory.hpp:77] Creating layer inception_4a/1x1
I0501 21:05:40.059036 25707 net.cpp:84] Creating Layer inception_4a/1x1
I0501 21:05:40.059043 25707 net.cpp:406] inception_4a/1x1 <- pool3/3x3_s2_pool3/3x3_s2_0_split_0
I0501 21:05:40.059057 25707 net.cpp:380] inception_4a/1x1 -> inception_4a/1x1
I0501 21:05:40.061332 25707 net.cpp:122] Setting up inception_4a/1x1
I0501 21:05:40.061352 25707 net.cpp:129] Top shape: 50 192 14 14 (1881600)
I0501 21:05:40.061357 25707 net.cpp:137] Memory required for data: 1787520800
I0501 21:05:40.061364 25707 layer_factory.hpp:77] Creating layer inception_4a/relu_1x1
I0501 21:05:40.061374 25707 net.cpp:84] Creating Layer inception_4a/relu_1x1
I0501 21:05:40.061381 25707 net.cpp:406] inception_4a/relu_1x1 <- inception_4a/1x1
I0501 21:05:40.061391 25707 net.cpp:367] inception_4a/relu_1x1 -> inception_4a/1x1 (in-place)
I0501 21:05:40.061544 25707 net.cpp:122] Setting up inception_4a/relu_1x1
I0501 21:05:40.061556 25707 net.cpp:129] Top shape: 50 192 14 14 (1881600)
I0501 21:05:40.061560 25707 net.cpp:137] Memory required for data: 1795047200
I0501 21:05:40.061565 25707 layer_factory.hpp:77] Creating layer inception_4a/3x3_reduce
I0501 21:05:40.061576 25707 net.cpp:84] Creating Layer inception_4a/3x3_reduce
I0501 21:05:40.061583 25707 net.cpp:406] inception_4a/3x3_reduce <- pool3/3x3_s2_pool3/3x3_s2_0_split_1
I0501 21:05:40.061592 25707 net.cpp:380] inception_4a/3x3_reduce -> inception_4a/3x3_reduce
I0501 21:05:40.063027 25707 net.cpp:122] Setting up inception_4a/3x3_reduce
I0501 21:05:40.063042 25707 net.cpp:129] Top shape: 50 96 14 14 (940800)
I0501 21:05:40.063048 25707 net.cpp:137] Memory required for data: 1798810400
I0501 21:05:40.063073 25707 layer_factory.hpp:77] Creating layer inception_4a/relu_3x3_reduce
I0501 21:05:40.063083 25707 net.cpp:84] Creating Layer inception_4a/relu_3x3_reduce
I0501 21:05:40.063089 25707 net.cpp:406] inception_4a/relu_3x3_reduce <- inception_4a/3x3_reduce
I0501 21:05:40.063097 25707 net.cpp:367] inception_4a/relu_3x3_reduce -> inception_4a/3x3_reduce (in-place)
I0501 21:05:40.063241 25707 net.cpp:122] Setting up inception_4a/relu_3x3_reduce
I0501 21:05:40.063279 25707 net.cpp:129] Top shape: 50 96 14 14 (940800)
I0501 21:05:40.063283 25707 net.cpp:137] Memory required for data: 1802573600
I0501 21:05:40.063288 25707 layer_factory.hpp:77] Creating layer inception_4a/3x3
I0501 21:05:40.063300 25707 net.cpp:84] Creating Layer inception_4a/3x3
I0501 21:05:40.063304 25707 net.cpp:406] inception_4a/3x3 <- inception_4a/3x3_reduce
I0501 21:05:40.063313 25707 net.cpp:380] inception_4a/3x3 -> inception_4a/3x3
I0501 21:05:40.069128 25707 net.cpp:122] Setting up inception_4a/3x3
I0501 21:05:40.069162 25707 net.cpp:129] Top shape: 50 208 14 14 (2038400)
I0501 21:05:40.069169 25707 net.cpp:137] Memory required for data: 1810727200
I0501 21:05:40.069180 25707 layer_factory.hpp:77] Creating layer inception_4a/relu_3x3
I0501 21:05:40.069197 25707 net.cpp:84] Creating Layer inception_4a/relu_3x3
I0501 21:05:40.069211 25707 net.cpp:406] inception_4a/relu_3x3 <- inception_4a/3x3
I0501 21:05:40.069221 25707 net.cpp:367] inception_4a/relu_3x3 -> inception_4a/3x3 (in-place)
I0501 21:05:40.069391 25707 net.cpp:122] Setting up inception_4a/relu_3x3
I0501 21:05:40.069401 25707 net.cpp:129] Top shape: 50 208 14 14 (2038400)
I0501 21:05:40.069406 25707 net.cpp:137] Memory required for data: 1818880800
I0501 21:05:40.069411 25707 layer_factory.hpp:77] Creating layer inception_4a/5x5_reduce
I0501 21:05:40.069427 25707 net.cpp:84] Creating Layer inception_4a/5x5_reduce
I0501 21:05:40.069440 25707 net.cpp:406] inception_4a/5x5_reduce <- pool3/3x3_s2_pool3/3x3_s2_0_split_2
I0501 21:05:40.069458 25707 net.cpp:380] inception_4a/5x5_reduce -> inception_4a/5x5_reduce
I0501 21:05:40.071030 25707 net.cpp:122] Setting up inception_4a/5x5_reduce
I0501 21:05:40.071056 25707 net.cpp:129] Top shape: 50 16 14 14 (156800)
I0501 21:05:40.071068 25707 net.cpp:137] Memory required for data: 1819508000
I0501 21:05:40.071080 25707 layer_factory.hpp:77] Creating layer inception_4a/relu_5x5_reduce
I0501 21:05:40.071091 25707 net.cpp:84] Creating Layer inception_4a/relu_5x5_reduce
I0501 21:05:40.071099 25707 net.cpp:406] inception_4a/relu_5x5_reduce <- inception_4a/5x5_reduce
I0501 21:05:40.071110 25707 net.cpp:367] inception_4a/relu_5x5_reduce -> inception_4a/5x5_reduce (in-place)
I0501 21:05:40.071331 25707 net.cpp:122] Setting up inception_4a/relu_5x5_reduce
I0501 21:05:40.071346 25707 net.cpp:129] Top shape: 50 16 14 14 (156800)
I0501 21:05:40.071352 25707 net.cpp:137] Memory required for data: 1820135200
I0501 21:05:40.071362 25707 layer_factory.hpp:77] Creating layer inception_4a/5x5
I0501 21:05:40.071382 25707 net.cpp:84] Creating Layer inception_4a/5x5
I0501 21:05:40.071393 25707 net.cpp:406] inception_4a/5x5 <- inception_4a/5x5_reduce
I0501 21:05:40.071404 25707 net.cpp:380] inception_4a/5x5 -> inception_4a/5x5
I0501 21:05:40.081636 25707 net.cpp:122] Setting up inception_4a/5x5
I0501 21:05:40.081686 25707 net.cpp:129] Top shape: 50 48 14 14 (470400)
I0501 21:05:40.081693 25707 net.cpp:137] Memory required for data: 1822016800
I0501 21:05:40.081784 25707 layer_factory.hpp:77] Creating layer inception_4a/relu_5x5
I0501 21:05:40.081806 25707 net.cpp:84] Creating Layer inception_4a/relu_5x5
I0501 21:05:40.081818 25707 net.cpp:406] inception_4a/relu_5x5 <- inception_4a/5x5
I0501 21:05:40.081838 25707 net.cpp:367] inception_4a/relu_5x5 -> inception_4a/5x5 (in-place)
I0501 21:05:40.082818 25707 net.cpp:122] Setting up inception_4a/relu_5x5
I0501 21:05:40.082842 25707 net.cpp:129] Top shape: 50 48 14 14 (470400)
I0501 21:05:40.082847 25707 net.cpp:137] Memory required for data: 1823898400
I0501 21:05:40.082854 25707 layer_factory.hpp:77] Creating layer inception_4a/pool
I0501 21:05:40.082867 25707 net.cpp:84] Creating Layer inception_4a/pool
I0501 21:05:40.082875 25707 net.cpp:406] inception_4a/pool <- pool3/3x3_s2_pool3/3x3_s2_0_split_3
I0501 21:05:40.082888 25707 net.cpp:380] inception_4a/pool -> inception_4a/pool
I0501 21:05:40.082968 25707 net.cpp:122] Setting up inception_4a/pool
I0501 21:05:40.082978 25707 net.cpp:129] Top shape: 50 480 14 14 (4704000)
I0501 21:05:40.083005 25707 net.cpp:137] Memory required for data: 1842714400
I0501 21:05:40.083045 25707 layer_factory.hpp:77] Creating layer inception_4a/pool_proj
I0501 21:05:40.083068 25707 net.cpp:84] Creating Layer inception_4a/pool_proj
I0501 21:05:40.083078 25707 net.cpp:406] inception_4a/pool_proj <- inception_4a/pool
I0501 21:05:40.083091 25707 net.cpp:380] inception_4a/pool_proj -> inception_4a/pool_proj
I0501 21:05:40.084755 25707 net.cpp:122] Setting up inception_4a/pool_proj
I0501 21:05:40.084776 25707 net.cpp:129] Top shape: 50 64 14 14 (627200)
I0501 21:05:40.084785 25707 net.cpp:137] Memory required for data: 1845223200
I0501 21:05:40.084797 25707 layer_factory.hpp:77] Creating layer inception_4a/relu_pool_proj
I0501 21:05:40.084807 25707 net.cpp:84] Creating Layer inception_4a/relu_pool_proj
I0501 21:05:40.084815 25707 net.cpp:406] inception_4a/relu_pool_proj <- inception_4a/pool_proj
I0501 21:05:40.084821 25707 net.cpp:367] inception_4a/relu_pool_proj -> inception_4a/pool_proj (in-place)
I0501 21:05:40.085009 25707 net.cpp:122] Setting up inception_4a/relu_pool_proj
I0501 21:05:40.085021 25707 net.cpp:129] Top shape: 50 64 14 14 (627200)
I0501 21:05:40.085026 25707 net.cpp:137] Memory required for data: 1847732000
I0501 21:05:40.085031 25707 layer_factory.hpp:77] Creating layer inception_4a/output
I0501 21:05:40.085048 25707 net.cpp:84] Creating Layer inception_4a/output
I0501 21:05:40.085057 25707 net.cpp:406] inception_4a/output <- inception_4a/1x1
I0501 21:05:40.085068 25707 net.cpp:406] inception_4a/output <- inception_4a/3x3
I0501 21:05:40.085074 25707 net.cpp:406] inception_4a/output <- inception_4a/5x5
I0501 21:05:40.085080 25707 net.cpp:406] inception_4a/output <- inception_4a/pool_proj
I0501 21:05:40.085089 25707 net.cpp:380] inception_4a/output -> inception_4a/output
I0501 21:05:40.085125 25707 net.cpp:122] Setting up inception_4a/output
I0501 21:05:40.085139 25707 net.cpp:129] Top shape: 50 512 14 14 (5017600)
I0501 21:05:40.085150 25707 net.cpp:137] Memory required for data: 1867802400
I0501 21:05:40.085158 25707 layer_factory.hpp:77] Creating layer inception_4a/output_inception_4a/output_0_split
I0501 21:05:40.085173 25707 net.cpp:84] Creating Layer inception_4a/output_inception_4a/output_0_split
I0501 21:05:40.085178 25707 net.cpp:406] inception_4a/output_inception_4a/output_0_split <- inception_4a/output
I0501 21:05:40.085187 25707 net.cpp:380] inception_4a/output_inception_4a/output_0_split -> inception_4a/output_inception_4a/output_0_split_0
I0501 21:05:40.085196 25707 net.cpp:380] inception_4a/output_inception_4a/output_0_split -> inception_4a/output_inception_4a/output_0_split_1
I0501 21:05:40.085204 25707 net.cpp:380] inception_4a/output_inception_4a/output_0_split -> inception_4a/output_inception_4a/output_0_split_2
I0501 21:05:40.085214 25707 net.cpp:380] inception_4a/output_inception_4a/output_0_split -> inception_4a/output_inception_4a/output_0_split_3
I0501 21:05:40.085232 25707 net.cpp:380] inception_4a/output_inception_4a/output_0_split -> inception_4a/output_inception_4a/output_0_split_4
I0501 21:05:40.085314 25707 net.cpp:122] Setting up inception_4a/output_inception_4a/output_0_split
I0501 21:05:40.085326 25707 net.cpp:129] Top shape: 50 512 14 14 (5017600)
I0501 21:05:40.085331 25707 net.cpp:129] Top shape: 50 512 14 14 (5017600)
I0501 21:05:40.085337 25707 net.cpp:129] Top shape: 50 512 14 14 (5017600)
I0501 21:05:40.085343 25707 net.cpp:129] Top shape: 50 512 14 14 (5017600)
I0501 21:05:40.085348 25707 net.cpp:129] Top shape: 50 512 14 14 (5017600)
I0501 21:05:40.085352 25707 net.cpp:137] Memory required for data: 1968154400
I0501 21:05:40.085357 25707 layer_factory.hpp:77] Creating layer loss1/ave_pool
I0501 21:05:40.085367 25707 net.cpp:84] Creating Layer loss1/ave_pool
I0501 21:05:40.085378 25707 net.cpp:406] loss1/ave_pool <- inception_4a/output_inception_4a/output_0_split_0
I0501 21:05:40.085391 25707 net.cpp:380] loss1/ave_pool -> loss1/ave_pool
I0501 21:05:40.085619 25707 net.cpp:122] Setting up loss1/ave_pool
I0501 21:05:40.085630 25707 net.cpp:129] Top shape: 50 512 4 4 (409600)
I0501 21:05:40.085644 25707 net.cpp:137] Memory required for data: 1969792800
I0501 21:05:40.085666 25707 layer_factory.hpp:77] Creating layer loss1/conv
I0501 21:05:40.085681 25707 net.cpp:84] Creating Layer loss1/conv
I0501 21:05:40.085690 25707 net.cpp:406] loss1/conv <- loss1/ave_pool
I0501 21:05:40.085700 25707 net.cpp:380] loss1/conv -> loss1/conv
I0501 21:05:40.088029 25707 net.cpp:122] Setting up loss1/conv
I0501 21:05:40.088050 25707 net.cpp:129] Top shape: 50 128 4 4 (102400)
I0501 21:05:40.088058 25707 net.cpp:137] Memory required for data: 1970202400
I0501 21:05:40.088070 25707 layer_factory.hpp:77] Creating layer loss1/relu_conv
I0501 21:05:40.088081 25707 net.cpp:84] Creating Layer loss1/relu_conv
I0501 21:05:40.088091 25707 net.cpp:406] loss1/relu_conv <- loss1/conv
I0501 21:05:40.088100 25707 net.cpp:367] loss1/relu_conv -> loss1/conv (in-place)
I0501 21:05:40.088321 25707 net.cpp:122] Setting up loss1/relu_conv
I0501 21:05:40.088335 25707 net.cpp:129] Top shape: 50 128 4 4 (102400)
I0501 21:05:40.088344 25707 net.cpp:137] Memory required for data: 1970612000
I0501 21:05:40.088351 25707 layer_factory.hpp:77] Creating layer loss1/fc
I0501 21:05:40.088366 25707 net.cpp:84] Creating Layer loss1/fc
I0501 21:05:40.088374 25707 net.cpp:406] loss1/fc <- loss1/conv
I0501 21:05:40.088387 25707 net.cpp:380] loss1/fc -> loss1/fc
I0501 21:05:40.107095 25707 net.cpp:122] Setting up loss1/fc
I0501 21:05:40.107149 25707 net.cpp:129] Top shape: 50 1024 (51200)
I0501 21:05:40.107157 25707 net.cpp:137] Memory required for data: 1970816800
I0501 21:05:40.107182 25707 layer_factory.hpp:77] Creating layer loss1/relu_fc
I0501 21:05:40.107203 25707 net.cpp:84] Creating Layer loss1/relu_fc
I0501 21:05:40.107215 25707 net.cpp:406] loss1/relu_fc <- loss1/fc
I0501 21:05:40.107231 25707 net.cpp:367] loss1/relu_fc -> loss1/fc (in-place)
I0501 21:05:40.107576 25707 net.cpp:122] Setting up loss1/relu_fc
I0501 21:05:40.107595 25707 net.cpp:129] Top shape: 50 1024 (51200)
I0501 21:05:40.107602 25707 net.cpp:137] Memory required for data: 1971021600
I0501 21:05:40.107609 25707 layer_factory.hpp:77] Creating layer loss1/drop_fc
I0501 21:05:40.107648 25707 net.cpp:84] Creating Layer loss1/drop_fc
I0501 21:05:40.107657 25707 net.cpp:406] loss1/drop_fc <- loss1/fc
I0501 21:05:40.107669 25707 net.cpp:367] loss1/drop_fc -> loss1/fc (in-place)
I0501 21:05:40.107719 25707 net.cpp:122] Setting up loss1/drop_fc
I0501 21:05:40.107733 25707 net.cpp:129] Top shape: 50 1024 (51200)
I0501 21:05:40.107740 25707 net.cpp:137] Memory required for data: 1971226400
I0501 21:05:40.107748 25707 layer_factory.hpp:77] Creating layer loss1/classifier
I0501 21:05:40.107762 25707 net.cpp:84] Creating Layer loss1/classifier
I0501 21:05:40.107770 25707 net.cpp:406] loss1/classifier <- loss1/fc
I0501 21:05:40.107784 25707 net.cpp:380] loss1/classifier -> loss1/classifier
I0501 21:05:40.116389 25707 net.cpp:122] Setting up loss1/classifier
I0501 21:05:40.116433 25707 net.cpp:129] Top shape: 50 1000 (50000)
I0501 21:05:40.116442 25707 net.cpp:137] Memory required for data: 1971426400
I0501 21:05:40.116456 25707 layer_factory.hpp:77] Creating layer loss1/loss
I0501 21:05:40.117178 25707 net.cpp:84] Creating Layer loss1/loss
I0501 21:05:40.117203 25707 net.cpp:406] loss1/loss <- loss1/classifier
I0501 21:05:40.117221 25707 net.cpp:406] loss1/loss <- label_data_1_split_0
I0501 21:05:40.117236 25707 net.cpp:380] loss1/loss -> loss1/loss1
I0501 21:05:40.117266 25707 layer_factory.hpp:77] Creating layer loss1/loss
I0501 21:05:40.118451 25707 net.cpp:122] Setting up loss1/loss
I0501 21:05:40.118465 25707 net.cpp:129] Top shape: (1)
I0501 21:05:40.118470 25707 net.cpp:132]     with loss weight 0.3
I0501 21:05:40.118500 25707 net.cpp:137] Memory required for data: 1971426404
I0501 21:05:40.118505 25707 layer_factory.hpp:77] Creating layer inception_4b/1x1
I0501 21:05:40.118538 25707 net.cpp:84] Creating Layer inception_4b/1x1
I0501 21:05:40.118546 25707 net.cpp:406] inception_4b/1x1 <- inception_4a/output_inception_4a/output_0_split_1
I0501 21:05:40.118563 25707 net.cpp:380] inception_4b/1x1 -> inception_4b/1x1
I0501 21:05:40.124621 25707 net.cpp:122] Setting up inception_4b/1x1
I0501 21:05:40.124663 25707 net.cpp:129] Top shape: 50 160 14 14 (1568000)
I0501 21:05:40.124670 25707 net.cpp:137] Memory required for data: 1977698404
I0501 21:05:40.124686 25707 layer_factory.hpp:77] Creating layer inception_4b/relu_1x1
I0501 21:05:40.124704 25707 net.cpp:84] Creating Layer inception_4b/relu_1x1
I0501 21:05:40.124716 25707 net.cpp:406] inception_4b/relu_1x1 <- inception_4b/1x1
I0501 21:05:40.124729 25707 net.cpp:367] inception_4b/relu_1x1 -> inception_4b/1x1 (in-place)
I0501 21:05:40.124985 25707 net.cpp:122] Setting up inception_4b/relu_1x1
I0501 21:05:40.125000 25707 net.cpp:129] Top shape: 50 160 14 14 (1568000)
I0501 21:05:40.125006 25707 net.cpp:137] Memory required for data: 1983970404
I0501 21:05:40.125013 25707 layer_factory.hpp:77] Creating layer inception_4b/3x3_reduce
I0501 21:05:40.125035 25707 net.cpp:84] Creating Layer inception_4b/3x3_reduce
I0501 21:05:40.125044 25707 net.cpp:406] inception_4b/3x3_reduce <- inception_4a/output_inception_4a/output_0_split_2
I0501 21:05:40.125061 25707 net.cpp:380] inception_4b/3x3_reduce -> inception_4b/3x3_reduce
I0501 21:05:40.131407 25707 net.cpp:122] Setting up inception_4b/3x3_reduce
I0501 21:05:40.131454 25707 net.cpp:129] Top shape: 50 112 14 14 (1097600)
I0501 21:05:40.131462 25707 net.cpp:137] Memory required for data: 1988360804
I0501 21:05:40.131479 25707 layer_factory.hpp:77] Creating layer inception_4b/relu_3x3_reduce
I0501 21:05:40.131494 25707 net.cpp:84] Creating Layer inception_4b/relu_3x3_reduce
I0501 21:05:40.131500 25707 net.cpp:406] inception_4b/relu_3x3_reduce <- inception_4b/3x3_reduce
I0501 21:05:40.131510 25707 net.cpp:367] inception_4b/relu_3x3_reduce -> inception_4b/3x3_reduce (in-place)
I0501 21:05:40.131701 25707 net.cpp:122] Setting up inception_4b/relu_3x3_reduce
I0501 21:05:40.131716 25707 net.cpp:129] Top shape: 50 112 14 14 (1097600)
I0501 21:05:40.131723 25707 net.cpp:137] Memory required for data: 1992751204
I0501 21:05:40.131728 25707 layer_factory.hpp:77] Creating layer inception_4b/3x3
I0501 21:05:40.131747 25707 net.cpp:84] Creating Layer inception_4b/3x3
I0501 21:05:40.131752 25707 net.cpp:406] inception_4b/3x3 <- inception_4b/3x3_reduce
I0501 21:05:40.131759 25707 net.cpp:380] inception_4b/3x3 -> inception_4b/3x3
I0501 21:05:40.136204 25707 net.cpp:122] Setting up inception_4b/3x3
I0501 21:05:40.136234 25707 net.cpp:129] Top shape: 50 224 14 14 (2195200)
I0501 21:05:40.136240 25707 net.cpp:137] Memory required for data: 2001532004
I0501 21:05:40.136248 25707 layer_factory.hpp:77] Creating layer inception_4b/relu_3x3
I0501 21:05:40.136260 25707 net.cpp:84] Creating Layer inception_4b/relu_3x3
I0501 21:05:40.136266 25707 net.cpp:406] inception_4b/relu_3x3 <- inception_4b/3x3
I0501 21:05:40.136276 25707 net.cpp:367] inception_4b/relu_3x3 -> inception_4b/3x3 (in-place)
I0501 21:05:40.136431 25707 net.cpp:122] Setting up inception_4b/relu_3x3
I0501 21:05:40.136441 25707 net.cpp:129] Top shape: 50 224 14 14 (2195200)
I0501 21:05:40.136447 25707 net.cpp:137] Memory required for data: 2010312804
I0501 21:05:40.136451 25707 layer_factory.hpp:77] Creating layer inception_4b/5x5_reduce
I0501 21:05:40.136464 25707 net.cpp:84] Creating Layer inception_4b/5x5_reduce
I0501 21:05:40.136469 25707 net.cpp:406] inception_4b/5x5_reduce <- inception_4a/output_inception_4a/output_0_split_3
I0501 21:05:40.136479 25707 net.cpp:380] inception_4b/5x5_reduce -> inception_4b/5x5_reduce
I0501 21:05:40.137668 25707 net.cpp:122] Setting up inception_4b/5x5_reduce
I0501 21:05:40.137682 25707 net.cpp:129] Top shape: 50 24 14 14 (235200)
I0501 21:05:40.137688 25707 net.cpp:137] Memory required for data: 2011253604
I0501 21:05:40.137696 25707 layer_factory.hpp:77] Creating layer inception_4b/relu_5x5_reduce
I0501 21:05:40.137778 25707 net.cpp:84] Creating Layer inception_4b/relu_5x5_reduce
I0501 21:05:40.137787 25707 net.cpp:406] inception_4b/relu_5x5_reduce <- inception_4b/5x5_reduce
I0501 21:05:40.137799 25707 net.cpp:367] inception_4b/relu_5x5_reduce -> inception_4b/5x5_reduce (in-place)
I0501 21:05:40.138037 25707 net.cpp:122] Setting up inception_4b/relu_5x5_reduce
I0501 21:05:40.138056 25707 net.cpp:129] Top shape: 50 24 14 14 (235200)
I0501 21:05:40.138065 25707 net.cpp:137] Memory required for data: 2012194404
I0501 21:05:40.138070 25707 layer_factory.hpp:77] Creating layer inception_4b/5x5
I0501 21:05:40.138082 25707 net.cpp:84] Creating Layer inception_4b/5x5
I0501 21:05:40.138087 25707 net.cpp:406] inception_4b/5x5 <- inception_4b/5x5_reduce
I0501 21:05:40.138098 25707 net.cpp:380] inception_4b/5x5 -> inception_4b/5x5
I0501 21:05:40.147963 25707 net.cpp:122] Setting up inception_4b/5x5
I0501 21:05:40.147999 25707 net.cpp:129] Top shape: 50 64 14 14 (627200)
I0501 21:05:40.148003 25707 net.cpp:137] Memory required for data: 2014703204
I0501 21:05:40.148015 25707 layer_factory.hpp:77] Creating layer inception_4b/relu_5x5
I0501 21:05:40.148027 25707 net.cpp:84] Creating Layer inception_4b/relu_5x5
I0501 21:05:40.148035 25707 net.cpp:406] inception_4b/relu_5x5 <- inception_4b/5x5
I0501 21:05:40.148044 25707 net.cpp:367] inception_4b/relu_5x5 -> inception_4b/5x5 (in-place)
I0501 21:05:40.148725 25707 net.cpp:122] Setting up inception_4b/relu_5x5
I0501 21:05:40.148741 25707 net.cpp:129] Top shape: 50 64 14 14 (627200)
I0501 21:05:40.148747 25707 net.cpp:137] Memory required for data: 2017212004
I0501 21:05:40.148753 25707 layer_factory.hpp:77] Creating layer inception_4b/pool
I0501 21:05:40.148766 25707 net.cpp:84] Creating Layer inception_4b/pool
I0501 21:05:40.148774 25707 net.cpp:406] inception_4b/pool <- inception_4a/output_inception_4a/output_0_split_4
I0501 21:05:40.148784 25707 net.cpp:380] inception_4b/pool -> inception_4b/pool
I0501 21:05:40.148880 25707 net.cpp:122] Setting up inception_4b/pool
I0501 21:05:40.148888 25707 net.cpp:129] Top shape: 50 512 14 14 (5017600)
I0501 21:05:40.148893 25707 net.cpp:137] Memory required for data: 2037282404
I0501 21:05:40.148898 25707 layer_factory.hpp:77] Creating layer inception_4b/pool_proj
I0501 21:05:40.148916 25707 net.cpp:84] Creating Layer inception_4b/pool_proj
I0501 21:05:40.148923 25707 net.cpp:406] inception_4b/pool_proj <- inception_4b/pool
I0501 21:05:40.148936 25707 net.cpp:380] inception_4b/pool_proj -> inception_4b/pool_proj
I0501 21:05:40.149979 25707 net.cpp:122] Setting up inception_4b/pool_proj
I0501 21:05:40.149996 25707 net.cpp:129] Top shape: 50 64 14 14 (627200)
I0501 21:05:40.150002 25707 net.cpp:137] Memory required for data: 2039791204
I0501 21:05:40.150010 25707 layer_factory.hpp:77] Creating layer inception_4b/relu_pool_proj
I0501 21:05:40.150018 25707 net.cpp:84] Creating Layer inception_4b/relu_pool_proj
I0501 21:05:40.150023 25707 net.cpp:406] inception_4b/relu_pool_proj <- inception_4b/pool_proj
I0501 21:05:40.150035 25707 net.cpp:367] inception_4b/relu_pool_proj -> inception_4b/pool_proj (in-place)
I0501 21:05:40.151103 25707 net.cpp:122] Setting up inception_4b/relu_pool_proj
I0501 21:05:40.151118 25707 net.cpp:129] Top shape: 50 64 14 14 (627200)
I0501 21:05:40.151123 25707 net.cpp:137] Memory required for data: 2042300004
I0501 21:05:40.151127 25707 layer_factory.hpp:77] Creating layer inception_4b/output
I0501 21:05:40.151136 25707 net.cpp:84] Creating Layer inception_4b/output
I0501 21:05:40.151141 25707 net.cpp:406] inception_4b/output <- inception_4b/1x1
I0501 21:05:40.151149 25707 net.cpp:406] inception_4b/output <- inception_4b/3x3
I0501 21:05:40.151154 25707 net.cpp:406] inception_4b/output <- inception_4b/5x5
I0501 21:05:40.151162 25707 net.cpp:406] inception_4b/output <- inception_4b/pool_proj
I0501 21:05:40.151172 25707 net.cpp:380] inception_4b/output -> inception_4b/output
I0501 21:05:40.151211 25707 net.cpp:122] Setting up inception_4b/output
I0501 21:05:40.151217 25707 net.cpp:129] Top shape: 50 512 14 14 (5017600)
I0501 21:05:40.151221 25707 net.cpp:137] Memory required for data: 2062370404
I0501 21:05:40.151226 25707 layer_factory.hpp:77] Creating layer inception_4b/output_inception_4b/output_0_split
I0501 21:05:40.151235 25707 net.cpp:84] Creating Layer inception_4b/output_inception_4b/output_0_split
I0501 21:05:40.151268 25707 net.cpp:406] inception_4b/output_inception_4b/output_0_split <- inception_4b/output
I0501 21:05:40.151294 25707 net.cpp:380] inception_4b/output_inception_4b/output_0_split -> inception_4b/output_inception_4b/output_0_split_0
I0501 21:05:40.151309 25707 net.cpp:380] inception_4b/output_inception_4b/output_0_split -> inception_4b/output_inception_4b/output_0_split_1
I0501 21:05:40.151319 25707 net.cpp:380] inception_4b/output_inception_4b/output_0_split -> inception_4b/output_inception_4b/output_0_split_2
I0501 21:05:40.151329 25707 net.cpp:380] inception_4b/output_inception_4b/output_0_split -> inception_4b/output_inception_4b/output_0_split_3
I0501 21:05:40.151392 25707 net.cpp:122] Setting up inception_4b/output_inception_4b/output_0_split
I0501 21:05:40.151404 25707 net.cpp:129] Top shape: 50 512 14 14 (5017600)
I0501 21:05:40.151413 25707 net.cpp:129] Top shape: 50 512 14 14 (5017600)
I0501 21:05:40.151422 25707 net.cpp:129] Top shape: 50 512 14 14 (5017600)
I0501 21:05:40.151427 25707 net.cpp:129] Top shape: 50 512 14 14 (5017600)
I0501 21:05:40.151432 25707 net.cpp:137] Memory required for data: 2142652004
I0501 21:05:40.151435 25707 layer_factory.hpp:77] Creating layer inception_4c/1x1
I0501 21:05:40.151449 25707 net.cpp:84] Creating Layer inception_4c/1x1
I0501 21:05:40.151454 25707 net.cpp:406] inception_4c/1x1 <- inception_4b/output_inception_4b/output_0_split_0
I0501 21:05:40.151463 25707 net.cpp:380] inception_4c/1x1 -> inception_4c/1x1
I0501 21:05:40.152971 25707 net.cpp:122] Setting up inception_4c/1x1
I0501 21:05:40.152990 25707 net.cpp:129] Top shape: 50 128 14 14 (1254400)
I0501 21:05:40.152997 25707 net.cpp:137] Memory required for data: 2147669604
I0501 21:05:40.153007 25707 layer_factory.hpp:77] Creating layer inception_4c/relu_1x1
I0501 21:05:40.153017 25707 net.cpp:84] Creating Layer inception_4c/relu_1x1
I0501 21:05:40.153024 25707 net.cpp:406] inception_4c/relu_1x1 <- inception_4c/1x1
I0501 21:05:40.153034 25707 net.cpp:367] inception_4c/relu_1x1 -> inception_4c/1x1 (in-place)
I0501 21:05:40.153254 25707 net.cpp:122] Setting up inception_4c/relu_1x1
I0501 21:05:40.153268 25707 net.cpp:129] Top shape: 50 128 14 14 (1254400)
I0501 21:05:40.153276 25707 net.cpp:137] Memory required for data: 2152687204
I0501 21:05:40.153283 25707 layer_factory.hpp:77] Creating layer inception_4c/3x3_reduce
I0501 21:05:40.153302 25707 net.cpp:84] Creating Layer inception_4c/3x3_reduce
I0501 21:05:40.153311 25707 net.cpp:406] inception_4c/3x3_reduce <- inception_4b/output_inception_4b/output_0_split_1
I0501 21:05:40.153323 25707 net.cpp:380] inception_4c/3x3_reduce -> inception_4c/3x3_reduce
I0501 21:05:40.162216 25707 net.cpp:122] Setting up inception_4c/3x3_reduce
I0501 21:05:40.162284 25707 net.cpp:129] Top shape: 50 128 14 14 (1254400)
I0501 21:05:40.162295 25707 net.cpp:137] Memory required for data: 2157704804
I0501 21:05:40.162313 25707 layer_factory.hpp:77] Creating layer inception_4c/relu_3x3_reduce
I0501 21:05:40.162330 25707 net.cpp:84] Creating Layer inception_4c/relu_3x3_reduce
I0501 21:05:40.162343 25707 net.cpp:406] inception_4c/relu_3x3_reduce <- inception_4c/3x3_reduce
I0501 21:05:40.162358 25707 net.cpp:367] inception_4c/relu_3x3_reduce -> inception_4c/3x3_reduce (in-place)
I0501 21:05:40.162621 25707 net.cpp:122] Setting up inception_4c/relu_3x3_reduce
I0501 21:05:40.162637 25707 net.cpp:129] Top shape: 50 128 14 14 (1254400)
I0501 21:05:40.162644 25707 net.cpp:137] Memory required for data: 2162722404
I0501 21:05:40.162652 25707 layer_factory.hpp:77] Creating layer inception_4c/3x3
I0501 21:05:40.162681 25707 net.cpp:84] Creating Layer inception_4c/3x3
I0501 21:05:40.162693 25707 net.cpp:406] inception_4c/3x3 <- inception_4c/3x3_reduce
I0501 21:05:40.162706 25707 net.cpp:380] inception_4c/3x3 -> inception_4c/3x3
I0501 21:05:40.174542 25707 net.cpp:122] Setting up inception_4c/3x3
I0501 21:05:40.174589 25707 net.cpp:129] Top shape: 50 256 14 14 (2508800)
I0501 21:05:40.174599 25707 net.cpp:137] Memory required for data: 2172757604
I0501 21:05:40.174649 25707 layer_factory.hpp:77] Creating layer inception_4c/relu_3x3
I0501 21:05:40.174687 25707 net.cpp:84] Creating Layer inception_4c/relu_3x3
I0501 21:05:40.174700 25707 net.cpp:406] inception_4c/relu_3x3 <- inception_4c/3x3
I0501 21:05:40.174715 25707 net.cpp:367] inception_4c/relu_3x3 -> inception_4c/3x3 (in-place)
I0501 21:05:40.174978 25707 net.cpp:122] Setting up inception_4c/relu_3x3
I0501 21:05:40.174994 25707 net.cpp:129] Top shape: 50 256 14 14 (2508800)
I0501 21:05:40.175002 25707 net.cpp:137] Memory required for data: 2182792804
I0501 21:05:40.175010 25707 layer_factory.hpp:77] Creating layer inception_4c/5x5_reduce
I0501 21:05:40.175035 25707 net.cpp:84] Creating Layer inception_4c/5x5_reduce
I0501 21:05:40.175047 25707 net.cpp:406] inception_4c/5x5_reduce <- inception_4b/output_inception_4b/output_0_split_2
I0501 21:05:40.175065 25707 net.cpp:380] inception_4c/5x5_reduce -> inception_4c/5x5_reduce
I0501 21:05:40.177254 25707 net.cpp:122] Setting up inception_4c/5x5_reduce
I0501 21:05:40.177286 25707 net.cpp:129] Top shape: 50 24 14 14 (235200)
I0501 21:05:40.177297 25707 net.cpp:137] Memory required for data: 2183733604
I0501 21:05:40.177314 25707 layer_factory.hpp:77] Creating layer inception_4c/relu_5x5_reduce
I0501 21:05:40.177330 25707 net.cpp:84] Creating Layer inception_4c/relu_5x5_reduce
I0501 21:05:40.177341 25707 net.cpp:406] inception_4c/relu_5x5_reduce <- inception_4c/5x5_reduce
I0501 21:05:40.177356 25707 net.cpp:367] inception_4c/relu_5x5_reduce -> inception_4c/5x5_reduce (in-place)
I0501 21:05:40.177616 25707 net.cpp:122] Setting up inception_4c/relu_5x5_reduce
I0501 21:05:40.177634 25707 net.cpp:129] Top shape: 50 24 14 14 (235200)
I0501 21:05:40.177644 25707 net.cpp:137] Memory required for data: 2184674404
I0501 21:05:40.177651 25707 layer_factory.hpp:77] Creating layer inception_4c/5x5
I0501 21:05:40.177675 25707 net.cpp:84] Creating Layer inception_4c/5x5
I0501 21:05:40.177686 25707 net.cpp:406] inception_4c/5x5 <- inception_4c/5x5_reduce
I0501 21:05:40.177732 25707 net.cpp:380] inception_4c/5x5 -> inception_4c/5x5
I0501 21:05:40.179936 25707 net.cpp:122] Setting up inception_4c/5x5
I0501 21:05:40.179955 25707 net.cpp:129] Top shape: 50 64 14 14 (627200)
I0501 21:05:40.179962 25707 net.cpp:137] Memory required for data: 2187183204
I0501 21:05:40.179977 25707 layer_factory.hpp:77] Creating layer inception_4c/relu_5x5
I0501 21:05:40.179991 25707 net.cpp:84] Creating Layer inception_4c/relu_5x5
I0501 21:05:40.180001 25707 net.cpp:406] inception_4c/relu_5x5 <- inception_4c/5x5
I0501 21:05:40.180013 25707 net.cpp:367] inception_4c/relu_5x5 -> inception_4c/5x5 (in-place)
I0501 21:05:40.180832 25707 net.cpp:122] Setting up inception_4c/relu_5x5
I0501 21:05:40.180851 25707 net.cpp:129] Top shape: 50 64 14 14 (627200)
I0501 21:05:40.180860 25707 net.cpp:137] Memory required for data: 2189692004
I0501 21:05:40.180867 25707 layer_factory.hpp:77] Creating layer inception_4c/pool
I0501 21:05:40.180891 25707 net.cpp:84] Creating Layer inception_4c/pool
I0501 21:05:40.180902 25707 net.cpp:406] inception_4c/pool <- inception_4b/output_inception_4b/output_0_split_3
I0501 21:05:40.180917 25707 net.cpp:380] inception_4c/pool -> inception_4c/pool
I0501 21:05:40.181004 25707 net.cpp:122] Setting up inception_4c/pool
I0501 21:05:40.181020 25707 net.cpp:129] Top shape: 50 512 14 14 (5017600)
I0501 21:05:40.181028 25707 net.cpp:137] Memory required for data: 2209762404
I0501 21:05:40.181037 25707 layer_factory.hpp:77] Creating layer inception_4c/pool_proj
I0501 21:05:40.181062 25707 net.cpp:84] Creating Layer inception_4c/pool_proj
I0501 21:05:40.181076 25707 net.cpp:406] inception_4c/pool_proj <- inception_4c/pool
I0501 21:05:40.181090 25707 net.cpp:380] inception_4c/pool_proj -> inception_4c/pool_proj
I0501 21:05:40.182564 25707 net.cpp:122] Setting up inception_4c/pool_proj
I0501 21:05:40.182586 25707 net.cpp:129] Top shape: 50 64 14 14 (627200)
I0501 21:05:40.182596 25707 net.cpp:137] Memory required for data: 2212271204
I0501 21:05:40.182608 25707 layer_factory.hpp:77] Creating layer inception_4c/relu_pool_proj
I0501 21:05:40.182644 25707 net.cpp:84] Creating Layer inception_4c/relu_pool_proj
I0501 21:05:40.182656 25707 net.cpp:406] inception_4c/relu_pool_proj <- inception_4c/pool_proj
I0501 21:05:40.182672 25707 net.cpp:367] inception_4c/relu_pool_proj -> inception_4c/pool_proj (in-place)
I0501 21:05:40.183455 25707 net.cpp:122] Setting up inception_4c/relu_pool_proj
I0501 21:05:40.183471 25707 net.cpp:129] Top shape: 50 64 14 14 (627200)
I0501 21:05:40.183480 25707 net.cpp:137] Memory required for data: 2214780004
I0501 21:05:40.183490 25707 layer_factory.hpp:77] Creating layer inception_4c/output
I0501 21:05:40.183501 25707 net.cpp:84] Creating Layer inception_4c/output
I0501 21:05:40.183516 25707 net.cpp:406] inception_4c/output <- inception_4c/1x1
I0501 21:05:40.183526 25707 net.cpp:406] inception_4c/output <- inception_4c/3x3
I0501 21:05:40.183537 25707 net.cpp:406] inception_4c/output <- inception_4c/5x5
I0501 21:05:40.183547 25707 net.cpp:406] inception_4c/output <- inception_4c/pool_proj
I0501 21:05:40.183557 25707 net.cpp:380] inception_4c/output -> inception_4c/output
I0501 21:05:40.183609 25707 net.cpp:122] Setting up inception_4c/output
I0501 21:05:40.183625 25707 net.cpp:129] Top shape: 50 512 14 14 (5017600)
I0501 21:05:40.183634 25707 net.cpp:137] Memory required for data: 2234850404
I0501 21:05:40.183642 25707 layer_factory.hpp:77] Creating layer inception_4c/output_inception_4c/output_0_split
I0501 21:05:40.183655 25707 net.cpp:84] Creating Layer inception_4c/output_inception_4c/output_0_split
I0501 21:05:40.183665 25707 net.cpp:406] inception_4c/output_inception_4c/output_0_split <- inception_4c/output
I0501 21:05:40.183678 25707 net.cpp:380] inception_4c/output_inception_4c/output_0_split -> inception_4c/output_inception_4c/output_0_split_0
I0501 21:05:40.183693 25707 net.cpp:380] inception_4c/output_inception_4c/output_0_split -> inception_4c/output_inception_4c/output_0_split_1
I0501 21:05:40.183708 25707 net.cpp:380] inception_4c/output_inception_4c/output_0_split -> inception_4c/output_inception_4c/output_0_split_2
I0501 21:05:40.183725 25707 net.cpp:380] inception_4c/output_inception_4c/output_0_split -> inception_4c/output_inception_4c/output_0_split_3
I0501 21:05:40.183831 25707 net.cpp:122] Setting up inception_4c/output_inception_4c/output_0_split
I0501 21:05:40.183848 25707 net.cpp:129] Top shape: 50 512 14 14 (5017600)
I0501 21:05:40.183861 25707 net.cpp:129] Top shape: 50 512 14 14 (5017600)
I0501 21:05:40.183872 25707 net.cpp:129] Top shape: 50 512 14 14 (5017600)
I0501 21:05:40.183881 25707 net.cpp:129] Top shape: 50 512 14 14 (5017600)
I0501 21:05:40.183887 25707 net.cpp:137] Memory required for data: 2315132004
I0501 21:05:40.183894 25707 layer_factory.hpp:77] Creating layer inception_4d/1x1
I0501 21:05:40.183912 25707 net.cpp:84] Creating Layer inception_4d/1x1
I0501 21:05:40.183924 25707 net.cpp:406] inception_4d/1x1 <- inception_4c/output_inception_4c/output_0_split_0
I0501 21:05:40.183938 25707 net.cpp:380] inception_4d/1x1 -> inception_4d/1x1
I0501 21:05:40.189215 25707 net.cpp:122] Setting up inception_4d/1x1
I0501 21:05:40.189252 25707 net.cpp:129] Top shape: 50 112 14 14 (1097600)
I0501 21:05:40.189262 25707 net.cpp:137] Memory required for data: 2319522404
I0501 21:05:40.189277 25707 layer_factory.hpp:77] Creating layer inception_4d/relu_1x1
I0501 21:05:40.189293 25707 net.cpp:84] Creating Layer inception_4d/relu_1x1
I0501 21:05:40.189304 25707 net.cpp:406] inception_4d/relu_1x1 <- inception_4d/1x1
I0501 21:05:40.189314 25707 net.cpp:367] inception_4d/relu_1x1 -> inception_4d/1x1 (in-place)
I0501 21:05:40.189548 25707 net.cpp:122] Setting up inception_4d/relu_1x1
I0501 21:05:40.189563 25707 net.cpp:129] Top shape: 50 112 14 14 (1097600)
I0501 21:05:40.189571 25707 net.cpp:137] Memory required for data: 2323912804
I0501 21:05:40.189581 25707 layer_factory.hpp:77] Creating layer inception_4d/3x3_reduce
I0501 21:05:40.189604 25707 net.cpp:84] Creating Layer inception_4d/3x3_reduce
I0501 21:05:40.189612 25707 net.cpp:406] inception_4d/3x3_reduce <- inception_4c/output_inception_4c/output_0_split_1
I0501 21:05:40.189657 25707 net.cpp:380] inception_4d/3x3_reduce -> inception_4d/3x3_reduce
I0501 21:05:40.192839 25707 net.cpp:122] Setting up inception_4d/3x3_reduce
I0501 21:05:40.192864 25707 net.cpp:129] Top shape: 50 144 14 14 (1411200)
I0501 21:05:40.192872 25707 net.cpp:137] Memory required for data: 2329557604
I0501 21:05:40.192884 25707 layer_factory.hpp:77] Creating layer inception_4d/relu_3x3_reduce
I0501 21:05:40.192896 25707 net.cpp:84] Creating Layer inception_4d/relu_3x3_reduce
I0501 21:05:40.192903 25707 net.cpp:406] inception_4d/relu_3x3_reduce <- inception_4d/3x3_reduce
I0501 21:05:40.192914 25707 net.cpp:367] inception_4d/relu_3x3_reduce -> inception_4d/3x3_reduce (in-place)
I0501 21:05:40.193105 25707 net.cpp:122] Setting up inception_4d/relu_3x3_reduce
I0501 21:05:40.193116 25707 net.cpp:129] Top shape: 50 144 14 14 (1411200)
I0501 21:05:40.193123 25707 net.cpp:137] Memory required for data: 2335202404
I0501 21:05:40.193130 25707 layer_factory.hpp:77] Creating layer inception_4d/3x3
I0501 21:05:40.193147 25707 net.cpp:84] Creating Layer inception_4d/3x3
I0501 21:05:40.193156 25707 net.cpp:406] inception_4d/3x3 <- inception_4d/3x3_reduce
I0501 21:05:40.193166 25707 net.cpp:380] inception_4d/3x3 -> inception_4d/3x3
I0501 21:05:40.199560 25707 net.cpp:122] Setting up inception_4d/3x3
I0501 21:05:40.199590 25707 net.cpp:129] Top shape: 50 288 14 14 (2822400)
I0501 21:05:40.199595 25707 net.cpp:137] Memory required for data: 2346492004
I0501 21:05:40.199609 25707 layer_factory.hpp:77] Creating layer inception_4d/relu_3x3
I0501 21:05:40.199623 25707 net.cpp:84] Creating Layer inception_4d/relu_3x3
I0501 21:05:40.199635 25707 net.cpp:406] inception_4d/relu_3x3 <- inception_4d/3x3
I0501 21:05:40.199647 25707 net.cpp:367] inception_4d/relu_3x3 -> inception_4d/3x3 (in-place)
I0501 21:05:40.199836 25707 net.cpp:122] Setting up inception_4d/relu_3x3
I0501 21:05:40.199851 25707 net.cpp:129] Top shape: 50 288 14 14 (2822400)
I0501 21:05:40.199862 25707 net.cpp:137] Memory required for data: 2357781604
I0501 21:05:40.199870 25707 layer_factory.hpp:77] Creating layer inception_4d/5x5_reduce
I0501 21:05:40.199883 25707 net.cpp:84] Creating Layer inception_4d/5x5_reduce
I0501 21:05:40.199889 25707 net.cpp:406] inception_4d/5x5_reduce <- inception_4c/output_inception_4c/output_0_split_2
I0501 21:05:40.199899 25707 net.cpp:380] inception_4d/5x5_reduce -> inception_4d/5x5_reduce
I0501 21:05:40.202204 25707 net.cpp:122] Setting up inception_4d/5x5_reduce
I0501 21:05:40.202221 25707 net.cpp:129] Top shape: 50 32 14 14 (313600)
I0501 21:05:40.202234 25707 net.cpp:137] Memory required for data: 2359036004
I0501 21:05:40.202244 25707 layer_factory.hpp:77] Creating layer inception_4d/relu_5x5_reduce
I0501 21:05:40.202253 25707 net.cpp:84] Creating Layer inception_4d/relu_5x5_reduce
I0501 21:05:40.202260 25707 net.cpp:406] inception_4d/relu_5x5_reduce <- inception_4d/5x5_reduce
I0501 21:05:40.202271 25707 net.cpp:367] inception_4d/relu_5x5_reduce -> inception_4d/5x5_reduce (in-place)
I0501 21:05:40.202450 25707 net.cpp:122] Setting up inception_4d/relu_5x5_reduce
I0501 21:05:40.202463 25707 net.cpp:129] Top shape: 50 32 14 14 (313600)
I0501 21:05:40.202471 25707 net.cpp:137] Memory required for data: 2360290404
I0501 21:05:40.202476 25707 layer_factory.hpp:77] Creating layer inception_4d/5x5
I0501 21:05:40.202491 25707 net.cpp:84] Creating Layer inception_4d/5x5
I0501 21:05:40.202499 25707 net.cpp:406] inception_4d/5x5 <- inception_4d/5x5_reduce
I0501 21:05:40.202513 25707 net.cpp:380] inception_4d/5x5 -> inception_4d/5x5
I0501 21:05:40.218114 25707 net.cpp:122] Setting up inception_4d/5x5
I0501 21:05:40.218176 25707 net.cpp:129] Top shape: 50 64 14 14 (627200)
I0501 21:05:40.218186 25707 net.cpp:137] Memory required for data: 2362799204
I0501 21:05:40.218210 25707 layer_factory.hpp:77] Creating layer inception_4d/relu_5x5
I0501 21:05:40.218235 25707 net.cpp:84] Creating Layer inception_4d/relu_5x5
I0501 21:05:40.218250 25707 net.cpp:406] inception_4d/relu_5x5 <- inception_4d/5x5
I0501 21:05:40.218282 25707 net.cpp:367] inception_4d/relu_5x5 -> inception_4d/5x5 (in-place)
I0501 21:05:40.223493 25707 net.cpp:122] Setting up inception_4d/relu_5x5
I0501 21:05:40.223551 25707 net.cpp:129] Top shape: 50 64 14 14 (627200)
I0501 21:05:40.223562 25707 net.cpp:137] Memory required for data: 2365308004
I0501 21:05:40.223575 25707 layer_factory.hpp:77] Creating layer inception_4d/pool
I0501 21:05:40.223603 25707 net.cpp:84] Creating Layer inception_4d/pool
I0501 21:05:40.223615 25707 net.cpp:406] inception_4d/pool <- inception_4c/output_inception_4c/output_0_split_3
I0501 21:05:40.223640 25707 net.cpp:380] inception_4d/pool -> inception_4d/pool
I0501 21:05:40.223793 25707 net.cpp:122] Setting up inception_4d/pool
I0501 21:05:40.223809 25707 net.cpp:129] Top shape: 50 512 14 14 (5017600)
I0501 21:05:40.223817 25707 net.cpp:137] Memory required for data: 2385378404
I0501 21:05:40.223826 25707 layer_factory.hpp:77] Creating layer inception_4d/pool_proj
I0501 21:05:40.223852 25707 net.cpp:84] Creating Layer inception_4d/pool_proj
I0501 21:05:40.223862 25707 net.cpp:406] inception_4d/pool_proj <- inception_4d/pool
I0501 21:05:40.223875 25707 net.cpp:380] inception_4d/pool_proj -> inception_4d/pool_proj
I0501 21:05:40.227253 25707 net.cpp:122] Setting up inception_4d/pool_proj
I0501 21:05:40.227298 25707 net.cpp:129] Top shape: 50 64 14 14 (627200)
I0501 21:05:40.227305 25707 net.cpp:137] Memory required for data: 2387887204
I0501 21:05:40.227319 25707 layer_factory.hpp:77] Creating layer inception_4d/relu_pool_proj
I0501 21:05:40.227337 25707 net.cpp:84] Creating Layer inception_4d/relu_pool_proj
I0501 21:05:40.227345 25707 net.cpp:406] inception_4d/relu_pool_proj <- inception_4d/pool_proj
I0501 21:05:40.227356 25707 net.cpp:367] inception_4d/relu_pool_proj -> inception_4d/pool_proj (in-place)
I0501 21:05:40.235745 25707 net.cpp:122] Setting up inception_4d/relu_pool_proj
I0501 21:05:40.235791 25707 net.cpp:129] Top shape: 50 64 14 14 (627200)
I0501 21:05:40.235797 25707 net.cpp:137] Memory required for data: 2390396004
I0501 21:05:40.235806 25707 layer_factory.hpp:77] Creating layer inception_4d/output
I0501 21:05:40.235818 25707 net.cpp:84] Creating Layer inception_4d/output
I0501 21:05:40.235827 25707 net.cpp:406] inception_4d/output <- inception_4d/1x1
I0501 21:05:40.235837 25707 net.cpp:406] inception_4d/output <- inception_4d/3x3
I0501 21:05:40.235843 25707 net.cpp:406] inception_4d/output <- inception_4d/5x5
I0501 21:05:40.235848 25707 net.cpp:406] inception_4d/output <- inception_4d/pool_proj
I0501 21:05:40.235859 25707 net.cpp:380] inception_4d/output -> inception_4d/output
I0501 21:05:40.235935 25707 net.cpp:122] Setting up inception_4d/output
I0501 21:05:40.235944 25707 net.cpp:129] Top shape: 50 528 14 14 (5174400)
I0501 21:05:40.235949 25707 net.cpp:137] Memory required for data: 2411093604
I0501 21:05:40.235954 25707 layer_factory.hpp:77] Creating layer inception_4d/output_inception_4d/output_0_split
I0501 21:05:40.235965 25707 net.cpp:84] Creating Layer inception_4d/output_inception_4d/output_0_split
I0501 21:05:40.235968 25707 net.cpp:406] inception_4d/output_inception_4d/output_0_split <- inception_4d/output
I0501 21:05:40.235976 25707 net.cpp:380] inception_4d/output_inception_4d/output_0_split -> inception_4d/output_inception_4d/output_0_split_0
I0501 21:05:40.235986 25707 net.cpp:380] inception_4d/output_inception_4d/output_0_split -> inception_4d/output_inception_4d/output_0_split_1
I0501 21:05:40.235993 25707 net.cpp:380] inception_4d/output_inception_4d/output_0_split -> inception_4d/output_inception_4d/output_0_split_2
I0501 21:05:40.236002 25707 net.cpp:380] inception_4d/output_inception_4d/output_0_split -> inception_4d/output_inception_4d/output_0_split_3
I0501 21:05:40.236009 25707 net.cpp:380] inception_4d/output_inception_4d/output_0_split -> inception_4d/output_inception_4d/output_0_split_4
I0501 21:05:40.236086 25707 net.cpp:122] Setting up inception_4d/output_inception_4d/output_0_split
I0501 21:05:40.236095 25707 net.cpp:129] Top shape: 50 528 14 14 (5174400)
I0501 21:05:40.236107 25707 net.cpp:129] Top shape: 50 528 14 14 (5174400)
I0501 21:05:40.236148 25707 net.cpp:129] Top shape: 50 528 14 14 (5174400)
I0501 21:05:40.236155 25707 net.cpp:129] Top shape: 50 528 14 14 (5174400)
I0501 21:05:40.236160 25707 net.cpp:129] Top shape: 50 528 14 14 (5174400)
I0501 21:05:40.236165 25707 net.cpp:137] Memory required for data: 2514581604
I0501 21:05:40.236168 25707 layer_factory.hpp:77] Creating layer loss2/ave_pool
I0501 21:05:40.236181 25707 net.cpp:84] Creating Layer loss2/ave_pool
I0501 21:05:40.236186 25707 net.cpp:406] loss2/ave_pool <- inception_4d/output_inception_4d/output_0_split_0
I0501 21:05:40.236191 25707 net.cpp:380] loss2/ave_pool -> loss2/ave_pool
I0501 21:05:40.236362 25707 net.cpp:122] Setting up loss2/ave_pool
I0501 21:05:40.236371 25707 net.cpp:129] Top shape: 50 528 4 4 (422400)
I0501 21:05:40.236376 25707 net.cpp:137] Memory required for data: 2516271204
I0501 21:05:40.236380 25707 layer_factory.hpp:77] Creating layer loss2/conv
I0501 21:05:40.236397 25707 net.cpp:84] Creating Layer loss2/conv
I0501 21:05:40.236403 25707 net.cpp:406] loss2/conv <- loss2/ave_pool
I0501 21:05:40.236410 25707 net.cpp:380] loss2/conv -> loss2/conv
I0501 21:05:40.238925 25707 net.cpp:122] Setting up loss2/conv
I0501 21:05:40.238955 25707 net.cpp:129] Top shape: 50 128 4 4 (102400)
I0501 21:05:40.238965 25707 net.cpp:137] Memory required for data: 2516680804
I0501 21:05:40.238981 25707 layer_factory.hpp:77] Creating layer loss2/relu_conv
I0501 21:05:40.238996 25707 net.cpp:84] Creating Layer loss2/relu_conv
I0501 21:05:40.239008 25707 net.cpp:406] loss2/relu_conv <- loss2/conv
I0501 21:05:40.239024 25707 net.cpp:367] loss2/relu_conv -> loss2/conv (in-place)
I0501 21:05:40.239267 25707 net.cpp:122] Setting up loss2/relu_conv
I0501 21:05:40.239282 25707 net.cpp:129] Top shape: 50 128 4 4 (102400)
I0501 21:05:40.239287 25707 net.cpp:137] Memory required for data: 2517090404
I0501 21:05:40.239300 25707 layer_factory.hpp:77] Creating layer loss2/fc
I0501 21:05:40.239311 25707 net.cpp:84] Creating Layer loss2/fc
I0501 21:05:40.239320 25707 net.cpp:406] loss2/fc <- loss2/conv
I0501 21:05:40.239329 25707 net.cpp:380] loss2/fc -> loss2/fc
I0501 21:05:40.310272 25707 net.cpp:122] Setting up loss2/fc
I0501 21:05:40.310371 25707 net.cpp:129] Top shape: 50 1024 (51200)
I0501 21:05:40.310379 25707 net.cpp:137] Memory required for data: 2517295204
I0501 21:05:40.310405 25707 layer_factory.hpp:77] Creating layer loss2/relu_fc
I0501 21:05:40.310428 25707 net.cpp:84] Creating Layer loss2/relu_fc
I0501 21:05:40.310442 25707 net.cpp:406] loss2/relu_fc <- loss2/fc
I0501 21:05:40.310461 25707 net.cpp:367] loss2/relu_fc -> loss2/fc (in-place)
I0501 21:05:40.310813 25707 net.cpp:122] Setting up loss2/relu_fc
I0501 21:05:40.310829 25707 net.cpp:129] Top shape: 50 1024 (51200)
I0501 21:05:40.310842 25707 net.cpp:137] Memory required for data: 2517500004
I0501 21:05:40.310849 25707 layer_factory.hpp:77] Creating layer loss2/drop_fc
I0501 21:05:40.310863 25707 net.cpp:84] Creating Layer loss2/drop_fc
I0501 21:05:40.310873 25707 net.cpp:406] loss2/drop_fc <- loss2/fc
I0501 21:05:40.310889 25707 net.cpp:367] loss2/drop_fc -> loss2/fc (in-place)
I0501 21:05:40.310935 25707 net.cpp:122] Setting up loss2/drop_fc
I0501 21:05:40.310945 25707 net.cpp:129] Top shape: 50 1024 (51200)
I0501 21:05:40.310955 25707 net.cpp:137] Memory required for data: 2517704804
I0501 21:05:40.310961 25707 layer_factory.hpp:77] Creating layer loss2/classifier
I0501 21:05:40.310978 25707 net.cpp:84] Creating Layer loss2/classifier
I0501 21:05:40.310992 25707 net.cpp:406] loss2/classifier <- loss2/fc
I0501 21:05:40.311008 25707 net.cpp:380] loss2/classifier -> loss2/classifier
I0501 21:05:40.332587 25707 net.cpp:122] Setting up loss2/classifier
I0501 21:05:40.332646 25707 net.cpp:129] Top shape: 50 1000 (50000)
I0501 21:05:40.332659 25707 net.cpp:137] Memory required for data: 2517904804
I0501 21:05:40.332684 25707 layer_factory.hpp:77] Creating layer loss2/loss
I0501 21:05:40.332706 25707 net.cpp:84] Creating Layer loss2/loss
I0501 21:05:40.332743 25707 net.cpp:406] loss2/loss <- loss2/classifier
I0501 21:05:40.332886 25707 net.cpp:406] loss2/loss <- label_data_1_split_1
I0501 21:05:40.332906 25707 net.cpp:380] loss2/loss -> loss2/loss2
I0501 21:05:40.332932 25707 layer_factory.hpp:77] Creating layer loss2/loss
I0501 21:05:40.377800 25707 net.cpp:122] Setting up loss2/loss
I0501 21:05:40.377840 25707 net.cpp:129] Top shape: (1)
I0501 21:05:40.377851 25707 net.cpp:132]     with loss weight 0.3
I0501 21:05:40.377869 25707 net.cpp:137] Memory required for data: 2517904808
I0501 21:05:40.377881 25707 layer_factory.hpp:77] Creating layer inception_4e/1x1
I0501 21:05:40.377900 25707 net.cpp:84] Creating Layer inception_4e/1x1
I0501 21:05:40.377913 25707 net.cpp:406] inception_4e/1x1 <- inception_4d/output_inception_4d/output_0_split_1
I0501 21:05:40.377931 25707 net.cpp:380] inception_4e/1x1 -> inception_4e/1x1
I0501 21:05:40.380717 25707 net.cpp:122] Setting up inception_4e/1x1
I0501 21:05:40.380743 25707 net.cpp:129] Top shape: 50 256 14 14 (2508800)
I0501 21:05:40.380753 25707 net.cpp:137] Memory required for data: 2527940008
I0501 21:05:40.380769 25707 layer_factory.hpp:77] Creating layer inception_4e/relu_1x1
I0501 21:05:40.380784 25707 net.cpp:84] Creating Layer inception_4e/relu_1x1
I0501 21:05:40.380791 25707 net.cpp:406] inception_4e/relu_1x1 <- inception_4e/1x1
I0501 21:05:40.380818 25707 net.cpp:367] inception_4e/relu_1x1 -> inception_4e/1x1 (in-place)
I0501 21:05:40.381084 25707 net.cpp:122] Setting up inception_4e/relu_1x1
I0501 21:05:40.381098 25707 net.cpp:129] Top shape: 50 256 14 14 (2508800)
I0501 21:05:40.381105 25707 net.cpp:137] Memory required for data: 2537975208
I0501 21:05:40.381116 25707 layer_factory.hpp:77] Creating layer inception_4e/3x3_reduce
I0501 21:05:40.381139 25707 net.cpp:84] Creating Layer inception_4e/3x3_reduce
I0501 21:05:40.381151 25707 net.cpp:406] inception_4e/3x3_reduce <- inception_4d/output_inception_4d/output_0_split_2
I0501 21:05:40.381165 25707 net.cpp:380] inception_4e/3x3_reduce -> inception_4e/3x3_reduce
I0501 21:05:40.386916 25707 net.cpp:122] Setting up inception_4e/3x3_reduce
I0501 21:05:40.386968 25707 net.cpp:129] Top shape: 50 160 14 14 (1568000)
I0501 21:05:40.386978 25707 net.cpp:137] Memory required for data: 2544247208
I0501 21:05:40.386999 25707 layer_factory.hpp:77] Creating layer inception_4e/relu_3x3_reduce
I0501 21:05:40.387018 25707 net.cpp:84] Creating Layer inception_4e/relu_3x3_reduce
I0501 21:05:40.387028 25707 net.cpp:406] inception_4e/relu_3x3_reduce <- inception_4e/3x3_reduce
I0501 21:05:40.387050 25707 net.cpp:367] inception_4e/relu_3x3_reduce -> inception_4e/3x3_reduce (in-place)
I0501 21:05:40.387302 25707 net.cpp:122] Setting up inception_4e/relu_3x3_reduce
I0501 21:05:40.387316 25707 net.cpp:129] Top shape: 50 160 14 14 (1568000)
I0501 21:05:40.387325 25707 net.cpp:137] Memory required for data: 2550519208
I0501 21:05:40.387332 25707 layer_factory.hpp:77] Creating layer inception_4e/3x3
I0501 21:05:40.387356 25707 net.cpp:84] Creating Layer inception_4e/3x3
I0501 21:05:40.387367 25707 net.cpp:406] inception_4e/3x3 <- inception_4e/3x3_reduce
I0501 21:05:40.387379 25707 net.cpp:380] inception_4e/3x3 -> inception_4e/3x3
I0501 21:05:40.436169 25707 net.cpp:122] Setting up inception_4e/3x3
I0501 21:05:40.436216 25707 net.cpp:129] Top shape: 50 320 14 14 (3136000)
I0501 21:05:40.436224 25707 net.cpp:137] Memory required for data: 2563063208
I0501 21:05:40.436239 25707 layer_factory.hpp:77] Creating layer inception_4e/relu_3x3
I0501 21:05:40.436251 25707 net.cpp:84] Creating Layer inception_4e/relu_3x3
I0501 21:05:40.436259 25707 net.cpp:406] inception_4e/relu_3x3 <- inception_4e/3x3
I0501 21:05:40.436271 25707 net.cpp:367] inception_4e/relu_3x3 -> inception_4e/3x3 (in-place)
I0501 21:05:40.436463 25707 net.cpp:122] Setting up inception_4e/relu_3x3
I0501 21:05:40.436475 25707 net.cpp:129] Top shape: 50 320 14 14 (3136000)
I0501 21:05:40.436480 25707 net.cpp:137] Memory required for data: 2575607208
I0501 21:05:40.436487 25707 layer_factory.hpp:77] Creating layer inception_4e/5x5_reduce
I0501 21:05:40.436508 25707 net.cpp:84] Creating Layer inception_4e/5x5_reduce
I0501 21:05:40.436550 25707 net.cpp:406] inception_4e/5x5_reduce <- inception_4d/output_inception_4d/output_0_split_3
I0501 21:05:40.436569 25707 net.cpp:380] inception_4e/5x5_reduce -> inception_4e/5x5_reduce
I0501 21:05:40.463125 25707 net.cpp:122] Setting up inception_4e/5x5_reduce
I0501 21:05:40.463207 25707 net.cpp:129] Top shape: 50 32 14 14 (313600)
I0501 21:05:40.463222 25707 net.cpp:137] Memory required for data: 2576861608
I0501 21:05:40.463245 25707 layer_factory.hpp:77] Creating layer inception_4e/relu_5x5_reduce
I0501 21:05:40.463273 25707 net.cpp:84] Creating Layer inception_4e/relu_5x5_reduce
I0501 21:05:40.463286 25707 net.cpp:406] inception_4e/relu_5x5_reduce <- inception_4e/5x5_reduce
I0501 21:05:40.463304 25707 net.cpp:367] inception_4e/relu_5x5_reduce -> inception_4e/5x5_reduce (in-place)
I0501 21:05:40.463567 25707 net.cpp:122] Setting up inception_4e/relu_5x5_reduce
I0501 21:05:40.463585 25707 net.cpp:129] Top shape: 50 32 14 14 (313600)
I0501 21:05:40.463596 25707 net.cpp:137] Memory required for data: 2578116008
I0501 21:05:40.463605 25707 layer_factory.hpp:77] Creating layer inception_4e/5x5
I0501 21:05:40.463676 25707 net.cpp:84] Creating Layer inception_4e/5x5
I0501 21:05:40.463690 25707 net.cpp:406] inception_4e/5x5 <- inception_4e/5x5_reduce
I0501 21:05:40.463706 25707 net.cpp:380] inception_4e/5x5 -> inception_4e/5x5
I0501 21:05:40.467814 25707 net.cpp:122] Setting up inception_4e/5x5
I0501 21:05:40.467841 25707 net.cpp:129] Top shape: 50 128 14 14 (1254400)
I0501 21:05:40.467854 25707 net.cpp:137] Memory required for data: 2583133608
I0501 21:05:40.467869 25707 layer_factory.hpp:77] Creating layer inception_4e/relu_5x5
I0501 21:05:40.467885 25707 net.cpp:84] Creating Layer inception_4e/relu_5x5
I0501 21:05:40.467898 25707 net.cpp:406] inception_4e/relu_5x5 <- inception_4e/5x5
I0501 21:05:40.467911 25707 net.cpp:367] inception_4e/relu_5x5 -> inception_4e/5x5 (in-place)
I0501 21:05:40.475353 25707 net.cpp:122] Setting up inception_4e/relu_5x5
I0501 21:05:40.475405 25707 net.cpp:129] Top shape: 50 128 14 14 (1254400)
I0501 21:05:40.475417 25707 net.cpp:137] Memory required for data: 2588151208
I0501 21:05:40.475430 25707 layer_factory.hpp:77] Creating layer inception_4e/pool
I0501 21:05:40.475452 25707 net.cpp:84] Creating Layer inception_4e/pool
I0501 21:05:40.475467 25707 net.cpp:406] inception_4e/pool <- inception_4d/output_inception_4d/output_0_split_4
I0501 21:05:40.475486 25707 net.cpp:380] inception_4e/pool -> inception_4e/pool
I0501 21:05:40.475603 25707 net.cpp:122] Setting up inception_4e/pool
I0501 21:05:40.475621 25707 net.cpp:129] Top shape: 50 528 14 14 (5174400)
I0501 21:05:40.475631 25707 net.cpp:137] Memory required for data: 2608848808
I0501 21:05:40.475639 25707 layer_factory.hpp:77] Creating layer inception_4e/pool_proj
I0501 21:05:40.475663 25707 net.cpp:84] Creating Layer inception_4e/pool_proj
I0501 21:05:40.475674 25707 net.cpp:406] inception_4e/pool_proj <- inception_4e/pool
I0501 21:05:40.475692 25707 net.cpp:380] inception_4e/pool_proj -> inception_4e/pool_proj
I0501 21:05:40.477511 25707 net.cpp:122] Setting up inception_4e/pool_proj
I0501 21:05:40.477535 25707 net.cpp:129] Top shape: 50 128 14 14 (1254400)
I0501 21:05:40.477543 25707 net.cpp:137] Memory required for data: 2613866408
I0501 21:05:40.477558 25707 layer_factory.hpp:77] Creating layer inception_4e/relu_pool_proj
I0501 21:05:40.477571 25707 net.cpp:84] Creating Layer inception_4e/relu_pool_proj
I0501 21:05:40.477587 25707 net.cpp:406] inception_4e/relu_pool_proj <- inception_4e/pool_proj
I0501 21:05:40.477605 25707 net.cpp:367] inception_4e/relu_pool_proj -> inception_4e/pool_proj (in-place)
I0501 21:05:40.490725 25707 net.cpp:122] Setting up inception_4e/relu_pool_proj
I0501 21:05:40.490806 25707 net.cpp:129] Top shape: 50 128 14 14 (1254400)
I0501 21:05:40.490818 25707 net.cpp:137] Memory required for data: 2618884008
I0501 21:05:40.490831 25707 layer_factory.hpp:77] Creating layer inception_4e/output
I0501 21:05:40.490854 25707 net.cpp:84] Creating Layer inception_4e/output
I0501 21:05:40.490900 25707 net.cpp:406] inception_4e/output <- inception_4e/1x1
I0501 21:05:40.490917 25707 net.cpp:406] inception_4e/output <- inception_4e/3x3
I0501 21:05:40.490928 25707 net.cpp:406] inception_4e/output <- inception_4e/5x5
I0501 21:05:40.490938 25707 net.cpp:406] inception_4e/output <- inception_4e/pool_proj
I0501 21:05:40.490952 25707 net.cpp:380] inception_4e/output -> inception_4e/output
I0501 21:05:40.491051 25707 net.cpp:122] Setting up inception_4e/output
I0501 21:05:40.491066 25707 net.cpp:129] Top shape: 50 832 14 14 (8153600)
I0501 21:05:40.491075 25707 net.cpp:137] Memory required for data: 2651498408
I0501 21:05:40.491082 25707 layer_factory.hpp:77] Creating layer pool4/3x3_s2
I0501 21:05:40.491097 25707 net.cpp:84] Creating Layer pool4/3x3_s2
I0501 21:05:40.491107 25707 net.cpp:406] pool4/3x3_s2 <- inception_4e/output
I0501 21:05:40.491122 25707 net.cpp:380] pool4/3x3_s2 -> pool4/3x3_s2
I0501 21:05:40.491209 25707 net.cpp:122] Setting up pool4/3x3_s2
I0501 21:05:40.491226 25707 net.cpp:129] Top shape: 50 832 7 7 (2038400)
I0501 21:05:40.491236 25707 net.cpp:137] Memory required for data: 2659652008
I0501 21:05:40.491245 25707 layer_factory.hpp:77] Creating layer pool4/3x3_s2_pool4/3x3_s2_0_split
I0501 21:05:40.491266 25707 net.cpp:84] Creating Layer pool4/3x3_s2_pool4/3x3_s2_0_split
I0501 21:05:40.491276 25707 net.cpp:406] pool4/3x3_s2_pool4/3x3_s2_0_split <- pool4/3x3_s2
I0501 21:05:40.491287 25707 net.cpp:380] pool4/3x3_s2_pool4/3x3_s2_0_split -> pool4/3x3_s2_pool4/3x3_s2_0_split_0
I0501 21:05:40.491302 25707 net.cpp:380] pool4/3x3_s2_pool4/3x3_s2_0_split -> pool4/3x3_s2_pool4/3x3_s2_0_split_1
I0501 21:05:40.491319 25707 net.cpp:380] pool4/3x3_s2_pool4/3x3_s2_0_split -> pool4/3x3_s2_pool4/3x3_s2_0_split_2
I0501 21:05:40.491333 25707 net.cpp:380] pool4/3x3_s2_pool4/3x3_s2_0_split -> pool4/3x3_s2_pool4/3x3_s2_0_split_3
I0501 21:05:40.491449 25707 net.cpp:122] Setting up pool4/3x3_s2_pool4/3x3_s2_0_split
I0501 21:05:40.491464 25707 net.cpp:129] Top shape: 50 832 7 7 (2038400)
I0501 21:05:40.491474 25707 net.cpp:129] Top shape: 50 832 7 7 (2038400)
I0501 21:05:40.491483 25707 net.cpp:129] Top shape: 50 832 7 7 (2038400)
I0501 21:05:40.491492 25707 net.cpp:129] Top shape: 50 832 7 7 (2038400)
I0501 21:05:40.491498 25707 net.cpp:137] Memory required for data: 2692266408
I0501 21:05:40.491506 25707 layer_factory.hpp:77] Creating layer inception_5a/1x1
I0501 21:05:40.491544 25707 net.cpp:84] Creating Layer inception_5a/1x1
I0501 21:05:40.491555 25707 net.cpp:406] inception_5a/1x1 <- pool4/3x3_s2_pool4/3x3_s2_0_split_0
I0501 21:05:40.491569 25707 net.cpp:380] inception_5a/1x1 -> inception_5a/1x1
I0501 21:05:40.497385 25707 net.cpp:122] Setting up inception_5a/1x1
I0501 21:05:40.497438 25707 net.cpp:129] Top shape: 50 256 7 7 (627200)
I0501 21:05:40.497452 25707 net.cpp:137] Memory required for data: 2694775208
I0501 21:05:40.497470 25707 layer_factory.hpp:77] Creating layer inception_5a/relu_1x1
I0501 21:05:40.497491 25707 net.cpp:84] Creating Layer inception_5a/relu_1x1
I0501 21:05:40.497505 25707 net.cpp:406] inception_5a/relu_1x1 <- inception_5a/1x1
I0501 21:05:40.497527 25707 net.cpp:367] inception_5a/relu_1x1 -> inception_5a/1x1 (in-place)
I0501 21:05:40.497833 25707 net.cpp:122] Setting up inception_5a/relu_1x1
I0501 21:05:40.497853 25707 net.cpp:129] Top shape: 50 256 7 7 (627200)
I0501 21:05:40.497861 25707 net.cpp:137] Memory required for data: 2697284008
I0501 21:05:40.497871 25707 layer_factory.hpp:77] Creating layer inception_5a/3x3_reduce
I0501 21:05:40.497892 25707 net.cpp:84] Creating Layer inception_5a/3x3_reduce
I0501 21:05:40.497905 25707 net.cpp:406] inception_5a/3x3_reduce <- pool4/3x3_s2_pool4/3x3_s2_0_split_1
I0501 21:05:40.497918 25707 net.cpp:380] inception_5a/3x3_reduce -> inception_5a/3x3_reduce
I0501 21:05:40.500967 25707 net.cpp:122] Setting up inception_5a/3x3_reduce
I0501 21:05:40.500998 25707 net.cpp:129] Top shape: 50 160 7 7 (392000)
I0501 21:05:40.501013 25707 net.cpp:137] Memory required for data: 2698852008
I0501 21:05:40.501042 25707 layer_factory.hpp:77] Creating layer inception_5a/relu_3x3_reduce
I0501 21:05:40.501082 25707 net.cpp:84] Creating Layer inception_5a/relu_3x3_reduce
I0501 21:05:40.501096 25707 net.cpp:406] inception_5a/relu_3x3_reduce <- inception_5a/3x3_reduce
I0501 21:05:40.501116 25707 net.cpp:367] inception_5a/relu_3x3_reduce -> inception_5a/3x3_reduce (in-place)
I0501 21:05:40.501394 25707 net.cpp:122] Setting up inception_5a/relu_3x3_reduce
I0501 21:05:40.501410 25707 net.cpp:129] Top shape: 50 160 7 7 (392000)
I0501 21:05:40.501417 25707 net.cpp:137] Memory required for data: 2700420008
I0501 21:05:40.501426 25707 layer_factory.hpp:77] Creating layer inception_5a/3x3
I0501 21:05:40.501448 25707 net.cpp:84] Creating Layer inception_5a/3x3
I0501 21:05:40.501459 25707 net.cpp:406] inception_5a/3x3 <- inception_5a/3x3_reduce
I0501 21:05:40.501476 25707 net.cpp:380] inception_5a/3x3 -> inception_5a/3x3
I0501 21:05:40.509529 25707 net.cpp:122] Setting up inception_5a/3x3
I0501 21:05:40.509569 25707 net.cpp:129] Top shape: 50 320 7 7 (784000)
I0501 21:05:40.509579 25707 net.cpp:137] Memory required for data: 2703556008
I0501 21:05:40.509594 25707 layer_factory.hpp:77] Creating layer inception_5a/relu_3x3
I0501 21:05:40.509610 25707 net.cpp:84] Creating Layer inception_5a/relu_3x3
I0501 21:05:40.509624 25707 net.cpp:406] inception_5a/relu_3x3 <- inception_5a/3x3
I0501 21:05:40.509644 25707 net.cpp:367] inception_5a/relu_3x3 -> inception_5a/3x3 (in-place)
I0501 21:05:40.509961 25707 net.cpp:122] Setting up inception_5a/relu_3x3
I0501 21:05:40.509979 25707 net.cpp:129] Top shape: 50 320 7 7 (784000)
I0501 21:05:40.509989 25707 net.cpp:137] Memory required for data: 2706692008
I0501 21:05:40.509996 25707 layer_factory.hpp:77] Creating layer inception_5a/5x5_reduce
I0501 21:05:40.510017 25707 net.cpp:84] Creating Layer inception_5a/5x5_reduce
I0501 21:05:40.510030 25707 net.cpp:406] inception_5a/5x5_reduce <- pool4/3x3_s2_pool4/3x3_s2_0_split_2
I0501 21:05:40.510046 25707 net.cpp:380] inception_5a/5x5_reduce -> inception_5a/5x5_reduce
I0501 21:05:40.518901 25707 net.cpp:122] Setting up inception_5a/5x5_reduce
I0501 21:05:40.518947 25707 net.cpp:129] Top shape: 50 32 7 7 (78400)
I0501 21:05:40.518959 25707 net.cpp:137] Memory required for data: 2707005608
I0501 21:05:40.518980 25707 layer_factory.hpp:77] Creating layer inception_5a/relu_5x5_reduce
I0501 21:05:40.519007 25707 net.cpp:84] Creating Layer inception_5a/relu_5x5_reduce
I0501 21:05:40.519022 25707 net.cpp:406] inception_5a/relu_5x5_reduce <- inception_5a/5x5_reduce
I0501 21:05:40.519039 25707 net.cpp:367] inception_5a/relu_5x5_reduce -> inception_5a/5x5_reduce (in-place)
I0501 21:05:40.519313 25707 net.cpp:122] Setting up inception_5a/relu_5x5_reduce
I0501 21:05:40.519332 25707 net.cpp:129] Top shape: 50 32 7 7 (78400)
I0501 21:05:40.519346 25707 net.cpp:137] Memory required for data: 2707319208
I0501 21:05:40.519356 25707 layer_factory.hpp:77] Creating layer inception_5a/5x5
I0501 21:05:40.519382 25707 net.cpp:84] Creating Layer inception_5a/5x5
I0501 21:05:40.519394 25707 net.cpp:406] inception_5a/5x5 <- inception_5a/5x5_reduce
I0501 21:05:40.519412 25707 net.cpp:380] inception_5a/5x5 -> inception_5a/5x5
I0501 21:05:40.523773 25707 net.cpp:122] Setting up inception_5a/5x5
I0501 21:05:40.523815 25707 net.cpp:129] Top shape: 50 128 7 7 (313600)
I0501 21:05:40.523826 25707 net.cpp:137] Memory required for data: 2708573608
I0501 21:05:40.523846 25707 layer_factory.hpp:77] Creating layer inception_5a/relu_5x5
I0501 21:05:40.523864 25707 net.cpp:84] Creating Layer inception_5a/relu_5x5
I0501 21:05:40.523876 25707 net.cpp:406] inception_5a/relu_5x5 <- inception_5a/5x5
I0501 21:05:40.523896 25707 net.cpp:367] inception_5a/relu_5x5 -> inception_5a/5x5 (in-place)
I0501 21:05:40.524842 25707 net.cpp:122] Setting up inception_5a/relu_5x5
I0501 21:05:40.524865 25707 net.cpp:129] Top shape: 50 128 7 7 (313600)
I0501 21:05:40.524878 25707 net.cpp:137] Memory required for data: 2709828008
I0501 21:05:40.524885 25707 layer_factory.hpp:77] Creating layer inception_5a/pool
I0501 21:05:40.524907 25707 net.cpp:84] Creating Layer inception_5a/pool
I0501 21:05:40.524936 25707 net.cpp:406] inception_5a/pool <- pool4/3x3_s2_pool4/3x3_s2_0_split_3
I0501 21:05:40.524955 25707 net.cpp:380] inception_5a/pool -> inception_5a/pool
I0501 21:05:40.525066 25707 net.cpp:122] Setting up inception_5a/pool
I0501 21:05:40.525084 25707 net.cpp:129] Top shape: 50 832 7 7 (2038400)
I0501 21:05:40.525096 25707 net.cpp:137] Memory required for data: 2717981608
I0501 21:05:40.525106 25707 layer_factory.hpp:77] Creating layer inception_5a/pool_proj
I0501 21:05:40.525132 25707 net.cpp:84] Creating Layer inception_5a/pool_proj
I0501 21:05:40.525146 25707 net.cpp:406] inception_5a/pool_proj <- inception_5a/pool
I0501 21:05:40.525167 25707 net.cpp:380] inception_5a/pool_proj -> inception_5a/pool_proj
I0501 21:05:40.528812 25707 net.cpp:122] Setting up inception_5a/pool_proj
I0501 21:05:40.528849 25707 net.cpp:129] Top shape: 50 128 7 7 (313600)
I0501 21:05:40.528861 25707 net.cpp:137] Memory required for data: 2719236008
I0501 21:05:40.528878 25707 layer_factory.hpp:77] Creating layer inception_5a/relu_pool_proj
I0501 21:05:40.528898 25707 net.cpp:84] Creating Layer inception_5a/relu_pool_proj
I0501 21:05:40.528908 25707 net.cpp:406] inception_5a/relu_pool_proj <- inception_5a/pool_proj
I0501 21:05:40.528923 25707 net.cpp:367] inception_5a/relu_pool_proj -> inception_5a/pool_proj (in-place)
I0501 21:05:40.529871 25707 net.cpp:122] Setting up inception_5a/relu_pool_proj
I0501 21:05:40.529894 25707 net.cpp:129] Top shape: 50 128 7 7 (313600)
I0501 21:05:40.529903 25707 net.cpp:137] Memory required for data: 2720490408
I0501 21:05:40.529914 25707 layer_factory.hpp:77] Creating layer inception_5a/output
I0501 21:05:40.529929 25707 net.cpp:84] Creating Layer inception_5a/output
I0501 21:05:40.529939 25707 net.cpp:406] inception_5a/output <- inception_5a/1x1
I0501 21:05:40.529952 25707 net.cpp:406] inception_5a/output <- inception_5a/3x3
I0501 21:05:40.529961 25707 net.cpp:406] inception_5a/output <- inception_5a/5x5
I0501 21:05:40.529970 25707 net.cpp:406] inception_5a/output <- inception_5a/pool_proj
I0501 21:05:40.529985 25707 net.cpp:380] inception_5a/output -> inception_5a/output
I0501 21:05:40.530043 25707 net.cpp:122] Setting up inception_5a/output
I0501 21:05:40.530057 25707 net.cpp:129] Top shape: 50 832 7 7 (2038400)
I0501 21:05:40.530066 25707 net.cpp:137] Memory required for data: 2728644008
I0501 21:05:40.530076 25707 layer_factory.hpp:77] Creating layer inception_5a/output_inception_5a/output_0_split
I0501 21:05:40.530092 25707 net.cpp:84] Creating Layer inception_5a/output_inception_5a/output_0_split
I0501 21:05:40.530103 25707 net.cpp:406] inception_5a/output_inception_5a/output_0_split <- inception_5a/output
I0501 21:05:40.530118 25707 net.cpp:380] inception_5a/output_inception_5a/output_0_split -> inception_5a/output_inception_5a/output_0_split_0
I0501 21:05:40.530134 25707 net.cpp:380] inception_5a/output_inception_5a/output_0_split -> inception_5a/output_inception_5a/output_0_split_1
I0501 21:05:40.530149 25707 net.cpp:380] inception_5a/output_inception_5a/output_0_split -> inception_5a/output_inception_5a/output_0_split_2
I0501 21:05:40.530165 25707 net.cpp:380] inception_5a/output_inception_5a/output_0_split -> inception_5a/output_inception_5a/output_0_split_3
I0501 21:05:40.530290 25707 net.cpp:122] Setting up inception_5a/output_inception_5a/output_0_split
I0501 21:05:40.530306 25707 net.cpp:129] Top shape: 50 832 7 7 (2038400)
I0501 21:05:40.530318 25707 net.cpp:129] Top shape: 50 832 7 7 (2038400)
I0501 21:05:40.530328 25707 net.cpp:129] Top shape: 50 832 7 7 (2038400)
I0501 21:05:40.530339 25707 net.cpp:129] Top shape: 50 832 7 7 (2038400)
I0501 21:05:40.530349 25707 net.cpp:137] Memory required for data: 2761258408
I0501 21:05:40.530356 25707 layer_factory.hpp:77] Creating layer inception_5b/1x1
I0501 21:05:40.530377 25707 net.cpp:84] Creating Layer inception_5b/1x1
I0501 21:05:40.530387 25707 net.cpp:406] inception_5b/1x1 <- inception_5a/output_inception_5a/output_0_split_0
I0501 21:05:40.530407 25707 net.cpp:380] inception_5b/1x1 -> inception_5b/1x1
I0501 21:05:40.541828 25707 net.cpp:122] Setting up inception_5b/1x1
I0501 21:05:40.541865 25707 net.cpp:129] Top shape: 50 384 7 7 (940800)
I0501 21:05:40.541877 25707 net.cpp:137] Memory required for data: 2765021608
I0501 21:05:40.541895 25707 layer_factory.hpp:77] Creating layer inception_5b/relu_1x1
I0501 21:05:40.541911 25707 net.cpp:84] Creating Layer inception_5b/relu_1x1
I0501 21:05:40.541926 25707 net.cpp:406] inception_5b/relu_1x1 <- inception_5b/1x1
I0501 21:05:40.541940 25707 net.cpp:367] inception_5b/relu_1x1 -> inception_5b/1x1 (in-place)
I0501 21:05:40.542207 25707 net.cpp:122] Setting up inception_5b/relu_1x1
I0501 21:05:40.542225 25707 net.cpp:129] Top shape: 50 384 7 7 (940800)
I0501 21:05:40.542233 25707 net.cpp:137] Memory required for data: 2768784808
I0501 21:05:40.542242 25707 layer_factory.hpp:77] Creating layer inception_5b/3x3_reduce
I0501 21:05:40.542265 25707 net.cpp:84] Creating Layer inception_5b/3x3_reduce
I0501 21:05:40.542275 25707 net.cpp:406] inception_5b/3x3_reduce <- inception_5a/output_inception_5a/output_0_split_1
I0501 21:05:40.542291 25707 net.cpp:380] inception_5b/3x3_reduce -> inception_5b/3x3_reduce
I0501 21:05:40.547583 25707 net.cpp:122] Setting up inception_5b/3x3_reduce
I0501 21:05:40.547628 25707 net.cpp:129] Top shape: 50 192 7 7 (470400)
I0501 21:05:40.547638 25707 net.cpp:137] Memory required for data: 2770666408
I0501 21:05:40.547657 25707 layer_factory.hpp:77] Creating layer inception_5b/relu_3x3_reduce
I0501 21:05:40.547675 25707 net.cpp:84] Creating Layer inception_5b/relu_3x3_reduce
I0501 21:05:40.547690 25707 net.cpp:406] inception_5b/relu_3x3_reduce <- inception_5b/3x3_reduce
I0501 21:05:40.547708 25707 net.cpp:367] inception_5b/relu_3x3_reduce -> inception_5b/3x3_reduce (in-place)
I0501 21:05:40.548007 25707 net.cpp:122] Setting up inception_5b/relu_3x3_reduce
I0501 21:05:40.548032 25707 net.cpp:129] Top shape: 50 192 7 7 (470400)
I0501 21:05:40.548043 25707 net.cpp:137] Memory required for data: 2772548008
I0501 21:05:40.548051 25707 layer_factory.hpp:77] Creating layer inception_5b/3x3
I0501 21:05:40.548082 25707 net.cpp:84] Creating Layer inception_5b/3x3
I0501 21:05:40.548094 25707 net.cpp:406] inception_5b/3x3 <- inception_5b/3x3_reduce
I0501 21:05:40.548111 25707 net.cpp:380] inception_5b/3x3 -> inception_5b/3x3
I0501 21:05:40.563838 25707 net.cpp:122] Setting up inception_5b/3x3
I0501 21:05:40.563894 25707 net.cpp:129] Top shape: 50 384 7 7 (940800)
I0501 21:05:40.563907 25707 net.cpp:137] Memory required for data: 2776311208
I0501 21:05:40.563927 25707 layer_factory.hpp:77] Creating layer inception_5b/relu_3x3
I0501 21:05:40.563948 25707 net.cpp:84] Creating Layer inception_5b/relu_3x3
I0501 21:05:40.563979 25707 net.cpp:406] inception_5b/relu_3x3 <- inception_5b/3x3
I0501 21:05:40.563997 25707 net.cpp:367] inception_5b/relu_3x3 -> inception_5b/3x3 (in-place)
I0501 21:05:40.564287 25707 net.cpp:122] Setting up inception_5b/relu_3x3
I0501 21:05:40.564306 25707 net.cpp:129] Top shape: 50 384 7 7 (940800)
I0501 21:05:40.564317 25707 net.cpp:137] Memory required for data: 2780074408
I0501 21:05:40.564326 25707 layer_factory.hpp:77] Creating layer inception_5b/5x5_reduce
I0501 21:05:40.564357 25707 net.cpp:84] Creating Layer inception_5b/5x5_reduce
I0501 21:05:40.564368 25707 net.cpp:406] inception_5b/5x5_reduce <- inception_5a/output_inception_5a/output_0_split_2
I0501 21:05:40.564393 25707 net.cpp:380] inception_5b/5x5_reduce -> inception_5b/5x5_reduce
I0501 21:05:40.566720 25707 net.cpp:122] Setting up inception_5b/5x5_reduce
I0501 21:05:40.566766 25707 net.cpp:129] Top shape: 50 48 7 7 (117600)
I0501 21:05:40.566778 25707 net.cpp:137] Memory required for data: 2780544808
I0501 21:05:40.566798 25707 layer_factory.hpp:77] Creating layer inception_5b/relu_5x5_reduce
I0501 21:05:40.566819 25707 net.cpp:84] Creating Layer inception_5b/relu_5x5_reduce
I0501 21:05:40.566835 25707 net.cpp:406] inception_5b/relu_5x5_reduce <- inception_5b/5x5_reduce
I0501 21:05:40.566851 25707 net.cpp:367] inception_5b/relu_5x5_reduce -> inception_5b/5x5_reduce (in-place)
I0501 21:05:40.567149 25707 net.cpp:122] Setting up inception_5b/relu_5x5_reduce
I0501 21:05:40.567170 25707 net.cpp:129] Top shape: 50 48 7 7 (117600)
I0501 21:05:40.567184 25707 net.cpp:137] Memory required for data: 2781015208
I0501 21:05:40.567196 25707 layer_factory.hpp:77] Creating layer inception_5b/5x5
I0501 21:05:40.567217 25707 net.cpp:84] Creating Layer inception_5b/5x5
I0501 21:05:40.567229 25707 net.cpp:406] inception_5b/5x5 <- inception_5b/5x5_reduce
I0501 21:05:40.567247 25707 net.cpp:380] inception_5b/5x5 -> inception_5b/5x5
I0501 21:05:40.570343 25707 net.cpp:122] Setting up inception_5b/5x5
I0501 21:05:40.570375 25707 net.cpp:129] Top shape: 50 128 7 7 (313600)
I0501 21:05:40.570381 25707 net.cpp:137] Memory required for data: 2782269608
I0501 21:05:40.570392 25707 layer_factory.hpp:77] Creating layer inception_5b/relu_5x5
I0501 21:05:40.570403 25707 net.cpp:84] Creating Layer inception_5b/relu_5x5
I0501 21:05:40.570411 25707 net.cpp:406] inception_5b/relu_5x5 <- inception_5b/5x5
I0501 21:05:40.570436 25707 net.cpp:367] inception_5b/relu_5x5 -> inception_5b/5x5 (in-place)
I0501 21:05:40.573568 25707 net.cpp:122] Setting up inception_5b/relu_5x5
I0501 21:05:40.573599 25707 net.cpp:129] Top shape: 50 128 7 7 (313600)
I0501 21:05:40.573611 25707 net.cpp:137] Memory required for data: 2783524008
I0501 21:05:40.573618 25707 layer_factory.hpp:77] Creating layer inception_5b/pool
I0501 21:05:40.573632 25707 net.cpp:84] Creating Layer inception_5b/pool
I0501 21:05:40.573642 25707 net.cpp:406] inception_5b/pool <- inception_5a/output_inception_5a/output_0_split_3
I0501 21:05:40.573657 25707 net.cpp:380] inception_5b/pool -> inception_5b/pool
I0501 21:05:40.573794 25707 net.cpp:122] Setting up inception_5b/pool
I0501 21:05:40.573810 25707 net.cpp:129] Top shape: 50 832 7 7 (2038400)
I0501 21:05:40.573817 25707 net.cpp:137] Memory required for data: 2791677608
I0501 21:05:40.573824 25707 layer_factory.hpp:77] Creating layer inception_5b/pool_proj
I0501 21:05:40.573846 25707 net.cpp:84] Creating Layer inception_5b/pool_proj
I0501 21:05:40.573856 25707 net.cpp:406] inception_5b/pool_proj <- inception_5b/pool
I0501 21:05:40.573869 25707 net.cpp:380] inception_5b/pool_proj -> inception_5b/pool_proj
I0501 21:05:40.575932 25707 net.cpp:122] Setting up inception_5b/pool_proj
I0501 21:05:40.575950 25707 net.cpp:129] Top shape: 50 128 7 7 (313600)
I0501 21:05:40.575978 25707 net.cpp:137] Memory required for data: 2792932008
I0501 21:05:40.575994 25707 layer_factory.hpp:77] Creating layer inception_5b/relu_pool_proj
I0501 21:05:40.576004 25707 net.cpp:84] Creating Layer inception_5b/relu_pool_proj
I0501 21:05:40.576014 25707 net.cpp:406] inception_5b/relu_pool_proj <- inception_5b/pool_proj
I0501 21:05:40.576030 25707 net.cpp:367] inception_5b/relu_pool_proj -> inception_5b/pool_proj (in-place)
I0501 21:05:40.579202 25707 net.cpp:122] Setting up inception_5b/relu_pool_proj
I0501 21:05:40.579229 25707 net.cpp:129] Top shape: 50 128 7 7 (313600)
I0501 21:05:40.579239 25707 net.cpp:137] Memory required for data: 2794186408
I0501 21:05:40.579248 25707 layer_factory.hpp:77] Creating layer inception_5b/output
I0501 21:05:40.579257 25707 net.cpp:84] Creating Layer inception_5b/output
I0501 21:05:40.579264 25707 net.cpp:406] inception_5b/output <- inception_5b/1x1
I0501 21:05:40.579274 25707 net.cpp:406] inception_5b/output <- inception_5b/3x3
I0501 21:05:40.579282 25707 net.cpp:406] inception_5b/output <- inception_5b/5x5
I0501 21:05:40.579290 25707 net.cpp:406] inception_5b/output <- inception_5b/pool_proj
I0501 21:05:40.579301 25707 net.cpp:380] inception_5b/output -> inception_5b/output
I0501 21:05:40.579354 25707 net.cpp:122] Setting up inception_5b/output
I0501 21:05:40.579365 25707 net.cpp:129] Top shape: 50 1024 7 7 (2508800)
I0501 21:05:40.579371 25707 net.cpp:137] Memory required for data: 2804221608
I0501 21:05:40.579378 25707 layer_factory.hpp:77] Creating layer pool5/7x7_s1
I0501 21:05:40.579387 25707 net.cpp:84] Creating Layer pool5/7x7_s1
I0501 21:05:40.579393 25707 net.cpp:406] pool5/7x7_s1 <- inception_5b/output
I0501 21:05:40.579422 25707 net.cpp:380] pool5/7x7_s1 -> pool5/7x7_s1
I0501 21:05:40.580289 25707 net.cpp:122] Setting up pool5/7x7_s1
I0501 21:05:40.580314 25707 net.cpp:129] Top shape: 50 1024 1 1 (51200)
I0501 21:05:40.580325 25707 net.cpp:137] Memory required for data: 2804426408
I0501 21:05:40.580332 25707 layer_factory.hpp:77] Creating layer pool5/drop_7x7_s1
I0501 21:05:40.580348 25707 net.cpp:84] Creating Layer pool5/drop_7x7_s1
I0501 21:05:40.580359 25707 net.cpp:406] pool5/drop_7x7_s1 <- pool5/7x7_s1
I0501 21:05:40.580374 25707 net.cpp:367] pool5/drop_7x7_s1 -> pool5/7x7_s1 (in-place)
I0501 21:05:40.580421 25707 net.cpp:122] Setting up pool5/drop_7x7_s1
I0501 21:05:40.580435 25707 net.cpp:129] Top shape: 50 1024 1 1 (51200)
I0501 21:05:40.580442 25707 net.cpp:137] Memory required for data: 2804631208
I0501 21:05:40.580451 25707 layer_factory.hpp:77] Creating layer loss3/classifier
I0501 21:05:40.580468 25707 net.cpp:84] Creating Layer loss3/classifier
I0501 21:05:40.580478 25707 net.cpp:406] loss3/classifier <- pool5/7x7_s1
I0501 21:05:40.580497 25707 net.cpp:380] loss3/classifier -> loss3/classifier
I0501 21:05:40.580718 25707 net.cpp:122] Setting up loss3/classifier
I0501 21:05:40.580731 25707 net.cpp:129] Top shape: 50 5 (250)
I0501 21:05:40.580737 25707 net.cpp:137] Memory required for data: 2804632208
I0501 21:05:40.580745 25707 layer_factory.hpp:77] Creating layer loss3/loss3
I0501 21:05:40.580755 25707 net.cpp:84] Creating Layer loss3/loss3
I0501 21:05:40.580761 25707 net.cpp:406] loss3/loss3 <- loss3/classifier
I0501 21:05:40.580767 25707 net.cpp:406] loss3/loss3 <- label_data_1_split_2
I0501 21:05:40.580775 25707 net.cpp:380] loss3/loss3 -> loss3/loss3
…
I0501 21:05:40.587056 25707 net.cpp:294] The NetState phase (1) differed from the phase (0) specified by a rule in layer data
I0501 21:05:40.588265 25707 net.cpp:51] Initializing net from parameters: 
name: "GoogleNet"
state {
  phase: TEST
}
layer {
  name: "data"
  type: "Data"
  top: "data"
  top: "label"
  include {
    phase: TEST
  }
  transform_param {
    mirror: false
    crop_size: 224
    mean_file: "retina256/retina256_train_mean.binaryproto"
  }
  data_param {
    source: "retina256/retina256_test_lmdb"
    batch_size: 1
    backend: LMDB
  }
}
layer {
  name: "conv1/7x7_s2"
  type: "Convolution"
  bottom: "data"
  top: "conv1/7x7_s2"
  param {
    lr_mult: 1
    decay_mult: 1
  }
  param {
    lr_mult: 2
    decay_mult: 0
  }
  convolution_param {
    num_output: 64
    pad: 3
    kernel_size: 7
    stride: 2
    weight_filler {
      type: "xavier"
    }
    bias_filler {
      type: "constant"
      value: 0.2
    }
  }
}
layer {
  name: "conv1/relu_7x7"
  type: "ReLU"
  bottom: "conv1/7x7_s2"
  top: "conv1/7x7_s2"
}
layer {
  name: "pool1/3x3_s2"
  type: "Pooling"
  bottom: "conv1/7x7_s2"
  top: "pool1/3x3_s2"
  pooling_param {
    pool: MAX
    kernel_size: 3
    stride: 2
  }
}
layer {
  name: "pool1/norm1"
  type: "LRN"
  bottom: "pool1/3x3_s2"
  top: "pool1/norm1"
  lrn_param {
    local_size: 5
    alpha: 0.0001
    beta: 0.75
  }
}
layer {
  name: "conv2/3x3_reduce"
  type: "Convolution"
  bottom: "pool1/norm1"
  top: "conv2/3x3_reduce"
  param {
    lr_mult: 1
    decay_mult: 1
  }
  param {
    lr_mult: 2
    decay_mult: 0
  }
  convolution_param {
    num_output: 64
    kernel_size: 1
    weight_filler {
      type: "xavier"
    }
    bias_filler {
      type: "constant"
      value: 0.2
    }
  }
}
layer {
  name: "conv2/relu_3x3_reduce"
  type: "ReLU"
  bottom: "conv2/3x3_reduce"
  top: "conv2/3x3_reduce"
}
layer {
  name: "conv2/3x3"
  type: "Convolution"
  bottom: "conv2/3x3_reduce"
  top: "conv2/3x3"
  param {
    lr_mult: 1
    decay_mult: 1
  }
  param {
    lr_mult: 2
    decay_mult: 0
  }
  convolution_param {
    num_output: 192
    pad: 1
    kernel_size: 3
    weight_filler {
      type: "xavier"
    }
    bias_filler {
      type: "constant"
      value: 0.2
    }
  }
}
layer {
  name: "conv2/relu_3x3"
  type: "ReLU"
  bottom: "conv2/3x3"
  top: "conv2/3x3"
}
layer {
  name: "conv2/norm2"
  type: "LRN"
  bottom: "conv2/3x3"
  top: "conv2/norm2"
  lrn_param {
    local_size: 5
    alpha: 0.0001
    beta: 0.75
  }
}
layer {
  name: "pool2/3x3_s2"
  type: "Pooling"
  bottom: "conv2/norm2"
  top: "pool2/3x3_s2"
  pooling_param {
    pool: MAX
    kernel_size: 3
    stride: 2
  }
}
layer {
  name: "inception_3a/1x1"
  type: "Convolution"
  bottom: "pool2/3x3_s2"
  top: "inception_3a/1x1"
  param {
    lr_mult: 1
    decay_mult: 1
  }
  param {
    lr_mult: 2
    decay_mult: 0
  }
  convolution_param {
    num_output: 64
    kernel_size: 1
    weight_filler {
      type: "xavier"
    }
    bias_filler {
      type: "constant"
      value: 0.2
    }
  }
}
layer {
  name: "inception_3a/relu_1x1"
  type: "ReLU"
  bottom: "inception_3a/1x1"
  top: "inception_3a/1x1"
}
layer {
  name: "inception_3a/3x3_reduce"
  type: "Convolution"
  bottom: "pool2/3x3_s2"
  top: "inception_3a/3x3_reduce"
  param {
    lr_mult: 1
    decay_mult: 1
  }
  param {
    lr_mult: 2
    decay_mult: 0
  }
  convolution_param {
    num_output: 96
    kernel_size: 1
    weight_filler {
      type: "xavier"
    }
    bias_filler {
      type: "constant"
      value: 0.2
    }
  }
}
layer {
  name: "inception_3a/relu_3x3_reduce"
  type: "ReLU"
  bottom: "inception_3a/3x3_reduce"
  top: "inception_3a/3x3_reduce"
}
layer {
  name: "inception_3a/3x3"
  type: "Convolution"
  bottom: "inception_3a/3x3_reduce"
  top: "inception_3a/3x3"
  param {
    lr_mult: 1
    decay_mult: 1
  }
  param {
    lr_mult: 2
    decay_mult: 0
  }
  convolution_param {
    num_output: 128
    pad: 1
    kernel_size: 3
    weight_filler {
      type: "xavier"
    }
    bias_filler {
      type: "constant"
      value: 0.2
    }
  }
}
layer {
  name: "inception_3a/relu_3x3"
  type: "ReLU"
  bottom: "inception_3a/3x3"
  top: "inception_3a/3x3"
}
layer {
  name: "inception_3a/5x5_reduce"
  type: "Convolution"
  bottom: "pool2/3x3_s2"
  top: "inception_3a/5x5_reduce"
  param {
    lr_mult: 1
    decay_mult: 1
  }
  param {
    lr_mult: 2
    decay_mult: 0
  }
  convolution_param {
    num_output: 16
    kernel_size: 1
    weight_filler {
      type: "xavier"
    }
    bias_filler {
      type: "constant"
      value: 0.2
    }
  }
}
layer {
  name: "inception_3a/relu_5x5_reduce"
  type: "ReLU"
  bottom: "inception_3a/5x5_reduce"
  top: "inception_3a/5x5_reduce"
}
layer {
  name: "inception_3a/5x5"
  type: "Convolution"
  bottom: "inception_3a/5x5_reduce"
  top: "inception_3a/5x5"
  param {
    lr_mult: 1
    decay_mult: 1
  }
  param {
    lr_mult: 2
    decay_mult: 0
  }
  convolution_param {
    num_output: 32
    pad: 2
    kernel_size: 5
    weight_filler {
      type: "xavier"
    }
    bias_filler {
      type: "constant"
      value: 0.2
    }
  }
}
layer {
  name: "inception_3a/relu_5x5"
  type: "ReLU"
  bottom: "inception_3a/5x5"
  top: "inception_3a/5x5"
}
layer {
  name: "inception_3a/pool"
  type: "Pooling"
  bottom: "pool2/3x3_s2"
  top: "inception_3a/pool"
  pooling_param {
    pool: MAX
    kernel_size: 3
    stride: 1
    pad: 1
  }
}
layer {
  name: "inception_3a/pool_proj"
  type: "Convolution"
  bottom: "inception_3a/pool"
  top: "inception_3a/pool_proj"
  param {
    lr_mult: 1
    decay_mult: 1
  }
  param {
    lr_mult: 2
    decay_mult: 0
  }
  convolution_param {
    num_output: 32
    kernel_size: 1
    weight_filler {
      type: "xavier"
    }
    bias_filler {
      type: "constant"
      value: 0.2
    }
  }
}
layer {
  name: "inception_3a/relu_pool_proj"
  type: "ReLU"
  bottom: "inception_3a/pool_proj"
  top: "inception_3a/pool_proj"
}
layer {
  name: "inception_3a/output"
  type: "Concat"
  bottom: "inception_3a/1x1"
  bottom: "inception_3a/3x3"
  bottom: "inception_3a/5x5"
  bottom: "inception_3a/pool_proj"
  top: "inception_3a/output"
}
layer {
  name: "inception_3b/1x1"
  type: "Convolution"
  bottom: "inception_3a/output"
  top: "inception_3b/1x1"
  param {
    lr_mult: 1
    decay_mult: 1
  }
  param {
    lr_mult: 2
    decay_mult: 0
  }
  convolution_param {
    num_output: 128
    kernel_size: 1
    weight_filler {
      type: "xavier"
    }
    bias_filler {
      type: "constant"
      value: 0.2
    }
  }
}
layer {
  name: "inception_3b/relu_1x1"
  type: "ReLU"
  bottom: "inception_3b/1x1"
  top: "inception_3b/1x1"
}
layer {
  name: "inception_3b/3x3_reduce"
  type: "Convolution"
  bottom: "inception_3a/output"
  top: "inception_3b/3x3_reduce"
  param {
    lr_mult: 1
    decay_mult: 1
  }
  param {
    lr_mult: 2
    decay_mult: 0
  }
  convolution_param {
    num_output: 128
    kernel_size: 1
    weight_filler {
      type: "xavier"
    }
    bias_filler {
      type: "constant"
      value: 0.2
    }
  }
}
layer {
  name: "inception_3b/relu_3x3_reduce"
  type: "ReLU"
  bottom: "inception_3b/3x3_reduce"
  top: "inception_3b/3x3_reduce"
}
layer {
  name: "inception_3b/3x3"
  type: "Convolution"
  bottom: "inception_3b/3x3_reduce"
  top: "inception_3b/3x3"
  param {
    lr_mult: 1
    decay_mult: 1
  }
  param {
    lr_mult: 2
    decay_mult: 0
  }
  convolution_param {
    num_output: 192
    pad: 1
    kernel_size: 3
    weight_filler {
      type: "xavier"
    }
    bias_filler {
      type: "constant"
      value: 0.2
    }
  }
}
layer {
  name: "inception_3b/relu_3x3"
  type: "ReLU"
  bottom: "inception_3b/3x3"
  top: "inception_3b/3x3"
}
layer {
  name: "inception_3b/5x5_reduce"
  type: "Convolution"
  bottom: "inception_3a/output"
  top: "inception_3b/5x5_reduce"
  param {
    lr_mult: 1
    decay_mult: 1
  }
  param {
    lr_mult: 2
    decay_mult: 0
  }
  convolution_param {
    num_output: 32
    kernel_size: 1
    weight_filler {
      type: "xavier"
    }
    bias_filler {
      type: "constant"
      value: 0.2
    }
  }
}
layer {
  name: "inception_3b/relu_5x5_reduce"
  type: "ReLU"
  bottom: "inception_3b/5x5_reduce"
  top: "inception_3b/5x5_reduce"
}
layer {
  name: "inception_3b/5x5"
  type: "Convolution"
  bottom: "inception_3b/5x5_reduce"
  top: "inception_3b/5x5"
  param {
    lr_mult: 1
    decay_mult: 1
  }
  param {
    lr_mult: 2
    decay_mult: 0
  }
  convolution_param {
    num_output: 96
    pad: 2
    kernel_size: 5
    weight_filler {
      type: "xavier"
    }
    bias_filler {
      type: "constant"
      value: 0.2
    }
  }
}
layer {
  name: "inception_3b/relu_5x5"
  type: "ReLU"
  bottom: "inception_3b/5x5"
  top: "inception_3b/5x5"
}
layer {
  name: "inception_3b/pool"
  type: "Pooling"
  bottom: "inception_3a/output"
  top: "inception_3b/pool"
  pooling_param {
    pool: MAX
    kernel_size: 3
    stride: 1
    pad: 1
  }
}
layer {
  name: "inception_3b/pool_proj"
  type: "Convolution"
  bottom: "inception_3b/pool"
  top: "inception_3b/pool_proj"
  param {
    lr_mult: 1
    decay_mult: 1
  }
  param {
    lr_mult: 2
    decay_mult: 0
  }
  convolution_param {
    num_output: 64
    kernel_size: 1
    weight_filler {
      type: "xavier"
    }
    bias_filler {
      type: "constant"
      value: 0.2
    }
  }
}
layer {
  name: "inception_3b/relu_pool_proj"
  type: "ReLU"
  bottom: "inception_3b/pool_proj"
  top: "inception_3b/pool_proj"
}
layer {
  name: "inception_3b/output"
  type: "Concat"
  bottom: "inception_3b/1x1"
  bottom: "inception_3b/3x3"
  bottom: "inception_3b/5x5"
  bottom: "inception_3b/pool_proj"
  top: "inception_3b/output"
}
layer {
  name: "pool3/3x3_s2"
  type: "Pooling"
  bottom: "inception_3b/output"
  top: "pool3/3x3_s2"
  pooling_param {
    pool: MAX
    kernel_size: 3
    stride: 2
  }
}
layer {
  name: "inception_4a/1x1"
  type: "Convolution"
  bottom: "pool3/3x3_s2"
  top: "inception_4a/1x1"
  param {
    lr_mult: 1
    decay_mult: 1
  }
  param {
    lr_mult: 2
    decay_mult: 0
  }
  convolution_param {
    num_output: 192
    kernel_size: 1
    weight_filler {
      type: "xavier"
    }
    bias_filler {
      type: "constant"
      value: 0.2
    }
  }
}
layer {
  name: "inception_4a/relu_1x1"
  type: "ReLU"
  bottom: "inception_4a/1x1"
  top: "inception_4a/1x1"
}
layer {
  name: "inception_4a/3x3_reduce"
  type: "Convolution"
  bottom: "pool3/3x3_s2"
  top: "inception_4a/3x3_reduce"
  param {
    lr_mult: 1
    decay_mult: 1
  }
  param {
    lr_mult: 2
    decay_mult: 0
  }
  convolution_param {
    num_output: 96
    kernel_size: 1
    weight_filler {
      type: "xavier"
    }
    bias_filler {
      type: "constant"
      value: 0.2
    }
  }
}
layer {
  name: "inception_4a/relu_3x3_reduce"
  type: "ReLU"
  bottom: "inception_4a/3x3_reduce"
  top: "inception_4a/3x3_reduce"
}
layer {
  name: "inception_4a/3x3"
  type: "Convolution"
  bottom: "inception_4a/3x3_reduce"
  top: "inception_4a/3x3"
  param {
    lr_mult: 1
    decay_mult: 1
  }
  param {
    lr_mult: 2
    decay_mult: 0
  }
  convolution_param {
    num_output: 208
    pad: 1
    kernel_size: 3
    weight_filler {
      type: "xavier"
    }
    bias_filler {
      type: "constant"
      value: 0.2
    }
  }
}
layer {
  name: "inception_4a/relu_3x3"
  type: "ReLU"
  bottom: "inception_4a/3x3"
  top: "inception_4a/3x3"
}
layer {
  name: "inception_4a/5x5_reduce"
  type: "Convolution"
  bottom: "pool3/3x3_s2"
  top: "inception_4a/5x5_reduce"
  param {
    lr_mult: 1
    decay_mult: 1
  }
  param {
    lr_mult: 2
    decay_mult: 0
  }
  convolution_param {
    num_output: 16
    kernel_size: 1
    weight_filler {
      type: "xavier"
    }
    bias_filler {
      type: "constant"
      value: 0.2
    }
  }
}
layer {
  name: "inception_4a/relu_5x5_reduce"
  type: "ReLU"
  bottom: "inception_4a/5x5_reduce"
  top: "inception_4a/5x5_reduce"
}
layer {
  name: "inception_4a/5x5"
  type: "Convolution"
  bottom: "inception_4a/5x5_reduce"
  top: "inception_4a/5x5"
  param {
    lr_mult: 1
    decay_mult: 1
  }
  param {
    lr_mult: 2
    decay_mult: 0
  }
  convolution_param {
    num_output: 48
    pad: 2
    kernel_size: 5
    weight_filler {
      type: "xavier"
    }
    bias_filler {
      type: "constant"
      value: 0.2
    }
  }
}
layer {
  name: "inception_4a/relu_5x5"
  type: "ReLU"
  bottom: "inception_4a/5x5"
  top: "inception_4a/5x5"
}
layer {
  name: "inception_4a/pool"
  type: "Pooling"
  bottom: "pool3/3x3_s2"
  top: "inception_4a/pool"
  pooling_param {
    pool: MAX
    kernel_size: 3
    stride: 1
    pad: 1
  }
}
layer {
  name: "inception_4a/pool_proj"
  type: "Convolution"
  bottom: "inception_4a/pool"
  top: "inception_4a/pool_proj"
  param {
    lr_mult: 1
    decay_mult: 1
  }
  param {
    lr_mult: 2
    decay_mult: 0
  }
  convolution_param {
    num_output: 64
    kernel_size: 1
    weight_filler {
      type: "xavier"
    }
    bias_filler {
      type: "constant"
      value: 0.2
    }
  }
}
layer {
  name: "inception_4a/relu_pool_proj"
  type: "ReLU"
  bottom: "inception_4a/pool_proj"
  top: "inception_4a/pool_proj"
}
layer {
  name: "inception_4a/output"
  type: "Concat"
  bottom: "inception_4a/1x1"
  bottom: "inception_4a/3x3"
  bottom: "inception_4a/5x5"
  bottom: "inception_4a/pool_proj"
  top: "inception_4a/output"
}
layer {
  name: "loss1/ave_pool"
  type: "Pooling"
  bottom: "inception_4a/output"
  top: "loss1/ave_pool"
  pooling_param {
    pool: AVE
    kernel_size: 5
    stride: 3
  }
}
layer {
  name: "loss1/conv"
  type: "Convolution"
  bottom: "loss1/ave_pool"
  top: "loss1/conv"
  param {
    lr_mult: 1
    decay_mult: 1
  }
  param {
    lr_mult: 2
    decay_mult: 0
  }
  convolution_param {
    num_output: 128
    kernel_size: 1
    weight_filler {
      type: "xavier"
    }
    bias_filler {
      type: "constant"
      value: 0.2
    }
  }
}
layer {
  name: "loss1/relu_conv"
  type: "ReLU"
  bottom: "loss1/conv"
  top: "loss1/conv"
}
layer {
  name: "loss1/fc"
  type: "InnerProduct"
  bottom: "loss1/conv"
  top: "loss1/fc"
  param {
    lr_mult: 1
    decay_mult: 1
  }
  param {
    lr_mult: 2
    decay_mult: 0
  }
  inner_product_param {
    num_output: 1024
    weight_filler {
      type: "xavier"
    }
    bias_filler {
      type: "constant"
      value: 0.2
    }
  }
}
layer {
  name: "loss1/relu_fc"
  type: "ReLU"
  bottom: "loss1/fc"
  top: "loss1/fc"
}
layer {
  name: "loss1/drop_fc"
  type: "Dropout"
  bottom: "loss1/fc"
  top: "loss1/fc"
  dropout_param {
    dropout_ratio: 0.7
  }
}
layer {
  name: "loss1/classifier"
  type: "InnerProduct"
  bottom: "loss1/fc"
…
I0501 21:05:40.841231 25707 net.cpp:406] inception_4c/relu_5x5 <- inception_4c/5x5
I0501 21:05:40.841239 25707 net.cpp:367] inception_4c/relu_5x5 -> inception_4c/5x5 (in-place)
I0501 21:05:40.841434 25707 net.cpp:122] Setting up inception_4c/relu_5x5
I0501 21:05:40.841444 25707 net.cpp:129] Top shape: 1 64 14 14 (12544)
I0501 21:05:40.841449 25707 net.cpp:137] Memory required for data: 43805880
I0501 21:05:40.841454 25707 layer_factory.hpp:77] Creating layer inception_4c/pool
I0501 21:05:40.841464 25707 net.cpp:84] Creating Layer inception_4c/pool
I0501 21:05:40.841477 25707 net.cpp:406] inception_4c/pool <- inception_4b/output_inception_4b/output_0_split_3
I0501 21:05:40.841493 25707 net.cpp:380] inception_4c/pool -> inception_4c/pool
I0501 21:05:40.841570 25707 net.cpp:122] Setting up inception_4c/pool
I0501 21:05:40.841578 25707 net.cpp:129] Top shape: 1 512 14 14 (100352)
I0501 21:05:40.841581 25707 net.cpp:137] Memory required for data: 44207288
I0501 21:05:40.841588 25707 layer_factory.hpp:77] Creating layer inception_4c/pool_proj
I0501 21:05:40.841606 25707 net.cpp:84] Creating Layer inception_4c/pool_proj
I0501 21:05:40.841611 25707 net.cpp:406] inception_4c/pool_proj <- inception_4c/pool
I0501 21:05:40.841619 25707 net.cpp:380] inception_4c/pool_proj -> inception_4c/pool_proj
I0501 21:05:40.844837 25707 net.cpp:122] Setting up inception_4c/pool_proj
I0501 21:05:40.844887 25707 net.cpp:129] Top shape: 1 64 14 14 (12544)
I0501 21:05:40.844893 25707 net.cpp:137] Memory required for data: 44257464
I0501 21:05:40.844911 25707 layer_factory.hpp:77] Creating layer inception_4c/relu_pool_proj
I0501 21:05:40.844928 25707 net.cpp:84] Creating Layer inception_4c/relu_pool_proj
I0501 21:05:40.844946 25707 net.cpp:406] inception_4c/relu_pool_proj <- inception_4c/pool_proj
I0501 21:05:40.844956 25707 net.cpp:367] inception_4c/relu_pool_proj -> inception_4c/pool_proj (in-place)
I0501 21:05:40.845188 25707 net.cpp:122] Setting up inception_4c/relu_pool_proj
I0501 21:05:40.845204 25707 net.cpp:129] Top shape: 1 64 14 14 (12544)
I0501 21:05:40.845211 25707 net.cpp:137] Memory required for data: 44307640
I0501 21:05:40.845216 25707 layer_factory.hpp:77] Creating layer inception_4c/output
I0501 21:05:40.845244 25707 net.cpp:84] Creating Layer inception_4c/output
I0501 21:05:40.845252 25707 net.cpp:406] inception_4c/output <- inception_4c/1x1
I0501 21:05:40.845259 25707 net.cpp:406] inception_4c/output <- inception_4c/3x3
I0501 21:05:40.845268 25707 net.cpp:406] inception_4c/output <- inception_4c/5x5
I0501 21:05:40.845273 25707 net.cpp:406] inception_4c/output <- inception_4c/pool_proj
I0501 21:05:40.845284 25707 net.cpp:380] inception_4c/output -> inception_4c/output
I0501 21:05:40.845353 25707 net.cpp:122] Setting up inception_4c/output
I0501 21:05:40.845361 25707 net.cpp:129] Top shape: 1 512 14 14 (100352)
I0501 21:05:40.845366 25707 net.cpp:137] Memory required for data: 44709048
I0501 21:05:40.845369 25707 layer_factory.hpp:77] Creating layer inception_4c/output_inception_4c/output_0_split
I0501 21:05:40.845438 25707 net.cpp:84] Creating Layer inception_4c/output_inception_4c/output_0_split
I0501 21:05:40.845443 25707 net.cpp:406] inception_4c/output_inception_4c/output_0_split <- inception_4c/output
I0501 21:05:40.845454 25707 net.cpp:380] inception_4c/output_inception_4c/output_0_split -> inception_4c/output_inception_4c/output_0_split_0
I0501 21:05:40.845463 25707 net.cpp:380] inception_4c/output_inception_4c/output_0_split -> inception_4c/output_inception_4c/output_0_split_1
I0501 21:05:40.845470 25707 net.cpp:380] inception_4c/output_inception_4c/output_0_split -> inception_4c/output_inception_4c/output_0_split_2
I0501 21:05:40.845479 25707 net.cpp:380] inception_4c/output_inception_4c/output_0_split -> inception_4c/output_inception_4c/output_0_split_3
I0501 21:05:40.845584 25707 net.cpp:122] Setting up inception_4c/output_inception_4c/output_0_split
I0501 21:05:40.845594 25707 net.cpp:129] Top shape: 1 512 14 14 (100352)
I0501 21:05:40.845600 25707 net.cpp:129] Top shape: 1 512 14 14 (100352)
I0501 21:05:40.845605 25707 net.cpp:129] Top shape: 1 512 14 14 (100352)
I0501 21:05:40.845610 25707 net.cpp:129] Top shape: 1 512 14 14 (100352)
I0501 21:05:40.845614 25707 net.cpp:137] Memory required for data: 46314680
I0501 21:05:40.845621 25707 layer_factory.hpp:77] Creating layer inception_4d/1x1
I0501 21:05:40.845643 25707 net.cpp:84] Creating Layer inception_4d/1x1
I0501 21:05:40.845649 25707 net.cpp:406] inception_4d/1x1 <- inception_4c/output_inception_4c/output_0_split_0
I0501 21:05:40.845660 25707 net.cpp:380] inception_4d/1x1 -> inception_4d/1x1
I0501 21:05:40.850663 25707 net.cpp:122] Setting up inception_4d/1x1
I0501 21:05:40.850692 25707 net.cpp:129] Top shape: 1 112 14 14 (21952)
I0501 21:05:40.850695 25707 net.cpp:137] Memory required for data: 46402488
I0501 21:05:40.850710 25707 layer_factory.hpp:77] Creating layer inception_4d/relu_1x1
I0501 21:05:40.850723 25707 net.cpp:84] Creating Layer inception_4d/relu_1x1
I0501 21:05:40.850729 25707 net.cpp:406] inception_4d/relu_1x1 <- inception_4d/1x1
I0501 21:05:40.850739 25707 net.cpp:367] inception_4d/relu_1x1 -> inception_4d/1x1 (in-place)
I0501 21:05:40.850953 25707 net.cpp:122] Setting up inception_4d/relu_1x1
I0501 21:05:40.850970 25707 net.cpp:129] Top shape: 1 112 14 14 (21952)
I0501 21:05:40.850975 25707 net.cpp:137] Memory required for data: 46490296
I0501 21:05:40.850981 25707 layer_factory.hpp:77] Creating layer inception_4d/3x3_reduce
I0501 21:05:40.850999 25707 net.cpp:84] Creating Layer inception_4d/3x3_reduce
I0501 21:05:40.851007 25707 net.cpp:406] inception_4d/3x3_reduce <- inception_4c/output_inception_4c/output_0_split_1
I0501 21:05:40.851016 25707 net.cpp:380] inception_4d/3x3_reduce -> inception_4d/3x3_reduce
I0501 21:05:40.853066 25707 net.cpp:122] Setting up inception_4d/3x3_reduce
I0501 21:05:40.853087 25707 net.cpp:129] Top shape: 1 144 14 14 (28224)
I0501 21:05:40.853091 25707 net.cpp:137] Memory required for data: 46603192
I0501 21:05:40.853101 25707 layer_factory.hpp:77] Creating layer inception_4d/relu_3x3_reduce
I0501 21:05:40.853109 25707 net.cpp:84] Creating Layer inception_4d/relu_3x3_reduce
I0501 21:05:40.853116 25707 net.cpp:406] inception_4d/relu_3x3_reduce <- inception_4d/3x3_reduce
I0501 21:05:40.853126 25707 net.cpp:367] inception_4d/relu_3x3_reduce -> inception_4d/3x3_reduce (in-place)
I0501 21:05:40.855660 25707 net.cpp:122] Setting up inception_4d/relu_3x3_reduce
I0501 21:05:40.855684 25707 net.cpp:129] Top shape: 1 144 14 14 (28224)
I0501 21:05:40.855690 25707 net.cpp:137] Memory required for data: 46716088
I0501 21:05:40.855696 25707 layer_factory.hpp:77] Creating layer inception_4d/3x3
I0501 21:05:40.855716 25707 net.cpp:84] Creating Layer inception_4d/3x3
I0501 21:05:40.855726 25707 net.cpp:406] inception_4d/3x3 <- inception_4d/3x3_reduce
I0501 21:05:40.855746 25707 net.cpp:380] inception_4d/3x3 -> inception_4d/3x3
I0501 21:05:40.865274 25707 net.cpp:122] Setting up inception_4d/3x3
I0501 21:05:40.865308 25707 net.cpp:129] Top shape: 1 288 14 14 (56448)
I0501 21:05:40.865319 25707 net.cpp:137] Memory required for data: 46941880
I0501 21:05:40.865348 25707 layer_factory.hpp:77] Creating layer inception_4d/relu_3x3
I0501 21:05:40.865362 25707 net.cpp:84] Creating Layer inception_4d/relu_3x3
I0501 21:05:40.865375 25707 net.cpp:406] inception_4d/relu_3x3 <- inception_4d/3x3
I0501 21:05:40.865382 25707 net.cpp:367] inception_4d/relu_3x3 -> inception_4d/3x3 (in-place)
I0501 21:05:40.865653 25707 net.cpp:122] Setting up inception_4d/relu_3x3
I0501 21:05:40.865667 25707 net.cpp:129] Top shape: 1 288 14 14 (56448)
I0501 21:05:40.865676 25707 net.cpp:137] Memory required for data: 47167672
I0501 21:05:40.865682 25707 layer_factory.hpp:77] Creating layer inception_4d/5x5_reduce
I0501 21:05:40.865775 25707 net.cpp:84] Creating Layer inception_4d/5x5_reduce
I0501 21:05:40.865788 25707 net.cpp:406] inception_4d/5x5_reduce <- inception_4c/output_inception_4c/output_0_split_2
I0501 21:05:40.865803 25707 net.cpp:380] inception_4d/5x5_reduce -> inception_4d/5x5_reduce
I0501 21:05:40.867609 25707 net.cpp:122] Setting up inception_4d/5x5_reduce
I0501 21:05:40.867630 25707 net.cpp:129] Top shape: 1 32 14 14 (6272)
I0501 21:05:40.867636 25707 net.cpp:137] Memory required for data: 47192760
I0501 21:05:40.867645 25707 layer_factory.hpp:77] Creating layer inception_4d/relu_5x5_reduce
I0501 21:05:40.867652 25707 net.cpp:84] Creating Layer inception_4d/relu_5x5_reduce
I0501 21:05:40.867658 25707 net.cpp:406] inception_4d/relu_5x5_reduce <- inception_4d/5x5_reduce
I0501 21:05:40.867666 25707 net.cpp:367] inception_4d/relu_5x5_reduce -> inception_4d/5x5_reduce (in-place)
I0501 21:05:40.867847 25707 net.cpp:122] Setting up inception_4d/relu_5x5_reduce
I0501 21:05:40.867856 25707 net.cpp:129] Top shape: 1 32 14 14 (6272)
I0501 21:05:40.867862 25707 net.cpp:137] Memory required for data: 47217848
I0501 21:05:40.867868 25707 layer_factory.hpp:77] Creating layer inception_4d/5x5
I0501 21:05:40.867882 25707 net.cpp:84] Creating Layer inception_4d/5x5
I0501 21:05:40.867888 25707 net.cpp:406] inception_4d/5x5 <- inception_4d/5x5_reduce
I0501 21:05:40.867897 25707 net.cpp:380] inception_4d/5x5 -> inception_4d/5x5
I0501 21:05:40.870036 25707 net.cpp:122] Setting up inception_4d/5x5
I0501 21:05:40.870064 25707 net.cpp:129] Top shape: 1 64 14 14 (12544)
I0501 21:05:40.870079 25707 net.cpp:137] Memory required for data: 47268024
I0501 21:05:40.870092 25707 layer_factory.hpp:77] Creating layer inception_4d/relu_5x5
I0501 21:05:40.870105 25707 net.cpp:84] Creating Layer inception_4d/relu_5x5
I0501 21:05:40.870112 25707 net.cpp:406] inception_4d/relu_5x5 <- inception_4d/5x5
I0501 21:05:40.870123 25707 net.cpp:367] inception_4d/relu_5x5 -> inception_4d/5x5 (in-place)
I0501 21:05:40.870313 25707 net.cpp:122] Setting up inception_4d/relu_5x5
I0501 21:05:40.870323 25707 net.cpp:129] Top shape: 1 64 14 14 (12544)
I0501 21:05:40.870329 25707 net.cpp:137] Memory required for data: 47318200
I0501 21:05:40.870337 25707 layer_factory.hpp:77] Creating layer inception_4d/pool
I0501 21:05:40.870350 25707 net.cpp:84] Creating Layer inception_4d/pool
I0501 21:05:40.870357 25707 net.cpp:406] inception_4d/pool <- inception_4c/output_inception_4c/output_0_split_3
I0501 21:05:40.870365 25707 net.cpp:380] inception_4d/pool -> inception_4d/pool
I0501 21:05:40.870434 25707 net.cpp:122] Setting up inception_4d/pool
I0501 21:05:40.870450 25707 net.cpp:129] Top shape: 1 512 14 14 (100352)
I0501 21:05:40.870461 25707 net.cpp:137] Memory required for data: 47719608
I0501 21:05:40.870471 25707 layer_factory.hpp:77] Creating layer inception_4d/pool_proj
I0501 21:05:40.870489 25707 net.cpp:84] Creating Layer inception_4d/pool_proj
I0501 21:05:40.870498 25707 net.cpp:406] inception_4d/pool_proj <- inception_4d/pool
I0501 21:05:40.870510 25707 net.cpp:380] inception_4d/pool_proj -> inception_4d/pool_proj
I0501 21:05:40.872400 25707 net.cpp:122] Setting up inception_4d/pool_proj
I0501 21:05:40.872421 25707 net.cpp:129] Top shape: 1 64 14 14 (12544)
I0501 21:05:40.872431 25707 net.cpp:137] Memory required for data: 47769784
I0501 21:05:40.872449 25707 layer_factory.hpp:77] Creating layer inception_4d/relu_pool_proj
I0501 21:05:40.872475 25707 net.cpp:84] Creating Layer inception_4d/relu_pool_proj
I0501 21:05:40.872481 25707 net.cpp:406] inception_4d/relu_pool_proj <- inception_4d/pool_proj
I0501 21:05:40.872493 25707 net.cpp:367] inception_4d/relu_pool_proj -> inception_4d/pool_proj (in-place)
I0501 21:05:40.872728 25707 net.cpp:122] Setting up inception_4d/relu_pool_proj
I0501 21:05:40.872747 25707 net.cpp:129] Top shape: 1 64 14 14 (12544)
I0501 21:05:40.872756 25707 net.cpp:137] Memory required for data: 47819960
I0501 21:05:40.872762 25707 layer_factory.hpp:77] Creating layer inception_4d/output
I0501 21:05:40.872776 25707 net.cpp:84] Creating Layer inception_4d/output
I0501 21:05:40.872784 25707 net.cpp:406] inception_4d/output <- inception_4d/1x1
I0501 21:05:40.872794 25707 net.cpp:406] inception_4d/output <- inception_4d/3x3
I0501 21:05:40.872803 25707 net.cpp:406] inception_4d/output <- inception_4d/5x5
I0501 21:05:40.872813 25707 net.cpp:406] inception_4d/output <- inception_4d/pool_proj
I0501 21:05:40.872825 25707 net.cpp:380] inception_4d/output -> inception_4d/output
I0501 21:05:40.872884 25707 net.cpp:122] Setting up inception_4d/output
I0501 21:05:40.872902 25707 net.cpp:129] Top shape: 1 528 14 14 (103488)
I0501 21:05:40.872915 25707 net.cpp:137] Memory required for data: 48233912
I0501 21:05:40.872922 25707 layer_factory.hpp:77] Creating layer inception_4d/output_inception_4d/output_0_split
I0501 21:05:40.872936 25707 net.cpp:84] Creating Layer inception_4d/output_inception_4d/output_0_split
I0501 21:05:40.872944 25707 net.cpp:406] inception_4d/output_inception_4d/output_0_split <- inception_4d/output
I0501 21:05:40.872959 25707 net.cpp:380] inception_4d/output_inception_4d/output_0_split -> inception_4d/output_inception_4d/output_0_split_0
I0501 21:05:40.872974 25707 net.cpp:380] inception_4d/output_inception_4d/output_0_split -> inception_4d/output_inception_4d/output_0_split_1
I0501 21:05:40.872987 25707 net.cpp:380] inception_4d/output_inception_4d/output_0_split -> inception_4d/output_inception_4d/output_0_split_2
I0501 21:05:40.873003 25707 net.cpp:380] inception_4d/output_inception_4d/output_0_split -> inception_4d/output_inception_4d/output_0_split_3
I0501 21:05:40.873018 25707 net.cpp:380] inception_4d/output_inception_4d/output_0_split -> inception_4d/output_inception_4d/output_0_split_4
I0501 21:05:40.873179 25707 net.cpp:122] Setting up inception_4d/output_inception_4d/output_0_split
I0501 21:05:40.873191 25707 net.cpp:129] Top shape: 1 528 14 14 (103488)
I0501 21:05:40.873201 25707 net.cpp:129] Top shape: 1 528 14 14 (103488)
I0501 21:05:40.873210 25707 net.cpp:129] Top shape: 1 528 14 14 (103488)
I0501 21:05:40.873219 25707 net.cpp:129] Top shape: 1 528 14 14 (103488)
I0501 21:05:40.873224 25707 net.cpp:129] Top shape: 1 528 14 14 (103488)
I0501 21:05:40.873229 25707 net.cpp:137] Memory required for data: 50303672
I0501 21:05:40.873234 25707 layer_factory.hpp:77] Creating layer loss2/ave_pool
I0501 21:05:40.873244 25707 net.cpp:84] Creating Layer loss2/ave_pool
I0501 21:05:40.873250 25707 net.cpp:406] loss2/ave_pool <- inception_4d/output_inception_4d/output_0_split_0
I0501 21:05:40.873258 25707 net.cpp:380] loss2/ave_pool -> loss2/ave_pool
I0501 21:05:40.874094 25707 net.cpp:122] Setting up loss2/ave_pool
I0501 21:05:40.874109 25707 net.cpp:129] Top shape: 1 528 4 4 (8448)
I0501 21:05:40.874112 25707 net.cpp:137] Memory required for data: 50337464
I0501 21:05:40.874117 25707 layer_factory.hpp:77] Creating layer loss2/conv
I0501 21:05:40.874132 25707 net.cpp:84] Creating Layer loss2/conv
I0501 21:05:40.874140 25707 net.cpp:406] loss2/conv <- loss2/ave_pool
I0501 21:05:40.874157 25707 net.cpp:380] loss2/conv -> loss2/conv
I0501 21:05:40.875347 25707 net.cpp:122] Setting up loss2/conv
I0501 21:05:40.875361 25707 net.cpp:129] Top shape: 1 128 4 4 (2048)
I0501 21:05:40.875366 25707 net.cpp:137] Memory required for data: 50345656
I0501 21:05:40.875376 25707 layer_factory.hpp:77] Creating layer loss2/relu_conv
I0501 21:05:40.875396 25707 net.cpp:84] Creating Layer loss2/relu_conv
I0501 21:05:40.875413 25707 net.cpp:406] loss2/relu_conv <- loss2/conv
I0501 21:05:40.875422 25707 net.cpp:367] loss2/relu_conv -> loss2/conv (in-place)
I0501 21:05:40.876174 25707 net.cpp:122] Setting up loss2/relu_conv
I0501 21:05:40.876189 25707 net.cpp:129] Top shape: 1 128 4 4 (2048)
I0501 21:05:40.876196 25707 net.cpp:137] Memory required for data: 50353848
I0501 21:05:40.876204 25707 layer_factory.hpp:77] Creating layer loss2/fc
I0501 21:05:40.876212 25707 net.cpp:84] Creating Layer loss2/fc
I0501 21:05:40.876219 25707 net.cpp:406] loss2/fc <- loss2/conv
I0501 21:05:40.876233 25707 net.cpp:380] loss2/fc -> loss2/fc
I0501 21:05:40.895956 25707 net.cpp:122] Setting up loss2/fc
I0501 21:05:40.895992 25707 net.cpp:129] Top shape: 1 1024 (1024)
I0501 21:05:40.895998 25707 net.cpp:137] Memory required for data: 50357944
I0501 21:05:40.896009 25707 layer_factory.hpp:77] Creating layer loss2/relu_fc
I0501 21:05:40.896024 25707 net.cpp:84] Creating Layer loss2/relu_fc
I0501 21:05:40.896036 25707 net.cpp:406] loss2/relu_fc <- loss2/fc
I0501 21:05:40.896049 25707 net.cpp:367] loss2/relu_fc -> loss2/fc (in-place)
I0501 21:05:40.896324 25707 net.cpp:122] Setting up loss2/relu_fc
I0501 21:05:40.896337 25707 net.cpp:129] Top shape: 1 1024 (1024)
I0501 21:05:40.896343 25707 net.cpp:137] Memory required for data: 50362040
I0501 21:05:40.896353 25707 layer_factory.hpp:77] Creating layer loss2/drop_fc
I0501 21:05:40.896364 25707 net.cpp:84] Creating Layer loss2/drop_fc
I0501 21:05:40.896368 25707 net.cpp:406] loss2/drop_fc <- loss2/fc
I0501 21:05:40.896374 25707 net.cpp:367] loss2/drop_fc -> loss2/fc (in-place)
I0501 21:05:40.896411 25707 net.cpp:122] Setting up loss2/drop_fc
I0501 21:05:40.896422 25707 net.cpp:129] Top shape: 1 1024 (1024)
I0501 21:05:40.896430 25707 net.cpp:137] Memory required for data: 50366136
I0501 21:05:40.896435 25707 layer_factory.hpp:77] Creating layer loss2/classifier
I0501 21:05:40.896446 25707 net.cpp:84] Creating Layer loss2/classifier
I0501 21:05:40.896451 25707 net.cpp:406] loss2/classifier <- loss2/fc
I0501 21:05:40.896458 25707 net.cpp:380] loss2/classifier -> loss2/classifier
I0501 21:05:40.916594 25707 net.cpp:122] Setting up loss2/classifier
I0501 21:05:40.916633 25707 net.cpp:129] Top shape: 1 1000 (1000)
I0501 21:05:40.916640 25707 net.cpp:137] Memory required for data: 50370136
I0501 21:05:40.916653 25707 layer_factory.hpp:77] Creating layer loss2/classifier_loss2/classifier_0_split
I0501 21:05:40.916666 25707 net.cpp:84] Creating Layer loss2/classifier_loss2/classifier_0_split
I0501 21:05:40.916676 25707 net.cpp:406] loss2/classifier_loss2/classifier_0_split <- loss2/classifier
I0501 21:05:40.916689 25707 net.cpp:380] loss2/classifier_loss2/classifier_0_split -> loss2/classifier_loss2/classifier_0_split_0
I0501 21:05:40.916703 25707 net.cpp:380] loss2/classifier_loss2/classifier_0_split -> loss2/classifier_loss2/classifier_0_split_1
I0501 21:05:40.916712 25707 net.cpp:380] loss2/classifier_loss2/classifier_0_split -> loss2/classifier_loss2/classifier_0_split_2
I0501 21:05:40.916800 25707 net.cpp:122] Setting up loss2/classifier_loss2/classifier_0_split
I0501 21:05:40.916810 25707 net.cpp:129] Top shape: 1 1000 (1000)
I0501 21:05:40.916816 25707 net.cpp:129] Top shape: 1 1000 (1000)
I0501 21:05:40.916824 25707 net.cpp:129] Top shape: 1 1000 (1000)
I0501 21:05:40.916831 25707 net.cpp:137] Memory required for data: 50382136
I0501 21:05:40.916836 25707 layer_factory.hpp:77] Creating layer loss2/loss
I0501 21:05:40.916846 25707 net.cpp:84] Creating Layer loss2/loss
I0501 21:05:40.916852 25707 net.cpp:406] loss2/loss <- loss2/classifier_loss2/classifier_0_split_0
I0501 21:05:40.916860 25707 net.cpp:406] loss2/loss <- label_data_1_split_3
…
I0501 21:05:40.917515 25707 net.cpp:122] Setting up loss2/top-5
I0501 21:05:40.917524 25707 net.cpp:129] Top shape: (1)
I0501 21:05:40.917531 25707 net.cpp:137] Memory required for data: 50382148
I0501 21:05:40.917537 25707 layer_factory.hpp:77] Creating layer inception_4e/1x1
I0501 21:05:40.917554 25707 net.cpp:84] Creating Layer inception_4e/1x1
I0501 21:05:40.917562 25707 net.cpp:406] inception_4e/1x1 <- inception_4d/output_inception_4d/output_0_split_1
I0501 21:05:40.917573 25707 net.cpp:380] inception_4e/1x1 -> inception_4e/1x1
I0501 21:05:40.924365 25707 net.cpp:122] Setting up inception_4e/1x1
I0501 21:05:40.924401 25707 net.cpp:129] Top shape: 1 256 14 14 (50176)
I0501 21:05:40.924408 25707 net.cpp:137] Memory required for data: 50582852
I0501 21:05:40.924420 25707 layer_factory.hpp:77] Creating layer inception_4e/relu_1x1
I0501 21:05:40.924433 25707 net.cpp:84] Creating Layer inception_4e/relu_1x1
I0501 21:05:40.924451 25707 net.cpp:406] inception_4e/relu_1x1 <- inception_4e/1x1
I0501 21:05:40.924464 25707 net.cpp:367] inception_4e/relu_1x1 -> inception_4e/1x1 (in-place)
I0501 21:05:40.924726 25707 net.cpp:122] Setting up inception_4e/relu_1x1
I0501 21:05:40.924741 25707 net.cpp:129] Top shape: 1 256 14 14 (50176)
I0501 21:05:40.924756 25707 net.cpp:137] Memory required for data: 50783556
I0501 21:05:40.924765 25707 layer_factory.hpp:77] Creating layer inception_4e/3x3_reduce
I0501 21:05:40.924823 25707 net.cpp:84] Creating Layer inception_4e/3x3_reduce
I0501 21:05:40.924837 25707 net.cpp:406] inception_4e/3x3_reduce <- inception_4d/output_inception_4d/output_0_split_2
I0501 21:05:40.924855 25707 net.cpp:380] inception_4e/3x3_reduce -> inception_4e/3x3_reduce
I0501 21:05:40.948598 25707 net.cpp:122] Setting up inception_4e/3x3_reduce
I0501 21:05:40.948649 25707 net.cpp:129] Top shape: 1 160 14 14 (31360)
I0501 21:05:40.948659 25707 net.cpp:137] Memory required for data: 50908996
I0501 21:05:40.948678 25707 layer_factory.hpp:77] Creating layer inception_4e/relu_3x3_reduce
I0501 21:05:40.948702 25707 net.cpp:84] Creating Layer inception_4e/relu_3x3_reduce
I0501 21:05:40.948717 25707 net.cpp:406] inception_4e/relu_3x3_reduce <- inception_4e/3x3_reduce
I0501 21:05:40.948727 25707 net.cpp:367] inception_4e/relu_3x3_reduce -> inception_4e/3x3_reduce (in-place)
I0501 21:05:40.949821 25707 net.cpp:122] Setting up inception_4e/relu_3x3_reduce
I0501 21:05:40.949842 25707 net.cpp:129] Top shape: 1 160 14 14 (31360)
I0501 21:05:40.949848 25707 net.cpp:137] Memory required for data: 51034436
I0501 21:05:40.949856 25707 layer_factory.hpp:77] Creating layer inception_4e/3x3
I0501 21:05:40.949874 25707 net.cpp:84] Creating Layer inception_4e/3x3
I0501 21:05:40.949883 25707 net.cpp:406] inception_4e/3x3 <- inception_4e/3x3_reduce
I0501 21:05:40.949898 25707 net.cpp:380] inception_4e/3x3 -> inception_4e/3x3
I0501 21:05:40.956025 25707 net.cpp:122] Setting up inception_4e/3x3
I0501 21:05:40.956097 25707 net.cpp:129] Top shape: 1 320 14 14 (62720)
I0501 21:05:40.956109 25707 net.cpp:137] Memory required for data: 51285316
I0501 21:05:40.956187 25707 layer_factory.hpp:77] Creating layer inception_4e/relu_3x3
I0501 21:05:40.956202 25707 net.cpp:84] Creating Layer inception_4e/relu_3x3
I0501 21:05:40.956212 25707 net.cpp:406] inception_4e/relu_3x3 <- inception_4e/3x3
I0501 21:05:40.956223 25707 net.cpp:367] inception_4e/relu_3x3 -> inception_4e/3x3 (in-place)
I0501 21:05:40.959507 25707 net.cpp:122] Setting up inception_4e/relu_3x3
I0501 21:05:40.959539 25707 net.cpp:129] Top shape: 1 320 14 14 (62720)
I0501 21:05:40.959547 25707 net.cpp:137] Memory required for data: 51536196
I0501 21:05:40.959556 25707 layer_factory.hpp:77] Creating layer inception_4e/5x5_reduce
I0501 21:05:40.959585 25707 net.cpp:84] Creating Layer inception_4e/5x5_reduce
I0501 21:05:40.959597 25707 net.cpp:406] inception_4e/5x5_reduce <- inception_4d/output_inception_4d/output_0_split_3
I0501 21:05:40.959611 25707 net.cpp:380] inception_4e/5x5_reduce -> inception_4e/5x5_reduce
I0501 21:05:40.970237 25707 net.cpp:122] Setting up inception_4e/5x5_reduce
I0501 21:05:40.970278 25707 net.cpp:129] Top shape: 1 32 14 14 (6272)
I0501 21:05:40.970283 25707 net.cpp:137] Memory required for data: 51561284
I0501 21:05:40.970299 25707 layer_factory.hpp:77] Creating layer inception_4e/relu_5x5_reduce
I0501 21:05:40.970317 25707 net.cpp:84] Creating Layer inception_4e/relu_5x5_reduce
I0501 21:05:40.970325 25707 net.cpp:406] inception_4e/relu_5x5_reduce <- inception_4e/5x5_reduce
I0501 21:05:40.970337 25707 net.cpp:367] inception_4e/relu_5x5_reduce -> inception_4e/5x5_reduce (in-place)
I0501 21:05:40.970530 25707 net.cpp:122] Setting up inception_4e/relu_5x5_reduce
I0501 21:05:40.970543 25707 net.cpp:129] Top shape: 1 32 14 14 (6272)
I0501 21:05:40.970547 25707 net.cpp:137] Memory required for data: 51586372
I0501 21:05:40.970552 25707 layer_factory.hpp:77] Creating layer inception_4e/5x5
I0501 21:05:40.970568 25707 net.cpp:84] Creating Layer inception_4e/5x5
I0501 21:05:40.970576 25707 net.cpp:406] inception_4e/5x5 <- inception_4e/5x5_reduce
I0501 21:05:40.970583 25707 net.cpp:380] inception_4e/5x5 -> inception_4e/5x5
I0501 21:05:40.973296 25707 net.cpp:122] Setting up inception_4e/5x5
I0501 21:05:40.973325 25707 net.cpp:129] Top shape: 1 128 14 14 (25088)
I0501 21:05:40.973333 25707 net.cpp:137] Memory required for data: 51686724
I0501 21:05:40.973345 25707 layer_factory.hpp:77] Creating layer inception_4e/relu_5x5
I0501 21:05:40.973357 25707 net.cpp:84] Creating Layer inception_4e/relu_5x5
I0501 21:05:40.973366 25707 net.cpp:406] inception_4e/relu_5x5 <- inception_4e/5x5
I0501 21:05:40.973381 25707 net.cpp:367] inception_4e/relu_5x5 -> inception_4e/5x5 (in-place)
I0501 21:05:40.973587 25707 net.cpp:122] Setting up inception_4e/relu_5x5
I0501 21:05:40.973600 25707 net.cpp:129] Top shape: 1 128 14 14 (25088)
I0501 21:05:40.973609 25707 net.cpp:137] Memory required for data: 51787076
I0501 21:05:40.973618 25707 layer_factory.hpp:77] Creating layer inception_4e/pool
I0501 21:05:40.973626 25707 net.cpp:84] Creating Layer inception_4e/pool
I0501 21:05:40.973632 25707 net.cpp:406] inception_4e/pool <- inception_4d/output_inception_4d/output_0_split_4
I0501 21:05:40.973640 25707 net.cpp:380] inception_4e/pool -> inception_4e/pool
I0501 21:05:40.973747 25707 net.cpp:122] Setting up inception_4e/pool
I0501 21:05:40.973760 25707 net.cpp:129] Top shape: 1 528 14 14 (103488)
I0501 21:05:40.973765 25707 net.cpp:137] Memory required for data: 52201028
I0501 21:05:40.973772 25707 layer_factory.hpp:77] Creating layer inception_4e/pool_proj
I0501 21:05:40.973793 25707 net.cpp:84] Creating Layer inception_4e/pool_proj
I0501 21:05:40.973800 25707 net.cpp:406] inception_4e/pool_proj <- inception_4e/pool
I0501 21:05:40.973814 25707 net.cpp:380] inception_4e/pool_proj -> inception_4e/pool_proj
I0501 21:05:40.976137 25707 net.cpp:122] Setting up inception_4e/pool_proj
I0501 21:05:40.976164 25707 net.cpp:129] Top shape: 1 128 14 14 (25088)
I0501 21:05:40.976174 25707 net.cpp:137] Memory required for data: 52301380
I0501 21:05:40.976186 25707 layer_factory.hpp:77] Creating layer inception_4e/relu_pool_proj
I0501 21:05:40.976222 25707 net.cpp:84] Creating Layer inception_4e/relu_pool_proj
I0501 21:05:40.976229 25707 net.cpp:406] inception_4e/relu_pool_proj <- inception_4e/pool_proj
I0501 21:05:40.976238 25707 net.cpp:367] inception_4e/relu_pool_proj -> inception_4e/pool_proj (in-place)
I0501 21:05:40.976428 25707 net.cpp:122] Setting up inception_4e/relu_pool_proj
I0501 21:05:40.976439 25707 net.cpp:129] Top shape: 1 128 14 14 (25088)
I0501 21:05:40.976444 25707 net.cpp:137] Memory required for data: 52401732
I0501 21:05:40.976449 25707 layer_factory.hpp:77] Creating layer inception_4e/output
I0501 21:05:40.976456 25707 net.cpp:84] Creating Layer inception_4e/output
I0501 21:05:40.976461 25707 net.cpp:406] inception_4e/output <- inception_4e/1x1
I0501 21:05:40.976469 25707 net.cpp:406] inception_4e/output <- inception_4e/3x3
I0501 21:05:40.976474 25707 net.cpp:406] inception_4e/output <- inception_4e/5x5
I0501 21:05:40.976480 25707 net.cpp:406] inception_4e/output <- inception_4e/pool_proj
I0501 21:05:40.976487 25707 net.cpp:380] inception_4e/output -> inception_4e/output
I0501 21:05:40.976536 25707 net.cpp:122] Setting up inception_4e/output
I0501 21:05:40.976546 25707 net.cpp:129] Top shape: 1 832 14 14 (163072)
I0501 21:05:40.976550 25707 net.cpp:137] Memory required for data: 53054020
I0501 21:05:40.976555 25707 layer_factory.hpp:77] Creating layer pool4/3x3_s2
I0501 21:05:40.976564 25707 net.cpp:84] Creating Layer pool4/3x3_s2
I0501 21:05:40.976569 25707 net.cpp:406] pool4/3x3_s2 <- inception_4e/output
I0501 21:05:40.976579 25707 net.cpp:380] pool4/3x3_s2 -> pool4/3x3_s2
I0501 21:05:40.976630 25707 net.cpp:122] Setting up pool4/3x3_s2
I0501 21:05:40.976637 25707 net.cpp:129] Top shape: 1 832 7 7 (40768)
I0501 21:05:40.976642 25707 net.cpp:137] Memory required for data: 53217092
I0501 21:05:40.976647 25707 layer_factory.hpp:77] Creating layer pool4/3x3_s2_pool4/3x3_s2_0_split
I0501 21:05:40.976656 25707 net.cpp:84] Creating Layer pool4/3x3_s2_pool4/3x3_s2_0_split
I0501 21:05:40.976662 25707 net.cpp:406] pool4/3x3_s2_pool4/3x3_s2_0_split <- pool4/3x3_s2
I0501 21:05:40.976670 25707 net.cpp:380] pool4/3x3_s2_pool4/3x3_s2_0_split -> pool4/3x3_s2_pool4/3x3_s2_0_split_0
I0501 21:05:40.976677 25707 net.cpp:380] pool4/3x3_s2_pool4/3x3_s2_0_split -> pool4/3x3_s2_pool4/3x3_s2_0_split_1
I0501 21:05:40.976714 25707 net.cpp:380] pool4/3x3_s2_pool4/3x3_s2_0_split -> pool4/3x3_s2_pool4/3x3_s2_0_split_2
I0501 21:05:40.976724 25707 net.cpp:380] pool4/3x3_s2_pool4/3x3_s2_0_split -> pool4/3x3_s2_pool4/3x3_s2_0_split_3
I0501 21:05:40.976804 25707 net.cpp:122] Setting up pool4/3x3_s2_pool4/3x3_s2_0_split
I0501 21:05:40.976815 25707 net.cpp:129] Top shape: 1 832 7 7 (40768)
I0501 21:05:40.976825 25707 net.cpp:129] Top shape: 1 832 7 7 (40768)
I0501 21:05:40.976835 25707 net.cpp:129] Top shape: 1 832 7 7 (40768)
I0501 21:05:40.976840 25707 net.cpp:129] Top shape: 1 832 7 7 (40768)
I0501 21:05:40.976845 25707 net.cpp:137] Memory required for data: 53869380
I0501 21:05:40.976850 25707 layer_factory.hpp:77] Creating layer inception_5a/1x1
I0501 21:05:40.976866 25707 net.cpp:84] Creating Layer inception_5a/1x1
I0501 21:05:40.976872 25707 net.cpp:406] inception_5a/1x1 <- pool4/3x3_s2_pool4/3x3_s2_0_split_0
I0501 21:05:40.976882 25707 net.cpp:380] inception_5a/1x1 -> inception_5a/1x1
I0501 21:05:40.986624 25707 net.cpp:122] Setting up inception_5a/1x1
I0501 21:05:40.986670 25707 net.cpp:129] Top shape: 1 256 7 7 (12544)
I0501 21:05:40.986676 25707 net.cpp:137] Memory required for data: 53919556
I0501 21:05:40.986690 25707 layer_factory.hpp:77] Creating layer inception_5a/relu_1x1
I0501 21:05:40.986706 25707 net.cpp:84] Creating Layer inception_5a/relu_1x1
I0501 21:05:40.986722 25707 net.cpp:406] inception_5a/relu_1x1 <- inception_5a/1x1
I0501 21:05:40.986737 25707 net.cpp:367] inception_5a/relu_1x1 -> inception_5a/1x1 (in-place)
I0501 21:05:40.986976 25707 net.cpp:122] Setting up inception_5a/relu_1x1
I0501 21:05:40.986992 25707 net.cpp:129] Top shape: 1 256 7 7 (12544)
I0501 21:05:40.986999 25707 net.cpp:137] Memory required for data: 53969732
I0501 21:05:40.987028 25707 layer_factory.hpp:77] Creating layer inception_5a/3x3_reduce
I0501 21:05:40.987093 25707 net.cpp:84] Creating Layer inception_5a/3x3_reduce
I0501 21:05:40.987116 25707 net.cpp:406] inception_5a/3x3_reduce <- pool4/3x3_s2_pool4/3x3_s2_0_split_1
I0501 21:05:40.987146 25707 net.cpp:380] inception_5a/3x3_reduce -> inception_5a/3x3_reduce
I0501 21:05:40.989739 25707 net.cpp:122] Setting up inception_5a/3x3_reduce
I0501 21:05:40.989769 25707 net.cpp:129] Top shape: 1 160 7 7 (7840)
I0501 21:05:40.989779 25707 net.cpp:137] Memory required for data: 54001092
I0501 21:05:40.989794 25707 layer_factory.hpp:77] Creating layer inception_5a/relu_3x3_reduce
I0501 21:05:40.989809 25707 net.cpp:84] Creating Layer inception_5a/relu_3x3_reduce
I0501 21:05:40.989819 25707 net.cpp:406] inception_5a/relu_3x3_reduce <- inception_5a/3x3_reduce
I0501 21:05:40.989830 25707 net.cpp:367] inception_5a/relu_3x3_reduce -> inception_5a/3x3_reduce (in-place)
I0501 21:05:40.990797 25707 net.cpp:122] Setting up inception_5a/relu_3x3_reduce
I0501 21:05:40.990818 25707 net.cpp:129] Top shape: 1 160 7 7 (7840)
I0501 21:05:40.990825 25707 net.cpp:137] Memory required for data: 54032452
I0501 21:05:40.990833 25707 layer_factory.hpp:77] Creating layer inception_5a/3x3
I0501 21:05:40.990857 25707 net.cpp:84] Creating Layer inception_5a/3x3
I0501 21:05:40.990869 25707 net.cpp:406] inception_5a/3x3 <- inception_5a/3x3_reduce
I0501 21:05:40.990888 25707 net.cpp:380] inception_5a/3x3 -> inception_5a/3x3
I0501 21:05:41.000861 25707 net.cpp:122] Setting up inception_5a/3x3
I0501 21:05:41.000906 25707 net.cpp:129] Top shape: 1 320 7 7 (15680)
I0501 21:05:41.000912 25707 net.cpp:137] Memory required for data: 54095172
I0501 21:05:41.000923 25707 layer_factory.hpp:77] Creating layer inception_5a/relu_3x3
I0501 21:05:41.000936 25707 net.cpp:84] Creating Layer inception_5a/relu_3x3
I0501 21:05:41.000948 25707 net.cpp:406] inception_5a/relu_3x3 <- inception_5a/3x3
I0501 21:05:41.000959 25707 net.cpp:367] inception_5a/relu_3x3 -> inception_5a/3x3 (in-place)
I0501 21:05:41.001688 25707 net.cpp:122] Setting up inception_5a/relu_3x3
I0501 21:05:41.001755 25707 net.cpp:129] Top shape: 1 320 7 7 (15680)
I0501 21:05:41.001768 25707 net.cpp:137] Memory required for data: 54157892
I0501 21:05:41.001777 25707 layer_factory.hpp:77] Creating layer inception_5a/5x5_reduce
I0501 21:05:41.001793 25707 net.cpp:84] Creating Layer inception_5a/5x5_reduce
I0501 21:05:41.001801 25707 net.cpp:406] inception_5a/5x5_reduce <- pool4/3x3_s2_pool4/3x3_s2_0_split_2
I0501 21:05:41.001809 25707 net.cpp:380] inception_5a/5x5_reduce -> inception_5a/5x5_reduce
I0501 21:05:41.003442 25707 net.cpp:122] Setting up inception_5a/5x5_reduce
I0501 21:05:41.003455 25707 net.cpp:129] Top shape: 1 32 7 7 (1568)
I0501 21:05:41.003459 25707 net.cpp:137] Memory required for data: 54164164
I0501 21:05:41.003468 25707 layer_factory.hpp:77] Creating layer inception_5a/relu_5x5_reduce
I0501 21:05:41.003477 25707 net.cpp:84] Creating Layer inception_5a/relu_5x5_reduce
I0501 21:05:41.003489 25707 net.cpp:406] inception_5a/relu_5x5_reduce <- inception_5a/5x5_reduce
I0501 21:05:41.003500 25707 net.cpp:367] inception_5a/relu_5x5_reduce -> inception_5a/5x5_reduce (in-place)
I0501 21:05:41.003680 25707 net.cpp:122] Setting up inception_5a/relu_5x5_reduce
I0501 21:05:41.003691 25707 net.cpp:129] Top shape: 1 32 7 7 (1568)
I0501 21:05:41.003695 25707 net.cpp:137] Memory required for data: 54170436
I0501 21:05:41.003700 25707 layer_factory.hpp:77] Creating layer inception_5a/5x5
I0501 21:05:41.003718 25707 net.cpp:84] Creating Layer inception_5a/5x5
I0501 21:05:41.003727 25707 net.cpp:406] inception_5a/5x5 <- inception_5a/5x5_reduce
I0501 21:05:41.003736 25707 net.cpp:380] inception_5a/5x5 -> inception_5a/5x5
I0501 21:05:41.006253 25707 net.cpp:122] Setting up inception_5a/5x5
I0501 21:05:41.006278 25707 net.cpp:129] Top shape: 1 128 7 7 (6272)
I0501 21:05:41.006286 25707 net.cpp:137] Memory required for data: 54195524
I0501 21:05:41.006299 25707 layer_factory.hpp:77] Creating layer inception_5a/relu_5x5
I0501 21:05:41.006330 25707 net.cpp:84] Creating Layer inception_5a/relu_5x5
I0501 21:05:41.006361 25707 net.cpp:406] inception_5a/relu_5x5 <- inception_5a/5x5
I0501 21:05:41.006372 25707 net.cpp:367] inception_5a/relu_5x5 -> inception_5a/5x5 (in-place)
I0501 21:05:41.006634 25707 net.cpp:122] Setting up inception_5a/relu_5x5
I0501 21:05:41.006651 25707 net.cpp:129] Top shape: 1 128 7 7 (6272)
I0501 21:05:41.006659 25707 net.cpp:137] Memory required for data: 54220612
I0501 21:05:41.006666 25707 layer_factory.hpp:77] Creating layer inception_5a/pool
I0501 21:05:41.006678 25707 net.cpp:84] Creating Layer inception_5a/pool
I0501 21:05:41.006690 25707 net.cpp:406] inception_5a/pool <- pool4/3x3_s2_pool4/3x3_s2_0_split_3
I0501 21:05:41.006702 25707 net.cpp:380] inception_5a/pool -> inception_5a/pool
I0501 21:05:41.006795 25707 net.cpp:122] Setting up inception_5a/pool
I0501 21:05:41.006808 25707 net.cpp:129] Top shape: 1 832 7 7 (40768)
I0501 21:05:41.006815 25707 net.cpp:137] Memory required for data: 54383684
I0501 21:05:41.006824 25707 layer_factory.hpp:77] Creating layer inception_5a/pool_proj
I0501 21:05:41.006841 25707 net.cpp:84] Creating Layer inception_5a/pool_proj
I0501 21:05:41.006850 25707 net.cpp:406] inception_5a/pool_proj <- inception_5a/pool
I0501 21:05:41.006866 25707 net.cpp:380] inception_5a/pool_proj -> inception_5a/pool_proj
I0501 21:05:41.015436 25707 net.cpp:122] Setting up inception_5a/pool_proj
I0501 21:05:41.015462 25707 net.cpp:129] Top shape: 1 128 7 7 (6272)
I0501 21:05:41.015470 25707 net.cpp:137] Memory required for data: 54408772
I0501 21:05:41.015481 25707 layer_factory.hpp:77] Creating layer inception_5a/relu_pool_proj
I0501 21:05:41.015493 25707 net.cpp:84] Creating Layer inception_5a/relu_pool_proj
I0501 21:05:41.015501 25707 net.cpp:406] inception_5a/relu_pool_proj <- inception_5a/pool_proj
I0501 21:05:41.015508 25707 net.cpp:367] inception_5a/relu_pool_proj -> inception_5a/pool_proj (in-place)
I0501 21:05:41.015696 25707 net.cpp:122] Setting up inception_5a/relu_pool_proj
I0501 21:05:41.015707 25707 net.cpp:129] Top shape: 1 128 7 7 (6272)
I0501 21:05:41.015710 25707 net.cpp:137] Memory required for data: 54433860
I0501 21:05:41.015715 25707 layer_factory.hpp:77] Creating layer inception_5a/output
I0501 21:05:41.015724 25707 net.cpp:84] Creating Layer inception_5a/output
I0501 21:05:41.015730 25707 net.cpp:406] inception_5a/output <- inception_5a/1x1
I0501 21:05:41.015738 25707 net.cpp:406] inception_5a/output <- inception_5a/3x3
I0501 21:05:41.015743 25707 net.cpp:406] inception_5a/output <- inception_5a/5x5
I0501 21:05:41.015748 25707 net.cpp:406] inception_5a/output <- inception_5a/pool_proj
I0501 21:05:41.015756 25707 net.cpp:380] inception_5a/output -> inception_5a/output
I0501 21:05:41.015810 25707 net.cpp:122] Setting up inception_5a/output
I0501 21:05:41.015817 25707 net.cpp:129] Top shape: 1 832 7 7 (40768)
I0501 21:05:41.015822 25707 net.cpp:137] Memory required for data: 54596932
I0501 21:05:41.015827 25707 layer_factory.hpp:77] Creating layer inception_5a/output_inception_5a/output_0_split
I0501 21:05:41.015838 25707 net.cpp:84] Creating Layer inception_5a/output_inception_5a/output_0_split
I0501 21:05:41.015846 25707 net.cpp:406] inception_5a/output_inception_5a/output_0_split <- inception_5a/output
I0501 21:05:41.015856 25707 net.cpp:380] inception_5a/output_inception_5a/output_0_split -> inception_5a/output_inception_5a/output_0_split_0
I0501 21:05:41.015863 25707 net.cpp:380] inception_5a/output_inception_5a/output_0_split -> inception_5a/output_inception_5a/output_0_split_1
I0501 21:05:41.015872 25707 net.cpp:380] inception_5a/output_inception_5a/output_0_split -> inception_5a/output_inception_5a/output_0_split_2
I0501 21:05:41.015879 25707 net.cpp:380] inception_5a/output_inception_5a/output_0_split -> inception_5a/output_inception_5a/output_0_split_3
I0501 21:05:41.015983 25707 net.cpp:122] Setting up inception_5a/output_inception_5a/output_0_split
I0501 21:05:41.015996 25707 net.cpp:129] Top shape: 1 832 7 7 (40768)
I0501 21:05:41.016011 25707 net.cpp:129] Top shape: 1 832 7 7 (40768)
I0501 21:05:41.016031 25707 net.cpp:129] Top shape: 1 832 7 7 (40768)
I0501 21:05:41.016036 25707 net.cpp:129] Top shape: 1 832 7 7 (40768)
I0501 21:05:41.016041 25707 net.cpp:137] Memory required for data: 55249220
I0501 21:05:41.016044 25707 layer_factory.hpp:77] Creating layer inception_5b/1x1
I0501 21:05:41.016062 25707 net.cpp:84] Creating Layer inception_5b/1x1
I0501 21:05:41.016069 25707 net.cpp:406] inception_5b/1x1 <- inception_5a/output_inception_5a/output_0_split_0
I0501 21:05:41.016082 25707 net.cpp:380] inception_5b/1x1 -> inception_5b/1x1
I0501 21:05:41.019119 25707 net.cpp:122] Setting up inception_5b/1x1
I0501 21:05:41.019134 25707 net.cpp:129] Top shape: 1 384 7 7 (18816)
I0501 21:05:41.019140 25707 net.cpp:137] Memory required for data: 55324484
I0501 21:05:41.019150 25707 layer_factory.hpp:77] Creating layer inception_5b/relu_1x1
I0501 21:05:41.019161 25707 net.cpp:84] Creating Layer inception_5b/relu_1x1
I0501 21:05:41.019170 25707 net.cpp:406] inception_5b/relu_1x1 <- inception_5b/1x1
I0501 21:05:41.019177 25707 net.cpp:367] inception_5b/relu_1x1 -> inception_5b/1x1 (in-place)
I0501 21:05:41.019345 25707 net.cpp:122] Setting up inception_5b/relu_1x1
I0501 21:05:41.019356 25707 net.cpp:129] Top shape: 1 384 7 7 (18816)
I0501 21:05:41.019361 25707 net.cpp:137] Memory required for data: 55399748
I0501 21:05:41.019366 25707 layer_factory.hpp:77] Creating layer inception_5b/3x3_reduce
I0501 21:05:41.019378 25707 net.cpp:84] Creating Layer inception_5b/3x3_reduce
I0501 21:05:41.019387 25707 net.cpp:406] inception_5b/3x3_reduce <- inception_5a/output_inception_5a/output_0_split_1
I0501 21:05:41.019397 25707 net.cpp:380] inception_5b/3x3_reduce -> inception_5b/3x3_reduce
I0501 21:05:41.023324 25707 net.cpp:122] Setting up inception_5b/3x3_reduce
I0501 21:05:41.023352 25707 net.cpp:129] Top shape: 1 192 7 7 (9408)
I0501 21:05:41.023360 25707 net.cpp:137] Memory required for data: 55437380
I0501 21:05:41.023371 25707 layer_factory.hpp:77] Creating layer inception_5b/relu_3x3_reduce
I0501 21:05:41.023383 25707 net.cpp:84] Creating Layer inception_5b/relu_3x3_reduce
I0501 21:05:41.023392 25707 net.cpp:406] inception_5b/relu_3x3_reduce <- inception_5b/3x3_reduce
I0501 21:05:41.023406 25707 net.cpp:367] inception_5b/relu_3x3_reduce -> inception_5b/3x3_reduce (in-place)
I0501 21:05:41.024230 25707 net.cpp:122] Setting up inception_5b/relu_3x3_reduce
I0501 21:05:41.024250 25707 net.cpp:129] Top shape: 1 192 7 7 (9408)
I0501 21:05:41.024256 25707 net.cpp:137] Memory required for data: 55475012
I0501 21:05:41.024264 25707 layer_factory.hpp:77] Creating layer inception_5b/3x3
I0501 21:05:41.024283 25707 net.cpp:84] Creating Layer inception_5b/3x3
I0501 21:05:41.024292 25707 net.cpp:406] inception_5b/3x3 <- inception_5b/3x3_reduce
I0501 21:05:41.024307 25707 net.cpp:380] inception_5b/3x3 -> inception_5b/3x3
I0501 21:05:41.031679 25707 net.cpp:122] Setting up inception_5b/3x3
I0501 21:05:41.031730 25707 net.cpp:129] Top shape: 1 384 7 7 (18816)
I0501 21:05:41.031736 25707 net.cpp:137] Memory required for data: 55550276
I0501 21:05:41.031751 25707 layer_factory.hpp:77] Creating layer inception_5b/relu_3x3
I0501 21:05:41.031767 25707 net.cpp:84] Creating Layer inception_5b/relu_3x3
I0501 21:05:41.031776 25707 net.cpp:406] inception_5b/relu_3x3 <- inception_5b/3x3
I0501 21:05:41.031787 25707 net.cpp:367] inception_5b/relu_3x3 -> inception_5b/3x3 (in-place)
I0501 21:05:41.032548 25707 net.cpp:122] Setting up inception_5b/relu_3x3
I0501 21:05:41.032563 25707 net.cpp:129] Top shape: 1 384 7 7 (18816)
I0501 21:05:41.032568 25707 net.cpp:137] Memory required for data: 55625540
I0501 21:05:41.032573 25707 layer_factory.hpp:77] Creating layer inception_5b/5x5_reduce
I0501 21:05:41.032589 25707 net.cpp:84] Creating Layer inception_5b/5x5_reduce
I0501 21:05:41.032596 25707 net.cpp:406] inception_5b/5x5_reduce <- inception_5a/output_inception_5a/output_0_split_2
I0501 21:05:41.032608 25707 net.cpp:380] inception_5b/5x5_reduce -> inception_5b/5x5_reduce
I0501 21:05:41.034235 25707 net.cpp:122] Setting up inception_5b/5x5_reduce
I0501 21:05:41.034289 25707 net.cpp:129] Top shape: 1 48 7 7 (2352)
I0501 21:05:41.034296 25707 net.cpp:137] Memory required for data: 55634948
I0501 21:05:41.034307 25707 layer_factory.hpp:77] Creating layer inception_5b/relu_5x5_reduce
I0501 21:05:41.034317 25707 net.cpp:84] Creating Layer inception_5b/relu_5x5_reduce
I0501 21:05:41.034322 25707 net.cpp:406] inception_5b/relu_5x5_reduce <- inception_5b/5x5_reduce
I0501 21:05:41.034330 25707 net.cpp:367] inception_5b/relu_5x5_reduce -> inception_5b/5x5_reduce (in-place)
I0501 21:05:41.034503 25707 net.cpp:122] Setting up inception_5b/relu_5x5_reduce
I0501 21:05:41.034512 25707 net.cpp:129] Top shape: 1 48 7 7 (2352)
I0501 21:05:41.034517 25707 net.cpp:137] Memory required for data: 55644356
I0501 21:05:41.034521 25707 layer_factory.hpp:77] Creating layer inception_5b/5x5
I0501 21:05:41.034533 25707 net.cpp:84] Creating Layer inception_5b/5x5
I0501 21:05:41.034540 25707 net.cpp:406] inception_5b/5x5 <- inception_5b/5x5_reduce
I0501 21:05:41.034549 25707 net.cpp:380] inception_5b/5x5 -> inception_5b/5x5
I0501 21:05:41.038085 25707 net.cpp:122] Setting up inception_5b/5x5
I0501 21:05:41.038107 25707 net.cpp:129] Top shape: 1 128 7 7 (6272)
I0501 21:05:41.038112 25707 net.cpp:137] Memory required for data: 55669444
I0501 21:05:41.038122 25707 layer_factory.hpp:77] Creating layer inception_5b/relu_5x5
I0501 21:05:41.038131 25707 net.cpp:84] Creating Layer inception_5b/relu_5x5
I0501 21:05:41.038138 25707 net.cpp:406] inception_5b/relu_5x5 <- inception_5b/5x5
I0501 21:05:41.038147 25707 net.cpp:367] inception_5b/relu_5x5 -> inception_5b/5x5 (in-place)
I0501 21:05:41.038328 25707 net.cpp:122] Setting up inception_5b/relu_5x5
I0501 21:05:41.038338 25707 net.cpp:129] Top shape: 1 128 7 7 (6272)
I0501 21:05:41.038342 25707 net.cpp:137] Memory required for data: 55694532
I0501 21:05:41.038348 25707 layer_factory.hpp:77] Creating layer inception_5b/pool
I0501 21:05:41.038357 25707 net.cpp:84] Creating Layer inception_5b/pool
I0501 21:05:41.038363 25707 net.cpp:406] inception_5b/pool <- inception_5a/output_inception_5a/output_0_split_3
I0501 21:05:41.038372 25707 net.cpp:380] inception_5b/pool -> inception_5b/pool
I0501 21:05:41.038439 25707 net.cpp:122] Setting up inception_5b/pool
I0501 21:05:41.038449 25707 net.cpp:129] Top shape: 1 832 7 7 (40768)
I0501 21:05:41.038452 25707 net.cpp:137] Memory required for data: 55857604
I0501 21:05:41.038457 25707 layer_factory.hpp:77] Creating layer inception_5b/pool_proj
I0501 21:05:41.038470 25707 net.cpp:84] Creating Layer inception_5b/pool_proj
I0501 21:05:41.038475 25707 net.cpp:406] inception_5b/pool_proj <- inception_5b/pool
I0501 21:05:41.038484 25707 net.cpp:380] inception_5b/pool_proj -> inception_5b/pool_proj
I0501 21:05:41.040917 25707 net.cpp:122] Setting up inception_5b/pool_proj
I0501 21:05:41.040951 25707 net.cpp:129] Top shape: 1 128 7 7 (6272)
I0501 21:05:41.040956 25707 net.cpp:137] Memory required for data: 55882692
I0501 21:05:41.040966 25707 layer_factory.hpp:77] Creating layer inception_5b/relu_pool_proj
I0501 21:05:41.040978 25707 net.cpp:84] Creating Layer inception_5b/relu_pool_proj
I0501 21:05:41.040987 25707 net.cpp:406] inception_5b/relu_pool_proj <- inception_5b/pool_proj
I0501 21:05:41.040997 25707 net.cpp:367] inception_5b/relu_pool_proj -> inception_5b/pool_proj (in-place)
I0501 21:05:41.041173 25707 net.cpp:122] Setting up inception_5b/relu_pool_proj
I0501 21:05:41.041184 25707 net.cpp:129] Top shape: 1 128 7 7 (6272)
I0501 21:05:41.041190 25707 net.cpp:137] Memory required for data: 55907780
I0501 21:05:41.041196 25707 layer_factory.hpp:77] Creating layer inception_5b/output
I0501 21:05:41.041205 25707 net.cpp:84] Creating Layer inception_5b/output
I0501 21:05:41.041211 25707 net.cpp:406] inception_5b/output <- inception_5b/1x1
I0501 21:05:41.041218 25707 net.cpp:406] inception_5b/output <- inception_5b/3x3
I0501 21:05:41.041224 25707 net.cpp:406] inception_5b/output <- inception_5b/5x5
I0501 21:05:41.041230 25707 net.cpp:406] inception_5b/output <- inception_5b/pool_proj
I0501 21:05:41.041245 25707 net.cpp:380] inception_5b/output -> inception_5b/output
I0501 21:05:41.041308 25707 net.cpp:122] Setting up inception_5b/output
I0501 21:05:41.041316 25707 net.cpp:129] Top shape: 1 1024 7 7 (50176)
I0501 21:05:41.041321 25707 net.cpp:137] Memory required for data: 56108484
I0501 21:05:41.041326 25707 layer_factory.hpp:77] Creating layer pool5/7x7_s1
I0501 21:05:41.041335 25707 net.cpp:84] Creating Layer pool5/7x7_s1
I0501 21:05:41.041342 25707 net.cpp:406] pool5/7x7_s1 <- inception_5b/output
I0501 21:05:41.041352 25707 net.cpp:380] pool5/7x7_s1 -> pool5/7x7_s1
I0501 21:05:41.042119 25707 net.cpp:122] Setting up pool5/7x7_s1
I0501 21:05:41.042135 25707 net.cpp:129] Top shape: 1 1024 1 1 (1024)
I0501 21:05:41.042142 25707 net.cpp:137] Memory required for data: 56112580
I0501 21:05:41.042148 25707 layer_factory.hpp:77] Creating layer pool5/drop_7x7_s1
I0501 21:05:41.042162 25707 net.cpp:84] Creating Layer pool5/drop_7x7_s1
I0501 21:05:41.042168 25707 net.cpp:406] pool5/drop_7x7_s1 <- pool5/7x7_s1
I0501 21:05:41.042176 25707 net.cpp:367] pool5/drop_7x7_s1 -> pool5/7x7_s1 (in-place)
I0501 21:05:41.042213 25707 net.cpp:122] Setting up pool5/drop_7x7_s1
I0501 21:05:41.042220 25707 net.cpp:129] Top shape: 1 1024 1 1 (1024)
I0501 21:05:41.042225 25707 net.cpp:137] Memory required for data: 56116676
I0501 21:05:41.042232 25707 layer_factory.hpp:77] Creating layer loss3/classifier
I0501 21:05:41.042243 25707 net.cpp:84] Creating Layer loss3/classifier
I0501 21:05:41.042248 25707 net.cpp:406] loss3/classifier <- pool5/7x7_s1
I0501 21:05:41.042255 25707 net.cpp:380] loss3/classifier -> loss3/classifier
I0501 21:05:41.042443 25707 net.cpp:122] Setting up loss3/classifier
I0501 21:05:41.042450 25707 net.cpp:129] Top shape: 1 5 (5)
I0501 21:05:41.042455 25707 net.cpp:137] Memory required for data: 56116696
I0501 21:05:41.042464 25707 layer_factory.hpp:77] Creating layer loss3/classifier_loss3/classifier_0_split
I0501 21:05:41.042476 25707 net.cpp:84] Creating Layer loss3/classifier_loss3/classifier_0_split
I0501 21:05:41.042481 25707 net.cpp:406] loss3/classifier_loss3/classifier_0_split <- loss3/classifier
I0501 21:05:41.042488 25707 net.cpp:380] loss3/classifier_loss3/classifier_0_split -> loss3/classifier_loss3/classifier_0_split_0
I0501 21:05:41.042500 25707 net.cpp:380] loss3/classifier_loss3/classifier_0_split -> loss3/classifier_loss3/classifier_0_split_1
I0501 21:05:41.042510 25707 net.cpp:380] loss3/classifier_loss3/classifier_0_split -> loss3/classifier_loss3/classifier_0_split_2
I0501 21:05:41.042520 25707 net.cpp:380] loss3/classifier_loss3/classifier_0_split -> loss3/classifier_loss3/classifier_0_split_3
I0501 21:05:41.042593 25707 net.cpp:122] Setting up loss3/classifier_loss3/classifier_0_split
I0501 21:05:41.042601 25707 net.cpp:129] Top shape: 1 5 (5)
I0501 21:05:41.042606 25707 net.cpp:129] Top shape: 1 5 (5)
I0501 21:05:41.042611 25707 net.cpp:129] Top shape: 1 5 (5)
I0501 21:05:41.042616 25707 net.cpp:129] Top shape: 1 5 (5)
I0501 21:05:41.042620 25707 net.cpp:137] Memory required for data: 56116776
I0501 21:05:41.042625 25707 layer_factory.hpp:77] Creating layer loss3/loss3
I0501 21:05:41.042632 25707 net.cpp:84] Creating Layer loss3/loss3
I0501 21:05:41.042636 25707 net.cpp:406] loss3/loss3 <- loss3/classifier_loss3/classifier_0_split_0
I0501 21:05:41.042644 25707 net.cpp:406] loss3/loss3 <- label_data_1_split_6
…
