…
I0429 16:37:16.479652 15091 net.cpp:294] The NetState phase (0) differed from the phase (1) specified by a rule in layer accuracy_top3
I0429 16:37:16.480486 15091 net.cpp:51] Initializing net from parameters: 
name: "GoogleNet"
state {
  phase: TRAIN
  level: 0
  stage: ""
}
layer {
  name: "data"
  type: "Data"
  top: "data"
  top: "label"
  include {
    phase: TRAIN
  }
  transform_param {
    mirror: true
    crop_size: 224
    mean_file: "retina256/retina256_train_mean.binaryproto"
  }
  data_param {
    source: "retina256/retina256_train_lmdb"
    batch_size: 50
    backend: LMDB
  }
}
layer {
  name: "conv1/7x7_s2"
  type: "Convolution"
  bottom: "data"
  top: "conv1/7x7_s2"
  param {
    lr_mult: 1
    decay_mult: 1
  }
  param {
    lr_mult: 2
    decay_mult: 0
  }
  convolution_param {
    num_output: 64
    pad: 3
    kernel_size: 7
    stride: 2
    weight_filler {
      type: "xavier"
    }
    bias_filler {
      type: "constant"
      value: 0.2
    }
  }
}
layer {
  name: "conv1/relu_7x7"
  type: "ReLU"
  bottom: "conv1/7x7_s2"
  top: "conv1/7x7_s2"
}
layer {
  name: "pool1/3x3_s2"
  type: "Pooling"
  bottom: "conv1/7x7_s2"
  top: "pool1/3x3_s2"
  pooling_param {
    pool: MAX
    kernel_size: 3
    stride: 2
  }
}
layer {
  name: "pool1/norm1"
  type: "LRN"
  bottom: "pool1/3x3_s2"
  top: "pool1/norm1"
  lrn_param {
    local_size: 5
    alpha: 0.0001
    beta: 0.75
  }
}
layer {
  name: "conv2/3x3_reduce"
  type: "Convolution"
  bottom: "pool1/norm1"
  top: "conv2/3x3_reduce"
  param {
    lr_mult: 1
    decay_mult: 1
  }
  param {
    lr_mult: 2
    decay_mult: 0
  }
  convolution_param {
    num_output: 64
    kernel_size: 1
    weight_filler {
      type: "xavier"
    }
    bias_filler {
      type: "constant"
      value: 0.2
    }
  }
}
layer {
  name: "conv2/relu_3x3_reduce"
  type: "ReLU"
  bottom: "conv2/3x3_reduce"
  top: "conv2/3x3_reduce"
}
layer {
  name: "conv2/3x3"
  type: "Convolution"
  bottom: "conv2/3x3_reduce"
  top: "conv2/3x3"
  param {
    lr_mult: 1
    decay_mult: 1
  }
  param {
    lr_mult: 2
    decay_mult: 0
  }
  convolution_param {
    num_output: 192
    pad: 1
    kernel_size: 3
    weight_filler {
      type: "xavier"
    }
    bias_filler {
      type: "constant"
      value: 0.2
    }
  }
}
layer {
  name: "conv2/relu_3x3"
  type: "ReLU"
  bottom: "conv2/3x3"
  top: "conv2/3x3"
}
layer {
  name: "conv2/norm2"
  type: "LRN"
  bottom: "conv2/3x3"
  top: "conv2/norm2"
  lrn_param {
    local_size: 5
    alpha: 0.0001
    beta: 0.75
  }
}
layer {
  name: "pool2/3x3_s2"
  type: "Pooling"
  bottom: "conv2/norm2"
  top: "pool2/3x3_s2"
  pooling_param {
    pool: MAX
    kernel_size: 3
    stride: 2
  }
}
layer {
  name: "inception_3a/1x1"
  type: "Convolution"
  bottom: "pool2/3x3_s2"
  top: "inception_3a/1x1"
  param {
    lr_mult: 1
    decay_mult: 1
  }
  param {
    lr_mult: 2
    decay_mult: 0
  }
  convolution_param {
    num_output: 64
    kernel_size: 1
    weight_filler {
      type: "xavier"
    }
    bias_filler {
      type: "constant"
      value: 0.2
    }
  }
}
layer {
  name: "inception_3a/relu_1x1"
  type: "ReLU"
  bottom: "inception_3a/1x1"
  top: "inception_3a/1x1"
}
layer {
  name: "inception_3a/3x3_reduce"
  type: "Convolution"
  bottom: "pool2/3x3_s2"
  top: "inception_3a/3x3_reduce"
  param {
    lr_mult: 1
    decay_mult: 1
  }
  param {
    lr_mult: 2
    decay_mult: 0
  }
  convolution_param {
    num_output: 96
    kernel_size: 1
    weight_filler {
      type: "xavier"
    }
    bias_filler {
      type: "constant"
      value: 0.2
    }
  }
}
layer {
  name: "inception_3a/relu_3x3_reduce"
  type: "ReLU"
  bottom: "inception_3a/3x3_reduce"
  top: "inception_3a/3x3_reduce"
}
layer {
  name: "inception_3a/3x3"
  type: "Convolution"
  bottom: "inception_3a/3x3_reduce"
  top: "inception_3a/3x3"
  param {
    lr_mult: 1
    decay_mult: 1
  }
  param {
    lr_mult: 2
    decay_mult: 0
  }
  convolution_param {
    num_output: 128
    pad: 1
    kernel_size: 3
    weight_filler {
      type: "xavier"
    }
    bias_filler {
      type: "constant"
      value: 0.2
    }
  }
}
layer {
  name: "inception_3a/relu_3x3"
  type: "ReLU"
  bottom: "inception_3a/3x3"
  top: "inception_3a/3x3"
}
layer {
  name: "inception_3a/5x5_reduce"
  type: "Convolution"
  bottom: "pool2/3x3_s2"
  top: "inception_3a/5x5_reduce"
  param {
    lr_mult: 1
    decay_mult: 1
  }
  param {
    lr_mult: 2
    decay_mult: 0
  }
  convolution_param {
    num_output: 16
    kernel_size: 1
    weight_filler {
      type: "xavier"
    }
    bias_filler {
      type: "constant"
      value: 0.2
    }
  }
}
layer {
  name: "inception_3a/relu_5x5_reduce"
  type: "ReLU"
  bottom: "inception_3a/5x5_reduce"
  top: "inception_3a/5x5_reduce"
}
layer {
  name: "inception_3a/5x5"
  type: "Convolution"
  bottom: "inception_3a/5x5_reduce"
  top: "inception_3a/5x5"
  param {
    lr_mult: 1
    decay_mult: 1
  }
  param {
    lr_mult: 2
    decay_mult: 0
  }
  convolution_param {
    num_output: 32
    pad: 2
    kernel_size: 5
    weight_filler {
      type: "xavier"
    }
    bias_filler {
      type: "constant"
      value: 0.2
    }
  }
}
layer {
  name: "inception_3a/relu_5x5"
  type: "ReLU"
  bottom: "inception_3a/5x5"
  top: "inception_3a/5x5"
}
layer {
  name: "inception_3a/pool"
  type: "Pooling"
  bottom: "pool2/3x3_s2"
  top: "inception_3a/pool"
  pooling_param {
    pool: MAX
    kernel_size: 3
    stride: 1
    pad: 1
  }
}
layer {
  name: "inception_3a/pool_proj"
  type: "Convolution"
  bottom: "inception_3a/pool"
  top: "inception_3a/pool_proj"
  param {
    lr_mult: 1
    decay_mult: 1
  }
  param {
    lr_mult: 2
    decay_mult: 0
  }
  convolution_param {
    num_output: 32
    kernel_size: 1
    weight_filler {
      type: "xavier"
    }
    bias_filler {
      type: "constant"
      value: 0.2
    }
  }
}
layer {
  name: "inception_3a/relu_pool_proj"
  type: "ReLU"
  bottom: "inception_3a/pool_proj"
  top: "inception_3a/pool_proj"
}
layer {
  name: "inception_3a/output"
  type: "Concat"
  bottom: "inception_3a/1x1"
  bottom: "inception_3a/3x3"
  bottom: "inception_3a/5x5"
  bottom: "inception_3a/pool_proj"
  top: "inception_3a/output"
}
layer {
  name: "inception_3b/1x1"
  type: "Convolution"
  bottom: "inception_3a/output"
  top: "inception_3b/1x1"
  param {
    lr_mult: 1
    decay_mult: 1
  }
  param {
    lr_mult: 2
    decay_mult: 0
  }
  convolution_param {
    num_output: 128
    kernel_size: 1
    weight_filler {
      type: "xavier"
    }
    bias_filler {
      type: "constant"
      value: 0.2
    }
  }
}
layer {
  name: "inception_3b/relu_1x1"
  type: "ReLU"
  bottom: "inception_3b/1x1"
  top: "inception_3b/1x1"
}
layer {
  name: "inception_3b/3x3_reduce"
  type: "Convolution"
  bottom: "inception_3a/output"
  top: "inception_3b/3x3_reduce"
  param {
    lr_mult: 1
    decay_mult: 1
  }
  param {
    lr_mult: 2
    decay_mult: 0
  }
  convolution_param {
    num_output: 128
    kernel_size: 1
    weight_filler {
      type: "xavier"
    }
    bias_filler {
      type: "constant"
      value: 0.2
    }
  }
}
layer {
  name: "inception_3b/relu_3x3_reduce"
  type: "ReLU"
  bottom: "inception_3b/3x3_reduce"
  top: "inception_3b/3x3_reduce"
}
layer {
  name: "inception_3b/3x3"
  type: "Convolution"
  bottom: "inception_3b/3x3_reduce"
  top: "inception_3b/3x3"
  param {
    lr_mult: 1
    decay_mult: 1
  }
  param {
    lr_mult: 2
    decay_mult: 0
  }
  convolution_param {
    num_output: 192
    pad: 1
    kernel_size: 3
    weight_filler {
      type: "xavier"
    }
    bias_filler {
      type: "constant"
      value: 0.2
    }
  }
}
layer {
  name: "inception_3b/relu_3x3"
  type: "ReLU"
  bottom: "inception_3b/3x3"
  top: "inception_3b/3x3"
}
layer {
  name: "inception_3b/5x5_reduce"
  type: "Convolution"
  bottom: "inception_3a/output"
  top: "inception_3b/5x5_reduce"
  param {
    lr_mult: 1
    decay_mult: 1
  }
  param {
    lr_mult: 2
    decay_mult: 0
  }
  convolution_param {
    num_output: 32
    kernel_size: 1
    weight_filler {
      type: "xavier"
    }
    bias_filler {
      type: "constant"
      value: 0.2
    }
  }
}
layer {
  name: "inception_3b/relu_5x5_reduce"
  type: "ReLU"
  bottom: "inception_3b/5x5_reduce"
  top: "inception_3b/5x5_reduce"
}
layer {
  name: "inception_3b/5x5"
  type: "Convolution"
  bottom: "inception_3b/5x5_reduce"
  top: "inception_3b/5x5"
  param {
    lr_mult: 1
    decay_mult: 1
  }
  param {
    lr_mult: 2
    decay_mult: 0
  }
  convolution_param {
    num_output: 96
    pad: 2
    kernel_size: 5
    weight_filler {
      type: "xavier"
    }
    bias_filler {
      type: "constant"
      value: 0.2
    }
  }
}
layer {
  name: "inception_3b/relu_5x5"
  type: "ReLU"
  bottom: "inception_3b/5x5"
  top: "inception_3b/5x5"
}
layer {
  name: "inception_3b/pool"
  type: "Pooling"
  bottom: "inception_3a/output"
  top: "inception_3b/pool"
  pooling_param {
    pool: MAX
    kernel_size: 3
    stride: 1
    pad: 1
  }
}
layer {
  name: "inception_3b/pool_proj"
  type: "Convolution"
  bottom: "inception_3b/pool"
  top: "inception_3b/pool_proj"
  param {
    lr_mult: 1
    decay_mult: 1
  }
  param {
    lr_mult: 2
    decay_mult: 0
  }
  convolution_param {
    num_output: 64
    kernel_size: 1
    weight_filler {
      type: "xavier"
    }
    bias_filler {
      type: "constant"
      value: 0.2
    }
  }
}
layer {
  name: "inception_3b/relu_pool_proj"
  type: "ReLU"
  bottom: "inception_3b/pool_proj"
  top: "inception_3b/pool_proj"
}
layer {
  name: "inception_3b/output"
  type: "Concat"
  bottom: "inception_3b/1x1"
  bottom: "inception_3b/3x3"
  bottom: "inception_3b/5x5"
  bottom: "inception_3b/pool_proj"
  top: "inception_3b/output"
}
layer {
  name: "pool3/3x3_s2"
  type: "Pooling"
  bottom: "inception_3b/output"
  top: "pool3/3x3_s2"
  pooling_param {
    pool: MAX
    kernel_size: 3
    stride: 2
  }
}
layer {
  name: "inception_4a/1x1"
  type: "Convolution"
  bottom: "pool3/3x3_s2"
  top: "inception_4a/1x1"
  param {
    lr_mult: 1
    decay_mult: 1
  }
  param {
    lr_mult: 2
    decay_mult: 0
  }
  convolution_param {
    num_output: 192
    kernel_size: 1
    weight_filler {
      type: "xavier"
    }
    bias_filler {
      type: "constant"
      value: 0.2
    }
  }
}
layer {
  name: "inception_4a/relu_1x1"
  type: "ReLU"
  bottom: "inception_4a/1x1"
  top: "inception_4a/1x1"
}
layer {
  name: "inception_4a/3x3_reduce"
  type: "Convolution"
  bottom: "pool3/3x3_s2"
  top: "inception_4a/3x3_reduce"
  param {
    lr_mult: 1
    decay_mult: 1
  }
  param {
    lr_mult: 2
    decay_mult: 0
  }
  convolution_param {
    num_output: 96
    kernel_size: 1
    weight_filler {
      type: "xavier"
    }
    bias_filler {
      type: "constant"
      value: 0.2
    }
  }
}
layer {
  name: "inception_4a/relu_3x3_reduce"
  type: "ReLU"
  bottom: "inception_4a/3x3_reduce"
  top: "inception_4a/3x3_reduce"
}
layer {
  name: "inception_4a/3x3"
  type: "Convolution"
  bottom: "inception_4a/3x3_reduce"
  top: "inception_4a/3x3"
  param {
    lr_mult: 1
    decay_mult: 1
  }
  param {
    lr_mult: 2
    decay_mult: 0
  }
  convolution_param {
    num_output: 208
    pad: 1
    kernel_size: 3
    weight_filler {
      type: "xavier"
    }
    bias_filler {
      type: "constant"
      value: 0.2
    }
  }
}
layer {
  name: "inception_4a/relu_3x3"
  type: "ReLU"
  bottom: "inception_4a/3x3"
  top: "inception_4a/3x3"
}
layer {
  name: "inception_4a/5x5_reduce"
  type: "Convolution"
  bottom: "pool3/3x3_s2"
  top: "inception_4a/5x5_reduce"
  param {
    lr_mult: 1
    decay_mult: 1
  }
  param {
    lr_mult: 2
    decay_mult: 0
  }
  convolution_param {
    num_output: 16
    kernel_size: 1
    weight_filler {
      type: "xavier"
    }
    bias_filler {
      type: "constant"
      value: 0.2
    }
  }
}
layer {
  name: "inception_4a/relu_5x5_reduce"
  type: "ReLU"
  bottom: "inception_4a/5x5_reduce"
  top: "inception_4a/5x5_reduce"
}
layer {
  name: "inception_4a/5x5"
  type: "Convolution"
  bottom: "inception_4a/5x5_reduce"
  top: "inception_4a/5x5"
  param {
    lr_mult: 1
    decay_mult: 1
  }
  param {
    lr_mult: 2
    decay_mult: 0
  }
  convolution_param {
    num_output: 48
    pad: 2
    kernel_size: 5
    weight_filler {
      type: "xavier"
    }
    bias_filler {
      type: "constant"
      value: 0.2
    }
  }
}
layer {
  name: "inception_4a/relu_5x5"
  type: "ReLU"
  bottom: "inception_4a/5x5"
  top: "inception_4a/5x5"
}
layer {
  name: "inception_4a/pool"
  type: "Pooling"
  bottom: "pool3/3x3_s2"
  top: "inception_4a/pool"
  pooling_param {
    pool: MAX
    kernel_size: 3
    stride: 1
    pad: 1
  }
}
layer {
  name: "inception_4a/pool_proj"
  type: "Convolution"
  bottom: "inception_4a/pool"
  top: "inception_4a/pool_proj"
  param {
    lr_mult: 1
    decay_mult: 1
  }
  param {
    lr_mult: 2
    decay_mult: 0
  }
  convolution_param {
    num_output: 64
    kernel_size: 1
    weight_filler {
      type: "xavier"
    }
    bias_filler {
      type: "constant"
      value: 0.2
    }
  }
}
layer {
  name: "inception_4a/relu_pool_proj"
  type: "ReLU"
  bottom: "inception_4a/pool_proj"
  top: "inception_4a/pool_proj"
}
layer {
  name: "inception_4a/output"
  type: "Concat"
  bottom: "inception_4a/1x1"
  bottom: "inception_4a/3x3"
  bottom: "inception_4a/5x5"
  bottom: "inception_4a/pool_proj"
  top: "inception_4a/output"
}
layer {
  name: "loss1/ave_pool"
  type: "Pooling"
  bottom: "inception_4a/output"
  top: "loss1/ave_pool"
  pooling_param {
    pool: AVE
    kernel_size: 5
    stride: 3
  }
}
layer {
  name: "loss1/conv"
  type: "Convolution"
  bottom: "loss1/ave_pool"
  top: "loss1/conv"
  param {
    lr_mult: 1
    decay_mult: 1
  }
  param {
    lr_mult: 2
    decay_mult: 0
  }
  convolution_param {
    num_output: 128
    kernel_size: 1
    weight_filler {
      type: "xavier"
    }
    bias_filler {
      type: "constant"
      value: 0.2
    }
  }
}
layer {
  name: "loss1/relu_conv"
  type: "ReLU"
  bottom: "loss1/conv"
  top: "loss1/conv"
}
layer {
  name: "loss1/fc"
  type: "InnerProduct"
  bottom: "loss1/conv"
  top: "loss1/fc"
  param {
    lr_mult: 1
    decay_mult: 1
  }
  param {
    lr_mult: 2
    decay_mult: 0
  }
  inner_product_param {
    num_output: 1024
    weight_filler {
      type: "xavier"
    }
    bias_filler {
      type: "constant"
      value: 0.2
    }
  }
}
layer {
  name: "loss1/relu_fc"
  type: "ReLU"
  bottom: "loss1/fc"
  top: "loss1/fc"
}
layer {
  name: "loss1/drop_fc"
  type: "Dropout"
  bottom: "loss1/fc"
  top: "loss1/fc"
  dropout_param {
    dropout_ratio: 0.7
  }
}
layer {
  name: "loss1/classifier"
  type: "InnerProduct"
  bottom: "loss1/fc"
  top: "loss1/classifier"
  param {
    lr_mult: 1
    decay_mult: 1
  }
  param {
    lr_mult: 2
    decay_mult: 0
  }
  inner_product_param {
    num_output: 1000
    weight_filler {
      type: "xavier"
    }
    bias_filler {
      type: "constant"
      value: 0
    }
  }
}
layer {
  name: "loss1/loss"
  type: "SoftmaxWithLoss"
  bottom: "loss1/classifier"
  bottom: "label"
  top: "loss1/loss1"
  loss_weight: 0.3
}
layer {
  name: "inception_4b/1x1"
  type: "Convolution"
  bottom: "inception_4a/output"
  top: "inception_4b/1x1"
  param {
    lr_mult: 1
    decay_mult: 1
  }
  param {
    lr_mult: 2
    decay_mult: 0
  }
  convolution_param {
    num_output: 160
    kernel_size: 1
    weight_filler {
      type: "xavier"
    }
    bias_filler {
      type: "constant"
      value: 0.2
    }
  }
}
layer {
  name: "inception_4b/relu_1x1"
  type: "ReLU"
  bottom: "inception_4b/1x1"
  top: "inception_4b/1x1"
}
layer {
  name: "inception_4b/3x3_reduce"
  type: "Convolution"
  bottom: "inception_4a/output"
  top: "inception_4b/3x3_reduce"
  param {
    lr_mult: 1
    decay_mult: 1
  }
  param {
    lr_mult: 2
    decay_mult: 0
  }
  convolution_param {
    num_output: 112
    kernel_size: 1
    weight_filler {
      type: "xavier"
    }
    bias_filler {
      type: "constant"
      value: 0.2
    }
  }
}
layer {
  name: "inception_4b/relu_3x3_reduce"
  type: "ReLU"
  bottom: "inception_4b/3x3_reduce"
  top: "inception_4b/3x3_reduce"
}
layer {
  name: "inception_4b/3x3"
  type: "Convolution"
  bottom: "inception_4b/3x3_reduce"
  top: "inception_4b/3x3"
  param {
    lr_mult: 1
    decay_mult: 1
  }
  param {
    lr_mult: 2
    decay_mult: 0
  }
  convolution_param {
    num_output: 224
    pad: 1
    kernel_size: 3
    weight_filler {
      type: "xavier"
    }
    bias_filler {
      type: "constant"
      value: 0.2
    }
  }
}
layer {
  name: "inception_4b/relu_3x3"
  type: "ReLU"
  bottom: "inception_4b/3x3"
  top: "inception_4b/3x3"
}
layer {
  name: "inception_4b/5x5_reduce"
  type: "Convolution"
  bottom: "inception_4a/output"
  top: "inception_4b/5x5_reduce"
  param {
    lr_mult: 1
    decay_mult: 1
  }
  param {
    lr_mult: 2
    decay_mult: 0
  }
  convolution_param {
    num_output: 24
    kernel_size: 1
    weight_filler {
      type: "xavier"
    }
    bias_filler {
      type: "constant"
      value: 0.2
    }
  }
}
layer {
  name: "inception_4b/relu_5x5_reduce"
  type: "ReLU"
  bottom: "inception_4b/5x5_reduce"
  top: "inception_4b/5x5_reduce"
}
layer {
  name: "inception_4b/5x5"
  type: "Convolution"
  bottom: "inception_4b/5x5_reduce"
  top: "inception_4b/5x5"
  param {
    lr_mult: 1
    decay_mult: 1
  }
  param {
    lr_mult: 2
    decay_mult: 0
  }
  convolution_param {
    num_output: 64
    pad: 2
    kernel_size: 5
    weight_filler {
      type: "xavier"
    }
    bias_filler {
      type: "constant"
      value: 0.2
    }
  }
}
layer {
  name: "inception_4b/relu_5x5"
  type: "ReLU"
  bottom: "inception_4b/5x5"
  top: "inception_4b/5x5"
}
layer {
  name: "inception_4b/pool"
  type: "Pooling"
  bottom: "inception_4a/output"
  top: "inception_4b/pool"
  pooling_param {
    pool: MAX
    kernel_size: 3
    stride: 1
    pad: 1
  }
}
layer {
  name: "inception_4b/pool_proj"
  type: "Convolution"
  bottom: "inception_4b/pool"
  top: "inception_4b/pool_proj"
  param {
    lr_mult: 1
    decay_mult: 1
  }
  param {
    lr_mult: 2
    decay_mult: 0
  }
  convolution_param {
    num_output: 64
    kernel_size: 1
    weight_filler {
      type: "xavier"
    }
    bias_filler {
      type: "constant"
      value: 0.2
    }
  }
}
layer {
  name: "inception_4b/relu_pool_proj"
  type: "ReLU"
  bottom: "inception_4b/pool_proj"
  top: "inception_4b/pool_proj"
}
layer {
  name: "inception_4b/output"
  type: "Concat"
  bottom: "inception_4b/1x1"
  bottom: "inception_4b/3x3"
  bottom: "inception_4b/5x5"
  bottom: "inception_4b/pool_proj"
  top: "inception_4b/output"
}
layer {
  name: "inception_4c/1x1"
  type: "Convolution"
  bottom: "inception_4b/output"
  top: "inception_4c/1x1"
  param {
    lr_mult: 1
    decay_mult: 1
  }
  param {
    lr_mult: 2
    decay_mult: 0
  }
  convolution_param {
    num_output: 128
    kernel_size: 1
    weight_filler {
      type: "xavier"
    }
    bias_filler {
      type: "constant"
      value: 0.2
    }
  }
}
layer {
  name: "inception_4c/relu_1x1"
  type: "ReLU"
  bottom: "inception_4c/1x1"
  top: "inception_4c/1x1"
}
layer {
  name: "inception_4c/3x3_reduce"
  type: "Convolution"
  bottom: "inception_4b/output"
  top: "inception_4c/3x3_reduce"
  param {
    lr_mult: 1
    decay_mult: 1
  }
  param {
    lr_mult: 2
    decay_mult: 0
  }
  convolution_param {
    num_output: 128
    kernel_size: 1
    weight_filler {
      type: "xavier"
    }
    bias_filler {
      type: "constant"
      value: 0.2
    }
  }
}
layer {
  name: "inception_4c/relu_3x3_reduce"
  type: "ReLU"
  bottom: "inception_4c/3x3_reduce"
  top: "inception_4c/3x3_reduce"
}
layer {
  name: "inception_4c/3x3"
  type: "Convolution"
  bottom: "inception_4c/3x3_reduce"
  top: "inception_4c/3x3"
  param {
    lr_mult: 1
    decay_mult: 1
  }
  param {
    lr_mult: 2
    decay_mult: 0
  }
  convolution_param {
    num_output: 256
    pad: 1
    kernel_size: 3
    weight_filler {
      type: "xavier"
    }
    bias_filler {
      type: "constant"
      value: 0.2
    }
  }
}
layer {
  name: "inception_4c/relu_3x3"
  type: "ReLU"
  bottom: "inception_4c/3x3"
  top: "inception_4c/3x3"
}
layer {
  name: "inception_4c/5x5_reduce"
  type: "Convolution"
  bottom: "inception_4b/output"
  top: "inception_4c/5x5_reduce"
  param {
    lr_mult: 1
    decay_mult: 1
  }
  param {
    lr_mult: 2
    decay_mult: 0
  }
  convolution_param {
    num_output: 24
    kernel_size: 1
    weight_filler {
      type: "xavier"
    }
    bias_filler {
      type: "constant"
      value: 0.2
    }
  }
}
layer {
  name: "inception_4c/relu_5x5_reduce"
  type: "ReLU"
  bottom: "inception_4c/5x5_reduce"
  top: "inception_4c/5x5_reduce"
}
layer {
  name: "inception_4c/5x5"
  type: "Convolution"
  bottom: "inception_4c/5x5_reduce"
  top: "inception_4c/5x5"
  param {
    lr_mult: 1
    decay_mult: 1
  }
  param {
    lr_mult: 2
    decay_mult: 0
  }
  convolution_param {
    num_output: 64
    pad: 2
    kernel_size: 5
    weight_filler {
      type: "xavier"
    }
    bias_filler {
      type: "constant"
      value: 0.2
    }
  }
}
layer {
  name: "inception_4c/relu_5x5"
  type: "ReLU"
  bottom: "inception_4c/5x5"
  top: "inception_4c/5x5"
}
layer {
  name: "inception_4c/pool"
  type: "Pooling"
  bottom: "inception_4b/output"
  top: "inception_4c/pool"
  pooling_param {
    pool: MAX
    kernel_size: 3
    stride: 1
    pad: 1
  }
}
layer {
  name: "inception_4c/pool_proj"
  type: "Convolution"
  bottom: "inception_4c/pool"
  top: "inception_4c/pool_proj"
  param {
    lr_mult: 1
    decay_mult: 1
  }
  param {
    lr_mult: 2
    decay_mult: 0
  }
  convolution_param {
    num_output: 64
    kernel_size: 1
    weight_filler {
      type: "xavier"
    }
    bias_filler {
      type: "constant"
      value: 0.2
    }
  }
}
layer {
  name: "inception_4c/relu_pool_proj"
  type: "ReLU"
  bottom: "inception_4c/pool_proj"
  top: "inception_4c/pool_proj"
}
layer {
  name: "inception_4c/output"
  type: "Concat"
  bottom: "inception_4c/1x1"
  bottom: "inception_4c/3x3"
  bottom: "inception_4c/5x5"
  bottom: "inception_4c/pool_proj"
  top: "inception_4c/output"
}
layer {
  name: "inception_4d/1x1"
  type: "Convolution"
  bottom: "inception_4c/output"
  top: "inception_4d/1x1"
  param {
    lr_mult: 1
    decay_mult: 1
  }
  param {
    lr_mult: 2
    decay_mult: 0
  }
  convolution_param {
    num_output: 112
    kernel_size: 1
    weight_filler {
      type: "xavier"
    }
    bias_filler {
      type: "constant"
      value: 0.2
    }
  }
}
layer {
  name: "inception_4d/relu_1x1"
  type: "ReLU"
  bottom: "inception_4d/1x1"
  top: "inception_4d/1x1"
}
layer {
  name: "inception_4d/3x3_reduce"
  type: "Convolution"
  bottom: "inception_4c/output"
  top: "inception_4d/3x3_reduce"
  param {
    lr_mult: 1
    decay_mult: 1
  }
  param {
    lr_mult: 2
    decay_mult: 0
  }
  convolution_param {
    num_output: 144
    kernel_size: 1
    weight_filler {
      type: "xavier"
    }
    bias_filler {
      type: "constant"
      value: 0.2
    }
  }
}
layer {
  name: "inception_4d/relu_3x3_reduce"
  type: "ReLU"
  bottom: "inception_4d/3x3_reduce"
  top: "inception_4d/3x3_reduce"
}
layer {
  name: "inception_4d/3x3"
  type: "Convolution"
  bottom: "inception_4d/3x3_reduce"
  top: "inception_4d/3x3"
  param {
    lr_mult: 1
    decay_mult: 1
  }
  param {
    lr_mult: 2
    decay_mult: 0
  }
  convolution_param {
    num_output: 288
    pad: 1
    kernel_size: 3
    weight_filler {
      type: "xavier"
    }
    bias_filler {
      type: "constant"
      value: 0.2
    }
  }
}
layer {
  name: "inception_4d/relu_3x3"
  type: "ReLU"
  bottom: "inception_4d/3x3"
  top: "inception_4d/3x3"
}
layer {
  name: "inception_4d/5x5_reduce"
  type: "Convolution"
  bottom: "inception_4c/output"
  top: "inception_4d/5x5_reduce"
  param {
    lr_mult: 1
    decay_mult: 1
  }
  param {
    lr_mult: 2
    decay_mult: 0
  }
  convolution_param {
    num_output: 32
    kernel_size: 1
    weight_filler {
      type: "xavier"
    }
    bias_filler {
      type: "constant"
      value: 0.2
    }
  }
}
layer {
  name: "inception_4d/relu_5x5_reduce"
  type: "ReLU"
  bottom: "inception_4d/5x5_reduce"
  top: "inception_4d/5x5_reduce"
}
layer {
  name: "inception_4d/5x5"
  type: "Convolution"
  bottom: "inception_4d/5x5_reduce"
  top: "inception_4d/5x5"
  param {
    lr_mult: 1
    decay_mult: 1
  }
  param {
    lr_mult: 2
    decay_mult: 0
  }
  convolution_param {
    num_output: 64
    pad: 2
    kernel_size: 5
    weight_filler {
      type: "xavier"
    }
    bias_filler {
      type: "constant"
      value: 0.2
    }
  }
}
layer {
  name: "inception_4d/relu_5x5"
  type: "ReLU"
  bottom: "inception_4d/5x5"
  top: "inception_4d/5x5"
}
layer {
  name: "inception_4d/pool"
  type: "Pooling"
  bottom: "inception_4c/output"
  top: "inception_4d/pool"
  pooling_param {
    pool: MAX
    kernel_size: 3
    stride: 1
    pad: 1
  }
}
layer {
  name: "inception_4d/pool_proj"
  type: "Convolution"
  bottom: "inception_4d/pool"
  top: "inception_4d/pool_proj"
  param {
    lr_mult: 1
    decay_mult: 1
  }
  param {
    lr_mult: 2
    decay_mult: 0
  }
  convolution_param {
    num_output: 64
    kernel_size: 1
    weight_filler {
      type: "xavier"
    }
    bias_filler {
      type: "constant"
      value: 0.2
    }
  }
}
layer {
  name: "inception_4d/relu_pool_proj"
  type: "ReLU"
  bottom: "inception_4d/pool_proj"
  top: "inception_4d/pool_proj"
}
layer {
  name: "inception_4d/output"
  type: "Concat"
  bottom: "inception_4d/1x1"
  bottom: "inception_4d/3x3"
  bottom: "inception_4d/5x5"
  bottom: "inception_4d/pool_proj"
  top: "inception_4d/output"
}
layer {
  name: "loss2/ave_pool"
  type: "Pooling"
  bottom: "inception_4d/output"
  top: "loss2/ave_pool"
  pooling_param {
    pool: AVE
    kernel_size: 5
    stride: 3
  }
}
layer {
  name: "loss2/conv"
  type: "Convolution"
  bottom: "loss2/ave_pool"
  top: "loss2/conv"
  param {
    lr_mult: 1
    decay_mult: 1
  }
  param {
    lr_mult: 2
    decay_mult: 0
  }
  convolution_param {
    num_output: 128
    kernel_size: 1
    weight_filler {
      type: "xavier"
    }
    bias_filler {
      type: "constant"
      value: 0.2
    }
  }
}
layer {
  name: "loss2/relu_conv"
  type: "ReLU"
  bottom: "loss2/conv"
  top: "loss2/conv"
}
layer {
  name: "loss2/fc"
  type: "InnerProduct"
  bottom: "loss2/conv"
  top: "loss2/fc"
  param {
    lr_mult: 1
    decay_mult: 1
  }
  param {
    lr_mult: 2
    decay_mult: 0
  }
  inner_product_param {
    num_output: 1024
    weight_filler {
      type: "xavier"
    }
    bias_filler {
      type: "constant"
      value: 0.2
    }
  }
}
layer {
  name: "loss2/relu_fc"
  type: "ReLU"
  bottom: "loss2/fc"
  top: "loss2/fc"
}
layer {
  name: "loss2/drop_fc"
  type: "Dropout"
  bottom: "loss2/fc"
  top: "loss2/fc"
  dropout_param {
    dropout_ratio: 0.7
  }
}
layer {
  name: "loss2/classifier"
  type: "InnerProduct"
  bottom: "loss2/fc"
  top: "loss2/classifier"
  param {
    lr_mult: 1
    decay_mult: 1
  }
  param {
    lr_mult: 2
    decay_mult: 0
  }
  inner_product_param {
    num_output: 1000
    weight_filler {
      type: "xavier"
    }
    bias_filler {
      type: "constant"
      value: 0
    }
  }
}
layer {
  name: "loss2/loss"
  type: "SoftmaxWithLoss"
  bottom: "loss2/classifier"
  bottom: "label"
  top: "loss2/loss2"
  loss_weight: 0.3
}
layer {
  name: "inception_4e/1x1"
  type: "Convolution"
  bottom: "inception_4d/output"
  top: "inception_4e/1x1"
  param {
    lr_mult: 1
    decay_mult: 1
  }
  param {
    lr_mult: 2
    decay_mult: 0
  }
  convolution_param {
    num_output: 256
    kernel_size: 1
    weight_filler {
      type: "xavier"
    }
    bias_filler {
      type: "constant"
      value: 0.2
    }
  }
}
layer {
  name: "inception_4e/relu_1x1"
  type: "ReLU"
  bottom: "inception_4e/1x1"
  top: "inception_4e/1x1"
}
layer {
  name: "inception_4e/3x3_reduce"
  type: "Convolution"
  bottom: "inception_4d/output"
  top: "inception_4e/3x3_reduce"
  param {
    lr_mult: 1
    decay_mult: 1
  }
  param {
    lr_mult: 2
    decay_mult: 0
  }
  convolution_param {
    num_output: 160
    kernel_size: 1
    weight_filler {
      type: "xavier"
    }
    bias_filler {
      type: "constant"
      value: 0.2
    }
  }
}
layer {
  name: "inception_4e/relu_3x3_reduce"
  type: "ReLU"
  bottom: "inception_4e/3x3_reduce"
  top: "inception_4e/3x3_reduce"
}
layer {
  name: "inception_4e/3x3"
  type: "Convolution"
  bottom: "inception_4e/3x3_reduce"
  top: "inception_4e/3x3"
  param {
    lr_mult: 1
    decay_mult: 1
  }
  param {
    lr_mult: 2
    decay_mult: 0
  }
  convolution_param {
    num_output: 320
    pad: 1
    kernel_size: 3
    weight_filler {
      type: "xavier"
    }
    bias_filler {
      type: "constant"
      value: 0.2
    }
  }
}
layer {
  name: "inception_4e/relu_3x3"
  type: "ReLU"
  bottom: "inception_4e/3x3"
  top: "inception_4e/3x3"
}
layer {
  name: "inception_4e/5x5_reduce"
  type: "Convolution"
  bottom: "inception_4d/output"
  top: "inception_4e/5x5_reduce"
  param {
    lr_mult: 1
    decay_mult: 1
  }
  param {
    lr_mult: 2
    decay_mult: 0
  }
  convolution_param {
    num_output: 32
    kernel_size: 1
    weight_filler {
      type: "xavier"
    }
    bias_filler {
      type: "constant"
      value: 0.2
    }
  }
}
layer {
  name: "inception_4e/relu_5x5_reduce"
  type: "ReLU"
  bottom: "inception_4e/5x5_reduce"
  top: "inception_4e/5x5_reduce"
}
layer {
  name: "inception_4e/5x5"
  type: "Convolution"
  bottom: "inception_4e/5x5_reduce"
  top: "inception_4e/5x5"
  param {
    lr_mult: 1
    decay_mult: 1
  }
  param {
    lr_mult: 2
    decay_mult: 0
  }
  convolution_param {
    num_output: 128
    pad: 2
    kernel_size: 5
    weight_filler {
      type: "xavier"
    }
    bias_filler {
      type: "constant"
      value: 0.2
    }
  }
}
layer {
  name: "inception_4e/relu_5x5"
  type: "ReLU"
  bottom: "inception_4e/5x5"
  top: "inception_4e/5x5"
}
layer {
  name: "inception_4e/pool"
  type: "Pooling"
  bottom: "inception_4d/output"
  top: "inception_4e/pool"
  pooling_param {
    pool: MAX
    kernel_size: 
I0429 16:37:16.481508 15091 layer_factory.hpp:77] Creating layer data
I0429 16:37:16.481626 15091 db_lmdb.cpp:35] Opened lmdb retina256/retina256_train_lmdb
I0429 16:37:16.481662 15091 net.cpp:84] Creating Layer data
I0429 16:37:16.481673 15091 net.cpp:380] data -> data
I0429 16:37:16.481734 15091 net.cpp:380] data -> label
I0429 16:37:16.481761 15091 data_transformer.cpp:25] Loading mean file from: retina256/retina256_train_mean.binaryproto
I0429 16:37:16.485620 15091 data_layer.cpp:45] output data size: 50,3,224,224
I0429 16:37:16.556447 15091 net.cpp:122] Setting up data
I0429 16:37:16.556484 15091 net.cpp:129] Top shape: 50 3 224 224 (7526400)
I0429 16:37:16.556494 15091 net.cpp:129] Top shape: 50 (50)
I0429 16:37:16.556500 15091 net.cpp:137] Memory required for data: 30105800
I0429 16:37:16.556514 15091 layer_factory.hpp:77] Creating layer label_data_1_split
I0429 16:37:16.556531 15091 net.cpp:84] Creating Layer label_data_1_split
I0429 16:37:16.556541 15091 net.cpp:406] label_data_1_split <- label
I0429 16:37:16.556558 15091 net.cpp:380] label_data_1_split -> label_data_1_split_0
I0429 16:37:16.556627 15091 net.cpp:380] label_data_1_split -> label_data_1_split_1
I0429 16:37:16.556738 15091 net.cpp:380] label_data_1_split -> label_data_1_split_2
I0429 16:37:16.556799 15091 net.cpp:122] Setting up label_data_1_split
I0429 16:37:16.556810 15091 net.cpp:129] Top shape: 50 (50)
I0429 16:37:16.556816 15091 net.cpp:129] Top shape: 50 (50)
I0429 16:37:16.556825 15091 net.cpp:129] Top shape: 50 (50)
I0429 16:37:16.556830 15091 net.cpp:137] Memory required for data: 30106400
I0429 16:37:16.556836 15091 layer_factory.hpp:77] Creating layer conv1/7x7_s2
I0429 16:37:16.556859 15091 net.cpp:84] Creating Layer conv1/7x7_s2
I0429 16:37:16.556865 15091 net.cpp:406] conv1/7x7_s2 <- data
I0429 16:37:16.556874 15091 net.cpp:380] conv1/7x7_s2 -> conv1/7x7_s2
I0429 16:37:17.980046 15091 net.cpp:122] Setting up conv1/7x7_s2
I0429 16:37:17.980087 15091 net.cpp:129] Top shape: 50 64 112 112 (40140800)
I0429 16:37:17.980098 15091 net.cpp:137] Memory required for data: 190669600
I0429 16:37:17.980128 15091 layer_factory.hpp:77] Creating layer conv1/relu_7x7
I0429 16:37:17.980144 15091 net.cpp:84] Creating Layer conv1/relu_7x7
I0429 16:37:17.980154 15091 net.cpp:406] conv1/relu_7x7 <- conv1/7x7_s2
I0429 16:37:17.980167 15091 net.cpp:367] conv1/relu_7x7 -> conv1/7x7_s2 (in-place)
I0429 16:37:17.980424 15091 net.cpp:122] Setting up conv1/relu_7x7
I0429 16:37:17.980442 15091 net.cpp:129] Top shape: 50 64 112 112 (40140800)
I0429 16:37:17.980449 15091 net.cpp:137] Memory required for data: 351232800
I0429 16:37:17.980458 15091 layer_factory.hpp:77] Creating layer pool1/3x3_s2
I0429 16:37:17.980474 15091 net.cpp:84] Creating Layer pool1/3x3_s2
I0429 16:37:17.980484 15091 net.cpp:406] pool1/3x3_s2 <- conv1/7x7_s2
I0429 16:37:17.980495 15091 net.cpp:380] pool1/3x3_s2 -> pool1/3x3_s2
I0429 16:37:17.980562 15091 net.cpp:122] Setting up pool1/3x3_s2
I0429 16:37:17.980576 15091 net.cpp:129] Top shape: 50 64 56 56 (10035200)
I0429 16:37:17.980583 15091 net.cpp:137] Memory required for data: 391373600
I0429 16:37:17.980590 15091 layer_factory.hpp:77] Creating layer pool1/norm1
I0429 16:37:17.980610 15091 net.cpp:84] Creating Layer pool1/norm1
I0429 16:37:17.980618 15091 net.cpp:406] pool1/norm1 <- pool1/3x3_s2
I0429 16:37:17.980630 15091 net.cpp:380] pool1/norm1 -> pool1/norm1
I0429 16:37:17.980921 15091 net.cpp:122] Setting up pool1/norm1
I0429 16:37:17.980940 15091 net.cpp:129] Top shape: 50 64 56 56 (10035200)
I0429 16:37:17.980948 15091 net.cpp:137] Memory required for data: 431514400
I0429 16:37:17.980957 15091 layer_factory.hpp:77] Creating layer conv2/3x3_reduce
I0429 16:37:17.980978 15091 net.cpp:84] Creating Layer conv2/3x3_reduce
I0429 16:37:17.980986 15091 net.cpp:406] conv2/3x3_reduce <- pool1/norm1
I0429 16:37:17.980998 15091 net.cpp:380] conv2/3x3_reduce -> conv2/3x3_reduce
I0429 16:37:17.984169 15091 net.cpp:122] Setting up conv2/3x3_reduce
I0429 16:37:17.984205 15091 net.cpp:129] Top shape: 50 64 56 56 (10035200)
I0429 16:37:17.984215 15091 net.cpp:137] Memory required for data: 471655200
I0429 16:37:17.984236 15091 layer_factory.hpp:77] Creating layer conv2/relu_3x3_reduce
I0429 16:37:17.984254 15091 net.cpp:84] Creating Layer conv2/relu_3x3_reduce
I0429 16:37:17.984264 15091 net.cpp:406] conv2/relu_3x3_reduce <- conv2/3x3_reduce
I0429 16:37:17.984279 15091 net.cpp:367] conv2/relu_3x3_reduce -> conv2/3x3_reduce (in-place)
I0429 16:37:17.984516 15091 net.cpp:122] Setting up conv2/relu_3x3_reduce
I0429 16:37:17.984532 15091 net.cpp:129] Top shape: 50 64 56 56 (10035200)
I0429 16:37:17.984540 15091 net.cpp:137] Memory required for data: 511796000
I0429 16:37:17.984549 15091 layer_factory.hpp:77] Creating layer conv2/3x3
I0429 16:37:17.984576 15091 net.cpp:84] Creating Layer conv2/3x3
I0429 16:37:17.984586 15091 net.cpp:406] conv2/3x3 <- conv2/3x3_reduce
I0429 16:37:17.984599 15091 net.cpp:380] conv2/3x3 -> conv2/3x3
I0429 16:37:17.987711 15091 net.cpp:122] Setting up conv2/3x3
I0429 16:37:17.987742 15091 net.cpp:129] Top shape: 50 192 56 56 (30105600)
I0429 16:37:17.987751 15091 net.cpp:137] Memory required for data: 632218400
I0429 16:37:17.987819 15091 layer_factory.hpp:77] Creating layer conv2/relu_3x3
I0429 16:37:17.987836 15091 net.cpp:84] Creating Layer conv2/relu_3x3
I0429 16:37:17.987846 15091 net.cpp:406] conv2/relu_3x3 <- conv2/3x3
I0429 16:37:17.987859 15091 net.cpp:367] conv2/relu_3x3 -> conv2/3x3 (in-place)
I0429 16:37:17.988649 15091 net.cpp:122] Setting up conv2/relu_3x3
I0429 16:37:17.988669 15091 net.cpp:129] Top shape: 50 192 56 56 (30105600)
I0429 16:37:17.988677 15091 net.cpp:137] Memory required for data: 752640800
I0429 16:37:17.988684 15091 layer_factory.hpp:77] Creating layer conv2/norm2
I0429 16:37:17.988700 15091 net.cpp:84] Creating Layer conv2/norm2
I0429 16:37:17.988709 15091 net.cpp:406] conv2/norm2 <- conv2/3x3
I0429 16:37:17.988723 15091 net.cpp:380] conv2/norm2 -> conv2/norm2
I0429 16:37:17.989013 15091 net.cpp:122] Setting up conv2/norm2
I0429 16:37:17.989032 15091 net.cpp:129] Top shape: 50 192 56 56 (30105600)
I0429 16:37:17.989040 15091 net.cpp:137] Memory required for data: 873063200
I0429 16:37:17.989048 15091 layer_factory.hpp:77] Creating layer pool2/3x3_s2
I0429 16:37:17.989059 15091 net.cpp:84] Creating Layer pool2/3x3_s2
I0429 16:37:17.989068 15091 net.cpp:406] pool2/3x3_s2 <- conv2/norm2
I0429 16:37:17.989081 15091 net.cpp:380] pool2/3x3_s2 -> pool2/3x3_s2
I0429 16:37:17.989140 15091 net.cpp:122] Setting up pool2/3x3_s2
I0429 16:37:17.989153 15091 net.cpp:129] Top shape: 50 192 28 28 (7526400)
I0429 16:37:17.989161 15091 net.cpp:137] Memory required for data: 903168800
I0429 16:37:17.989168 15091 layer_factory.hpp:77] Creating layer pool2/3x3_s2_pool2/3x3_s2_0_split
I0429 16:37:17.989181 15091 net.cpp:84] Creating Layer pool2/3x3_s2_pool2/3x3_s2_0_split
I0429 16:37:17.989189 15091 net.cpp:406] pool2/3x3_s2_pool2/3x3_s2_0_split <- pool2/3x3_s2
I0429 16:37:17.989202 15091 net.cpp:380] pool2/3x3_s2_pool2/3x3_s2_0_split -> pool2/3x3_s2_pool2/3x3_s2_0_split_0
I0429 16:37:17.989217 15091 net.cpp:380] pool2/3x3_s2_pool2/3x3_s2_0_split -> pool2/3x3_s2_pool2/3x3_s2_0_split_1
I0429 16:37:17.989231 15091 net.cpp:380] pool2/3x3_s2_pool2/3x3_s2_0_split -> pool2/3x3_s2_pool2/3x3_s2_0_split_2
I0429 16:37:17.989243 15091 net.cpp:380] pool2/3x3_s2_pool2/3x3_s2_0_split -> pool2/3x3_s2_pool2/3x3_s2_0_split_3
I0429 16:37:17.989326 15091 net.cpp:122] Setting up pool2/3x3_s2_pool2/3x3_s2_0_split
I0429 16:37:17.989341 15091 net.cpp:129] Top shape: 50 192 28 28 (7526400)
I0429 16:37:17.989349 15091 net.cpp:129] Top shape: 50 192 28 28 (7526400)
I0429 16:37:17.989356 15091 net.cpp:129] Top shape: 50 192 28 28 (7526400)
I0429 16:37:17.989364 15091 net.cpp:129] Top shape: 50 192 28 28 (7526400)
I0429 16:37:17.989372 15091 net.cpp:137] Memory required for data: 1023591200
I0429 16:37:17.989378 15091 layer_factory.hpp:77] Creating layer inception_3a/1x1
I0429 16:37:17.989398 15091 net.cpp:84] Creating Layer inception_3a/1x1
I0429 16:37:17.989408 15091 net.cpp:406] inception_3a/1x1 <- pool2/3x3_s2_pool2/3x3_s2_0_split_0
I0429 16:37:17.989423 15091 net.cpp:380] inception_3a/1x1 -> inception_3a/1x1
I0429 16:37:17.992457 15091 net.cpp:122] Setting up inception_3a/1x1
I0429 16:37:17.992485 15091 net.cpp:129] Top shape: 50 64 28 28 (2508800)
I0429 16:37:17.992492 15091 net.cpp:137] Memory required for data: 1033626400
I0429 16:37:17.992506 15091 layer_factory.hpp:77] Creating layer inception_3a/relu_1x1
I0429 16:37:17.992518 15091 net.cpp:84] Creating Layer inception_3a/relu_1x1
I0429 16:37:17.992527 15091 net.cpp:406] inception_3a/relu_1x1 <- inception_3a/1x1
I0429 16:37:17.992540 15091 net.cpp:367] inception_3a/relu_1x1 -> inception_3a/1x1 (in-place)
I0429 16:37:17.992799 15091 net.cpp:122] Setting up inception_3a/relu_1x1
I0429 16:37:17.992815 15091 net.cpp:129] Top shape: 50 64 28 28 (2508800)
I0429 16:37:17.992822 15091 net.cpp:137] Memory required for data: 1043661600
I0429 16:37:17.992830 15091 layer_factory.hpp:77] Creating layer inception_3a/3x3_reduce
I0429 16:37:17.992848 15091 net.cpp:84] Creating Layer inception_3a/3x3_reduce
I0429 16:37:17.992857 15091 net.cpp:406] inception_3a/3x3_reduce <- pool2/3x3_s2_pool2/3x3_s2_0_split_1
I0429 16:37:17.992913 15091 net.cpp:380] inception_3a/3x3_reduce -> inception_3a/3x3_reduce
I0429 16:37:17.996078 15091 net.cpp:122] Setting up inception_3a/3x3_reduce
I0429 16:37:17.996111 15091 net.cpp:129] Top shape: 50 96 28 28 (3763200)
I0429 16:37:17.996121 15091 net.cpp:137] Memory required for data: 1058714400
I0429 16:37:17.996143 15091 layer_factory.hpp:77] Creating layer inception_3a/relu_3x3_reduce
I0429 16:37:17.996166 15091 net.cpp:84] Creating Layer inception_3a/relu_3x3_reduce
I0429 16:37:17.996177 15091 net.cpp:406] inception_3a/relu_3x3_reduce <- inception_3a/3x3_reduce
I0429 16:37:17.996189 15091 net.cpp:367] inception_3a/relu_3x3_reduce -> inception_3a/3x3_reduce (in-place)
I0429 16:37:17.996438 15091 net.cpp:122] Setting up inception_3a/relu_3x3_reduce
I0429 16:37:17.996454 15091 net.cpp:129] Top shape: 50 96 28 28 (3763200)
I0429 16:37:17.996461 15091 net.cpp:137] Memory required for data: 1073767200
I0429 16:37:17.996469 15091 layer_factory.hpp:77] Creating layer inception_3a/3x3
I0429 16:37:17.996489 15091 net.cpp:84] Creating Layer inception_3a/3x3
I0429 16:37:17.996497 15091 net.cpp:406] inception_3a/3x3 <- inception_3a/3x3_reduce
I0429 16:37:17.996512 15091 net.cpp:380] inception_3a/3x3 -> inception_3a/3x3
I0429 16:37:17.999656 15091 net.cpp:122] Setting up inception_3a/3x3
I0429 16:37:17.999691 15091 net.cpp:129] Top shape: 50 128 28 28 (5017600)
I0429 16:37:17.999701 15091 net.cpp:137] Memory required for data: 1093837600
I0429 16:37:17.999716 15091 layer_factory.hpp:77] Creating layer inception_3a/relu_3x3
I0429 16:37:17.999729 15091 net.cpp:84] Creating Layer inception_3a/relu_3x3
I0429 16:37:17.999738 15091 net.cpp:406] inception_3a/relu_3x3 <- inception_3a/3x3
I0429 16:37:17.999753 15091 net.cpp:367] inception_3a/relu_3x3 -> inception_3a/3x3 (in-place)
I0429 16:37:18.000001 15091 net.cpp:122] Setting up inception_3a/relu_3x3
I0429 16:37:18.000018 15091 net.cpp:129] Top shape: 50 128 28 28 (5017600)
I0429 16:37:18.000027 15091 net.cpp:137] Memory required for data: 1113908000
I0429 16:37:18.000036 15091 layer_factory.hpp:77] Creating layer inception_3a/5x5_reduce
I0429 16:37:18.000056 15091 net.cpp:84] Creating Layer inception_3a/5x5_reduce
I0429 16:37:18.000066 15091 net.cpp:406] inception_3a/5x5_reduce <- pool2/3x3_s2_pool2/3x3_s2_0_split_2
I0429 16:37:18.000082 15091 net.cpp:380] inception_3a/5x5_reduce -> inception_3a/5x5_reduce
I0429 16:37:18.001929 15091 net.cpp:122] Setting up inception_3a/5x5_reduce
I0429 16:37:18.001971 15091 net.cpp:129] Top shape: 50 16 28 28 (627200)
I0429 16:37:18.001979 15091 net.cpp:137] Memory required for data: 1116416800
I0429 16:37:18.001999 15091 layer_factory.hpp:77] Creating layer inception_3a/relu_5x5_reduce
I0429 16:37:18.002024 15091 net.cpp:84] Creating Layer inception_3a/relu_5x5_reduce
I0429 16:37:18.002039 15091 net.cpp:406] inception_3a/relu_5x5_reduce <- inception_3a/5x5_reduce
I0429 16:37:18.002056 15091 net.cpp:367] inception_3a/relu_5x5_reduce -> inception_3a/5x5_reduce (in-place)
I0429 16:37:18.002339 15091 net.cpp:122] Setting up inception_3a/relu_5x5_reduce
I0429 16:37:18.002357 15091 net.cpp:129] Top shape: 50 16 28 28 (627200)
I0429 16:37:18.002364 15091 net.cpp:137] Memory required for data: 1118925600
I0429 16:37:18.002372 15091 layer_factory.hpp:77] Creating layer inception_3a/5x5
I0429 16:37:18.002398 15091 net.cpp:84] Creating Layer inception_3a/5x5
I0429 16:37:18.002408 15091 net.cpp:406] inception_3a/5x5 <- inception_3a/5x5_reduce
I0429 16:37:18.002423 15091 net.cpp:380] inception_3a/5x5 -> inception_3a/5x5
I0429 16:37:18.004719 15091 net.cpp:122] Setting up inception_3a/5x5
I0429 16:37:18.004789 15091 net.cpp:129] Top shape: 50 32 28 28 (1254400)
I0429 16:37:18.004802 15091 net.cpp:137] Memory required for data: 1123943200
I0429 16:37:18.004824 15091 layer_factory.hpp:77] Creating layer inception_3a/relu_5x5
I0429 16:37:18.004840 15091 net.cpp:84] Creating Layer inception_3a/relu_5x5
I0429 16:37:18.004849 15091 net.cpp:406] inception_3a/relu_5x5 <- inception_3a/5x5
I0429 16:37:18.004885 15091 net.cpp:367] inception_3a/relu_5x5 -> inception_3a/5x5 (in-place)
I0429 16:37:18.006057 15091 net.cpp:122] Setting up inception_3a/relu_5x5
I0429 16:37:18.006088 15091 net.cpp:129] Top shape: 50 32 28 28 (1254400)
I0429 16:37:18.006096 15091 net.cpp:137] Memory required for data: 1128960800
I0429 16:37:18.006105 15091 layer_factory.hpp:77] Creating layer inception_3a/pool
I0429 16:37:18.006129 15091 net.cpp:84] Creating Layer inception_3a/pool
I0429 16:37:18.006139 15091 net.cpp:406] inception_3a/pool <- pool2/3x3_s2_pool2/3x3_s2_0_split_3
I0429 16:37:18.006156 15091 net.cpp:380] inception_3a/pool -> inception_3a/pool
I0429 16:37:18.006248 15091 net.cpp:122] Setting up inception_3a/pool
I0429 16:37:18.006263 15091 net.cpp:129] Top shape: 50 192 28 28 (7526400)
I0429 16:37:18.006270 15091 net.cpp:137] Memory required for data: 1159066400
I0429 16:37:18.006278 15091 layer_factory.hpp:77] Creating layer inception_3a/pool_proj
I0429 16:37:18.006310 15091 net.cpp:84] Creating Layer inception_3a/pool_proj
I0429 16:37:18.006321 15091 net.cpp:406] inception_3a/pool_proj <- inception_3a/pool
I0429 16:37:18.006335 15091 net.cpp:380] inception_3a/pool_proj -> inception_3a/pool_proj
I0429 16:37:18.008101 15091 net.cpp:122] Setting up inception_3a/pool_proj
I0429 16:37:18.008121 15091 net.cpp:129] Top shape: 50 32 28 28 (1254400)
I0429 16:37:18.008128 15091 net.cpp:137] Memory required for data: 1164084000
I0429 16:37:18.008148 15091 layer_factory.hpp:77] Creating layer inception_3a/relu_pool_proj
I0429 16:37:18.008162 15091 net.cpp:84] Creating Layer inception_3a/relu_pool_proj
I0429 16:37:18.008169 15091 net.cpp:406] inception_3a/relu_pool_proj <- inception_3a/pool_proj
I0429 16:37:18.008183 15091 net.cpp:367] inception_3a/relu_pool_proj -> inception_3a/pool_proj (in-place)
I0429 16:37:18.008422 15091 net.cpp:122] Setting up inception_3a/relu_pool_proj
I0429 16:37:18.008438 15091 net.cpp:129] Top shape: 50 32 28 28 (1254400)
I0429 16:37:18.008446 15091 net.cpp:137] Memory required for data: 1169101600
I0429 16:37:18.008455 15091 layer_factory.hpp:77] Creating layer inception_3a/output
I0429 16:37:18.008467 15091 net.cpp:84] Creating Layer inception_3a/output
I0429 16:37:18.008476 15091 net.cpp:406] inception_3a/output <- inception_3a/1x1
I0429 16:37:18.008486 15091 net.cpp:406] inception_3a/output <- inception_3a/3x3
I0429 16:37:18.008494 15091 net.cpp:406] inception_3a/output <- inception_3a/5x5
I0429 16:37:18.008502 15091 net.cpp:406] inception_3a/output <- inception_3a/pool_proj
I0429 16:37:18.008512 15091 net.cpp:380] inception_3a/output -> inception_3a/output
I0429 16:37:18.008554 15091 net.cpp:122] Setting up inception_3a/output
I0429 16:37:18.008569 15091 net.cpp:129] Top shape: 50 256 28 28 (10035200)
I0429 16:37:18.008574 15091 net.cpp:137] Memory required for data: 1209242400
I0429 16:37:18.008581 15091 layer_factory.hpp:77] Creating layer inception_3a/output_inception_3a/output_0_split
I0429 16:37:18.008592 15091 net.cpp:84] Creating Layer inception_3a/output_inception_3a/output_0_split
I0429 16:37:18.008601 15091 net.cpp:406] inception_3a/output_inception_3a/output_0_split <- inception_3a/output
I0429 16:37:18.008615 15091 net.cpp:380] inception_3a/output_inception_3a/output_0_split -> inception_3a/output_inception_3a/output_0_split_0
I0429 16:37:18.008627 15091 net.cpp:380] inception_3a/output_inception_3a/output_0_split -> inception_3a/output_inception_3a/output_0_split_1
I0429 16:37:18.008641 15091 net.cpp:380] inception_3a/output_inception_3a/output_0_split -> inception_3a/output_inception_3a/output_0_split_2
I0429 16:37:18.008656 15091 net.cpp:380] inception_3a/output_inception_3a/output_0_split -> inception_3a/output_inception_3a/output_0_split_3
I0429 16:37:18.008745 15091 net.cpp:122] Setting up inception_3a/output_inception_3a/output_0_split
I0429 16:37:18.008759 15091 net.cpp:129] Top shape: 50 256 28 28 (10035200)
I0429 16:37:18.008766 15091 net.cpp:129] Top shape: 50 256 28 28 (10035200)
I0429 16:37:18.008775 15091 net.cpp:129] Top shape: 50 256 28 28 (10035200)
I0429 16:37:18.008783 15091 net.cpp:129] Top shape: 50 256 28 28 (10035200)
I0429 16:37:18.008816 15091 net.cpp:137] Memory required for data: 1369805600
I0429 16:37:18.008824 15091 layer_factory.hpp:77] Creating layer inception_3b/1x1
I0429 16:37:18.008843 15091 net.cpp:84] Creating Layer inception_3b/1x1
I0429 16:37:18.008852 15091 net.cpp:406] inception_3b/1x1 <- inception_3a/output_inception_3a/output_0_split_0
I0429 16:37:18.008867 15091 net.cpp:380] inception_3b/1x1 -> inception_3b/1x1
I0429 16:37:18.010447 15091 net.cpp:122] Setting up inception_3b/1x1
I0429 16:37:18.010464 15091 net.cpp:129] Top shape: 50 128 28 28 (5017600)
I0429 16:37:18.010470 15091 net.cpp:137] Memory required for data: 1389876000
I0429 16:37:18.010481 15091 layer_factory.hpp:77] Creating layer inception_3b/relu_1x1
I0429 16:37:18.010490 15091 net.cpp:84] Creating Layer inception_3b/relu_1x1
I0429 16:37:18.010499 15091 net.cpp:406] inception_3b/relu_1x1 <- inception_3b/1x1
I0429 16:37:18.010509 15091 net.cpp:367] inception_3b/relu_1x1 -> inception_3b/1x1 (in-place)
I0429 16:37:18.010694 15091 net.cpp:122] Setting up inception_3b/relu_1x1
I0429 16:37:18.010710 15091 net.cpp:129] Top shape: 50 128 28 28 (5017600)
I0429 16:37:18.010722 15091 net.cpp:137] Memory required for data: 1409946400
I0429 16:37:18.010730 15091 layer_factory.hpp:77] Creating layer inception_3b/3x3_reduce
I0429 16:37:18.010745 15091 net.cpp:84] Creating Layer inception_3b/3x3_reduce
I0429 16:37:18.010751 15091 net.cpp:406] inception_3b/3x3_reduce <- inception_3a/output_inception_3a/output_0_split_1
I0429 16:37:18.010764 15091 net.cpp:380] inception_3b/3x3_reduce -> inception_3b/3x3_reduce
I0429 16:37:18.012223 15091 net.cpp:122] Setting up inception_3b/3x3_reduce
I0429 16:37:18.012243 15091 net.cpp:129] Top shape: 50 128 28 28 (5017600)
I0429 16:37:18.012253 15091 net.cpp:137] Memory required for data: 1430016800
I0429 16:37:18.012272 15091 layer_factory.hpp:77] Creating layer inception_3b/relu_3x3_reduce
I0429 16:37:18.012289 15091 net.cpp:84] Creating Layer inception_3b/relu_3x3_reduce
I0429 16:37:18.012298 15091 net.cpp:406] inception_3b/relu_3x3_reduce <- inception_3b/3x3_reduce
I0429 16:37:18.012315 15091 net.cpp:367] inception_3b/relu_3x3_reduce -> inception_3b/3x3_reduce (in-place)
I0429 16:37:18.012521 15091 net.cpp:122] Setting up inception_3b/relu_3x3_reduce
I0429 16:37:18.012537 15091 net.cpp:129] Top shape: 50 128 28 28 (5017600)
I0429 16:37:18.012545 15091 net.cpp:137] Memory required for data: 1450087200
I0429 16:37:18.012557 15091 layer_factory.hpp:77] Creating layer inception_3b/3x3
I0429 16:37:18.012584 15091 net.cpp:84] Creating Layer inception_3b/3x3
I0429 16:37:18.012595 15091 net.cpp:406] inception_3b/3x3 <- inception_3b/3x3_reduce
I0429 16:37:18.012609 15091 net.cpp:380] inception_3b/3x3 -> inception_3b/3x3
I0429 16:37:18.018810 15091 net.cpp:122] Setting up inception_3b/3x3
I0429 16:37:18.018834 15091 net.cpp:129] Top shape: 50 192 28 28 (7526400)
I0429 16:37:18.018843 15091 net.cpp:137] Memory required for data: 1480192800
I0429 16:37:18.018858 15091 layer_factory.hpp:77] Creating layer inception_3b/relu_3x3
I0429 16:37:18.018875 15091 net.cpp:84] Creating Layer inception_3b/relu_3x3
I0429 16:37:18.018887 15091 net.cpp:406] inception_3b/relu_3x3 <- inception_3b/3x3
I0429 16:37:18.018903 15091 net.cpp:367] inception_3b/relu_3x3 -> inception_3b/3x3 (in-place)
I0429 16:37:18.019093 15091 net.cpp:122] Setting up inception_3b/relu_3x3
I0429 16:37:18.019106 15091 net.cpp:129] Top shape: 50 192 28 28 (7526400)
I0429 16:37:18.019120 15091 net.cpp:137] Memory required for data: 1510298400
I0429 16:37:18.019129 15091 layer_factory.hpp:77] Creating layer inception_3b/5x5_reduce
I0429 16:37:18.019146 15091 net.cpp:84] Creating Layer inception_3b/5x5_reduce
I0429 16:37:18.019160 15091 net.cpp:406] inception_3b/5x5_reduce <- inception_3a/output_inception_3a/output_0_split_2
I0429 16:37:18.019181 15091 net.cpp:380] inception_3b/5x5_reduce -> inception_3b/5x5_reduce
I0429 16:37:18.020526 15091 net.cpp:122] Setting up inception_3b/5x5_reduce
I0429 16:37:18.020546 15091 net.cpp:129] Top shape: 50 32 28 28 (1254400)
I0429 16:37:18.020565 15091 net.cpp:137] Memory required for data: 1515316000
I0429 16:37:18.020594 15091 layer_factory.hpp:77] Creating layer inception_3b/relu_5x5_reduce
I0429 16:37:18.020607 15091 net.cpp:84] Creating Layer inception_3b/relu_5x5_reduce
I0429 16:37:18.020613 15091 net.cpp:406] inception_3b/relu_5x5_reduce <- inception_3b/5x5_reduce
I0429 16:37:18.020627 15091 net.cpp:367] inception_3b/relu_5x5_reduce -> inception_3b/5x5_reduce (in-place)
I0429 16:37:18.020824 15091 net.cpp:122] Setting up inception_3b/relu_5x5_reduce
I0429 16:37:18.020840 15091 net.cpp:129] Top shape: 50 32 28 28 (1254400)
I0429 16:37:18.020848 15091 net.cpp:137] Memory required for data: 1520333600
I0429 16:37:18.020855 15091 layer_factory.hpp:77] Creating layer inception_3b/5x5
I0429 16:37:18.020871 15091 net.cpp:84] Creating Layer inception_3b/5x5
I0429 16:37:18.020884 15091 net.cpp:406] inception_3b/5x5 <- inception_3b/5x5_reduce
I0429 16:37:18.020902 15091 net.cpp:380] inception_3b/5x5 -> inception_3b/5x5
I0429 16:37:18.023175 15091 net.cpp:122] Setting up inception_3b/5x5
I0429 16:37:18.023195 15091 net.cpp:129] Top shape: 50 96 28 28 (3763200)
I0429 16:37:18.023205 15091 net.cpp:137] Memory required for data: 1535386400
I0429 16:37:18.023217 15091 layer_factory.hpp:77] Creating layer inception_3b/relu_5x5
I0429 16:37:18.023231 15091 net.cpp:84] Creating Layer inception_3b/relu_5x5
I0429 16:37:18.023241 15091 net.cpp:406] inception_3b/relu_5x5 <- inception_3b/5x5
I0429 16:37:18.023255 15091 net.cpp:367] inception_3b/relu_5x5 -> inception_3b/5x5 (in-place)
I0429 16:37:18.023933 15091 net.cpp:122] Setting up inception_3b/relu_5x5
I0429 16:37:18.023955 15091 net.cpp:129] Top shape: 50 96 28 28 (3763200)
I0429 16:37:18.023967 15091 net.cpp:137] Memory required for data: 1550439200
I0429 16:37:18.023978 15091 layer_factory.hpp:77] Creating layer inception_3b/pool
I0429 16:37:18.023994 15091 net.cpp:84] Creating Layer inception_3b/pool
I0429 16:37:18.024008 15091 net.cpp:406] inception_3b/pool <- inception_3a/output_inception_3a/output_0_split_3
I0429 16:37:18.024021 15091 net.cpp:380] inception_3b/pool -> inception_3b/pool
I0429 16:37:18.024077 15091 net.cpp:122] Setting up inception_3b/pool
I0429 16:37:18.024094 15091 net.cpp:129] Top shape: 50 256 28 28 (10035200)
I0429 16:37:18.024107 15091 net.cpp:137] Memory required for data: 1590580000
I0429 16:37:18.024116 15091 layer_factory.hpp:77] Creating layer inception_3b/pool_proj
I0429 16:37:18.024133 15091 net.cpp:84] Creating Layer inception_3b/pool_proj
I0429 16:37:18.024145 15091 net.cpp:406] inception_3b/pool_proj <- inception_3b/pool
I0429 16:37:18.024163 15091 net.cpp:380] inception_3b/pool_proj -> inception_3b/pool_proj
I0429 16:37:18.025353 15091 net.cpp:122] Setting up inception_3b/pool_proj
I0429 16:37:18.025373 15091 net.cpp:129] Top shape: 50 64 28 28 (2508800)
I0429 16:37:18.025382 15091 net.cpp:137] Memory required for data: 1600615200
I0429 16:37:18.025393 15091 layer_factory.hpp:77] Creating layer inception_3b/relu_pool_proj
I0429 16:37:18.025404 15091 net.cpp:84] Creating Layer inception_3b/relu_pool_proj
I0429 16:37:18.025413 15091 net.cpp:406] inception_3b/relu_pool_proj <- inception_3b/pool_proj
I0429 16:37:18.025424 15091 net.cpp:367] inception_3b/relu_pool_proj -> inception_3b/pool_proj (in-place)
I0429 16:37:18.025574 15091 net.cpp:122] Setting up inception_3b/relu_pool_proj
I0429 16:37:18.025585 15091 net.cpp:129] Top shape: 50 64 28 28 (2508800)
I0429 16:37:18.025590 15091 net.cpp:137] Memory required for data: 1610650400
I0429 16:37:18.025594 15091 layer_factory.hpp:77] Creating layer inception_3b/output
I0429 16:37:18.025604 15091 net.cpp:84] Creating Layer inception_3b/output
I0429 16:37:18.025609 15091 net.cpp:406] inception_3b/output <- inception_3b/1x1
I0429 16:37:18.025615 15091 net.cpp:406] inception_3b/output <- inception_3b/3x3
I0429 16:37:18.025620 15091 net.cpp:406] inception_3b/output <- inception_3b/5x5
I0429 16:37:18.025625 15091 net.cpp:406] inception_3b/output <- inception_3b/pool_proj
I0429 16:37:18.025632 15091 net.cpp:380] inception_3b/output -> inception_3b/output
I0429 16:37:18.025676 15091 net.cpp:122] Setting up inception_3b/output
I0429 16:37:18.025682 15091 net.cpp:129] Top shape: 50 480 28 28 (18816000)
I0429 16:37:18.025686 15091 net.cpp:137] Memory required for data: 1685914400
I0429 16:37:18.025691 15091 layer_factory.hpp:77] Creating layer pool3/3x3_s2
I0429 16:37:18.025698 15091 net.cpp:84] Creating Layer pool3/3x3_s2
I0429 16:37:18.025729 15091 net.cpp:406] pool3/3x3_s2 <- inception_3b/output
I0429 16:37:18.025739 15091 net.cpp:380] pool3/3x3_s2 -> pool3/3x3_s2
I0429 16:37:18.025775 15091 net.cpp:122] Setting up pool3/3x3_s2
I0429 16:37:18.025784 15091 net.cpp:129] Top shape: 50 480 14 14 (4704000)
I0429 16:37:18.025787 15091 net.cpp:137] Memory required for data: 1704730400
I0429 16:37:18.025791 15091 layer_factory.hpp:77] Creating layer pool3/3x3_s2_pool3/3x3_s2_0_split
I0429 16:37:18.025800 15091 net.cpp:84] Creating Layer pool3/3x3_s2_pool3/3x3_s2_0_split
I0429 16:37:18.025804 15091 net.cpp:406] pool3/3x3_s2_pool3/3x3_s2_0_split <- pool3/3x3_s2
I0429 16:37:18.025810 15091 net.cpp:380] pool3/3x3_s2_pool3/3x3_s2_0_split -> pool3/3x3_s2_pool3/3x3_s2_0_split_0
I0429 16:37:18.025818 15091 net.cpp:380] pool3/3x3_s2_pool3/3x3_s2_0_split -> pool3/3x3_s2_pool3/3x3_s2_0_split_1
I0429 16:37:18.025827 15091 net.cpp:380] pool3/3x3_s2_pool3/3x3_s2_0_split -> pool3/3x3_s2_pool3/3x3_s2_0_split_2
I0429 16:37:18.025835 15091 net.cpp:380] pool3/3x3_s2_pool3/3x3_s2_0_split -> pool3/3x3_s2_pool3/3x3_s2_0_split_3
I0429 16:37:18.025882 15091 net.cpp:122] Setting up pool3/3x3_s2_pool3/3x3_s2_0_split
I0429 16:37:18.025887 15091 net.cpp:129] Top shape: 50 480 14 14 (4704000)
I0429 16:37:18.025892 15091 net.cpp:129] Top shape: 50 480 14 14 (4704000)
I0429 16:37:18.025897 15091 net.cpp:129] Top shape: 50 480 14 14 (4704000)
I0429 16:37:18.025902 15091 net.cpp:129] Top shape: 50 480 14 14 (4704000)
I0429 16:37:18.025907 15091 net.cpp:137] Memory required for data: 1779994400
I0429 16:37:18.025912 15091 layer_factory.hpp:77] Creating layer inception_4a/1x1
I0429 16:37:18.025924 15091 net.cpp:84] Creating Layer inception_4a/1x1
I0429 16:37:18.025929 15091 net.cpp:406] inception_4a/1x1 <- pool3/3x3_s2_pool3/3x3_s2_0_split_0
I0429 16:37:18.025938 15091 net.cpp:380] inception_4a/1x1 -> inception_4a/1x1
I0429 16:37:18.027626 15091 net.cpp:122] Setting up inception_4a/1x1
I0429 16:37:18.027640 15091 net.cpp:129] Top shape: 50 192 14 14 (1881600)
I0429 16:37:18.027645 15091 net.cpp:137] Memory required for data: 1787520800
I0429 16:37:18.027652 15091 layer_factory.hpp:77] Creating layer inception_4a/relu_1x1
I0429 16:37:18.027660 15091 net.cpp:84] Creating Layer inception_4a/relu_1x1
I0429 16:37:18.027665 15091 net.cpp:406] inception_4a/relu_1x1 <- inception_4a/1x1
I0429 16:37:18.027673 15091 net.cpp:367] inception_4a/relu_1x1 -> inception_4a/1x1 (in-place)
I0429 16:37:18.027839 15091 net.cpp:122] Setting up inception_4a/relu_1x1
I0429 16:37:18.027849 15091 net.cpp:129] Top shape: 50 192 14 14 (1881600)
I0429 16:37:18.027855 15091 net.cpp:137] Memory required for data: 1795047200
I0429 16:37:18.027861 15091 layer_factory.hpp:77] Creating layer inception_4a/3x3_reduce
I0429 16:37:18.027870 15091 net.cpp:84] Creating Layer inception_4a/3x3_reduce
I0429 16:37:18.027876 15091 net.cpp:406] inception_4a/3x3_reduce <- pool3/3x3_s2_pool3/3x3_s2_0_split_1
I0429 16:37:18.027884 15091 net.cpp:380] inception_4a/3x3_reduce -> inception_4a/3x3_reduce
I0429 16:37:18.029083 15091 net.cpp:122] Setting up inception_4a/3x3_reduce
I0429 16:37:18.029095 15091 net.cpp:129] Top shape: 50 96 14 14 (940800)
I0429 16:37:18.029100 15091 net.cpp:137] Memory required for data: 1798810400
I0429 16:37:18.029114 15091 layer_factory.hpp:77] Creating layer inception_4a/relu_3x3_reduce
I0429 16:37:18.029121 15091 net.cpp:84] Creating Layer inception_4a/relu_3x3_reduce
I0429 16:37:18.029127 15091 net.cpp:406] inception_4a/relu_3x3_reduce <- inception_4a/3x3_reduce
I0429 16:37:18.029134 15091 net.cpp:367] inception_4a/relu_3x3_reduce -> inception_4a/3x3_reduce (in-place)
I0429 16:37:18.029273 15091 net.cpp:122] Setting up inception_4a/relu_3x3_reduce
I0429 16:37:18.029294 15091 net.cpp:129] Top shape: 50 96 14 14 (940800)
I0429 16:37:18.029299 15091 net.cpp:137] Memory required for data: 1802573600
I0429 16:37:18.029304 15091 layer_factory.hpp:77] Creating layer inception_4a/3x3
I0429 16:37:18.029315 15091 net.cpp:84] Creating Layer inception_4a/3x3
I0429 16:37:18.029320 15091 net.cpp:406] inception_4a/3x3 <- inception_4a/3x3_reduce
I0429 16:37:18.029328 15091 net.cpp:380] inception_4a/3x3 -> inception_4a/3x3
I0429 16:37:18.032629 15091 net.cpp:122] Setting up inception_4a/3x3
I0429 16:37:18.032649 15091 net.cpp:129] Top shape: 50 208 14 14 (2038400)
I0429 16:37:18.032654 15091 net.cpp:137] Memory required for data: 1810727200
I0429 16:37:18.032661 15091 layer_factory.hpp:77] Creating layer inception_4a/relu_3x3
I0429 16:37:18.032671 15091 net.cpp:84] Creating Layer inception_4a/relu_3x3
I0429 16:37:18.032676 15091 net.cpp:406] inception_4a/relu_3x3 <- inception_4a/3x3
I0429 16:37:18.032685 15091 net.cpp:367] inception_4a/relu_3x3 -> inception_4a/3x3 (in-place)
I0429 16:37:18.032832 15091 net.cpp:122] Setting up inception_4a/relu_3x3
I0429 16:37:18.032843 15091 net.cpp:129] Top shape: 50 208 14 14 (2038400)
I0429 16:37:18.032847 15091 net.cpp:137] Memory required for data: 1818880800
I0429 16:37:18.032852 15091 layer_factory.hpp:77] Creating layer inception_4a/5x5_reduce
I0429 16:37:18.032862 15091 net.cpp:84] Creating Layer inception_4a/5x5_reduce
I0429 16:37:18.032869 15091 net.cpp:406] inception_4a/5x5_reduce <- pool3/3x3_s2_pool3/3x3_s2_0_split_2
I0429 16:37:18.032876 15091 net.cpp:380] inception_4a/5x5_reduce -> inception_4a/5x5_reduce
I0429 16:37:18.033955 15091 net.cpp:122] Setting up inception_4a/5x5_reduce
I0429 16:37:18.033969 15091 net.cpp:129] Top shape: 50 16 14 14 (156800)
I0429 16:37:18.033974 15091 net.cpp:137] Memory required for data: 1819508000
I0429 16:37:18.033982 15091 layer_factory.hpp:77] Creating layer inception_4a/relu_5x5_reduce
I0429 16:37:18.033988 15091 net.cpp:84] Creating Layer inception_4a/relu_5x5_reduce
I0429 16:37:18.033993 15091 net.cpp:406] inception_4a/relu_5x5_reduce <- inception_4a/5x5_reduce
I0429 16:37:18.034003 15091 net.cpp:367] inception_4a/relu_5x5_reduce -> inception_4a/5x5_reduce (in-place)
I0429 16:37:18.034143 15091 net.cpp:122] Setting up inception_4a/relu_5x5_reduce
I0429 16:37:18.034153 15091 net.cpp:129] Top shape: 50 16 14 14 (156800)
I0429 16:37:18.034157 15091 net.cpp:137] Memory required for data: 1820135200
I0429 16:37:18.034162 15091 layer_factory.hpp:77] Creating layer inception_4a/5x5
I0429 16:37:18.034173 15091 net.cpp:84] Creating Layer inception_4a/5x5
I0429 16:37:18.034178 15091 net.cpp:406] inception_4a/5x5 <- inception_4a/5x5_reduce
I0429 16:37:18.034186 15091 net.cpp:380] inception_4a/5x5 -> inception_4a/5x5
I0429 16:37:18.035279 15091 net.cpp:122] Setting up inception_4a/5x5
I0429 16:37:18.035292 15091 net.cpp:129] Top shape: 50 48 14 14 (470400)
I0429 16:37:18.035297 15091 net.cpp:137] Memory required for data: 1822016800
I0429 16:37:18.035303 15091 layer_factory.hpp:77] Creating layer inception_4a/relu_5x5
I0429 16:37:18.035312 15091 net.cpp:84] Creating Layer inception_4a/relu_5x5
I0429 16:37:18.035316 15091 net.cpp:406] inception_4a/relu_5x5 <- inception_4a/5x5
I0429 16:37:18.035324 15091 net.cpp:367] inception_4a/relu_5x5 -> inception_4a/5x5 (in-place)
I0429 16:37:18.036793 15091 net.cpp:122] Setting up inception_4a/relu_5x5
I0429 16:37:18.036808 15091 net.cpp:129] Top shape: 50 48 14 14 (470400)
I0429 16:37:18.036811 15091 net.cpp:137] Memory required for data: 1823898400
I0429 16:37:18.036816 15091 layer_factory.hpp:77] Creating layer inception_4a/pool
I0429 16:37:18.036823 15091 net.cpp:84] Creating Layer inception_4a/pool
I0429 16:37:18.036829 15091 net.cpp:406] inception_4a/pool <- pool3/3x3_s2_pool3/3x3_s2_0_split_3
I0429 16:37:18.036839 15091 net.cpp:380] inception_4a/pool -> inception_4a/pool
I0429 16:37:18.036882 15091 net.cpp:122] Setting up inception_4a/pool
I0429 16:37:18.036891 15091 net.cpp:129] Top shape: 50 480 14 14 (4704000)
I0429 16:37:18.036902 15091 net.cpp:137] Memory required for data: 1842714400
I0429 16:37:18.036916 15091 layer_factory.hpp:77] Creating layer inception_4a/pool_proj
I0429 16:37:18.036928 15091 net.cpp:84] Creating Layer inception_4a/pool_proj
I0429 16:37:18.036933 15091 net.cpp:406] inception_4a/pool_proj <- inception_4a/pool
I0429 16:37:18.036942 15091 net.cpp:380] inception_4a/pool_proj -> inception_4a/pool_proj
I0429 16:37:18.038139 15091 net.cpp:122] Setting up inception_4a/pool_proj
I0429 16:37:18.038153 15091 net.cpp:129] Top shape: 50 64 14 14 (627200)
I0429 16:37:18.038157 15091 net.cpp:137] Memory required for data: 1845223200
I0429 16:37:18.038166 15091 layer_factory.hpp:77] Creating layer inception_4a/relu_pool_proj
I0429 16:37:18.038174 15091 net.cpp:84] Creating Layer inception_4a/relu_pool_proj
I0429 16:37:18.038179 15091 net.cpp:406] inception_4a/relu_pool_proj <- inception_4a/pool_proj
I0429 16:37:18.038187 15091 net.cpp:367] inception_4a/relu_pool_proj -> inception_4a/pool_proj (in-place)
I0429 16:37:18.038332 15091 net.cpp:122] Setting up inception_4a/relu_pool_proj
I0429 16:37:18.038342 15091 net.cpp:129] Top shape: 50 64 14 14 (627200)
I0429 16:37:18.038347 15091 net.cpp:137] Memory required for data: 1847732000
I0429 16:37:18.038352 15091 layer_factory.hpp:77] Creating layer inception_4a/output
I0429 16:37:18.038362 15091 net.cpp:84] Creating Layer inception_4a/output
I0429 16:37:18.038367 15091 net.cpp:406] inception_4a/output <- inception_4a/1x1
I0429 16:37:18.038374 15091 net.cpp:406] inception_4a/output <- inception_4a/3x3
I0429 16:37:18.038379 15091 net.cpp:406] inception_4a/output <- inception_4a/5x5
I0429 16:37:18.038384 15091 net.cpp:406] inception_4a/output <- inception_4a/pool_proj
I0429 16:37:18.038390 15091 net.cpp:380] inception_4a/output -> inception_4a/output
I0429 16:37:18.038421 15091 net.cpp:122] Setting up inception_4a/output
I0429 16:37:18.038430 15091 net.cpp:129] Top shape: 50 512 14 14 (5017600)
I0429 16:37:18.038435 15091 net.cpp:137] Memory required for data: 1867802400
I0429 16:37:18.038439 15091 layer_factory.hpp:77] Creating layer inception_4a/output_inception_4a/output_0_split
I0429 16:37:18.038446 15091 net.cpp:84] Creating Layer inception_4a/output_inception_4a/output_0_split
I0429 16:37:18.038450 15091 net.cpp:406] inception_4a/output_inception_4a/output_0_split <- inception_4a/output
I0429 16:37:18.038460 15091 net.cpp:380] inception_4a/output_inception_4a/output_0_split -> inception_4a/output_inception_4a/output_0_split_0
I0429 16:37:18.038468 15091 net.cpp:380] inception_4a/output_inception_4a/output_0_split -> inception_4a/output_inception_4a/output_0_split_1
I0429 16:37:18.038476 15091 net.cpp:380] inception_4a/output_inception_4a/output_0_split -> inception_4a/output_inception_4a/output_0_split_2
I0429 16:37:18.038483 15091 net.cpp:380] inception_4a/output_inception_4a/output_0_split -> inception_4a/output_inception_4a/output_0_split_3
I0429 16:37:18.038492 15091 net.cpp:380] inception_4a/output_inception_4a/output_0_split -> inception_4a/output_inception_4a/output_0_split_4
I0429 16:37:18.038553 15091 net.cpp:122] Setting up inception_4a/output_inception_4a/output_0_split
I0429 16:37:18.038560 15091 net.cpp:129] Top shape: 50 512 14 14 (5017600)
I0429 16:37:18.038565 15091 net.cpp:129] Top shape: 50 512 14 14 (5017600)
I0429 16:37:18.038571 15091 net.cpp:129] Top shape: 50 512 14 14 (5017600)
I0429 16:37:18.038578 15091 net.cpp:129] Top shape: 50 512 14 14 (5017600)
I0429 16:37:18.038581 15091 net.cpp:129] Top shape: 50 512 14 14 (5017600)
I0429 16:37:18.038585 15091 net.cpp:137] Memory required for data: 1968154400
I0429 16:37:18.038591 15091 layer_factory.hpp:77] Creating layer loss1/ave_pool
I0429 16:37:18.038597 15091 net.cpp:84] Creating Layer loss1/ave_pool
I0429 16:37:18.038601 15091 net.cpp:406] loss1/ave_pool <- inception_4a/output_inception_4a/output_0_split_0
I0429 16:37:18.038619 15091 net.cpp:380] loss1/ave_pool -> loss1/ave_pool
I0429 16:37:18.038815 15091 net.cpp:122] Setting up loss1/ave_pool
I0429 16:37:18.038827 15091 net.cpp:129] Top shape: 50 512 4 4 (409600)
I0429 16:37:18.038837 15091 net.cpp:137] Memory required for data: 1969792800
I0429 16:37:18.038854 15091 layer_factory.hpp:77] Creating layer loss1/conv
I0429 16:37:18.038869 15091 net.cpp:84] Creating Layer loss1/conv
I0429 16:37:18.038877 15091 net.cpp:406] loss1/conv <- loss1/ave_pool
I0429 16:37:18.038889 15091 net.cpp:380] loss1/conv -> loss1/conv
I0429 16:37:18.040745 15091 net.cpp:122] Setting up loss1/conv
I0429 16:37:18.040761 15091 net.cpp:129] Top shape: 50 128 4 4 (102400)
I0429 16:37:18.040766 15091 net.cpp:137] Memory required for data: 1970202400
I0429 16:37:18.040773 15091 layer_factory.hpp:77] Creating layer loss1/relu_conv
I0429 16:37:18.040781 15091 net.cpp:84] Creating Layer loss1/relu_conv
I0429 16:37:18.040787 15091 net.cpp:406] loss1/relu_conv <- loss1/conv
I0429 16:37:18.040794 15091 net.cpp:367] loss1/relu_conv -> loss1/conv (in-place)
I0429 16:37:18.040936 15091 net.cpp:122] Setting up loss1/relu_conv
I0429 16:37:18.040946 15091 net.cpp:129] Top shape: 50 128 4 4 (102400)
I0429 16:37:18.040952 15091 net.cpp:137] Memory required for data: 1970612000
I0429 16:37:18.040956 15091 layer_factory.hpp:77] Creating layer loss1/fc
I0429 16:37:18.040964 15091 net.cpp:84] Creating Layer loss1/fc
I0429 16:37:18.040969 15091 net.cpp:406] loss1/fc <- loss1/conv
I0429 16:37:18.040977 15091 net.cpp:380] loss1/fc -> loss1/fc
I0429 16:37:18.053828 15091 net.cpp:122] Setting up loss1/fc
I0429 16:37:18.053860 15091 net.cpp:129] Top shape: 50 1024 (51200)
I0429 16:37:18.053865 15091 net.cpp:137] Memory required for data: 1970816800
I0429 16:37:18.053879 15091 layer_factory.hpp:77] Creating layer loss1/relu_fc
I0429 16:37:18.053890 15091 net.cpp:84] Creating Layer loss1/relu_fc
I0429 16:37:18.053897 15091 net.cpp:406] loss1/relu_fc <- loss1/fc
I0429 16:37:18.053905 15091 net.cpp:367] loss1/relu_fc -> loss1/fc (in-place)
I0429 16:37:18.054131 15091 net.cpp:122] Setting up loss1/relu_fc
I0429 16:37:18.054145 15091 net.cpp:129] Top shape: 50 1024 (51200)
I0429 16:37:18.054153 15091 net.cpp:137] Memory required for data: 1971021600
I0429 16:37:18.054159 15091 layer_factory.hpp:77] Creating layer loss1/drop_fc
I0429 16:37:18.054193 15091 net.cpp:84] Creating Layer loss1/drop_fc
I0429 16:37:18.054201 15091 net.cpp:406] loss1/drop_fc <- loss1/fc
I0429 16:37:18.054210 15091 net.cpp:367] loss1/drop_fc -> loss1/fc (in-place)
I0429 16:37:18.054253 15091 net.cpp:122] Setting up loss1/drop_fc
I0429 16:37:18.054266 15091 net.cpp:129] Top shape: 50 1024 (51200)
I0429 16:37:18.054275 15091 net.cpp:137] Memory required for data: 1971226400
I0429 16:37:18.054282 15091 layer_factory.hpp:77] Creating layer loss1/classifier
I0429 16:37:18.054296 15091 net.cpp:84] Creating Layer loss1/classifier
I0429 16:37:18.054303 15091 net.cpp:406] loss1/classifier <- loss1/fc
I0429 16:37:18.054318 15091 net.cpp:380] loss1/classifier -> loss1/classifier
I0429 16:37:18.068625 15091 net.cpp:122] Setting up loss1/classifier
I0429 16:37:18.068665 15091 net.cpp:129] Top shape: 50 1000 (50000)
I0429 16:37:18.068672 15091 net.cpp:137] Memory required for data: 1971426400
I0429 16:37:18.068689 15091 layer_factory.hpp:77] Creating layer loss1/loss
I0429 16:37:18.068708 15091 net.cpp:84] Creating Layer loss1/loss
I0429 16:37:18.068720 15091 net.cpp:406] loss1/loss <- loss1/classifier
I0429 16:37:18.068732 15091 net.cpp:406] loss1/loss <- label_data_1_split_0
I0429 16:37:18.068744 15091 net.cpp:380] loss1/loss -> loss1/loss1
I0429 16:37:18.068763 15091 layer_factory.hpp:77] Creating layer loss1/loss
I0429 16:37:18.073518 15091 net.cpp:122] Setting up loss1/loss
I0429 16:37:18.073539 15091 net.cpp:129] Top shape: (1)
I0429 16:37:18.073544 15091 net.cpp:132]     with loss weight 0.3
I0429 16:37:18.073559 15091 net.cpp:137] Memory required for data: 1971426404
I0429 16:37:18.073565 15091 layer_factory.hpp:77] Creating layer inception_4b/1x1
I0429 16:37:18.073582 15091 net.cpp:84] Creating Layer inception_4b/1x1
I0429 16:37:18.073588 15091 net.cpp:406] inception_4b/1x1 <- inception_4a/output_inception_4a/output_0_split_1
I0429 16:37:18.073614 15091 net.cpp:380] inception_4b/1x1 -> inception_4b/1x1
I0429 16:37:18.075439 15091 net.cpp:122] Setting up inception_4b/1x1
I0429 16:37:18.075456 15091 net.cpp:129] Top shape: 50 160 14 14 (1568000)
I0429 16:37:18.075461 15091 net.cpp:137] Memory required for data: 1977698404
I0429 16:37:18.075469 15091 layer_factory.hpp:77] Creating layer inception_4b/relu_1x1
I0429 16:37:18.075477 15091 net.cpp:84] Creating Layer inception_4b/relu_1x1
I0429 16:37:18.075484 15091 net.cpp:406] inception_4b/relu_1x1 <- inception_4b/1x1
I0429 16:37:18.075492 15091 net.cpp:367] inception_4b/relu_1x1 -> inception_4b/1x1 (in-place)
I0429 16:37:18.075639 15091 net.cpp:122] Setting up inception_4b/relu_1x1
I0429 16:37:18.075647 15091 net.cpp:129] Top shape: 50 160 14 14 (1568000)
I0429 16:37:18.075652 15091 net.cpp:137] Memory required for data: 1983970404
I0429 16:37:18.075656 15091 layer_factory.hpp:77] Creating layer inception_4b/3x3_reduce
I0429 16:37:18.075668 15091 net.cpp:84] Creating Layer inception_4b/3x3_reduce
I0429 16:37:18.075672 15091 net.cpp:406] inception_4b/3x3_reduce <- inception_4a/output_inception_4a/output_0_split_2
I0429 16:37:18.075682 15091 net.cpp:380] inception_4b/3x3_reduce -> inception_4b/3x3_reduce
I0429 16:37:18.078303 15091 net.cpp:122] Setting up inception_4b/3x3_reduce
I0429 16:37:18.078332 15091 net.cpp:129] Top shape: 50 112 14 14 (1097600)
I0429 16:37:18.078339 15091 net.cpp:137] Memory required for data: 1988360804
I0429 16:37:18.078354 15091 layer_factory.hpp:77] Creating layer inception_4b/relu_3x3_reduce
I0429 16:37:18.078366 15091 net.cpp:84] Creating Layer inception_4b/relu_3x3_reduce
I0429 16:37:18.078373 15091 net.cpp:406] inception_4b/relu_3x3_reduce <- inception_4b/3x3_reduce
I0429 16:37:18.078387 15091 net.cpp:367] inception_4b/relu_3x3_reduce -> inception_4b/3x3_reduce (in-place)
I0429 16:37:18.078596 15091 net.cpp:122] Setting up inception_4b/relu_3x3_reduce
I0429 16:37:18.078613 15091 net.cpp:129] Top shape: 50 112 14 14 (1097600)
I0429 16:37:18.078619 15091 net.cpp:137] Memory required for data: 1992751204
I0429 16:37:18.078625 15091 layer_factory.hpp:77] Creating layer inception_4b/3x3
I0429 16:37:18.078644 15091 net.cpp:84] Creating Layer inception_4b/3x3
I0429 16:37:18.078652 15091 net.cpp:406] inception_4b/3x3 <- inception_4b/3x3_reduce
I0429 16:37:18.078666 15091 net.cpp:380] inception_4b/3x3 -> inception_4b/3x3
I0429 16:37:18.100903 15091 net.cpp:122] Setting up inception_4b/3x3
I0429 16:37:18.100934 15091 net.cpp:129] Top shape: 50 224 14 14 (2195200)
I0429 16:37:18.100939 15091 net.cpp:137] Memory required for data: 2001532004
I0429 16:37:18.100950 15091 layer_factory.hpp:77] Creating layer inception_4b/relu_3x3
I0429 16:37:18.100960 15091 net.cpp:84] Creating Layer inception_4b/relu_3x3
I0429 16:37:18.100971 15091 net.cpp:406] inception_4b/relu_3x3 <- inception_4b/3x3
I0429 16:37:18.100986 15091 net.cpp:367] inception_4b/relu_3x3 -> inception_4b/3x3 (in-place)
I0429 16:37:18.101208 15091 net.cpp:122] Setting up inception_4b/relu_3x3
I0429 16:37:18.101218 15091 net.cpp:129] Top shape: 50 224 14 14 (2195200)
I0429 16:37:18.101224 15091 net.cpp:137] Memory required for data: 2010312804
I0429 16:37:18.101228 15091 layer_factory.hpp:77] Creating layer inception_4b/5x5_reduce
I0429 16:37:18.101243 15091 net.cpp:84] Creating Layer inception_4b/5x5_reduce
I0429 16:37:18.101248 15091 net.cpp:406] inception_4b/5x5_reduce <- inception_4a/output_inception_4a/output_0_split_3
I0429 16:37:18.101260 15091 net.cpp:380] inception_4b/5x5_reduce -> inception_4b/5x5_reduce
I0429 16:37:18.102649 15091 net.cpp:122] Setting up inception_4b/5x5_reduce
I0429 16:37:18.102664 15091 net.cpp:129] Top shape: 50 24 14 14 (235200)
I0429 16:37:18.102669 15091 net.cpp:137] Memory required for data: 2011253604
I0429 16:37:18.102677 15091 layer_factory.hpp:77] Creating layer inception_4b/relu_5x5_reduce
I0429 16:37:18.102687 15091 net.cpp:84] Creating Layer inception_4b/relu_5x5_reduce
I0429 16:37:18.102695 15091 net.cpp:406] inception_4b/relu_5x5_reduce <- inception_4b/5x5_reduce
I0429 16:37:18.102708 15091 net.cpp:367] inception_4b/relu_5x5_reduce -> inception_4b/5x5_reduce (in-place)
I0429 16:37:18.102917 15091 net.cpp:122] Setting up inception_4b/relu_5x5_reduce
I0429 16:37:18.102933 15091 net.cpp:129] Top shape: 50 24 14 14 (235200)
I0429 16:37:18.102938 15091 net.cpp:137] Memory required for data: 2012194404
I0429 16:37:18.102946 15091 layer_factory.hpp:77] Creating layer inception_4b/5x5
I0429 16:37:18.102959 15091 net.cpp:84] Creating Layer inception_4b/5x5
I0429 16:37:18.102967 15091 net.cpp:406] inception_4b/5x5 <- inception_4b/5x5_reduce
I0429 16:37:18.102975 15091 net.cpp:380] inception_4b/5x5 -> inception_4b/5x5
I0429 16:37:18.105237 15091 net.cpp:122] Setting up inception_4b/5x5
I0429 16:37:18.105252 15091 net.cpp:129] Top shape: 50 64 14 14 (627200)
I0429 16:37:18.105257 15091 net.cpp:137] Memory required for data: 2014703204
I0429 16:37:18.105264 15091 layer_factory.hpp:77] Creating layer inception_4b/relu_5x5
I0429 16:37:18.105271 15091 net.cpp:84] Creating Layer inception_4b/relu_5x5
I0429 16:37:18.105278 15091 net.cpp:406] inception_4b/relu_5x5 <- inception_4b/5x5
I0429 16:37:18.105288 15091 net.cpp:367] inception_4b/relu_5x5 -> inception_4b/5x5 (in-place)
I0429 16:37:18.106590 15091 net.cpp:122] Setting up inception_4b/relu_5x5
I0429 16:37:18.106606 15091 net.cpp:129] Top shape: 50 64 14 14 (627200)
I0429 16:37:18.106611 15091 net.cpp:137] Memory required for data: 2017212004
I0429 16:37:18.106619 15091 layer_factory.hpp:77] Creating layer inception_4b/pool
I0429 16:37:18.106628 15091 net.cpp:84] Creating Layer inception_4b/pool
I0429 16:37:18.106637 15091 net.cpp:406] inception_4b/pool <- inception_4a/output_inception_4a/output_0_split_4
I0429 16:37:18.106648 15091 net.cpp:380] inception_4b/pool -> inception_4b/pool
I0429 16:37:18.106712 15091 net.cpp:122] Setting up inception_4b/pool
I0429 16:37:18.106722 15091 net.cpp:129] Top shape: 50 512 14 14 (5017600)
I0429 16:37:18.106729 15091 net.cpp:137] Memory required for data: 2037282404
I0429 16:37:18.106734 15091 layer_factory.hpp:77] Creating layer inception_4b/pool_proj
I0429 16:37:18.106746 15091 net.cpp:84] Creating Layer inception_4b/pool_proj
I0429 16:37:18.106753 15091 net.cpp:406] inception_4b/pool_proj <- inception_4b/pool
I0429 16:37:18.106761 15091 net.cpp:380] inception_4b/pool_proj -> inception_4b/pool_proj
I0429 16:37:18.107569 15091 net.cpp:122] Setting up inception_4b/pool_proj
I0429 16:37:18.107580 15091 net.cpp:129] Top shape: 50 64 14 14 (627200)
I0429 16:37:18.107584 15091 net.cpp:137] Memory required for data: 2039791204
I0429 16:37:18.107592 15091 layer_factory.hpp:77] Creating layer inception_4b/relu_pool_proj
I0429 16:37:18.107602 15091 net.cpp:84] Creating Layer inception_4b/relu_pool_proj
I0429 16:37:18.107607 15091 net.cpp:406] inception_4b/relu_pool_proj <- inception_4b/pool_proj
I0429 16:37:18.107614 15091 net.cpp:367] inception_4b/relu_pool_proj -> inception_4b/pool_proj (in-place)
I0429 16:37:18.108731 15091 net.cpp:122] Setting up inception_4b/relu_pool_proj
I0429 16:37:18.108744 15091 net.cpp:129] Top shape: 50 64 14 14 (627200)
I0429 16:37:18.108750 15091 net.cpp:137] Memory required for data: 2042300004
I0429 16:37:18.108754 15091 layer_factory.hpp:77] Creating layer inception_4b/output
I0429 16:37:18.108764 15091 net.cpp:84] Creating Layer inception_4b/output
I0429 16:37:18.108772 15091 net.cpp:406] inception_4b/output <- inception_4b/1x1
I0429 16:37:18.108779 15091 net.cpp:406] inception_4b/output <- inception_4b/3x3
I0429 16:37:18.108786 15091 net.cpp:406] inception_4b/output <- inception_4b/5x5
I0429 16:37:18.108793 15091 net.cpp:406] inception_4b/output <- inception_4b/pool_proj
I0429 16:37:18.108799 15091 net.cpp:380] inception_4b/output -> inception_4b/output
I0429 16:37:18.108834 15091 net.cpp:122] Setting up inception_4b/output
I0429 16:37:18.108842 15091 net.cpp:129] Top shape: 50 512 14 14 (5017600)
I0429 16:37:18.108847 15091 net.cpp:137] Memory required for data: 2062370404
I0429 16:37:18.108853 15091 layer_factory.hpp:77] Creating layer inception_4b/output_inception_4b/output_0_split
I0429 16:37:18.108860 15091 net.cpp:84] Creating Layer inception_4b/output_inception_4b/output_0_split
I0429 16:37:18.108885 15091 net.cpp:406] inception_4b/output_inception_4b/output_0_split <- inception_4b/output
I0429 16:37:18.108891 15091 net.cpp:380] inception_4b/output_inception_4b/output_0_split -> inception_4b/output_inception_4b/output_0_split_0
I0429 16:37:18.108901 15091 net.cpp:380] inception_4b/output_inception_4b/output_0_split -> inception_4b/output_inception_4b/output_0_split_1
I0429 16:37:18.108909 15091 net.cpp:380] inception_4b/output_inception_4b/output_0_split -> inception_4b/output_inception_4b/output_0_split_2
I0429 16:37:18.108918 15091 net.cpp:380] inception_4b/output_inception_4b/output_0_split -> inception_4b/output_inception_4b/output_0_split_3
I0429 16:37:18.108976 15091 net.cpp:122] Setting up inception_4b/output_inception_4b/output_0_split
I0429 16:37:18.108985 15091 net.cpp:129] Top shape: 50 512 14 14 (5017600)
I0429 16:37:18.108992 15091 net.cpp:129] Top shape: 50 512 14 14 (5017600)
I0429 16:37:18.108999 15091 net.cpp:129] Top shape: 50 512 14 14 (5017600)
I0429 16:37:18.109004 15091 net.cpp:129] Top shape: 50 512 14 14 (5017600)
I0429 16:37:18.109009 15091 net.cpp:137] Memory required for data: 2142652004
I0429 16:37:18.109014 15091 layer_factory.hpp:77] Creating layer inception_4c/1x1
I0429 16:37:18.109024 15091 net.cpp:84] Creating Layer inception_4c/1x1
I0429 16:37:18.109027 15091 net.cpp:406] inception_4c/1x1 <- inception_4b/output_inception_4b/output_0_split_0
I0429 16:37:18.109036 15091 net.cpp:380] inception_4c/1x1 -> inception_4c/1x1
I0429 16:37:18.111384 15091 net.cpp:122] Setting up inception_4c/1x1
I0429 16:37:18.111407 15091 net.cpp:129] Top shape: 50 128 14 14 (1254400)
I0429 16:37:18.111414 15091 net.cpp:137] Memory required for data: 2147669604
I0429 16:37:18.111426 15091 layer_factory.hpp:77] Creating layer inception_4c/relu_1x1
I0429 16:37:18.111436 15091 net.cpp:84] Creating Layer inception_4c/relu_1x1
I0429 16:37:18.111443 15091 net.cpp:406] inception_4c/relu_1x1 <- inception_4c/1x1
I0429 16:37:18.111454 15091 net.cpp:367] inception_4c/relu_1x1 -> inception_4c/1x1 (in-place)
I0429 16:37:18.111677 15091 net.cpp:122] Setting up inception_4c/relu_1x1
I0429 16:37:18.111693 15091 net.cpp:129] Top shape: 50 128 14 14 (1254400)
I0429 16:37:18.111701 15091 net.cpp:137] Memory required for data: 2152687204
I0429 16:37:18.111707 15091 layer_factory.hpp:77] Creating layer inception_4c/3x3_reduce
I0429 16:37:18.111726 15091 net.cpp:84] Creating Layer inception_4c/3x3_reduce
I0429 16:37:18.111734 15091 net.cpp:406] inception_4c/3x3_reduce <- inception_4b/output_inception_4b/output_0_split_1
I0429 16:37:18.111747 15091 net.cpp:380] inception_4c/3x3_reduce -> inception_4c/3x3_reduce
I0429 16:37:18.114697 15091 net.cpp:122] Setting up inception_4c/3x3_reduce
I0429 16:37:18.114719 15091 net.cpp:129] Top shape: 50 128 14 14 (1254400)
I0429 16:37:18.114723 15091 net.cpp:137] Memory required for data: 2157704804
I0429 16:37:18.114734 15091 layer_factory.hpp:77] Creating layer inception_4c/relu_3x3_reduce
I0429 16:37:18.114748 15091 net.cpp:84] Creating Layer inception_4c/relu_3x3_reduce
I0429 16:37:18.114756 15091 net.cpp:406] inception_4c/relu_3x3_reduce <- inception_4c/3x3_reduce
I0429 16:37:18.114765 15091 net.cpp:367] inception_4c/relu_3x3_reduce -> inception_4c/3x3_reduce (in-place)
I0429 16:37:18.114922 15091 net.cpp:122] Setting up inception_4c/relu_3x3_reduce
I0429 16:37:18.114931 15091 net.cpp:129] Top shape: 50 128 14 14 (1254400)
I0429 16:37:18.114938 15091 net.cpp:137] Memory required for data: 2162722404
I0429 16:37:18.114941 15091 layer_factory.hpp:77] Creating layer inception_4c/3x3
I0429 16:37:18.114955 15091 net.cpp:84] Creating Layer inception_4c/3x3
I0429 16:37:18.114964 15091 net.cpp:406] inception_4c/3x3 <- inception_4c/3x3_reduce
I0429 16:37:18.114975 15091 net.cpp:380] inception_4c/3x3 -> inception_4c/3x3
I0429 16:37:18.119544 15091 net.cpp:122] Setting up inception_4c/3x3
I0429 16:37:18.119562 15091 net.cpp:129] Top shape: 50 256 14 14 (2508800)
I0429 16:37:18.119570 15091 net.cpp:137] Memory required for data: 2172757604
I0429 16:37:18.119601 15091 layer_factory.hpp:77] Creating layer inception_4c/relu_3x3
I0429 16:37:18.119622 15091 net.cpp:84] Creating Layer inception_4c/relu_3x3
I0429 16:37:18.119628 15091 net.cpp:406] inception_4c/relu_3x3 <- inception_4c/3x3
I0429 16:37:18.119638 15091 net.cpp:367] inception_4c/relu_3x3 -> inception_4c/3x3 (in-place)
I0429 16:37:18.119807 15091 net.cpp:122] Setting up inception_4c/relu_3x3
I0429 16:37:18.119817 15091 net.cpp:129] Top shape: 50 256 14 14 (2508800)
I0429 16:37:18.119822 15091 net.cpp:137] Memory required for data: 2182792804
I0429 16:37:18.119827 15091 layer_factory.hpp:77] Creating layer inception_4c/5x5_reduce
I0429 16:37:18.119838 15091 net.cpp:84] Creating Layer inception_4c/5x5_reduce
I0429 16:37:18.119845 15091 net.cpp:406] inception_4c/5x5_reduce <- inception_4b/output_inception_4b/output_0_split_2
I0429 16:37:18.119858 15091 net.cpp:380] inception_4c/5x5_reduce -> inception_4c/5x5_reduce
I0429 16:37:18.121556 15091 net.cpp:122] Setting up inception_4c/5x5_reduce
I0429 16:37:18.121568 15091 net.cpp:129] Top shape: 50 24 14 14 (235200)
I0429 16:37:18.121575 15091 net.cpp:137] Memory required for data: 2183733604
I0429 16:37:18.121585 15091 layer_factory.hpp:77] Creating layer inception_4c/relu_5x5_reduce
I0429 16:37:18.121595 15091 net.cpp:84] Creating Layer inception_4c/relu_5x5_reduce
I0429 16:37:18.121608 15091 net.cpp:406] inception_4c/relu_5x5_reduce <- inception_4c/5x5_reduce
I0429 16:37:18.121621 15091 net.cpp:367] inception_4c/relu_5x5_reduce -> inception_4c/5x5_reduce (in-place)
I0429 16:37:18.121848 15091 net.cpp:122] Setting up inception_4c/relu_5x5_reduce
I0429 16:37:18.121865 15091 net.cpp:129] Top shape: 50 24 14 14 (235200)
I0429 16:37:18.121871 15091 net.cpp:137] Memory required for data: 2184674404
I0429 16:37:18.121876 15091 layer_factory.hpp:77] Creating layer inception_4c/5x5
I0429 16:37:18.121888 15091 net.cpp:84] Creating Layer inception_4c/5x5
I0429 16:37:18.121893 15091 net.cpp:406] inception_4c/5x5 <- inception_4c/5x5_reduce
I0429 16:37:18.121903 15091 net.cpp:380] inception_4c/5x5 -> inception_4c/5x5
I0429 16:37:18.124866 15091 net.cpp:122] Setting up inception_4c/5x5
I0429 16:37:18.124882 15091 net.cpp:129] Top shape: 50 64 14 14 (627200)
I0429 16:37:18.124887 15091 net.cpp:137] Memory required for data: 2187183204
I0429 16:37:18.124897 15091 layer_factory.hpp:77] Creating layer inception_4c/relu_5x5
I0429 16:37:18.124905 15091 net.cpp:84] Creating Layer inception_4c/relu_5x5
I0429 16:37:18.124912 15091 net.cpp:406] inception_4c/relu_5x5 <- inception_4c/5x5
I0429 16:37:18.124917 15091 net.cpp:367] inception_4c/relu_5x5 -> inception_4c/5x5 (in-place)
I0429 16:37:18.125614 15091 net.cpp:122] Setting up inception_4c/relu_5x5
I0429 16:37:18.125628 15091 net.cpp:129] Top shape: 50 64 14 14 (627200)
I0429 16:37:18.125633 15091 net.cpp:137] Memory required for data: 2189692004
I0429 16:37:18.125638 15091 layer_factory.hpp:77] Creating layer inception_4c/pool
I0429 16:37:18.125650 15091 net.cpp:84] Creating Layer inception_4c/pool
I0429 16:37:18.125658 15091 net.cpp:406] inception_4c/pool <- inception_4b/output_inception_4b/output_0_split_3
I0429 16:37:18.125669 15091 net.cpp:380] inception_4c/pool -> inception_4c/pool
I0429 16:37:18.125780 15091 net.cpp:122] Setting up inception_4c/pool
I0429 16:37:18.125792 15091 net.cpp:129] Top shape: 50 512 14 14 (5017600)
I0429 16:37:18.125795 15091 net.cpp:137] Memory required for data: 2209762404
I0429 16:37:18.125800 15091 layer_factory.hpp:77] Creating layer inception_4c/pool_proj
I0429 16:37:18.125813 15091 net.cpp:84] Creating Layer inception_4c/pool_proj
I0429 16:37:18.125819 15091 net.cpp:406] inception_4c/pool_proj <- inception_4c/pool
I0429 16:37:18.125829 15091 net.cpp:380] inception_4c/pool_proj -> inception_4c/pool_proj
I0429 16:37:18.126724 15091 net.cpp:122] Setting up inception_4c/pool_proj
I0429 16:37:18.126736 15091 net.cpp:129] Top shape: 50 64 14 14 (627200)
I0429 16:37:18.126742 15091 net.cpp:137] Memory required for data: 2212271204
I0429 16:37:18.126751 15091 layer_factory.hpp:77] Creating layer inception_4c/relu_pool_proj
I0429 16:37:18.126775 15091 net.cpp:84] Creating Layer inception_4c/relu_pool_proj
I0429 16:37:18.126783 15091 net.cpp:406] inception_4c/relu_pool_proj <- inception_4c/pool_proj
I0429 16:37:18.126797 15091 net.cpp:367] inception_4c/relu_pool_proj -> inception_4c/pool_proj (in-place)
I0429 16:37:18.127527 15091 net.cpp:122] Setting up inception_4c/relu_pool_proj
I0429 16:37:18.127540 15091 net.cpp:129] Top shape: 50 64 14 14 (627200)
I0429 16:37:18.127545 15091 net.cpp:137] Memory required for data: 2214780004
I0429 16:37:18.127552 15091 layer_factory.hpp:77] Creating layer inception_4c/output
I0429 16:37:18.127559 15091 net.cpp:84] Creating Layer inception_4c/output
I0429 16:37:18.127570 15091 net.cpp:406] inception_4c/output <- inception_4c/1x1
I0429 16:37:18.127583 15091 net.cpp:406] inception_4c/output <- inception_4c/3x3
I0429 16:37:18.127591 15091 net.cpp:406] inception_4c/output <- inception_4c/5x5
I0429 16:37:18.127600 15091 net.cpp:406] inception_4c/output <- inception_4c/pool_proj
I0429 16:37:18.127609 15091 net.cpp:380] inception_4c/output -> inception_4c/output
I0429 16:37:18.127645 15091 net.cpp:122] Setting up inception_4c/output
I0429 16:37:18.127653 15091 net.cpp:129] Top shape: 50 512 14 14 (5017600)
I0429 16:37:18.127662 15091 net.cpp:137] Memory required for data: 2234850404
I0429 16:37:18.127671 15091 layer_factory.hpp:77] Creating layer inception_4c/output_inception_4c/output_0_split
I0429 16:37:18.127681 15091 net.cpp:84] Creating Layer inception_4c/output_inception_4c/output_0_split
I0429 16:37:18.127687 15091 net.cpp:406] inception_4c/output_inception_4c/output_0_split <- inception_4c/output
I0429 16:37:18.127696 15091 net.cpp:380] inception_4c/output_inception_4c/output_0_split -> inception_4c/output_inception_4c/output_0_split_0
I0429 16:37:18.127707 15091 net.cpp:380] inception_4c/output_inception_4c/output_0_split -> inception_4c/output_inception_4c/output_0_split_1
I0429 16:37:18.127714 15091 net.cpp:380] inception_4c/output_inception_4c/output_0_split -> inception_4c/output_inception_4c/output_0_split_2
I0429 16:37:18.127723 15091 net.cpp:380] inception_4c/output_inception_4c/output_0_split -> inception_4c/output_inception_4c/output_0_split_3
I0429 16:37:18.127789 15091 net.cpp:122] Setting up inception_4c/output_inception_4c/output_0_split
I0429 16:37:18.127799 15091 net.cpp:129] Top shape: 50 512 14 14 (5017600)
I0429 16:37:18.127802 15091 net.cpp:129] Top shape: 50 512 14 14 (5017600)
I0429 16:37:18.127810 15091 net.cpp:129] Top shape: 50 512 14 14 (5017600)
I0429 16:37:18.127818 15091 net.cpp:129] Top shape: 50 512 14 14 (5017600)
I0429 16:37:18.127826 15091 net.cpp:137] Memory required for data: 2315132004
I0429 16:37:18.127835 15091 layer_factory.hpp:77] Creating layer inception_4d/1x1
I0429 16:37:18.127847 15091 net.cpp:84] Creating Layer inception_4d/1x1
I0429 16:37:18.127852 15091 net.cpp:406] inception_4d/1x1 <- inception_4c/output_inception_4c/output_0_split_0
I0429 16:37:18.127861 15091 net.cpp:380] inception_4d/1x1 -> inception_4d/1x1
I0429 16:37:18.130120 15091 net.cpp:122] Setting up inception_4d/1x1
I0429 16:37:18.130143 15091 net.cpp:129] Top shape: 50 112 14 14 (1097600)
I0429 16:37:18.130149 15091 net.cpp:137] Memory required for data: 2319522404
I0429 16:37:18.130161 15091 layer_factory.hpp:77] Creating layer inception_4d/relu_1x1
I0429 16:37:18.130173 15091 net.cpp:84] Creating Layer inception_4d/relu_1x1
I0429 16:37:18.130182 15091 net.cpp:406] inception_4d/relu_1x1 <- inception_4d/1x1
I0429 16:37:18.130195 15091 net.cpp:367] inception_4d/relu_1x1 -> inception_4d/1x1 (in-place)
I0429 16:37:18.130398 15091 net.cpp:122] Setting up inception_4d/relu_1x1
I0429 16:37:18.130410 15091 net.cpp:129] Top shape: 50 112 14 14 (1097600)
I0429 16:37:18.130416 15091 net.cpp:137] Memory required for data: 2323912804
I0429 16:37:18.130424 15091 layer_factory.hpp:77] Creating layer inception_4d/3x3_reduce
I0429 16:37:18.130439 15091 net.cpp:84] Creating Layer inception_4d/3x3_reduce
I0429 16:37:18.130447 15091 net.cpp:406] inception_4d/3x3_reduce <- inception_4c/output_inception_4c/output_0_split_1
I0429 16:37:18.130478 15091 net.cpp:380] inception_4d/3x3_reduce -> inception_4d/3x3_reduce
I0429 16:37:18.132632 15091 net.cpp:122] Setting up inception_4d/3x3_reduce
I0429 16:37:18.132650 15091 net.cpp:129] Top shape: 50 144 14 14 (1411200)
I0429 16:37:18.132656 15091 net.cpp:137] Memory required for data: 2329557604
I0429 16:37:18.132666 15091 layer_factory.hpp:77] Creating layer inception_4d/relu_3x3_reduce
I0429 16:37:18.132678 15091 net.cpp:84] Creating Layer inception_4d/relu_3x3_reduce
I0429 16:37:18.132685 15091 net.cpp:406] inception_4d/relu_3x3_reduce <- inception_4d/3x3_reduce
I0429 16:37:18.132695 15091 net.cpp:367] inception_4d/relu_3x3_reduce -> inception_4d/3x3_reduce (in-place)
I0429 16:37:18.132927 15091 net.cpp:122] Setting up inception_4d/relu_3x3_reduce
I0429 16:37:18.132977 15091 net.cpp:129] Top shape: 50 144 14 14 (1411200)
I0429 16:37:18.133004 15091 net.cpp:137] Memory required for data: 2335202404
I0429 16:37:18.133018 15091 layer_factory.hpp:77] Creating layer inception_4d/3x3
I0429 16:37:18.133033 15091 net.cpp:84] Creating Layer inception_4d/3x3
I0429 16:37:18.133040 15091 net.cpp:406] inception_4d/3x3 <- inception_4d/3x3_reduce
I0429 16:37:18.133051 15091 net.cpp:380] inception_4d/3x3 -> inception_4d/3x3
I0429 16:37:18.147547 15091 net.cpp:122] Setting up inception_4d/3x3
I0429 16:37:18.147579 15091 net.cpp:129] Top shape: 50 288 14 14 (2822400)
I0429 16:37:18.147586 15091 net.cpp:137] Memory required for data: 2346492004
I0429 16:37:18.147598 15091 layer_factory.hpp:77] Creating layer inception_4d/relu_3x3
I0429 16:37:18.147610 15091 net.cpp:84] Creating Layer inception_4d/relu_3x3
I0429 16:37:18.147619 15091 net.cpp:406] inception_4d/relu_3x3 <- inception_4d/3x3
I0429 16:37:18.147631 15091 net.cpp:367] inception_4d/relu_3x3 -> inception_4d/3x3 (in-place)
I0429 16:37:18.147837 15091 net.cpp:122] Setting up inception_4d/relu_3x3
I0429 16:37:18.147850 15091 net.cpp:129] Top shape: 50 288 14 14 (2822400)
I0429 16:37:18.147856 15091 net.cpp:137] Memory required for data: 2357781604
I0429 16:37:18.147862 15091 layer_factory.hpp:77] Creating layer inception_4d/5x5_reduce
I0429 16:37:18.147877 15091 net.cpp:84] Creating Layer inception_4d/5x5_reduce
I0429 16:37:18.147884 15091 net.cpp:406] inception_4d/5x5_reduce <- inception_4c/output_inception_4c/output_0_split_2
I0429 16:37:18.147897 15091 net.cpp:380] inception_4d/5x5_reduce -> inception_4d/5x5_reduce
I0429 16:37:18.149909 15091 net.cpp:122] Setting up inception_4d/5x5_reduce
I0429 16:37:18.149929 15091 net.cpp:129] Top shape: 50 32 14 14 (313600)
I0429 16:37:18.149935 15091 net.cpp:137] Memory required for data: 2359036004
I0429 16:37:18.149946 15091 layer_factory.hpp:77] Creating layer inception_4d/relu_5x5_reduce
I0429 16:37:18.149957 15091 net.cpp:84] Creating Layer inception_4d/relu_5x5_reduce
I0429 16:37:18.149965 15091 net.cpp:406] inception_4d/relu_5x5_reduce <- inception_4d/5x5_reduce
I0429 16:37:18.149976 15091 net.cpp:367] inception_4d/relu_5x5_reduce -> inception_4d/5x5_reduce (in-place)
I0429 16:37:18.150193 15091 net.cpp:122] Setting up inception_4d/relu_5x5_reduce
I0429 16:37:18.150207 15091 net.cpp:129] Top shape: 50 32 14 14 (313600)
I0429 16:37:18.150212 15091 net.cpp:137] Memory required for data: 2360290404
I0429 16:37:18.150216 15091 layer_factory.hpp:77] Creating layer inception_4d/5x5
I0429 16:37:18.150231 15091 net.cpp:84] Creating Layer inception_4d/5x5
I0429 16:37:18.150238 15091 net.cpp:406] inception_4d/5x5 <- inception_4d/5x5_reduce
I0429 16:37:18.150250 15091 net.cpp:380] inception_4d/5x5 -> inception_4d/5x5
I0429 16:37:18.152406 15091 net.cpp:122] Setting up inception_4d/5x5
I0429 16:37:18.152424 15091 net.cpp:129] Top shape: 50 64 14 14 (627200)
I0429 16:37:18.152431 15091 net.cpp:137] Memory required for data: 2362799204
I0429 16:37:18.152441 15091 layer_factory.hpp:77] Creating layer inception_4d/relu_5x5
I0429 16:37:18.152449 15091 net.cpp:84] Creating Layer inception_4d/relu_5x5
I0429 16:37:18.152457 15091 net.cpp:406] inception_4d/relu_5x5 <- inception_4d/5x5
I0429 16:37:18.152477 15091 net.cpp:367] inception_4d/relu_5x5 -> inception_4d/5x5 (in-place)
I0429 16:37:18.163120 15091 net.cpp:122] Setting up inception_4d/relu_5x5
I0429 16:37:18.163149 15091 net.cpp:129] Top shape: 50 64 14 14 (627200)
I0429 16:37:18.163156 15091 net.cpp:137] Memory required for data: 2365308004
I0429 16:37:18.163163 15091 layer_factory.hpp:77] Creating layer inception_4d/pool
I0429 16:37:18.163177 15091 net.cpp:84] Creating Layer inception_4d/pool
I0429 16:37:18.163187 15091 net.cpp:406] inception_4d/pool <- inception_4c/output_inception_4c/output_0_split_3
I0429 16:37:18.163199 15091 net.cpp:380] inception_4d/pool -> inception_4d/pool
I0429 16:37:18.163278 15091 net.cpp:122] Setting up inception_4d/pool
I0429 16:37:18.163291 15091 net.cpp:129] Top shape: 50 512 14 14 (5017600)
I0429 16:37:18.163297 15091 net.cpp:137] Memory required for data: 2385378404
I0429 16:37:18.163303 15091 layer_factory.hpp:77] Creating layer inception_4d/pool_proj
I0429 16:37:18.163321 15091 net.cpp:84] Creating Layer inception_4d/pool_proj
I0429 16:37:18.163329 15091 net.cpp:406] inception_4d/pool_proj <- inception_4d/pool
I0429 16:37:18.163343 15091 net.cpp:380] inception_4d/pool_proj -> inception_4d/pool_proj
I0429 16:37:18.164494 15091 net.cpp:122] Setting up inception_4d/pool_proj
I0429 16:37:18.164510 15091 net.cpp:129] Top shape: 50 64 14 14 (627200)
I0429 16:37:18.164515 15091 net.cpp:137] Memory required for data: 2387887204
I0429 16:37:18.164528 15091 layer_factory.hpp:77] Creating layer inception_4d/relu_pool_proj
I0429 16:37:18.164537 15091 net.cpp:84] Creating Layer inception_4d/relu_pool_proj
I0429 16:37:18.164544 15091 net.cpp:406] inception_4d/relu_pool_proj <- inception_4d/pool_proj
I0429 16:37:18.164556 15091 net.cpp:367] inception_4d/relu_pool_proj -> inception_4d/pool_proj (in-place)
I0429 16:37:18.171726 15091 net.cpp:122] Setting up inception_4d/relu_pool_proj
I0429 16:37:18.171747 15091 net.cpp:129] Top shape: 50 64 14 14 (627200)
I0429 16:37:18.171753 15091 net.cpp:137] Memory required for data: 2390396004
I0429 16:37:18.171761 15091 layer_factory.hpp:77] Creating layer inception_4d/output
I0429 16:37:18.171771 15091 net.cpp:84] Creating Layer inception_4d/output
I0429 16:37:18.171778 15091 net.cpp:406] inception_4d/output <- inception_4d/1x1
I0429 16:37:18.171794 15091 net.cpp:406] inception_4d/output <- inception_4d/3x3
I0429 16:37:18.171802 15091 net.cpp:406] inception_4d/output <- inception_4d/5x5
I0429 16:37:18.171809 15091 net.cpp:406] inception_4d/output <- inception_4d/pool_proj
I0429 16:37:18.171821 15091 net.cpp:380] inception_4d/output -> inception_4d/output
I0429 16:37:18.171871 15091 net.cpp:122] Setting up inception_4d/output
I0429 16:37:18.171881 15091 net.cpp:129] Top shape: 50 528 14 14 (5174400)
I0429 16:37:18.171887 15091 net.cpp:137] Memory required for data: 2411093604
I0429 16:37:18.171893 15091 layer_factory.hpp:77] Creating layer inception_4d/output_inception_4d/output_0_split
I0429 16:37:18.171903 15091 net.cpp:84] Creating Layer inception_4d/output_inception_4d/output_0_split
I0429 16:37:18.171911 15091 net.cpp:406] inception_4d/output_inception_4d/output_0_split <- inception_4d/output
I0429 16:37:18.171922 15091 net.cpp:380] inception_4d/output_inception_4d/output_0_split -> inception_4d/output_inception_4d/output_0_split_0
I0429 16:37:18.171941 15091 net.cpp:380] inception_4d/output_inception_4d/output_0_split -> inception_4d/output_inception_4d/output_0_split_1
I0429 16:37:18.171954 15091 net.cpp:380] inception_4d/output_inception_4d/output_0_split -> inception_4d/output_inception_4d/output_0_split_2
I0429 16:37:18.171967 15091 net.cpp:380] inception_4d/output_inception_4d/output_0_split -> inception_4d/output_inception_4d/output_0_split_3
I0429 16:37:18.171977 15091 net.cpp:380] inception_4d/output_inception_4d/output_0_split -> inception_4d/output_inception_4d/output_0_split_4
I0429 16:37:18.172076 15091 net.cpp:122] Setting up inception_4d/output_inception_4d/output_0_split
I0429 16:37:18.172088 15091 net.cpp:129] Top shape: 50 528 14 14 (5174400)
I0429 16:37:18.172103 15091 net.cpp:129] Top shape: 50 528 14 14 (5174400)
I0429 16:37:18.172125 15091 net.cpp:129] Top shape: 50 528 14 14 (5174400)
I0429 16:37:18.172132 15091 net.cpp:129] Top shape: 50 528 14 14 (5174400)
I0429 16:37:18.172140 15091 net.cpp:129] Top shape: 50 528 14 14 (5174400)
I0429 16:37:18.172147 15091 net.cpp:137] Memory required for data: 2514581604
I0429 16:37:18.172157 15091 layer_factory.hpp:77] Creating layer loss2/ave_pool
I0429 16:37:18.172170 15091 net.cpp:84] Creating Layer loss2/ave_pool
I0429 16:37:18.172178 15091 net.cpp:406] loss2/ave_pool <- inception_4d/output_inception_4d/output_0_split_0
I0429 16:37:18.172189 15091 net.cpp:380] loss2/ave_pool -> loss2/ave_pool
I0429 16:37:18.172415 15091 net.cpp:122] Setting up loss2/ave_pool
I0429 16:37:18.172428 15091 net.cpp:129] Top shape: 50 528 4 4 (422400)
I0429 16:37:18.172435 15091 net.cpp:137] Memory required for data: 2516271204
I0429 16:37:18.172439 15091 layer_factory.hpp:77] Creating layer loss2/conv
I0429 16:37:18.172454 15091 net.cpp:84] Creating Layer loss2/conv
I0429 16:37:18.172462 15091 net.cpp:406] loss2/conv <- loss2/ave_pool
I0429 16:37:18.172473 15091 net.cpp:380] loss2/conv -> loss2/conv
I0429 16:37:18.175739 15091 net.cpp:122] Setting up loss2/conv
I0429 16:37:18.175755 15091 net.cpp:129] Top shape: 50 128 4 4 (102400)
I0429 16:37:18.175763 15091 net.cpp:137] Memory required for data: 2516680804
I0429 16:37:18.175774 15091 layer_factory.hpp:77] Creating layer loss2/relu_conv
I0429 16:37:18.175783 15091 net.cpp:84] Creating Layer loss2/relu_conv
I0429 16:37:18.175791 15091 net.cpp:406] loss2/relu_conv <- loss2/conv
I0429 16:37:18.175801 15091 net.cpp:367] loss2/relu_conv -> loss2/conv (in-place)
I0429 16:37:18.175993 15091 net.cpp:122] Setting up loss2/relu_conv
I0429 16:37:18.176004 15091 net.cpp:129] Top shape: 50 128 4 4 (102400)
I0429 16:37:18.176009 15091 net.cpp:137] Memory required for data: 2517090404
I0429 16:37:18.176014 15091 layer_factory.hpp:77] Creating layer loss2/fc
I0429 16:37:18.176023 15091 net.cpp:84] Creating Layer loss2/fc
I0429 16:37:18.176028 15091 net.cpp:406] loss2/fc <- loss2/conv
I0429 16:37:18.176036 15091 net.cpp:380] loss2/fc -> loss2/fc
I0429 16:37:18.194141 15091 net.cpp:122] Setting up loss2/fc
I0429 16:37:18.194180 15091 net.cpp:129] Top shape: 50 1024 (51200)
I0429 16:37:18.194185 15091 net.cpp:137] Memory required for data: 2517295204
I0429 16:37:18.194200 15091 layer_factory.hpp:77] Creating layer loss2/relu_fc
I0429 16:37:18.194214 15091 net.cpp:84] Creating Layer loss2/relu_fc
I0429 16:37:18.194223 15091 net.cpp:406] loss2/relu_fc <- loss2/fc
I0429 16:37:18.194236 15091 net.cpp:367] loss2/relu_fc -> loss2/fc (in-place)
I0429 16:37:18.194531 15091 net.cpp:122] Setting up loss2/relu_fc
I0429 16:37:18.194547 15091 net.cpp:129] Top shape: 50 1024 (51200)
I0429 16:37:18.194555 15091 net.cpp:137] Memory required for data: 2517500004
I0429 16:37:18.194561 15091 layer_factory.hpp:77] Creating layer loss2/drop_fc
I0429 16:37:18.194572 15091 net.cpp:84] Creating Layer loss2/drop_fc
I0429 16:37:18.194579 15091 net.cpp:406] loss2/drop_fc <- loss2/fc
I0429 16:37:18.194591 15091 net.cpp:367] loss2/drop_fc -> loss2/fc (in-place)
I0429 16:37:18.194638 15091 net.cpp:122] Setting up loss2/drop_fc
I0429 16:37:18.194649 15091 net.cpp:129] Top shape: 50 1024 (51200)
I0429 16:37:18.194656 15091 net.cpp:137] Memory required for data: 2517704804
I0429 16:37:18.194664 15091 layer_factory.hpp:77] Creating layer loss2/classifier
I0429 16:37:18.194682 15091 net.cpp:84] Creating Layer loss2/classifier
I0429 16:37:18.194690 15091 net.cpp:406] loss2/classifier <- loss2/fc
I0429 16:37:18.194703 15091 net.cpp:380] loss2/classifier -> loss2/classifier
I0429 16:37:18.205926 15091 net.cpp:122] Setting up loss2/classifier
I0429 16:37:18.205961 15091 net.cpp:129] Top shape: 50 1000 (50000)
I0429 16:37:18.205968 15091 net.cpp:137] Memory required for data: 2517904804
I0429 16:37:18.205984 15091 layer_factory.hpp:77] Creating layer loss2/loss
I0429 16:37:18.205999 15091 net.cpp:84] Creating Layer loss2/loss
I0429 16:37:18.206018 15091 net.cpp:406] loss2/loss <- loss2/classifier
I0429 16:37:18.206073 15091 net.cpp:406] loss2/loss <- label_data_1_split_1
I0429 16:37:18.206089 15091 net.cpp:380] loss2/loss -> loss2/loss2
I0429 16:37:18.206107 15091 layer_factory.hpp:77] Creating layer loss2/loss
I0429 16:37:18.207176 15091 net.cpp:122] Setting up loss2/loss
I0429 16:37:18.207191 15091 net.cpp:129] Top shape: (1)
I0429 16:37:18.207199 15091 net.cpp:132]     with loss weight 0.3
I0429 16:37:18.207216 15091 net.cpp:137] Memory required for data: 2517904808
I0429 16:37:18.207222 15091 layer_factory.hpp:77] Creating layer inception_4e/1x1
I0429 16:37:18.207240 15091 net.cpp:84] Creating Layer inception_4e/1x1
I0429 16:37:18.207249 15091 net.cpp:406] inception_4e/1x1 <- inception_4d/output_inception_4d/output_0_split_1
I0429 16:37:18.207262 15091 net.cpp:380] inception_4e/1x1 -> inception_4e/1x1
I0429 16:37:18.209921 15091 net.cpp:122] Setting up inception_4e/1x1
I0429 16:37:18.209941 15091 net.cpp:129] Top shape: 50 256 14 14 (2508800)
I0429 16:37:18.209949 15091 net.cpp:137] Memory required for data: 2527940008
I0429 16:37:18.209960 15091 layer_factory.hpp:77] Creating layer inception_4e/relu_1x1
I0429 16:37:18.209971 15091 net.cpp:84] Creating Layer inception_4e/relu_1x1
I0429 16:37:18.209980 15091 net.cpp:406] inception_4e/relu_1x1 <- inception_4e/1x1
I0429 16:37:18.209991 15091 net.cpp:367] inception_4e/relu_1x1 -> inception_4e/1x1 (in-place)
I0429 16:37:18.210224 15091 net.cpp:122] Setting up inception_4e/relu_1x1
I0429 16:37:18.210238 15091 net.cpp:129] Top shape: 50 256 14 14 (2508800)
I0429 16:37:18.210245 15091 net.cpp:137] Memory required for data: 2537975208
I0429 16:37:18.210253 15091 layer_factory.hpp:77] Creating layer inception_4e/3x3_reduce
I0429 16:37:18.210268 15091 net.cpp:84] Creating Layer inception_4e/3x3_reduce
I0429 16:37:18.210278 15091 net.cpp:406] inception_4e/3x3_reduce <- inception_4d/output_inception_4d/output_0_split_2
I0429 16:37:18.210295 15091 net.cpp:380] inception_4e/3x3_reduce -> inception_4e/3x3_reduce
I0429 16:37:18.212525 15091 net.cpp:122] Setting up inception_4e/3x3_reduce
I0429 16:37:18.212543 15091 net.cpp:129] Top shape: 50 160 14 14 (1568000)
I0429 16:37:18.212550 15091 net.cpp:137] Memory required for data: 2544247208
I0429 16:37:18.212563 15091 layer_factory.hpp:77] Creating layer inception_4e/relu_3x3_reduce
I0429 16:37:18.212574 15091 net.cpp:84] Creating Layer inception_4e/relu_3x3_reduce
I0429 16:37:18.212580 15091 net.cpp:406] inception_4e/relu_3x3_reduce <- inception_4e/3x3_reduce
I0429 16:37:18.212591 15091 net.cpp:367] inception_4e/relu_3x3_reduce -> inception_4e/3x3_reduce (in-place)
I0429 16:37:18.212802 15091 net.cpp:122] Setting up inception_4e/relu_3x3_reduce
I0429 16:37:18.212819 15091 net.cpp:129] Top shape: 50 160 14 14 (1568000)
I0429 16:37:18.212827 15091 net.cpp:137] Memory required for data: 2550519208
I0429 16:37:18.212833 15091 layer_factory.hpp:77] Creating layer inception_4e/3x3
I0429 16:37:18.212847 15091 net.cpp:84] Creating Layer inception_4e/3x3
I0429 16:37:18.212855 15091 net.cpp:406] inception_4e/3x3 <- inception_4e/3x3_reduce
I0429 16:37:18.212869 15091 net.cpp:380] inception_4e/3x3 -> inception_4e/3x3
I0429 16:37:18.220381 15091 net.cpp:122] Setting up inception_4e/3x3
I0429 16:37:18.220408 15091 net.cpp:129] Top shape: 50 320 14 14 (3136000)
I0429 16:37:18.220415 15091 net.cpp:137] Memory required for data: 2563063208
I0429 16:37:18.220427 15091 layer_factory.hpp:77] Creating layer inception_4e/relu_3x3
I0429 16:37:18.220440 15091 net.cpp:84] Creating Layer inception_4e/relu_3x3
I0429 16:37:18.220450 15091 net.cpp:406] inception_4e/relu_3x3 <- inception_4e/3x3
I0429 16:37:18.220468 15091 net.cpp:367] inception_4e/relu_3x3 -> inception_4e/3x3 (in-place)
I0429 16:37:18.220705 15091 net.cpp:122] Setting up inception_4e/relu_3x3
I0429 16:37:18.220721 15091 net.cpp:129] Top shape: 50 320 14 14 (3136000)
I0429 16:37:18.220727 15091 net.cpp:137] Memory required for data: 2575607208
I0429 16:37:18.220734 15091 layer_factory.hpp:77] Creating layer inception_4e/5x5_reduce
I0429 16:37:18.220758 15091 net.cpp:84] Creating Layer inception_4e/5x5_reduce
I0429 16:37:18.220783 15091 net.cpp:406] inception_4e/5x5_reduce <- inception_4d/output_inception_4d/output_0_split_3
I0429 16:37:18.220801 15091 net.cpp:380] inception_4e/5x5_reduce -> inception_4e/5x5_reduce
I0429 16:37:18.224098 15091 net.cpp:122] Setting up inception_4e/5x5_reduce
I0429 16:37:18.224117 15091 net.cpp:129] Top shape: 50 32 14 14 (313600)
I0429 16:37:18.224125 15091 net.cpp:137] Memory required for data: 2576861608
I0429 16:37:18.224136 15091 layer_factory.hpp:77] Creating layer inception_4e/relu_5x5_reduce
I0429 16:37:18.224150 15091 net.cpp:84] Creating Layer inception_4e/relu_5x5_reduce
I0429 16:37:18.224158 15091 net.cpp:406] inception_4e/relu_5x5_reduce <- inception_4e/5x5_reduce
I0429 16:37:18.224167 15091 net.cpp:367] inception_4e/relu_5x5_reduce -> inception_4e/5x5_reduce (in-place)
I0429 16:37:18.224378 15091 net.cpp:122] Setting up inception_4e/relu_5x5_reduce
I0429 16:37:18.224390 15091 net.cpp:129] Top shape: 50 32 14 14 (313600)
I0429 16:37:18.224396 15091 net.cpp:137] Memory required for data: 2578116008
I0429 16:37:18.224403 15091 layer_factory.hpp:77] Creating layer inception_4e/5x5
I0429 16:37:18.224472 15091 net.cpp:84] Creating Layer inception_4e/5x5
I0429 16:37:18.224483 15091 net.cpp:406] inception_4e/5x5 <- inception_4e/5x5_reduce
I0429 16:37:18.224495 15091 net.cpp:380] inception_4e/5x5 -> inception_4e/5x5
I0429 16:37:18.226583 15091 net.cpp:122] Setting up inception_4e/5x5
I0429 16:37:18.226598 15091 net.cpp:129] Top shape: 50 128 14 14 (1254400)
I0429 16:37:18.226603 15091 net.cpp:137] Memory required for data: 2583133608
I0429 16:37:18.226610 15091 layer_factory.hpp:77] Creating layer inception_4e/relu_5x5
I0429 16:37:18.226620 15091 net.cpp:84] Creating Layer inception_4e/relu_5x5
I0429 16:37:18.226625 15091 net.cpp:406] inception_4e/relu_5x5 <- inception_4e/5x5
I0429 16:37:18.226632 15091 net.cpp:367] inception_4e/relu_5x5 -> inception_4e/5x5 (in-place)
I0429 16:37:18.227182 15091 net.cpp:122] Setting up inception_4e/relu_5x5
I0429 16:37:18.227195 15091 net.cpp:129] Top shape: 50 128 14 14 (1254400)
I0429 16:37:18.227200 15091 net.cpp:137] Memory required for data: 2588151208
I0429 16:37:18.227205 15091 layer_factory.hpp:77] Creating layer inception_4e/pool
I0429 16:37:18.227214 15091 net.cpp:84] Creating Layer inception_4e/pool
I0429 16:37:18.227221 15091 net.cpp:406] inception_4e/pool <- inception_4d/output_inception_4d/output_0_split_4
I0429 16:37:18.227228 15091 net.cpp:380] inception_4e/pool -> inception_4e/pool
I0429 16:37:18.227278 15091 net.cpp:122] Setting up inception_4e/pool
I0429 16:37:18.227286 15091 net.cpp:129] Top shape: 50 528 14 14 (5174400)
I0429 16:37:18.227291 15091 net.cpp:137] Memory required for data: 2608848808
I0429 16:37:18.227295 15091 layer_factory.hpp:77] Creating layer inception_4e/pool_proj
I0429 16:37:18.227306 15091 net.cpp:84] Creating Layer inception_4e/pool_proj
I0429 16:37:18.227314 15091 net.cpp:406] inception_4e/pool_proj <- inception_4e/pool
I0429 16:37:18.227329 15091 net.cpp:380] inception_4e/pool_proj -> inception_4e/pool_proj
I0429 16:37:18.228298 15091 net.cpp:122] Setting up inception_4e/pool_proj
I0429 16:37:18.228310 15091 net.cpp:129] Top shape: 50 128 14 14 (1254400)
I0429 16:37:18.228314 15091 net.cpp:137] Memory required for data: 2613866408
I0429 16:37:18.228322 15091 layer_factory.hpp:77] Creating layer inception_4e/relu_pool_proj
I0429 16:37:18.228327 15091 net.cpp:84] Creating Layer inception_4e/relu_pool_proj
I0429 16:37:18.228333 15091 net.cpp:406] inception_4e/relu_pool_proj <- inception_4e/pool_proj
I0429 16:37:18.228340 15091 net.cpp:367] inception_4e/relu_pool_proj -> inception_4e/pool_proj (in-place)
I0429 16:37:18.228904 15091 net.cpp:122] Setting up inception_4e/relu_pool_proj
I0429 16:37:18.228916 15091 net.cpp:129] Top shape: 50 128 14 14 (1254400)
I0429 16:37:18.228921 15091 net.cpp:137] Memory required for data: 2618884008
I0429 16:37:18.228926 15091 layer_factory.hpp:77] Creating layer inception_4e/output
I0429 16:37:18.228934 15091 net.cpp:84] Creating Layer inception_4e/output
I0429 16:37:18.228952 15091 net.cpp:406] inception_4e/output <- inception_4e/1x1
I0429 16:37:18.228960 15091 net.cpp:406] inception_4e/output <- inception_4e/3x3
I0429 16:37:18.228965 15091 net.cpp:406] inception_4e/output <- inception_4e/5x5
I0429 16:37:18.228969 15091 net.cpp:406] inception_4e/output <- inception_4e/pool_proj
I0429 16:37:18.228976 15091 net.cpp:380] inception_4e/output -> inception_4e/output
I0429 16:37:18.229010 15091 net.cpp:122] Setting up inception_4e/output
I0429 16:37:18.229017 15091 net.cpp:129] Top shape: 50 832 14 14 (8153600)
I0429 16:37:18.229022 15091 net.cpp:137] Memory required for data: 2651498408
I0429 16:37:18.229025 15091 layer_factory.hpp:77] Creating layer pool4/3x3_s2
I0429 16:37:18.229032 15091 net.cpp:84] Creating Layer pool4/3x3_s2
I0429 16:37:18.229038 15091 net.cpp:406] pool4/3x3_s2 <- inception_4e/output
I0429 16:37:18.229043 15091 net.cpp:380] pool4/3x3_s2 -> pool4/3x3_s2
I0429 16:37:18.229082 15091 net.cpp:122] Setting up pool4/3x3_s2
I0429 16:37:18.229089 15091 net.cpp:129] Top shape: 50 832 7 7 (2038400)
I0429 16:37:18.229094 15091 net.cpp:137] Memory required for data: 2659652008
I0429 16:37:18.229097 15091 layer_factory.hpp:77] Creating layer pool4/3x3_s2_pool4/3x3_s2_0_split
I0429 16:37:18.229105 15091 net.cpp:84] Creating Layer pool4/3x3_s2_pool4/3x3_s2_0_split
I0429 16:37:18.229110 15091 net.cpp:406] pool4/3x3_s2_pool4/3x3_s2_0_split <- pool4/3x3_s2
I0429 16:37:18.229116 15091 net.cpp:380] pool4/3x3_s2_pool4/3x3_s2_0_split -> pool4/3x3_s2_pool4/3x3_s2_0_split_0
I0429 16:37:18.229125 15091 net.cpp:380] pool4/3x3_s2_pool4/3x3_s2_0_split -> pool4/3x3_s2_pool4/3x3_s2_0_split_1
I0429 16:37:18.229131 15091 net.cpp:380] pool4/3x3_s2_pool4/3x3_s2_0_split -> pool4/3x3_s2_pool4/3x3_s2_0_split_2
I0429 16:37:18.229138 15091 net.cpp:380] pool4/3x3_s2_pool4/3x3_s2_0_split -> pool4/3x3_s2_pool4/3x3_s2_0_split_3
I0429 16:37:18.229194 15091 net.cpp:122] Setting up pool4/3x3_s2_pool4/3x3_s2_0_split
I0429 16:37:18.229202 15091 net.cpp:129] Top shape: 50 832 7 7 (2038400)
I0429 16:37:18.229205 15091 net.cpp:129] Top shape: 50 832 7 7 (2038400)
I0429 16:37:18.229212 15091 net.cpp:129] Top shape: 50 832 7 7 (2038400)
I0429 16:37:18.229215 15091 net.cpp:129] Top shape: 50 832 7 7 (2038400)
I0429 16:37:18.229219 15091 net.cpp:137] Memory required for data: 2692266408
I0429 16:37:18.229223 15091 layer_factory.hpp:77] Creating layer inception_5a/1x1
I0429 16:37:18.229234 15091 net.cpp:84] Creating Layer inception_5a/1x1
I0429 16:37:18.229239 15091 net.cpp:406] inception_5a/1x1 <- pool4/3x3_s2_pool4/3x3_s2_0_split_0
I0429 16:37:18.229245 15091 net.cpp:380] inception_5a/1x1 -> inception_5a/1x1
I0429 16:37:18.232409 15091 net.cpp:122] Setting up inception_5a/1x1
I0429 16:37:18.232434 15091 net.cpp:129] Top shape: 50 256 7 7 (627200)
I0429 16:37:18.232437 15091 net.cpp:137] Memory required for data: 2694775208
I0429 16:37:18.232445 15091 layer_factory.hpp:77] Creating layer inception_5a/relu_1x1
I0429 16:37:18.232455 15091 net.cpp:84] Creating Layer inception_5a/relu_1x1
I0429 16:37:18.232461 15091 net.cpp:406] inception_5a/relu_1x1 <- inception_5a/1x1
I0429 16:37:18.232468 15091 net.cpp:367] inception_5a/relu_1x1 -> inception_5a/1x1 (in-place)
I0429 16:37:18.232620 15091 net.cpp:122] Setting up inception_5a/relu_1x1
I0429 16:37:18.232627 15091 net.cpp:129] Top shape: 50 256 7 7 (627200)
I0429 16:37:18.232632 15091 net.cpp:137] Memory required for data: 2697284008
I0429 16:37:18.232637 15091 layer_factory.hpp:77] Creating layer inception_5a/3x3_reduce
I0429 16:37:18.232657 15091 net.cpp:84] Creating Layer inception_5a/3x3_reduce
I0429 16:37:18.232666 15091 net.cpp:406] inception_5a/3x3_reduce <- pool4/3x3_s2_pool4/3x3_s2_0_split_1
I0429 16:37:18.232678 15091 net.cpp:380] inception_5a/3x3_reduce -> inception_5a/3x3_reduce
I0429 16:37:18.234371 15091 net.cpp:122] Setting up inception_5a/3x3_reduce
I0429 16:37:18.234386 15091 net.cpp:129] Top shape: 50 160 7 7 (392000)
I0429 16:37:18.234390 15091 net.cpp:137] Memory required for data: 2698852008
I0429 16:37:18.234405 15091 layer_factory.hpp:77] Creating layer inception_5a/relu_3x3_reduce
I0429 16:37:18.234423 15091 net.cpp:84] Creating Layer inception_5a/relu_3x3_reduce
I0429 16:37:18.234429 15091 net.cpp:406] inception_5a/relu_3x3_reduce <- inception_5a/3x3_reduce
I0429 16:37:18.234436 15091 net.cpp:367] inception_5a/relu_3x3_reduce -> inception_5a/3x3_reduce (in-place)
I0429 16:37:18.234586 15091 net.cpp:122] Setting up inception_5a/relu_3x3_reduce
I0429 16:37:18.234594 15091 net.cpp:129] Top shape: 50 160 7 7 (392000)
I0429 16:37:18.234598 15091 net.cpp:137] Memory required for data: 2700420008
I0429 16:37:18.234602 15091 layer_factory.hpp:77] Creating layer inception_5a/3x3
I0429 16:37:18.234614 15091 net.cpp:84] Creating Layer inception_5a/3x3
I0429 16:37:18.234619 15091 net.cpp:406] inception_5a/3x3 <- inception_5a/3x3_reduce
I0429 16:37:18.234627 15091 net.cpp:380] inception_5a/3x3 -> inception_5a/3x3
I0429 16:37:18.238988 15091 net.cpp:122] Setting up inception_5a/3x3
I0429 16:37:18.239006 15091 net.cpp:129] Top shape: 50 320 7 7 (784000)
I0429 16:37:18.239011 15091 net.cpp:137] Memory required for data: 2703556008
I0429 16:37:18.239018 15091 layer_factory.hpp:77] Creating layer inception_5a/relu_3x3
I0429 16:37:18.239027 15091 net.cpp:84] Creating Layer inception_5a/relu_3x3
I0429 16:37:18.239032 15091 net.cpp:406] inception_5a/relu_3x3 <- inception_5a/3x3
I0429 16:37:18.239043 15091 net.cpp:367] inception_5a/relu_3x3 -> inception_5a/3x3 (in-place)
I0429 16:37:18.239209 15091 net.cpp:122] Setting up inception_5a/relu_3x3
I0429 16:37:18.239218 15091 net.cpp:129] Top shape: 50 320 7 7 (784000)
I0429 16:37:18.239223 15091 net.cpp:137] Memory required for data: 2706692008
I0429 16:37:18.239228 15091 layer_factory.hpp:77] Creating layer inception_5a/5x5_reduce
I0429 16:37:18.239238 15091 net.cpp:84] Creating Layer inception_5a/5x5_reduce
I0429 16:37:18.239243 15091 net.cpp:406] inception_5a/5x5_reduce <- pool4/3x3_s2_pool4/3x3_s2_0_split_2
I0429 16:37:18.239253 15091 net.cpp:380] inception_5a/5x5_reduce -> inception_5a/5x5_reduce
I0429 16:37:18.240495 15091 net.cpp:122] Setting up inception_5a/5x5_reduce
I0429 16:37:18.240509 15091 net.cpp:129] Top shape: 50 32 7 7 (78400)
I0429 16:37:18.240512 15091 net.cpp:137] Memory required for data: 2707005608
I0429 16:37:18.240520 15091 layer_factory.hpp:77] Creating layer inception_5a/relu_5x5_reduce
I0429 16:37:18.240526 15091 net.cpp:84] Creating Layer inception_5a/relu_5x5_reduce
I0429 16:37:18.240531 15091 net.cpp:406] inception_5a/relu_5x5_reduce <- inception_5a/5x5_reduce
I0429 16:37:18.240538 15091 net.cpp:367] inception_5a/relu_5x5_reduce -> inception_5a/5x5_reduce (in-place)
I0429 16:37:18.240690 15091 net.cpp:122] Setting up inception_5a/relu_5x5_reduce
I0429 16:37:18.240700 15091 net.cpp:129] Top shape: 50 32 7 7 (78400)
I0429 16:37:18.240703 15091 net.cpp:137] Memory required for data: 2707319208
I0429 16:37:18.240707 15091 layer_factory.hpp:77] Creating layer inception_5a/5x5
I0429 16:37:18.240717 15091 net.cpp:84] Creating Layer inception_5a/5x5
I0429 16:37:18.240722 15091 net.cpp:406] inception_5a/5x5 <- inception_5a/5x5_reduce
I0429 16:37:18.240731 15091 net.cpp:380] inception_5a/5x5 -> inception_5a/5x5
I0429 16:37:18.243124 15091 net.cpp:122] Setting up inception_5a/5x5
I0429 16:37:18.243137 15091 net.cpp:129] Top shape: 50 128 7 7 (313600)
I0429 16:37:18.243142 15091 net.cpp:137] Memory required for data: 2708573608
I0429 16:37:18.243149 15091 layer_factory.hpp:77] Creating layer inception_5a/relu_5x5
I0429 16:37:18.243156 15091 net.cpp:84] Creating Layer inception_5a/relu_5x5
I0429 16:37:18.243162 15091 net.cpp:406] inception_5a/relu_5x5 <- inception_5a/5x5
I0429 16:37:18.243170 15091 net.cpp:367] inception_5a/relu_5x5 -> inception_5a/5x5 (in-place)
I0429 16:37:18.243729 15091 net.cpp:122] Setting up inception_5a/relu_5x5
I0429 16:37:18.243741 15091 net.cpp:129] Top shape: 50 128 7 7 (313600)
I0429 16:37:18.243746 15091 net.cpp:137] Memory required for data: 2709828008
I0429 16:37:18.243751 15091 layer_factory.hpp:77] Creating layer inception_5a/pool
I0429 16:37:18.243763 15091 net.cpp:84] Creating Layer inception_5a/pool
I0429 16:37:18.243783 15091 net.cpp:406] inception_5a/pool <- pool4/3x3_s2_pool4/3x3_s2_0_split_3
I0429 16:37:18.243793 15091 net.cpp:380] inception_5a/pool -> inception_5a/pool
I0429 16:37:18.243840 15091 net.cpp:122] Setting up inception_5a/pool
I0429 16:37:18.243849 15091 net.cpp:129] Top shape: 50 832 7 7 (2038400)
I0429 16:37:18.243851 15091 net.cpp:137] Memory required for data: 2717981608
I0429 16:37:18.243856 15091 layer_factory.hpp:77] Creating layer inception_5a/pool_proj
I0429 16:37:18.243868 15091 net.cpp:84] Creating Layer inception_5a/pool_proj
I0429 16:37:18.243872 15091 net.cpp:406] inception_5a/pool_proj <- inception_5a/pool
I0429 16:37:18.243880 15091 net.cpp:380] inception_5a/pool_proj -> inception_5a/pool_proj
I0429 16:37:18.245978 15091 net.cpp:122] Setting up inception_5a/pool_proj
I0429 16:37:18.245993 15091 net.cpp:129] Top shape: 50 128 7 7 (313600)
I0429 16:37:18.245997 15091 net.cpp:137] Memory required for data: 2719236008
I0429 16:37:18.246004 15091 layer_factory.hpp:77] Creating layer inception_5a/relu_pool_proj
I0429 16:37:18.246013 15091 net.cpp:84] Creating Layer inception_5a/relu_pool_proj
I0429 16:37:18.246018 15091 net.cpp:406] inception_5a/relu_pool_proj <- inception_5a/pool_proj
I0429 16:37:18.246026 15091 net.cpp:367] inception_5a/relu_pool_proj -> inception_5a/pool_proj (in-place)
I0429 16:37:18.246587 15091 net.cpp:122] Setting up inception_5a/relu_pool_proj
I0429 16:37:18.246600 15091 net.cpp:129] Top shape: 50 128 7 7 (313600)
I0429 16:37:18.246604 15091 net.cpp:137] Memory required for data: 2720490408
I0429 16:37:18.246609 15091 layer_factory.hpp:77] Creating layer inception_5a/output
I0429 16:37:18.246616 15091 net.cpp:84] Creating Layer inception_5a/output
I0429 16:37:18.246623 15091 net.cpp:406] inception_5a/output <- inception_5a/1x1
I0429 16:37:18.246628 15091 net.cpp:406] inception_5a/output <- inception_5a/3x3
I0429 16:37:18.246632 15091 net.cpp:406] inception_5a/output <- inception_5a/5x5
I0429 16:37:18.246637 15091 net.cpp:406] inception_5a/output <- inception_5a/pool_proj
I0429 16:37:18.246646 15091 net.cpp:380] inception_5a/output -> inception_5a/output
I0429 16:37:18.246678 15091 net.cpp:122] Setting up inception_5a/output
I0429 16:37:18.246686 15091 net.cpp:129] Top shape: 50 832 7 7 (2038400)
I0429 16:37:18.246690 15091 net.cpp:137] Memory required for data: 2728644008
I0429 16:37:18.246695 15091 layer_factory.hpp:77] Creating layer inception_5a/output_inception_5a/output_0_split
I0429 16:37:18.246702 15091 net.cpp:84] Creating Layer inception_5a/output_inception_5a/output_0_split
I0429 16:37:18.246706 15091 net.cpp:406] inception_5a/output_inception_5a/output_0_split <- inception_5a/output
I0429 16:37:18.246714 15091 net.cpp:380] inception_5a/output_inception_5a/output_0_split -> inception_5a/output_inception_5a/output_0_split_0
I0429 16:37:18.246723 15091 net.cpp:380] inception_5a/output_inception_5a/output_0_split -> inception_5a/output_inception_5a/output_0_split_1
I0429 16:37:18.246731 15091 net.cpp:380] inception_5a/output_inception_5a/output_0_split -> inception_5a/output_inception_5a/output_0_split_2
I0429 16:37:18.246737 15091 net.cpp:380] inception_5a/output_inception_5a/output_0_split -> inception_5a/output_inception_5a/output_0_split_3
I0429 16:37:18.246796 15091 net.cpp:122] Setting up inception_5a/output_inception_5a/output_0_split
I0429 16:37:18.246804 15091 net.cpp:129] Top shape: 50 832 7 7 (2038400)
I0429 16:37:18.246809 15091 net.cpp:129] Top shape: 50 832 7 7 (2038400)
I0429 16:37:18.246814 15091 net.cpp:129] Top shape: 50 832 7 7 (2038400)
I0429 16:37:18.246817 15091 net.cpp:129] Top shape: 50 832 7 7 (2038400)
I0429 16:37:18.246822 15091 net.cpp:137] Memory required for data: 2761258408
I0429 16:37:18.246826 15091 layer_factory.hpp:77] Creating layer inception_5b/1x1
I0429 16:37:18.246835 15091 net.cpp:84] Creating Layer inception_5b/1x1
I0429 16:37:18.246840 15091 net.cpp:406] inception_5b/1x1 <- inception_5a/output_inception_5a/output_0_split_0
I0429 16:37:18.246850 15091 net.cpp:380] inception_5b/1x1 -> inception_5b/1x1
I0429 16:37:18.249233 15091 net.cpp:122] Setting up inception_5b/1x1
I0429 16:37:18.249248 15091 net.cpp:129] Top shape: 50 384 7 7 (940800)
I0429 16:37:18.249251 15091 net.cpp:137] Memory required for data: 2765021608
I0429 16:37:18.249259 15091 layer_factory.hpp:77] Creating layer inception_5b/relu_1x1
I0429 16:37:18.249265 15091 net.cpp:84] Creating Layer inception_5b/relu_1x1
I0429 16:37:18.249270 15091 net.cpp:406] inception_5b/relu_1x1 <- inception_5b/1x1
I0429 16:37:18.249279 15091 net.cpp:367] inception_5b/relu_1x1 -> inception_5b/1x1 (in-place)
I0429 16:37:18.249429 15091 net.cpp:122] Setting up inception_5b/relu_1x1
I0429 16:37:18.249439 15091 net.cpp:129] Top shape: 50 384 7 7 (940800)
I0429 16:37:18.249441 15091 net.cpp:137] Memory required for data: 2768784808
I0429 16:37:18.249446 15091 layer_factory.hpp:77] Creating layer inception_5b/3x3_reduce
I0429 16:37:18.249457 15091 net.cpp:84] Creating Layer inception_5b/3x3_reduce
I0429 16:37:18.249461 15091 net.cpp:406] inception_5b/3x3_reduce <- inception_5a/output_inception_5a/output_0_split_1
I0429 16:37:18.249469 15091 net.cpp:380] inception_5b/3x3_reduce -> inception_5b/3x3_reduce
I0429 16:37:18.252280 15091 net.cpp:122] Setting up inception_5b/3x3_reduce
I0429 16:37:18.252300 15091 net.cpp:129] Top shape: 50 192 7 7 (470400)
I0429 16:37:18.252303 15091 net.cpp:137] Memory required for data: 2770666408
I0429 16:37:18.252311 15091 layer_factory.hpp:77] Creating layer inception_5b/relu_3x3_reduce
I0429 16:37:18.252321 15091 net.cpp:84] Creating Layer inception_5b/relu_3x3_reduce
I0429 16:37:18.252326 15091 net.cpp:406] inception_5b/relu_3x3_reduce <- inception_5b/3x3_reduce
I0429 16:37:18.252333 15091 net.cpp:367] inception_5b/relu_3x3_reduce -> inception_5b/3x3_reduce (in-place)
I0429 16:37:18.252485 15091 net.cpp:122] Setting up inception_5b/relu_3x3_reduce
I0429 16:37:18.252492 15091 net.cpp:129] Top shape: 50 192 7 7 (470400)
I0429 16:37:18.252497 15091 net.cpp:137] Memory required for data: 2772548008
I0429 16:37:18.252501 15091 layer_factory.hpp:77] Creating layer inception_5b/3x3
I0429 16:37:18.252516 15091 net.cpp:84] Creating Layer inception_5b/3x3
I0429 16:37:18.252521 15091 net.cpp:406] inception_5b/3x3 <- inception_5b/3x3_reduce
I0429 16:37:18.252528 15091 net.cpp:380] inception_5b/3x3 -> inception_5b/3x3
I0429 16:37:18.259099 15091 net.cpp:122] Setting up inception_5b/3x3
I0429 16:37:18.259120 15091 net.cpp:129] Top shape: 50 384 7 7 (940800)
I0429 16:37:18.259125 15091 net.cpp:137] Memory required for data: 2776311208
I0429 16:37:18.259135 15091 layer_factory.hpp:77] Creating layer inception_5b/relu_3x3
I0429 16:37:18.259143 15091 net.cpp:84] Creating Layer inception_5b/relu_3x3
I0429 16:37:18.259148 15091 net.cpp:406] inception_5b/relu_3x3 <- inception_5b/3x3
I0429 16:37:18.259160 15091 net.cpp:367] inception_5b/relu_3x3 -> inception_5b/3x3 (in-place)
I0429 16:37:18.259338 15091 net.cpp:122] Setting up inception_5b/relu_3x3
I0429 16:37:18.259348 15091 net.cpp:129] Top shape: 50 384 7 7 (940800)
I0429 16:37:18.259352 15091 net.cpp:137] Memory required for data: 2780074408
I0429 16:37:18.259356 15091 layer_factory.hpp:77] Creating layer inception_5b/5x5_reduce
I0429 16:37:18.259368 15091 net.cpp:84] Creating Layer inception_5b/5x5_reduce
I0429 16:37:18.259374 15091 net.cpp:406] inception_5b/5x5_reduce <- inception_5a/output_inception_5a/output_0_split_2
I0429 16:37:18.259382 15091 net.cpp:380] inception_5b/5x5_reduce -> inception_5b/5x5_reduce
I0429 16:37:18.260738 15091 net.cpp:122] Setting up inception_5b/5x5_reduce
I0429 16:37:18.260756 15091 net.cpp:129] Top shape: 50 48 7 7 (117600)
I0429 16:37:18.260761 15091 net.cpp:137] Memory required for data: 2780544808
I0429 16:37:18.260768 15091 layer_factory.hpp:77] Creating layer inception_5b/relu_5x5_reduce
I0429 16:37:18.260776 15091 net.cpp:84] Creating Layer inception_5b/relu_5x5_reduce
I0429 16:37:18.260781 15091 net.cpp:406] inception_5b/relu_5x5_reduce <- inception_5b/5x5_reduce
I0429 16:37:18.260788 15091 net.cpp:367] inception_5b/relu_5x5_reduce -> inception_5b/5x5_reduce (in-place)
I0429 16:37:18.260959 15091 net.cpp:122] Setting up inception_5b/relu_5x5_reduce
I0429 16:37:18.260967 15091 net.cpp:129] Top shape: 50 48 7 7 (117600)
I0429 16:37:18.260972 15091 net.cpp:137] Memory required for data: 2781015208
I0429 16:37:18.260977 15091 layer_factory.hpp:77] Creating layer inception_5b/5x5
I0429 16:37:18.260988 15091 net.cpp:84] Creating Layer inception_5b/5x5
I0429 16:37:18.260993 15091 net.cpp:406] inception_5b/5x5 <- inception_5b/5x5_reduce
I0429 16:37:18.261003 15091 net.cpp:380] inception_5b/5x5 -> inception_5b/5x5
I0429 16:37:18.263669 15091 net.cpp:122] Setting up inception_5b/5x5
I0429 16:37:18.263684 15091 net.cpp:129] Top shape: 50 128 7 7 (313600)
I0429 16:37:18.263689 15091 net.cpp:137] Memory required for data: 2782269608
I0429 16:37:18.263695 15091 layer_factory.hpp:77] Creating layer inception_5b/relu_5x5
I0429 16:37:18.263703 15091 net.cpp:84] Creating Layer inception_5b/relu_5x5
I0429 16:37:18.263707 15091 net.cpp:406] inception_5b/relu_5x5 <- inception_5b/5x5
I0429 16:37:18.263715 15091 net.cpp:367] inception_5b/relu_5x5 -> inception_5b/5x5 (in-place)
I0429 16:37:18.264271 15091 net.cpp:122] Setting up inception_5b/relu_5x5
I0429 16:37:18.264283 15091 net.cpp:129] Top shape: 50 128 7 7 (313600)
I0429 16:37:18.264288 15091 net.cpp:137] Memory required for data: 2783524008
I0429 16:37:18.264293 15091 layer_factory.hpp:77] Creating layer inception_5b/pool
I0429 16:37:18.264302 15091 net.cpp:84] Creating Layer inception_5b/pool
I0429 16:37:18.264307 15091 net.cpp:406] inception_5b/pool <- inception_5a/output_inception_5a/output_0_split_3
I0429 16:37:18.264315 15091 net.cpp:380] inception_5b/pool -> inception_5b/pool
I0429 16:37:18.264364 15091 net.cpp:122] Setting up inception_5b/pool
I0429 16:37:18.264371 15091 net.cpp:129] Top shape: 50 832 7 7 (2038400)
I0429 16:37:18.264375 15091 net.cpp:137] Memory required for data: 2791677608
I0429 16:37:18.264379 15091 layer_factory.hpp:77] Creating layer inception_5b/pool_proj
I0429 16:37:18.264390 15091 net.cpp:84] Creating Layer inception_5b/pool_proj
I0429 16:37:18.264395 15091 net.cpp:406] inception_5b/pool_proj <- inception_5b/pool
I0429 16:37:18.264403 15091 net.cpp:380] inception_5b/pool_proj -> inception_5b/pool_proj
I0429 16:37:18.265532 15091 net.cpp:122] Setting up inception_5b/pool_proj
I0429 16:37:18.265543 15091 net.cpp:129] Top shape: 50 128 7 7 (313600)
I0429 16:37:18.265548 15091 net.cpp:137] Memory required for data: 2792932008
I0429 16:37:18.265554 15091 layer_factory.hpp:77] Creating layer inception_5b/relu_pool_proj
I0429 16:37:18.265563 15091 net.cpp:84] Creating Layer inception_5b/relu_pool_proj
I0429 16:37:18.265568 15091 net.cpp:406] inception_5b/relu_pool_proj <- inception_5b/pool_proj
I0429 16:37:18.265574 15091 net.cpp:367] inception_5b/relu_pool_proj -> inception_5b/pool_proj (in-place)
I0429 16:37:18.266146 15091 net.cpp:122] Setting up inception_5b/relu_pool_proj
I0429 16:37:18.266160 15091 net.cpp:129] Top shape: 50 128 7 7 (313600)
I0429 16:37:18.266165 15091 net.cpp:137] Memory required for data: 2794186408
I0429 16:37:18.266170 15091 layer_factory.hpp:77] Creating layer inception_5b/output
I0429 16:37:18.266177 15091 net.cpp:84] Creating Layer inception_5b/output
I0429 16:37:18.266181 15091 net.cpp:406] inception_5b/output <- inception_5b/1x1
I0429 16:37:18.266187 15091 net.cpp:406] inception_5b/output <- inception_5b/3x3
I0429 16:37:18.266193 15091 net.cpp:406] inception_5b/output <- inception_5b/5x5
I0429 16:37:18.266198 15091 net.cpp:406] inception_5b/output <- inception_5b/pool_proj
I0429 16:37:18.266206 15091 net.cpp:380] inception_5b/output -> inception_5b/output
I0429 16:37:18.266237 15091 net.cpp:122] Setting up inception_5b/output
I0429 16:37:18.266244 15091 net.cpp:129] Top shape: 50 1024 7 7 (2508800)
I0429 16:37:18.266248 15091 net.cpp:137] Memory required for data: 2804221608
I0429 16:37:18.266252 15091 layer_factory.hpp:77] Creating layer pool5/7x7_s1
I0429 16:37:18.266260 15091 net.cpp:84] Creating Layer pool5/7x7_s1
I0429 16:37:18.266265 15091 net.cpp:406] pool5/7x7_s1 <- inception_5b/output
I0429 16:37:18.266288 15091 net.cpp:380] pool5/7x7_s1 -> pool5/7x7_s1
I0429 16:37:18.266852 15091 net.cpp:122] Setting up pool5/7x7_s1
I0429 16:37:18.266865 15091 net.cpp:129] Top shape: 50 1024 1 1 (51200)
I0429 16:37:18.266868 15091 net.cpp:137] Memory required for data: 2804426408
I0429 16:37:18.266873 15091 layer_factory.hpp:77] Creating layer pool5/drop_7x7_s1
I0429 16:37:18.266881 15091 net.cpp:84] Creating Layer pool5/drop_7x7_s1
I0429 16:37:18.266885 15091 net.cpp:406] pool5/drop_7x7_s1 <- pool5/7x7_s1
I0429 16:37:18.266894 15091 net.cpp:367] pool5/drop_7x7_s1 -> pool5/7x7_s1 (in-place)
I0429 16:37:18.266921 15091 net.cpp:122] Setting up pool5/drop_7x7_s1
I0429 16:37:18.266928 15091 net.cpp:129] Top shape: 50 1024 1 1 (51200)
I0429 16:37:18.266932 15091 net.cpp:137] Memory required for data: 2804631208
I0429 16:37:18.266937 15091 layer_factory.hpp:77] Creating layer loss3/classifier
I0429 16:37:18.266945 15091 net.cpp:84] Creating Layer loss3/classifier
I0429 16:37:18.266949 15091 net.cpp:406] loss3/classifier <- pool5/7x7_s1
I0429 16:37:18.266960 15091 net.cpp:380] loss3/classifier -> loss3/classifier
I0429 16:37:18.267156 15091 net.cpp:122] Setting up loss3/classifier
I0429 16:37:18.267168 15091 net.cpp:129] Top shape: 50 5 (250)
I0429 16:37:18.267172 15091 net.cpp:137] Memory required for data: 2804632208
I0429 16:37:18.267179 15091 layer_factory.hpp:77] Creating layer loss3/loss3
I0429 16:37:18.267189 15091 net.cpp:84] Creating Layer loss3/loss3
I0429 16:37:18.267194 15091 net.cpp:406] loss3/loss3 <- loss3/classifier
I0429 16:37:18.267200 15091 net.cpp:406] loss3/loss3 <- label_data_1_split_2
I0429 16:37:18.267206 15091 net.cpp:380] loss3/loss3 -> loss3/loss3
…
I0429 16:37:18.270020 15091 net.cpp:294] The NetState phase (1) differed from the phase (0) specified by a rule in layer data
I0429 16:37:18.270901 15091 net.cpp:51] Initializing net from parameters: 
name: "GoogleNet"
state {
  phase: TEST
}
layer {
  name: "data"
  type: "Data"
  top: "data"
  top: "label"
  include {
    phase: TEST
  }
  transform_param {
    mirror: false
    crop_size: 224
    mean_file: "retina256/retina256_train_mean.binaryproto"
  }
  data_param {
    source: "retina256/retina256_test_lmdb"
    batch_size: 1
    backend: LMDB
  }
}
layer {
  name: "conv1/7x7_s2"
  type: "Convolution"
  bottom: "data"
  top: "conv1/7x7_s2"
  param {
    lr_mult: 1
    decay_mult: 1
  }
  param {
    lr_mult: 2
    decay_mult: 0
  }
  convolution_param {
    num_output: 64
    pad: 3
    kernel_size: 7
    stride: 2
    weight_filler {
      type: "xavier"
    }
    bias_filler {
      type: "constant"
      value: 0.2
    }
  }
}
layer {
  name: "conv1/relu_7x7"
  type: "ReLU"
  bottom: "conv1/7x7_s2"
  top: "conv1/7x7_s2"
}
layer {
  name: "pool1/3x3_s2"
  type: "Pooling"
  bottom: "conv1/7x7_s2"
  top: "pool1/3x3_s2"
  pooling_param {
    pool: MAX
    kernel_size: 3
    stride: 2
  }
}
layer {
  name: "pool1/norm1"
  type: "LRN"
  bottom: "pool1/3x3_s2"
  top: "pool1/norm1"
  lrn_param {
    local_size: 5
    alpha: 0.0001
    beta: 0.75
  }
}
layer {
  name: "conv2/3x3_reduce"
  type: "Convolution"
  bottom: "pool1/norm1"
  top: "conv2/3x3_reduce"
  param {
    lr_mult: 1
    decay_mult: 1
  }
  param {
    lr_mult: 2
    decay_mult: 0
  }
  convolution_param {
    num_output: 64
    kernel_size: 1
    weight_filler {
      type: "xavier"
    }
    bias_filler {
      type: "constant"
      value: 0.2
    }
  }
}
layer {
  name: "conv2/relu_3x3_reduce"
  type: "ReLU"
  bottom: "conv2/3x3_reduce"
  top: "conv2/3x3_reduce"
}
layer {
  name: "conv2/3x3"
  type: "Convolution"
  bottom: "conv2/3x3_reduce"
  top: "conv2/3x3"
  param {
    lr_mult: 1
    decay_mult: 1
  }
  param {
    lr_mult: 2
    decay_mult: 0
  }
  convolution_param {
    num_output: 192
    pad: 1
    kernel_size: 3
    weight_filler {
      type: "xavier"
    }
    bias_filler {
      type: "constant"
      value: 0.2
    }
  }
}
layer {
  name: "conv2/relu_3x3"
  type: "ReLU"
  bottom: "conv2/3x3"
  top: "conv2/3x3"
}
layer {
  name: "conv2/norm2"
  type: "LRN"
  bottom: "conv2/3x3"
  top: "conv2/norm2"
  lrn_param {
    local_size: 5
    alpha: 0.0001
    beta: 0.75
  }
}
layer {
  name: "pool2/3x3_s2"
  type: "Pooling"
  bottom: "conv2/norm2"
  top: "pool2/3x3_s2"
  pooling_param {
    pool: MAX
    kernel_size: 3
    stride: 2
  }
}
layer {
  name: "inception_3a/1x1"
  type: "Convolution"
  bottom: "pool2/3x3_s2"
  top: "inception_3a/1x1"
  param {
    lr_mult: 1
    decay_mult: 1
  }
  param {
    lr_mult: 2
    decay_mult: 0
  }
  convolution_param {
    num_output: 64
    kernel_size: 1
    weight_filler {
      type: "xavier"
    }
    bias_filler {
      type: "constant"
      value: 0.2
    }
  }
}
layer {
  name: "inception_3a/relu_1x1"
  type: "ReLU"
  bottom: "inception_3a/1x1"
  top: "inception_3a/1x1"
}
layer {
  name: "inception_3a/3x3_reduce"
  type: "Convolution"
  bottom: "pool2/3x3_s2"
  top: "inception_3a/3x3_reduce"
  param {
    lr_mult: 1
    decay_mult: 1
  }
  param {
    lr_mult: 2
    decay_mult: 0
  }
  convolution_param {
    num_output: 96
    kernel_size: 1
    weight_filler {
      type: "xavier"
    }
    bias_filler {
      type: "constant"
      value: 0.2
    }
  }
}
layer {
  name: "inception_3a/relu_3x3_reduce"
  type: "ReLU"
  bottom: "inception_3a/3x3_reduce"
  top: "inception_3a/3x3_reduce"
}
layer {
  name: "inception_3a/3x3"
  type: "Convolution"
  bottom: "inception_3a/3x3_reduce"
  top: "inception_3a/3x3"
  param {
    lr_mult: 1
    decay_mult: 1
  }
  param {
    lr_mult: 2
    decay_mult: 0
  }
  convolution_param {
    num_output: 128
    pad: 1
    kernel_size: 3
    weight_filler {
      type: "xavier"
    }
    bias_filler {
      type: "constant"
      value: 0.2
    }
  }
}
layer {
  name: "inception_3a/relu_3x3"
  type: "ReLU"
  bottom: "inception_3a/3x3"
  top: "inception_3a/3x3"
}
layer {
  name: "inception_3a/5x5_reduce"
  type: "Convolution"
  bottom: "pool2/3x3_s2"
  top: "inception_3a/5x5_reduce"
  param {
    lr_mult: 1
    decay_mult: 1
  }
  param {
    lr_mult: 2
    decay_mult: 0
  }
  convolution_param {
    num_output: 16
    kernel_size: 1
    weight_filler {
      type: "xavier"
    }
    bias_filler {
      type: "constant"
      value: 0.2
    }
  }
}
layer {
  name: "inception_3a/relu_5x5_reduce"
  type: "ReLU"
  bottom: "inception_3a/5x5_reduce"
  top: "inception_3a/5x5_reduce"
}
layer {
  name: "inception_3a/5x5"
  type: "Convolution"
  bottom: "inception_3a/5x5_reduce"
  top: "inception_3a/5x5"
  param {
    lr_mult: 1
    decay_mult: 1
  }
  param {
    lr_mult: 2
    decay_mult: 0
  }
  convolution_param {
    num_output: 32
    pad: 2
    kernel_size: 5
    weight_filler {
      type: "xavier"
    }
    bias_filler {
      type: "constant"
      value: 0.2
    }
  }
}
layer {
  name: "inception_3a/relu_5x5"
  type: "ReLU"
  bottom: "inception_3a/5x5"
  top: "inception_3a/5x5"
}
layer {
  name: "inception_3a/pool"
  type: "Pooling"
  bottom: "pool2/3x3_s2"
  top: "inception_3a/pool"
  pooling_param {
    pool: MAX
    kernel_size: 3
    stride: 1
    pad: 1
  }
}
layer {
  name: "inception_3a/pool_proj"
  type: "Convolution"
  bottom: "inception_3a/pool"
  top: "inception_3a/pool_proj"
  param {
    lr_mult: 1
    decay_mult: 1
  }
  param {
    lr_mult: 2
    decay_mult: 0
  }
  convolution_param {
    num_output: 32
    kernel_size: 1
    weight_filler {
      type: "xavier"
    }
    bias_filler {
      type: "constant"
      value: 0.2
    }
  }
}
layer {
  name: "inception_3a/relu_pool_proj"
  type: "ReLU"
  bottom: "inception_3a/pool_proj"
  top: "inception_3a/pool_proj"
}
layer {
  name: "inception_3a/output"
  type: "Concat"
  bottom: "inception_3a/1x1"
  bottom: "inception_3a/3x3"
  bottom: "inception_3a/5x5"
  bottom: "inception_3a/pool_proj"
  top: "inception_3a/output"
}
layer {
  name: "inception_3b/1x1"
  type: "Convolution"
  bottom: "inception_3a/output"
  top: "inception_3b/1x1"
  param {
    lr_mult: 1
    decay_mult: 1
  }
  param {
    lr_mult: 2
    decay_mult: 0
  }
  convolution_param {
    num_output: 128
    kernel_size: 1
    weight_filler {
      type: "xavier"
    }
    bias_filler {
      type: "constant"
      value: 0.2
    }
  }
}
layer {
  name: "inception_3b/relu_1x1"
  type: "ReLU"
  bottom: "inception_3b/1x1"
  top: "inception_3b/1x1"
}
layer {
  name: "inception_3b/3x3_reduce"
  type: "Convolution"
  bottom: "inception_3a/output"
  top: "inception_3b/3x3_reduce"
  param {
    lr_mult: 1
    decay_mult: 1
  }
  param {
    lr_mult: 2
    decay_mult: 0
  }
  convolution_param {
    num_output: 128
    kernel_size: 1
    weight_filler {
      type: "xavier"
    }
    bias_filler {
      type: "constant"
      value: 0.2
    }
  }
}
layer {
  name: "inception_3b/relu_3x3_reduce"
  type: "ReLU"
  bottom: "inception_3b/3x3_reduce"
  top: "inception_3b/3x3_reduce"
}
layer {
  name: "inception_3b/3x3"
  type: "Convolution"
  bottom: "inception_3b/3x3_reduce"
  top: "inception_3b/3x3"
  param {
    lr_mult: 1
    decay_mult: 1
  }
  param {
    lr_mult: 2
    decay_mult: 0
  }
  convolution_param {
    num_output: 192
    pad: 1
    kernel_size: 3
    weight_filler {
      type: "xavier"
    }
    bias_filler {
      type: "constant"
      value: 0.2
    }
  }
}
layer {
  name: "inception_3b/relu_3x3"
  type: "ReLU"
  bottom: "inception_3b/3x3"
  top: "inception_3b/3x3"
}
layer {
  name: "inception_3b/5x5_reduce"
  type: "Convolution"
  bottom: "inception_3a/output"
  top: "inception_3b/5x5_reduce"
  param {
    lr_mult: 1
    decay_mult: 1
  }
  param {
    lr_mult: 2
    decay_mult: 0
  }
  convolution_param {
    num_output: 32
    kernel_size: 1
    weight_filler {
      type: "xavier"
    }
    bias_filler {
      type: "constant"
      value: 0.2
    }
  }
}
layer {
  name: "inception_3b/relu_5x5_reduce"
  type: "ReLU"
  bottom: "inception_3b/5x5_reduce"
  top: "inception_3b/5x5_reduce"
}
layer {
  name: "inception_3b/5x5"
  type: "Convolution"
  bottom: "inception_3b/5x5_reduce"
  top: "inception_3b/5x5"
  param {
    lr_mult: 1
    decay_mult: 1
  }
  param {
    lr_mult: 2
    decay_mult: 0
  }
  convolution_param {
    num_output: 96
    pad: 2
    kernel_size: 5
    weight_filler {
      type: "xavier"
    }
    bias_filler {
      type: "constant"
      value: 0.2
    }
  }
}
layer {
  name: "inception_3b/relu_5x5"
  type: "ReLU"
  bottom: "inception_3b/5x5"
  top: "inception_3b/5x5"
}
layer {
  name: "inception_3b/pool"
  type: "Pooling"
  bottom: "inception_3a/output"
  top: "inception_3b/pool"
  pooling_param {
    pool: MAX
    kernel_size: 3
    stride: 1
    pad: 1
  }
}
layer {
  name: "inception_3b/pool_proj"
  type: "Convolution"
  bottom: "inception_3b/pool"
  top: "inception_3b/pool_proj"
  param {
    lr_mult: 1
    decay_mult: 1
  }
  param {
    lr_mult: 2
    decay_mult: 0
  }
  convolution_param {
    num_output: 64
    kernel_size: 1
    weight_filler {
      type: "xavier"
    }
    bias_filler {
      type: "constant"
      value: 0.2
    }
  }
}
layer {
  name: "inception_3b/relu_pool_proj"
  type: "ReLU"
  bottom: "inception_3b/pool_proj"
  top: "inception_3b/pool_proj"
}
layer {
  name: "inception_3b/output"
  type: "Concat"
  bottom: "inception_3b/1x1"
  bottom: "inception_3b/3x3"
  bottom: "inception_3b/5x5"
  bottom: "inception_3b/pool_proj"
  top: "inception_3b/output"
}
layer {
  name: "pool3/3x3_s2"
  type: "Pooling"
  bottom: "inception_3b/output"
  top: "pool3/3x3_s2"
  pooling_param {
    pool: MAX
    kernel_size: 3
    stride: 2
  }
}
layer {
  name: "inception_4a/1x1"
  type: "Convolution"
  bottom: "pool3/3x3_s2"
  top: "inception_4a/1x1"
  param {
    lr_mult: 1
    decay_mult: 1
  }
  param {
    lr_mult: 2
    decay_mult: 0
  }
  convolution_param {
    num_output: 192
    kernel_size: 1
    weight_filler {
      type: "xavier"
    }
    bias_filler {
      type: "constant"
      value: 0.2
    }
  }
}
layer {
  name: "inception_4a/relu_1x1"
  type: "ReLU"
  bottom: "inception_4a/1x1"
  top: "inception_4a/1x1"
}
layer {
  name: "inception_4a/3x3_reduce"
  type: "Convolution"
  bottom: "pool3/3x3_s2"
  top: "inception_4a/3x3_reduce"
  param {
    lr_mult: 1
    decay_mult: 1
  }
  param {
    lr_mult: 2
    decay_mult: 0
  }
  convolution_param {
    num_output: 96
    kernel_size: 1
    weight_filler {
      type: "xavier"
    }
    bias_filler {
      type: "constant"
      value: 0.2
    }
  }
}
layer {
  name: "inception_4a/relu_3x3_reduce"
  type: "ReLU"
  bottom: "inception_4a/3x3_reduce"
  top: "inception_4a/3x3_reduce"
}
layer {
  name: "inception_4a/3x3"
  type: "Convolution"
  bottom: "inception_4a/3x3_reduce"
  top: "inception_4a/3x3"
  param {
    lr_mult: 1
    decay_mult: 1
  }
  param {
    lr_mult: 2
    decay_mult: 0
  }
  convolution_param {
    num_output: 208
    pad: 1
    kernel_size: 3
    weight_filler {
      type: "xavier"
    }
    bias_filler {
      type: "constant"
      value: 0.2
    }
  }
}
layer {
  name: "inception_4a/relu_3x3"
  type: "ReLU"
  bottom: "inception_4a/3x3"
  top: "inception_4a/3x3"
}
layer {
  name: "inception_4a/5x5_reduce"
  type: "Convolution"
  bottom: "pool3/3x3_s2"
  top: "inception_4a/5x5_reduce"
  param {
    lr_mult: 1
    decay_mult: 1
  }
  param {
    lr_mult: 2
    decay_mult: 0
  }
  convolution_param {
    num_output: 16
    kernel_size: 1
    weight_filler {
      type: "xavier"
    }
    bias_filler {
      type: "constant"
      value: 0.2
    }
  }
}
layer {
  name: "inception_4a/relu_5x5_reduce"
  type: "ReLU"
  bottom: "inception_4a/5x5_reduce"
  top: "inception_4a/5x5_reduce"
}
layer {
  name: "inception_4a/5x5"
  type: "Convolution"
  bottom: "inception_4a/5x5_reduce"
  top: "inception_4a/5x5"
  param {
    lr_mult: 1
    decay_mult: 1
  }
  param {
    lr_mult: 2
    decay_mult: 0
  }
  convolution_param {
    num_output: 48
    pad: 2
    kernel_size: 5
    weight_filler {
      type: "xavier"
    }
    bias_filler {
      type: "constant"
      value: 0.2
    }
  }
}
layer {
  name: "inception_4a/relu_5x5"
  type: "ReLU"
  bottom: "inception_4a/5x5"
  top: "inception_4a/5x5"
}
layer {
  name: "inception_4a/pool"
  type: "Pooling"
  bottom: "pool3/3x3_s2"
  top: "inception_4a/pool"
  pooling_param {
    pool: MAX
    kernel_size: 3
    stride: 1
    pad: 1
  }
}
layer {
  name: "inception_4a/pool_proj"
  type: "Convolution"
  bottom: "inception_4a/pool"
  top: "inception_4a/pool_proj"
  param {
    lr_mult: 1
    decay_mult: 1
  }
  param {
    lr_mult: 2
    decay_mult: 0
  }
  convolution_param {
    num_output: 64
    kernel_size: 1
    weight_filler {
      type: "xavier"
    }
    bias_filler {
      type: "constant"
      value: 0.2
    }
  }
}
layer {
  name: "inception_4a/relu_pool_proj"
  type: "ReLU"
  bottom: "inception_4a/pool_proj"
  top: "inception_4a/pool_proj"
}
layer {
  name: "inception_4a/output"
  type: "Concat"
  bottom: "inception_4a/1x1"
  bottom: "inception_4a/3x3"
  bottom: "inception_4a/5x5"
  bottom: "inception_4a/pool_proj"
  top: "inception_4a/output"
}
layer {
  name: "loss1/ave_pool"
  type: "Pooling"
  bottom: "inception_4a/output"
  top: "loss1/ave_pool"
  pooling_param {
    pool: AVE
    kernel_size: 5
    stride: 3
  }
}
layer {
  name: "loss1/conv"
  type: "Convolution"
  bottom: "loss1/ave_pool"
  top: "loss1/conv"
  param {
    lr_mult: 1
    decay_mult: 1
  }
  param {
    lr_mult: 2
    decay_mult: 0
  }
  convolution_param {
    num_output: 128
    kernel_size: 1
    weight_filler {
      type: "xavier"
    }
    bias_filler {
      type: "constant"
      value: 0.2
    }
  }
}
layer {
  name: "loss1/relu_conv"
  type: "ReLU"
  bottom: "loss1/conv"
  top: "loss1/conv"
}
layer {
  name: "loss1/fc"
  type: "InnerProduct"
  bottom: "loss1/conv"
  top: "loss1/fc"
  param {
    lr_mult: 1
    decay_mult: 1
  }
  param {
    lr_mult: 2
    decay_mult: 0
  }
  inner_product_param {
    num_output: 1024
    weight_filler {
      type: "xavier"
    }
    bias_filler {
      type: "constant"
      value: 0.2
    }
  }
}
layer {
  name: "loss1/relu_fc"
  type: "ReLU"
  bottom: "loss1/fc"
  top: "loss1/fc"
}
layer {
  name: "loss1/drop_fc"
  type: "Dropout"
  bottom: "loss1/fc"
  top: "loss1/fc"
  dropout_param {
    dropout_ratio: 0.7
  }
}
layer {
  name: "loss1/classifier"
  type: "InnerProduct"
  bottom: "loss1/fc"
…
I0429 16:37:18.411705 15091 net.cpp:406] inception_4c/relu_5x5 <- inception_4c/5x5
I0429 16:37:18.411710 15091 net.cpp:367] inception_4c/relu_5x5 -> inception_4c/5x5 (in-place)
I0429 16:37:18.411871 15091 net.cpp:122] Setting up inception_4c/relu_5x5
I0429 16:37:18.411880 15091 net.cpp:129] Top shape: 1 64 14 14 (12544)
I0429 16:37:18.411883 15091 net.cpp:137] Memory required for data: 43805880
I0429 16:37:18.411887 15091 layer_factory.hpp:77] Creating layer inception_4c/pool
I0429 16:37:18.411896 15091 net.cpp:84] Creating Layer inception_4c/pool
I0429 16:37:18.411902 15091 net.cpp:406] inception_4c/pool <- inception_4b/output_inception_4b/output_0_split_3
I0429 16:37:18.411911 15091 net.cpp:380] inception_4c/pool -> inception_4c/pool
I0429 16:37:18.411962 15091 net.cpp:122] Setting up inception_4c/pool
I0429 16:37:18.411973 15091 net.cpp:129] Top shape: 1 512 14 14 (100352)
I0429 16:37:18.411978 15091 net.cpp:137] Memory required for data: 44207288
I0429 16:37:18.411983 15091 layer_factory.hpp:77] Creating layer inception_4c/pool_proj
I0429 16:37:18.411991 15091 net.cpp:84] Creating Layer inception_4c/pool_proj
I0429 16:37:18.411996 15091 net.cpp:406] inception_4c/pool_proj <- inception_4c/pool
I0429 16:37:18.412004 15091 net.cpp:380] inception_4c/pool_proj -> inception_4c/pool_proj
I0429 16:37:18.413374 15091 net.cpp:122] Setting up inception_4c/pool_proj
I0429 16:37:18.413388 15091 net.cpp:129] Top shape: 1 64 14 14 (12544)
I0429 16:37:18.413393 15091 net.cpp:137] Memory required for data: 44257464
I0429 16:37:18.413399 15091 layer_factory.hpp:77] Creating layer inception_4c/relu_pool_proj
I0429 16:37:18.413408 15091 net.cpp:84] Creating Layer inception_4c/relu_pool_proj
I0429 16:37:18.413413 15091 net.cpp:406] inception_4c/relu_pool_proj <- inception_4c/pool_proj
I0429 16:37:18.413420 15091 net.cpp:367] inception_4c/relu_pool_proj -> inception_4c/pool_proj (in-place)
I0429 16:37:18.413596 15091 net.cpp:122] Setting up inception_4c/relu_pool_proj
I0429 16:37:18.413607 15091 net.cpp:129] Top shape: 1 64 14 14 (12544)
I0429 16:37:18.413611 15091 net.cpp:137] Memory required for data: 44307640
I0429 16:37:18.413615 15091 layer_factory.hpp:77] Creating layer inception_4c/output
I0429 16:37:18.413624 15091 net.cpp:84] Creating Layer inception_4c/output
I0429 16:37:18.413628 15091 net.cpp:406] inception_4c/output <- inception_4c/1x1
I0429 16:37:18.413635 15091 net.cpp:406] inception_4c/output <- inception_4c/3x3
I0429 16:37:18.413640 15091 net.cpp:406] inception_4c/output <- inception_4c/5x5
I0429 16:37:18.413645 15091 net.cpp:406] inception_4c/output <- inception_4c/pool_proj
I0429 16:37:18.413650 15091 net.cpp:380] inception_4c/output -> inception_4c/output
I0429 16:37:18.413687 15091 net.cpp:122] Setting up inception_4c/output
I0429 16:37:18.413695 15091 net.cpp:129] Top shape: 1 512 14 14 (100352)
I0429 16:37:18.413698 15091 net.cpp:137] Memory required for data: 44709048
I0429 16:37:18.413729 15091 layer_factory.hpp:77] Creating layer inception_4c/output_inception_4c/output_0_split
I0429 16:37:18.413753 15091 net.cpp:84] Creating Layer inception_4c/output_inception_4c/output_0_split
I0429 16:37:18.413758 15091 net.cpp:406] inception_4c/output_inception_4c/output_0_split <- inception_4c/output
I0429 16:37:18.413765 15091 net.cpp:380] inception_4c/output_inception_4c/output_0_split -> inception_4c/output_inception_4c/output_0_split_0
I0429 16:37:18.413775 15091 net.cpp:380] inception_4c/output_inception_4c/output_0_split -> inception_4c/output_inception_4c/output_0_split_1
I0429 16:37:18.413782 15091 net.cpp:380] inception_4c/output_inception_4c/output_0_split -> inception_4c/output_inception_4c/output_0_split_2
I0429 16:37:18.413789 15091 net.cpp:380] inception_4c/output_inception_4c/output_0_split -> inception_4c/output_inception_4c/output_0_split_3
I0429 16:37:18.413863 15091 net.cpp:122] Setting up inception_4c/output_inception_4c/output_0_split
I0429 16:37:18.413872 15091 net.cpp:129] Top shape: 1 512 14 14 (100352)
I0429 16:37:18.413877 15091 net.cpp:129] Top shape: 1 512 14 14 (100352)
I0429 16:37:18.413880 15091 net.cpp:129] Top shape: 1 512 14 14 (100352)
I0429 16:37:18.413885 15091 net.cpp:129] Top shape: 1 512 14 14 (100352)
I0429 16:37:18.413889 15091 net.cpp:137] Memory required for data: 46314680
I0429 16:37:18.413893 15091 layer_factory.hpp:77] Creating layer inception_4d/1x1
I0429 16:37:18.413903 15091 net.cpp:84] Creating Layer inception_4d/1x1
I0429 16:37:18.413908 15091 net.cpp:406] inception_4d/1x1 <- inception_4c/output_inception_4c/output_0_split_0
I0429 16:37:18.413918 15091 net.cpp:380] inception_4d/1x1 -> inception_4d/1x1
I0429 16:37:18.416342 15091 net.cpp:122] Setting up inception_4d/1x1
I0429 16:37:18.416355 15091 net.cpp:129] Top shape: 1 112 14 14 (21952)
I0429 16:37:18.416359 15091 net.cpp:137] Memory required for data: 46402488
I0429 16:37:18.416368 15091 layer_factory.hpp:77] Creating layer inception_4d/relu_1x1
I0429 16:37:18.416375 15091 net.cpp:84] Creating Layer inception_4d/relu_1x1
I0429 16:37:18.416384 15091 net.cpp:406] inception_4d/relu_1x1 <- inception_4d/1x1
I0429 16:37:18.416390 15091 net.cpp:367] inception_4d/relu_1x1 -> inception_4d/1x1 (in-place)
I0429 16:37:18.416554 15091 net.cpp:122] Setting up inception_4d/relu_1x1
I0429 16:37:18.416563 15091 net.cpp:129] Top shape: 1 112 14 14 (21952)
I0429 16:37:18.416568 15091 net.cpp:137] Memory required for data: 46490296
I0429 16:37:18.416571 15091 layer_factory.hpp:77] Creating layer inception_4d/3x3_reduce
I0429 16:37:18.416582 15091 net.cpp:84] Creating Layer inception_4d/3x3_reduce
I0429 16:37:18.416589 15091 net.cpp:406] inception_4d/3x3_reduce <- inception_4c/output_inception_4c/output_0_split_1
I0429 16:37:18.416597 15091 net.cpp:380] inception_4d/3x3_reduce -> inception_4d/3x3_reduce
I0429 16:37:18.418269 15091 net.cpp:122] Setting up inception_4d/3x3_reduce
I0429 16:37:18.418284 15091 net.cpp:129] Top shape: 1 144 14 14 (28224)
I0429 16:37:18.418289 15091 net.cpp:137] Memory required for data: 46603192
I0429 16:37:18.418296 15091 layer_factory.hpp:77] Creating layer inception_4d/relu_3x3_reduce
I0429 16:37:18.418304 15091 net.cpp:84] Creating Layer inception_4d/relu_3x3_reduce
I0429 16:37:18.418310 15091 net.cpp:406] inception_4d/relu_3x3_reduce <- inception_4d/3x3_reduce
I0429 16:37:18.418318 15091 net.cpp:367] inception_4d/relu_3x3_reduce -> inception_4d/3x3_reduce (in-place)
I0429 16:37:18.418928 15091 net.cpp:122] Setting up inception_4d/relu_3x3_reduce
I0429 16:37:18.418939 15091 net.cpp:129] Top shape: 1 144 14 14 (28224)
I0429 16:37:18.418944 15091 net.cpp:137] Memory required for data: 46716088
I0429 16:37:18.418949 15091 layer_factory.hpp:77] Creating layer inception_4d/3x3
I0429 16:37:18.418962 15091 net.cpp:84] Creating Layer inception_4d/3x3
I0429 16:37:18.418967 15091 net.cpp:406] inception_4d/3x3 <- inception_4d/3x3_reduce
I0429 16:37:18.418977 15091 net.cpp:380] inception_4d/3x3 -> inception_4d/3x3
I0429 16:37:18.424953 15091 net.cpp:122] Setting up inception_4d/3x3
I0429 16:37:18.424973 15091 net.cpp:129] Top shape: 1 288 14 14 (56448)
I0429 16:37:18.424988 15091 net.cpp:137] Memory required for data: 46941880
I0429 16:37:18.425015 15091 layer_factory.hpp:77] Creating layer inception_4d/relu_3x3
I0429 16:37:18.425026 15091 net.cpp:84] Creating Layer inception_4d/relu_3x3
I0429 16:37:18.425032 15091 net.cpp:406] inception_4d/relu_3x3 <- inception_4d/3x3
I0429 16:37:18.425040 15091 net.cpp:367] inception_4d/relu_3x3 -> inception_4d/3x3 (in-place)
I0429 16:37:18.425226 15091 net.cpp:122] Setting up inception_4d/relu_3x3
I0429 16:37:18.425237 15091 net.cpp:129] Top shape: 1 288 14 14 (56448)
I0429 16:37:18.425241 15091 net.cpp:137] Memory required for data: 47167672
I0429 16:37:18.425246 15091 layer_factory.hpp:77] Creating layer inception_4d/5x5_reduce
I0429 16:37:18.425261 15091 net.cpp:84] Creating Layer inception_4d/5x5_reduce
I0429 16:37:18.425267 15091 net.cpp:406] inception_4d/5x5_reduce <- inception_4c/output_inception_4c/output_0_split_2
I0429 16:37:18.425278 15091 net.cpp:380] inception_4d/5x5_reduce -> inception_4d/5x5_reduce
I0429 16:37:18.426690 15091 net.cpp:122] Setting up inception_4d/5x5_reduce
I0429 16:37:18.426705 15091 net.cpp:129] Top shape: 1 32 14 14 (6272)
I0429 16:37:18.426710 15091 net.cpp:137] Memory required for data: 47192760
I0429 16:37:18.426717 15091 layer_factory.hpp:77] Creating layer inception_4d/relu_5x5_reduce
I0429 16:37:18.426725 15091 net.cpp:84] Creating Layer inception_4d/relu_5x5_reduce
I0429 16:37:18.426731 15091 net.cpp:406] inception_4d/relu_5x5_reduce <- inception_4d/5x5_reduce
I0429 16:37:18.426739 15091 net.cpp:367] inception_4d/relu_5x5_reduce -> inception_4d/5x5_reduce (in-place)
I0429 16:37:18.426904 15091 net.cpp:122] Setting up inception_4d/relu_5x5_reduce
I0429 16:37:18.426914 15091 net.cpp:129] Top shape: 1 32 14 14 (6272)
I0429 16:37:18.426919 15091 net.cpp:137] Memory required for data: 47217848
I0429 16:37:18.426923 15091 layer_factory.hpp:77] Creating layer inception_4d/5x5
I0429 16:37:18.426934 15091 net.cpp:84] Creating Layer inception_4d/5x5
I0429 16:37:18.426939 15091 net.cpp:406] inception_4d/5x5 <- inception_4d/5x5_reduce
I0429 16:37:18.426947 15091 net.cpp:380] inception_4d/5x5 -> inception_4d/5x5
I0429 16:37:18.428375 15091 net.cpp:122] Setting up inception_4d/5x5
I0429 16:37:18.428386 15091 net.cpp:129] Top shape: 1 64 14 14 (12544)
I0429 16:37:18.428391 15091 net.cpp:137] Memory required for data: 47268024
I0429 16:37:18.428398 15091 layer_factory.hpp:77] Creating layer inception_4d/relu_5x5
I0429 16:37:18.428407 15091 net.cpp:84] Creating Layer inception_4d/relu_5x5
I0429 16:37:18.428413 15091 net.cpp:406] inception_4d/relu_5x5 <- inception_4d/5x5
I0429 16:37:18.428419 15091 net.cpp:367] inception_4d/relu_5x5 -> inception_4d/5x5 (in-place)
I0429 16:37:18.428601 15091 net.cpp:122] Setting up inception_4d/relu_5x5
I0429 16:37:18.428611 15091 net.cpp:129] Top shape: 1 64 14 14 (12544)
I0429 16:37:18.428616 15091 net.cpp:137] Memory required for data: 47318200
I0429 16:37:18.428619 15091 layer_factory.hpp:77] Creating layer inception_4d/pool
I0429 16:37:18.428628 15091 net.cpp:84] Creating Layer inception_4d/pool
I0429 16:37:18.428633 15091 net.cpp:406] inception_4d/pool <- inception_4c/output_inception_4c/output_0_split_3
I0429 16:37:18.428642 15091 net.cpp:380] inception_4d/pool -> inception_4d/pool
I0429 16:37:18.428694 15091 net.cpp:122] Setting up inception_4d/pool
I0429 16:37:18.428701 15091 net.cpp:129] Top shape: 1 512 14 14 (100352)
I0429 16:37:18.428705 15091 net.cpp:137] Memory required for data: 47719608
I0429 16:37:18.428709 15091 layer_factory.hpp:77] Creating layer inception_4d/pool_proj
I0429 16:37:18.428721 15091 net.cpp:84] Creating Layer inception_4d/pool_proj
I0429 16:37:18.428727 15091 net.cpp:406] inception_4d/pool_proj <- inception_4d/pool
I0429 16:37:18.428735 15091 net.cpp:380] inception_4d/pool_proj -> inception_4d/pool_proj
I0429 16:37:18.430126 15091 net.cpp:122] Setting up inception_4d/pool_proj
I0429 16:37:18.430141 15091 net.cpp:129] Top shape: 1 64 14 14 (12544)
I0429 16:37:18.430146 15091 net.cpp:137] Memory required for data: 47769784
I0429 16:37:18.430157 15091 layer_factory.hpp:77] Creating layer inception_4d/relu_pool_proj
I0429 16:37:18.430173 15091 net.cpp:84] Creating Layer inception_4d/relu_pool_proj
I0429 16:37:18.430178 15091 net.cpp:406] inception_4d/relu_pool_proj <- inception_4d/pool_proj
I0429 16:37:18.430186 15091 net.cpp:367] inception_4d/relu_pool_proj -> inception_4d/pool_proj (in-place)
I0429 16:37:18.430351 15091 net.cpp:122] Setting up inception_4d/relu_pool_proj
I0429 16:37:18.430359 15091 net.cpp:129] Top shape: 1 64 14 14 (12544)
I0429 16:37:18.430363 15091 net.cpp:137] Memory required for data: 47819960
I0429 16:37:18.430368 15091 layer_factory.hpp:77] Creating layer inception_4d/output
I0429 16:37:18.430377 15091 net.cpp:84] Creating Layer inception_4d/output
I0429 16:37:18.430382 15091 net.cpp:406] inception_4d/output <- inception_4d/1x1
I0429 16:37:18.430387 15091 net.cpp:406] inception_4d/output <- inception_4d/3x3
I0429 16:37:18.430393 15091 net.cpp:406] inception_4d/output <- inception_4d/5x5
I0429 16:37:18.430397 15091 net.cpp:406] inception_4d/output <- inception_4d/pool_proj
I0429 16:37:18.430405 15091 net.cpp:380] inception_4d/output -> inception_4d/output
I0429 16:37:18.430439 15091 net.cpp:122] Setting up inception_4d/output
I0429 16:37:18.430446 15091 net.cpp:129] Top shape: 1 528 14 14 (103488)
I0429 16:37:18.430450 15091 net.cpp:137] Memory required for data: 48233912
I0429 16:37:18.430454 15091 layer_factory.hpp:77] Creating layer inception_4d/output_inception_4d/output_0_split
I0429 16:37:18.430464 15091 net.cpp:84] Creating Layer inception_4d/output_inception_4d/output_0_split
I0429 16:37:18.430469 15091 net.cpp:406] inception_4d/output_inception_4d/output_0_split <- inception_4d/output
I0429 16:37:18.430477 15091 net.cpp:380] inception_4d/output_inception_4d/output_0_split -> inception_4d/output_inception_4d/output_0_split_0
I0429 16:37:18.430486 15091 net.cpp:380] inception_4d/output_inception_4d/output_0_split -> inception_4d/output_inception_4d/output_0_split_1
I0429 16:37:18.430495 15091 net.cpp:380] inception_4d/output_inception_4d/output_0_split -> inception_4d/output_inception_4d/output_0_split_2
I0429 16:37:18.430502 15091 net.cpp:380] inception_4d/output_inception_4d/output_0_split -> inception_4d/output_inception_4d/output_0_split_3
I0429 16:37:18.430510 15091 net.cpp:380] inception_4d/output_inception_4d/output_0_split -> inception_4d/output_inception_4d/output_0_split_4
I0429 16:37:18.430591 15091 net.cpp:122] Setting up inception_4d/output_inception_4d/output_0_split
I0429 16:37:18.430600 15091 net.cpp:129] Top shape: 1 528 14 14 (103488)
I0429 16:37:18.430610 15091 net.cpp:129] Top shape: 1 528 14 14 (103488)
I0429 16:37:18.430619 15091 net.cpp:129] Top shape: 1 528 14 14 (103488)
I0429 16:37:18.430626 15091 net.cpp:129] Top shape: 1 528 14 14 (103488)
I0429 16:37:18.430634 15091 net.cpp:129] Top shape: 1 528 14 14 (103488)
I0429 16:37:18.430640 15091 net.cpp:137] Memory required for data: 50303672
I0429 16:37:18.430645 15091 layer_factory.hpp:77] Creating layer loss2/ave_pool
I0429 16:37:18.430651 15091 net.cpp:84] Creating Layer loss2/ave_pool
I0429 16:37:18.430656 15091 net.cpp:406] loss2/ave_pool <- inception_4d/output_inception_4d/output_0_split_0
I0429 16:37:18.430667 15091 net.cpp:380] loss2/ave_pool -> loss2/ave_pool
I0429 16:37:18.431285 15091 net.cpp:122] Setting up loss2/ave_pool
I0429 16:37:18.431298 15091 net.cpp:129] Top shape: 1 528 4 4 (8448)
I0429 16:37:18.431301 15091 net.cpp:137] Memory required for data: 50337464
I0429 16:37:18.431308 15091 layer_factory.hpp:77] Creating layer loss2/conv
I0429 16:37:18.431318 15091 net.cpp:84] Creating Layer loss2/conv
I0429 16:37:18.431324 15091 net.cpp:406] loss2/conv <- loss2/ave_pool
I0429 16:37:18.431332 15091 net.cpp:380] loss2/conv -> loss2/conv
I0429 16:37:18.432416 15091 net.cpp:122] Setting up loss2/conv
I0429 16:37:18.432427 15091 net.cpp:129] Top shape: 1 128 4 4 (2048)
I0429 16:37:18.432431 15091 net.cpp:137] Memory required for data: 50345656
I0429 16:37:18.432437 15091 layer_factory.hpp:77] Creating layer loss2/relu_conv
I0429 16:37:18.432448 15091 net.cpp:84] Creating Layer loss2/relu_conv
I0429 16:37:18.432461 15091 net.cpp:406] loss2/relu_conv <- loss2/conv
I0429 16:37:18.432467 15091 net.cpp:367] loss2/relu_conv -> loss2/conv (in-place)
I0429 16:37:18.433089 15091 net.cpp:122] Setting up loss2/relu_conv
I0429 16:37:18.433104 15091 net.cpp:129] Top shape: 1 128 4 4 (2048)
I0429 16:37:18.433109 15091 net.cpp:137] Memory required for data: 50353848
I0429 16:37:18.433113 15091 layer_factory.hpp:77] Creating layer loss2/fc
I0429 16:37:18.433121 15091 net.cpp:84] Creating Layer loss2/fc
I0429 16:37:18.433127 15091 net.cpp:406] loss2/fc <- loss2/conv
I0429 16:37:18.433135 15091 net.cpp:380] loss2/fc -> loss2/fc
I0429 16:37:18.446575 15091 net.cpp:122] Setting up loss2/fc
I0429 16:37:18.446606 15091 net.cpp:129] Top shape: 1 1024 (1024)
I0429 16:37:18.446612 15091 net.cpp:137] Memory required for data: 50357944
I0429 16:37:18.446627 15091 layer_factory.hpp:77] Creating layer loss2/relu_fc
I0429 16:37:18.446642 15091 net.cpp:84] Creating Layer loss2/relu_fc
I0429 16:37:18.446655 15091 net.cpp:406] loss2/relu_fc <- loss2/fc
I0429 16:37:18.446668 15091 net.cpp:367] loss2/relu_fc -> loss2/fc (in-place)
I0429 16:37:18.446907 15091 net.cpp:122] Setting up loss2/relu_fc
I0429 16:37:18.446915 15091 net.cpp:129] Top shape: 1 1024 (1024)
I0429 16:37:18.446919 15091 net.cpp:137] Memory required for data: 50362040
I0429 16:37:18.446924 15091 layer_factory.hpp:77] Creating layer loss2/drop_fc
I0429 16:37:18.446934 15091 net.cpp:84] Creating Layer loss2/drop_fc
I0429 16:37:18.446939 15091 net.cpp:406] loss2/drop_fc <- loss2/fc
I0429 16:37:18.446944 15091 net.cpp:367] loss2/drop_fc -> loss2/fc (in-place)
I0429 16:37:18.446979 15091 net.cpp:122] Setting up loss2/drop_fc
I0429 16:37:18.446985 15091 net.cpp:129] Top shape: 1 1024 (1024)
I0429 16:37:18.446990 15091 net.cpp:137] Memory required for data: 50366136
I0429 16:37:18.446993 15091 layer_factory.hpp:77] Creating layer loss2/classifier
I0429 16:37:18.447003 15091 net.cpp:84] Creating Layer loss2/classifier
I0429 16:37:18.447008 15091 net.cpp:406] loss2/classifier <- loss2/fc
I0429 16:37:18.447016 15091 net.cpp:380] loss2/classifier -> loss2/classifier
I0429 16:37:18.452924 15091 net.cpp:122] Setting up loss2/classifier
I0429 16:37:18.452944 15091 net.cpp:129] Top shape: 1 1000 (1000)
I0429 16:37:18.452950 15091 net.cpp:137] Memory required for data: 50370136
I0429 16:37:18.452958 15091 layer_factory.hpp:77] Creating layer loss2/classifier_loss2/classifier_0_split
I0429 16:37:18.452967 15091 net.cpp:84] Creating Layer loss2/classifier_loss2/classifier_0_split
I0429 16:37:18.452975 15091 net.cpp:406] loss2/classifier_loss2/classifier_0_split <- loss2/classifier
I0429 16:37:18.452983 15091 net.cpp:380] loss2/classifier_loss2/classifier_0_split -> loss2/classifier_loss2/classifier_0_split_0
I0429 16:37:18.452993 15091 net.cpp:380] loss2/classifier_loss2/classifier_0_split -> loss2/classifier_loss2/classifier_0_split_1
I0429 16:37:18.453001 15091 net.cpp:380] loss2/classifier_loss2/classifier_0_split -> loss2/classifier_loss2/classifier_0_split_2
I0429 16:37:18.453089 15091 net.cpp:122] Setting up loss2/classifier_loss2/classifier_0_split
I0429 16:37:18.453099 15091 net.cpp:129] Top shape: 1 1000 (1000)
I0429 16:37:18.453105 15091 net.cpp:129] Top shape: 1 1000 (1000)
I0429 16:37:18.453110 15091 net.cpp:129] Top shape: 1 1000 (1000)
I0429 16:37:18.453116 15091 net.cpp:137] Memory required for data: 50382136
I0429 16:37:18.453120 15091 layer_factory.hpp:77] Creating layer loss2/loss
I0429 16:37:18.453128 15091 net.cpp:84] Creating Layer loss2/loss
I0429 16:37:18.453133 15091 net.cpp:406] loss2/loss <- loss2/classifier_loss2/classifier_0_split_0
I0429 16:37:18.453140 15091 net.cpp:406] loss2/loss <- label_data_1_split_3
…
I0429 16:37:18.453613 15091 net.cpp:122] Setting up loss2/top-5
I0429 16:37:18.453616 15091 net.cpp:129] Top shape: (1)
I0429 16:37:18.453621 15091 net.cpp:137] Memory required for data: 50382148
I0429 16:37:18.453627 15091 layer_factory.hpp:77] Creating layer inception_4e/1x1
I0429 16:37:18.453640 15091 net.cpp:84] Creating Layer inception_4e/1x1
I0429 16:37:18.453646 15091 net.cpp:406] inception_4e/1x1 <- inception_4d/output_inception_4d/output_0_split_1
I0429 16:37:18.453655 15091 net.cpp:380] inception_4e/1x1 -> inception_4e/1x1
I0429 16:37:18.455780 15091 net.cpp:122] Setting up inception_4e/1x1
I0429 16:37:18.455796 15091 net.cpp:129] Top shape: 1 256 14 14 (50176)
I0429 16:37:18.455801 15091 net.cpp:137] Memory required for data: 50582852
I0429 16:37:18.455809 15091 layer_factory.hpp:77] Creating layer inception_4e/relu_1x1
I0429 16:37:18.455817 15091 net.cpp:84] Creating Layer inception_4e/relu_1x1
I0429 16:37:18.455824 15091 net.cpp:406] inception_4e/relu_1x1 <- inception_4e/1x1
I0429 16:37:18.455833 15091 net.cpp:367] inception_4e/relu_1x1 -> inception_4e/1x1 (in-place)
I0429 16:37:18.456017 15091 net.cpp:122] Setting up inception_4e/relu_1x1
I0429 16:37:18.456032 15091 net.cpp:129] Top shape: 1 256 14 14 (50176)
I0429 16:37:18.456038 15091 net.cpp:137] Memory required for data: 50783556
I0429 16:37:18.456044 15091 layer_factory.hpp:77] Creating layer inception_4e/3x3_reduce
I0429 16:37:18.456101 15091 net.cpp:84] Creating Layer inception_4e/3x3_reduce
I0429 16:37:18.456110 15091 net.cpp:406] inception_4e/3x3_reduce <- inception_4d/output_inception_4d/output_0_split_2
I0429 16:37:18.456122 15091 net.cpp:380] inception_4e/3x3_reduce -> inception_4e/3x3_reduce
I0429 16:37:18.459389 15091 net.cpp:122] Setting up inception_4e/3x3_reduce
I0429 16:37:18.459409 15091 net.cpp:129] Top shape: 1 160 14 14 (31360)
I0429 16:37:18.459417 15091 net.cpp:137] Memory required for data: 50908996
I0429 16:37:18.459432 15091 layer_factory.hpp:77] Creating layer inception_4e/relu_3x3_reduce
I0429 16:37:18.459444 15091 net.cpp:84] Creating Layer inception_4e/relu_3x3_reduce
I0429 16:37:18.459450 15091 net.cpp:406] inception_4e/relu_3x3_reduce <- inception_4e/3x3_reduce
I0429 16:37:18.459462 15091 net.cpp:367] inception_4e/relu_3x3_reduce -> inception_4e/3x3_reduce (in-place)
I0429 16:37:18.460366 15091 net.cpp:122] Setting up inception_4e/relu_3x3_reduce
I0429 16:37:18.460383 15091 net.cpp:129] Top shape: 1 160 14 14 (31360)
I0429 16:37:18.460391 15091 net.cpp:137] Memory required for data: 51034436
I0429 16:37:18.460398 15091 layer_factory.hpp:77] Creating layer inception_4e/3x3
I0429 16:37:18.460417 15091 net.cpp:84] Creating Layer inception_4e/3x3
I0429 16:37:18.460427 15091 net.cpp:406] inception_4e/3x3 <- inception_4e/3x3_reduce
I0429 16:37:18.460441 15091 net.cpp:380] inception_4e/3x3 -> inception_4e/3x3
I0429 16:37:18.469552 15091 net.cpp:122] Setting up inception_4e/3x3
I0429 16:37:18.469586 15091 net.cpp:129] Top shape: 1 320 14 14 (62720)
I0429 16:37:18.469595 15091 net.cpp:137] Memory required for data: 51285316
I0429 16:37:18.469635 15091 layer_factory.hpp:77] Creating layer inception_4e/relu_3x3
I0429 16:37:18.469653 15091 net.cpp:84] Creating Layer inception_4e/relu_3x3
I0429 16:37:18.469666 15091 net.cpp:406] inception_4e/relu_3x3 <- inception_4e/3x3
I0429 16:37:18.469679 15091 net.cpp:367] inception_4e/relu_3x3 -> inception_4e/3x3 (in-place)
I0429 16:37:18.470664 15091 net.cpp:122] Setting up inception_4e/relu_3x3
I0429 16:37:18.470685 15091 net.cpp:129] Top shape: 1 320 14 14 (62720)
I0429 16:37:18.470695 15091 net.cpp:137] Memory required for data: 51536196
I0429 16:37:18.470702 15091 layer_factory.hpp:77] Creating layer inception_4e/5x5_reduce
I0429 16:37:18.470728 15091 net.cpp:84] Creating Layer inception_4e/5x5_reduce
I0429 16:37:18.470739 15091 net.cpp:406] inception_4e/5x5_reduce <- inception_4d/output_inception_4d/output_0_split_3
I0429 16:37:18.470757 15091 net.cpp:380] inception_4e/5x5_reduce -> inception_4e/5x5_reduce
I0429 16:37:18.473049 15091 net.cpp:122] Setting up inception_4e/5x5_reduce
I0429 16:37:18.473074 15091 net.cpp:129] Top shape: 1 32 14 14 (6272)
I0429 16:37:18.473085 15091 net.cpp:137] Memory required for data: 51561284
I0429 16:37:18.473101 15091 layer_factory.hpp:77] Creating layer inception_4e/relu_5x5_reduce
I0429 16:37:18.473114 15091 net.cpp:84] Creating Layer inception_4e/relu_5x5_reduce
I0429 16:37:18.473121 15091 net.cpp:406] inception_4e/relu_5x5_reduce <- inception_4e/5x5_reduce
I0429 16:37:18.473134 15091 net.cpp:367] inception_4e/relu_5x5_reduce -> inception_4e/5x5_reduce (in-place)
I0429 16:37:18.473407 15091 net.cpp:122] Setting up inception_4e/relu_5x5_reduce
I0429 16:37:18.473424 15091 net.cpp:129] Top shape: 1 32 14 14 (6272)
I0429 16:37:18.473433 15091 net.cpp:137] Memory required for data: 51586372
I0429 16:37:18.473440 15091 layer_factory.hpp:77] Creating layer inception_4e/5x5
I0429 16:37:18.473461 15091 net.cpp:84] Creating Layer inception_4e/5x5
I0429 16:37:18.473471 15091 net.cpp:406] inception_4e/5x5 <- inception_4e/5x5_reduce
I0429 16:37:18.473485 15091 net.cpp:380] inception_4e/5x5 -> inception_4e/5x5
I0429 16:37:18.478687 15091 net.cpp:122] Setting up inception_4e/5x5
I0429 16:37:18.478708 15091 net.cpp:129] Top shape: 1 128 14 14 (25088)
I0429 16:37:18.478718 15091 net.cpp:137] Memory required for data: 51686724
I0429 16:37:18.478730 15091 layer_factory.hpp:77] Creating layer inception_4e/relu_5x5
I0429 16:37:18.478745 15091 net.cpp:84] Creating Layer inception_4e/relu_5x5
I0429 16:37:18.478756 15091 net.cpp:406] inception_4e/relu_5x5 <- inception_4e/5x5
I0429 16:37:18.478768 15091 net.cpp:367] inception_4e/relu_5x5 -> inception_4e/5x5 (in-place)
I0429 16:37:18.480459 15091 net.cpp:122] Setting up inception_4e/relu_5x5
I0429 16:37:18.480479 15091 net.cpp:129] Top shape: 1 128 14 14 (25088)
I0429 16:37:18.480489 15091 net.cpp:137] Memory required for data: 51787076
I0429 16:37:18.480497 15091 layer_factory.hpp:77] Creating layer inception_4e/pool
I0429 16:37:18.480514 15091 net.cpp:84] Creating Layer inception_4e/pool
I0429 16:37:18.480523 15091 net.cpp:406] inception_4e/pool <- inception_4d/output_inception_4d/output_0_split_4
I0429 16:37:18.480537 15091 net.cpp:380] inception_4e/pool -> inception_4e/pool
I0429 16:37:18.480640 15091 net.cpp:122] Setting up inception_4e/pool
I0429 16:37:18.480654 15091 net.cpp:129] Top shape: 1 528 14 14 (103488)
I0429 16:37:18.480661 15091 net.cpp:137] Memory required for data: 52201028
I0429 16:37:18.480670 15091 layer_factory.hpp:77] Creating layer inception_4e/pool_proj
I0429 16:37:18.480691 15091 net.cpp:84] Creating Layer inception_4e/pool_proj
I0429 16:37:18.480701 15091 net.cpp:406] inception_4e/pool_proj <- inception_4e/pool
I0429 16:37:18.480721 15091 net.cpp:380] inception_4e/pool_proj -> inception_4e/pool_proj
I0429 16:37:18.483397 15091 net.cpp:122] Setting up inception_4e/pool_proj
I0429 16:37:18.483417 15091 net.cpp:129] Top shape: 1 128 14 14 (25088)
I0429 16:37:18.483425 15091 net.cpp:137] Memory required for data: 52301380
I0429 16:37:18.483438 15091 layer_factory.hpp:77] Creating layer inception_4e/relu_pool_proj
I0429 16:37:18.483476 15091 net.cpp:84] Creating Layer inception_4e/relu_pool_proj
I0429 16:37:18.483486 15091 net.cpp:406] inception_4e/relu_pool_proj <- inception_4e/pool_proj
I0429 16:37:18.483503 15091 net.cpp:367] inception_4e/relu_pool_proj -> inception_4e/pool_proj (in-place)
I0429 16:37:18.483777 15091 net.cpp:122] Setting up inception_4e/relu_pool_proj
I0429 16:37:18.483794 15091 net.cpp:129] Top shape: 1 128 14 14 (25088)
I0429 16:37:18.483801 15091 net.cpp:137] Memory required for data: 52401732
I0429 16:37:18.483809 15091 layer_factory.hpp:77] Creating layer inception_4e/output
I0429 16:37:18.483820 15091 net.cpp:84] Creating Layer inception_4e/output
I0429 16:37:18.483831 15091 net.cpp:406] inception_4e/output <- inception_4e/1x1
I0429 16:37:18.483842 15091 net.cpp:406] inception_4e/output <- inception_4e/3x3
I0429 16:37:18.483850 15091 net.cpp:406] inception_4e/output <- inception_4e/5x5
I0429 16:37:18.483858 15091 net.cpp:406] inception_4e/output <- inception_4e/pool_proj
I0429 16:37:18.483870 15091 net.cpp:380] inception_4e/output -> inception_4e/output
I0429 16:37:18.483930 15091 net.cpp:122] Setting up inception_4e/output
I0429 16:37:18.483943 15091 net.cpp:129] Top shape: 1 832 14 14 (163072)
I0429 16:37:18.483950 15091 net.cpp:137] Memory required for data: 53054020
I0429 16:37:18.483958 15091 layer_factory.hpp:77] Creating layer pool4/3x3_s2
I0429 16:37:18.483969 15091 net.cpp:84] Creating Layer pool4/3x3_s2
I0429 16:37:18.483978 15091 net.cpp:406] pool4/3x3_s2 <- inception_4e/output
I0429 16:37:18.483995 15091 net.cpp:380] pool4/3x3_s2 -> pool4/3x3_s2
I0429 16:37:18.484079 15091 net.cpp:122] Setting up pool4/3x3_s2
I0429 16:37:18.484094 15091 net.cpp:129] Top shape: 1 832 7 7 (40768)
I0429 16:37:18.484102 15091 net.cpp:137] Memory required for data: 53217092
I0429 16:37:18.484109 15091 layer_factory.hpp:77] Creating layer pool4/3x3_s2_pool4/3x3_s2_0_split
I0429 16:37:18.484123 15091 net.cpp:84] Creating Layer pool4/3x3_s2_pool4/3x3_s2_0_split
I0429 16:37:18.484133 15091 net.cpp:406] pool4/3x3_s2_pool4/3x3_s2_0_split <- pool4/3x3_s2
I0429 16:37:18.484145 15091 net.cpp:380] pool4/3x3_s2_pool4/3x3_s2_0_split -> pool4/3x3_s2_pool4/3x3_s2_0_split_0
I0429 16:37:18.484163 15091 net.cpp:380] pool4/3x3_s2_pool4/3x3_s2_0_split -> pool4/3x3_s2_pool4/3x3_s2_0_split_1
I0429 16:37:18.484218 15091 net.cpp:380] pool4/3x3_s2_pool4/3x3_s2_0_split -> pool4/3x3_s2_pool4/3x3_s2_0_split_2
I0429 16:37:18.484236 15091 net.cpp:380] pool4/3x3_s2_pool4/3x3_s2_0_split -> pool4/3x3_s2_pool4/3x3_s2_0_split_3
I0429 16:37:18.484375 15091 net.cpp:122] Setting up pool4/3x3_s2_pool4/3x3_s2_0_split
I0429 16:37:18.484390 15091 net.cpp:129] Top shape: 1 832 7 7 (40768)
I0429 16:37:18.484403 15091 net.cpp:129] Top shape: 1 832 7 7 (40768)
I0429 16:37:18.484413 15091 net.cpp:129] Top shape: 1 832 7 7 (40768)
I0429 16:37:18.484421 15091 net.cpp:129] Top shape: 1 832 7 7 (40768)
I0429 16:37:18.484428 15091 net.cpp:137] Memory required for data: 53869380
I0429 16:37:18.484437 15091 layer_factory.hpp:77] Creating layer inception_5a/1x1
I0429 16:37:18.484452 15091 net.cpp:84] Creating Layer inception_5a/1x1
I0429 16:37:18.484462 15091 net.cpp:406] inception_5a/1x1 <- pool4/3x3_s2_pool4/3x3_s2_0_split_0
I0429 16:37:18.484477 15091 net.cpp:380] inception_5a/1x1 -> inception_5a/1x1
I0429 16:37:18.493120 15091 net.cpp:122] Setting up inception_5a/1x1
I0429 16:37:18.493145 15091 net.cpp:129] Top shape: 1 256 7 7 (12544)
I0429 16:37:18.493155 15091 net.cpp:137] Memory required for data: 53919556
I0429 16:37:18.493170 15091 layer_factory.hpp:77] Creating layer inception_5a/relu_1x1
I0429 16:37:18.493185 15091 net.cpp:84] Creating Layer inception_5a/relu_1x1
I0429 16:37:18.493194 15091 net.cpp:406] inception_5a/relu_1x1 <- inception_5a/1x1
I0429 16:37:18.493211 15091 net.cpp:367] inception_5a/relu_1x1 -> inception_5a/1x1 (in-place)
I0429 16:37:18.493492 15091 net.cpp:122] Setting up inception_5a/relu_1x1
I0429 16:37:18.493511 15091 net.cpp:129] Top shape: 1 256 7 7 (12544)
I0429 16:37:18.493520 15091 net.cpp:137] Memory required for data: 53969732
I0429 16:37:18.493536 15091 layer_factory.hpp:77] Creating layer inception_5a/3x3_reduce
I0429 16:37:18.493602 15091 net.cpp:84] Creating Layer inception_5a/3x3_reduce
I0429 16:37:18.493614 15091 net.cpp:406] inception_5a/3x3_reduce <- pool4/3x3_s2_pool4/3x3_s2_0_split_1
I0429 16:37:18.493633 15091 net.cpp:380] inception_5a/3x3_reduce -> inception_5a/3x3_reduce
I0429 16:37:18.497098 15091 net.cpp:122] Setting up inception_5a/3x3_reduce
I0429 16:37:18.497120 15091 net.cpp:129] Top shape: 1 160 7 7 (7840)
I0429 16:37:18.497130 15091 net.cpp:137] Memory required for data: 54001092
I0429 16:37:18.497143 15091 layer_factory.hpp:77] Creating layer inception_5a/relu_3x3_reduce
I0429 16:37:18.497155 15091 net.cpp:84] Creating Layer inception_5a/relu_3x3_reduce
I0429 16:37:18.497164 15091 net.cpp:406] inception_5a/relu_3x3_reduce <- inception_5a/3x3_reduce
I0429 16:37:18.497179 15091 net.cpp:367] inception_5a/relu_3x3_reduce -> inception_5a/3x3_reduce (in-place)
I0429 16:37:18.498180 15091 net.cpp:122] Setting up inception_5a/relu_3x3_reduce
I0429 16:37:18.498199 15091 net.cpp:129] Top shape: 1 160 7 7 (7840)
I0429 16:37:18.498209 15091 net.cpp:137] Memory required for data: 54032452
I0429 16:37:18.498219 15091 layer_factory.hpp:77] Creating layer inception_5a/3x3
I0429 16:37:18.498236 15091 net.cpp:84] Creating Layer inception_5a/3x3
I0429 16:37:18.498246 15091 net.cpp:406] inception_5a/3x3 <- inception_5a/3x3_reduce
I0429 16:37:18.498261 15091 net.cpp:380] inception_5a/3x3 -> inception_5a/3x3
I0429 16:37:18.510825 15091 net.cpp:122] Setting up inception_5a/3x3
I0429 16:37:18.510864 15091 net.cpp:129] Top shape: 1 320 7 7 (15680)
I0429 16:37:18.510876 15091 net.cpp:137] Memory required for data: 54095172
I0429 16:37:18.510893 15091 layer_factory.hpp:77] Creating layer inception_5a/relu_3x3
I0429 16:37:18.510912 15091 net.cpp:84] Creating Layer inception_5a/relu_3x3
I0429 16:37:18.510926 15091 net.cpp:406] inception_5a/relu_3x3 <- inception_5a/3x3
I0429 16:37:18.510944 15091 net.cpp:367] inception_5a/relu_3x3 -> inception_5a/3x3 (in-place)
I0429 16:37:18.520671 15091 net.cpp:122] Setting up inception_5a/relu_3x3
I0429 16:37:18.520696 15091 net.cpp:129] Top shape: 1 320 7 7 (15680)
I0429 16:37:18.520706 15091 net.cpp:137] Memory required for data: 54157892
I0429 16:37:18.520716 15091 layer_factory.hpp:77] Creating layer inception_5a/5x5_reduce
I0429 16:37:18.520740 15091 net.cpp:84] Creating Layer inception_5a/5x5_reduce
I0429 16:37:18.520756 15091 net.cpp:406] inception_5a/5x5_reduce <- pool4/3x3_s2_pool4/3x3_s2_0_split_2
I0429 16:37:18.520772 15091 net.cpp:380] inception_5a/5x5_reduce -> inception_5a/5x5_reduce
I0429 16:37:18.524024 15091 net.cpp:122] Setting up inception_5a/5x5_reduce
I0429 16:37:18.524044 15091 net.cpp:129] Top shape: 1 32 7 7 (1568)
I0429 16:37:18.524058 15091 net.cpp:137] Memory required for data: 54164164
I0429 16:37:18.524073 15091 layer_factory.hpp:77] Creating layer inception_5a/relu_5x5_reduce
I0429 16:37:18.524088 15091 net.cpp:84] Creating Layer inception_5a/relu_5x5_reduce
I0429 16:37:18.524099 15091 net.cpp:406] inception_5a/relu_5x5_reduce <- inception_5a/5x5_reduce
I0429 16:37:18.524116 15091 net.cpp:367] inception_5a/relu_5x5_reduce -> inception_5a/5x5_reduce (in-place)
I0429 16:37:18.524405 15091 net.cpp:122] Setting up inception_5a/relu_5x5_reduce
I0429 16:37:18.524423 15091 net.cpp:129] Top shape: 1 32 7 7 (1568)
I0429 16:37:18.524435 15091 net.cpp:137] Memory required for data: 54170436
I0429 16:37:18.524446 15091 layer_factory.hpp:77] Creating layer inception_5a/5x5
I0429 16:37:18.524466 15091 net.cpp:84] Creating Layer inception_5a/5x5
I0429 16:37:18.524478 15091 net.cpp:406] inception_5a/5x5 <- inception_5a/5x5_reduce
I0429 16:37:18.524493 15091 net.cpp:380] inception_5a/5x5 -> inception_5a/5x5
I0429 16:37:18.527791 15091 net.cpp:122] Setting up inception_5a/5x5
I0429 16:37:18.527815 15091 net.cpp:129] Top shape: 1 128 7 7 (6272)
I0429 16:37:18.527827 15091 net.cpp:137] Memory required for data: 54195524
I0429 16:37:18.527840 15091 layer_factory.hpp:77] Creating layer inception_5a/relu_5x5
I0429 16:37:18.527863 15091 net.cpp:84] Creating Layer inception_5a/relu_5x5
I0429 16:37:18.527894 15091 net.cpp:406] inception_5a/relu_5x5 <- inception_5a/5x5
I0429 16:37:18.527909 15091 net.cpp:367] inception_5a/relu_5x5 -> inception_5a/5x5 (in-place)
I0429 16:37:18.528197 15091 net.cpp:122] Setting up inception_5a/relu_5x5
I0429 16:37:18.528216 15091 net.cpp:129] Top shape: 1 128 7 7 (6272)
I0429 16:37:18.528226 15091 net.cpp:137] Memory required for data: 54220612
I0429 16:37:18.528236 15091 layer_factory.hpp:77] Creating layer inception_5a/pool
I0429 16:37:18.528250 15091 net.cpp:84] Creating Layer inception_5a/pool
I0429 16:37:18.528260 15091 net.cpp:406] inception_5a/pool <- pool4/3x3_s2_pool4/3x3_s2_0_split_3
I0429 16:37:18.528275 15091 net.cpp:380] inception_5a/pool -> inception_5a/pool
I0429 16:37:18.528369 15091 net.cpp:122] Setting up inception_5a/pool
I0429 16:37:18.528385 15091 net.cpp:129] Top shape: 1 832 7 7 (40768)
I0429 16:37:18.528395 15091 net.cpp:137] Memory required for data: 54383684
I0429 16:37:18.528404 15091 layer_factory.hpp:77] Creating layer inception_5a/pool_proj
I0429 16:37:18.528422 15091 net.cpp:84] Creating Layer inception_5a/pool_proj
I0429 16:37:18.528434 15091 net.cpp:406] inception_5a/pool_proj <- inception_5a/pool
I0429 16:37:18.528450 15091 net.cpp:380] inception_5a/pool_proj -> inception_5a/pool_proj
I0429 16:37:18.534108 15091 net.cpp:122] Setting up inception_5a/pool_proj
I0429 16:37:18.534132 15091 net.cpp:129] Top shape: 1 128 7 7 (6272)
I0429 16:37:18.534142 15091 net.cpp:137] Memory required for data: 54408772
I0429 16:37:18.534157 15091 layer_factory.hpp:77] Creating layer inception_5a/relu_pool_proj
I0429 16:37:18.534173 15091 net.cpp:84] Creating Layer inception_5a/relu_pool_proj
I0429 16:37:18.534184 15091 net.cpp:406] inception_5a/relu_pool_proj <- inception_5a/pool_proj
I0429 16:37:18.534198 15091 net.cpp:367] inception_5a/relu_pool_proj -> inception_5a/pool_proj (in-place)
I0429 16:37:18.534483 15091 net.cpp:122] Setting up inception_5a/relu_pool_proj
I0429 16:37:18.534500 15091 net.cpp:129] Top shape: 1 128 7 7 (6272)
I0429 16:37:18.534508 15091 net.cpp:137] Memory required for data: 54433860
I0429 16:37:18.534518 15091 layer_factory.hpp:77] Creating layer inception_5a/output
I0429 16:37:18.534533 15091 net.cpp:84] Creating Layer inception_5a/output
I0429 16:37:18.534543 15091 net.cpp:406] inception_5a/output <- inception_5a/1x1
I0429 16:37:18.534552 15091 net.cpp:406] inception_5a/output <- inception_5a/3x3
I0429 16:37:18.534561 15091 net.cpp:406] inception_5a/output <- inception_5a/5x5
I0429 16:37:18.534574 15091 net.cpp:406] inception_5a/output <- inception_5a/pool_proj
I0429 16:37:18.534584 15091 net.cpp:380] inception_5a/output -> inception_5a/output
I0429 16:37:18.534648 15091 net.cpp:122] Setting up inception_5a/output
I0429 16:37:18.534663 15091 net.cpp:129] Top shape: 1 832 7 7 (40768)
I0429 16:37:18.534672 15091 net.cpp:137] Memory required for data: 54596932
I0429 16:37:18.534680 15091 layer_factory.hpp:77] Creating layer inception_5a/output_inception_5a/output_0_split
I0429 16:37:18.534694 15091 net.cpp:84] Creating Layer inception_5a/output_inception_5a/output_0_split
I0429 16:37:18.534704 15091 net.cpp:406] inception_5a/output_inception_5a/output_0_split <- inception_5a/output
I0429 16:37:18.534720 15091 net.cpp:380] inception_5a/output_inception_5a/output_0_split -> inception_5a/output_inception_5a/output_0_split_0
I0429 16:37:18.534737 15091 net.cpp:380] inception_5a/output_inception_5a/output_0_split -> inception_5a/output_inception_5a/output_0_split_1
I0429 16:37:18.534754 15091 net.cpp:380] inception_5a/output_inception_5a/output_0_split -> inception_5a/output_inception_5a/output_0_split_2
I0429 16:37:18.534770 15091 net.cpp:380] inception_5a/output_inception_5a/output_0_split -> inception_5a/output_inception_5a/output_0_split_3
I0429 16:37:18.534917 15091 net.cpp:122] Setting up inception_5a/output_inception_5a/output_0_split
I0429 16:37:18.534935 15091 net.cpp:129] Top shape: 1 832 7 7 (40768)
I0429 16:37:18.534955 15091 net.cpp:129] Top shape: 1 832 7 7 (40768)
I0429 16:37:18.534979 15091 net.cpp:129] Top shape: 1 832 7 7 (40768)
I0429 16:37:18.534991 15091 net.cpp:129] Top shape: 1 832 7 7 (40768)
I0429 16:37:18.534999 15091 net.cpp:137] Memory required for data: 55249220
I0429 16:37:18.535008 15091 layer_factory.hpp:77] Creating layer inception_5b/1x1
I0429 16:37:18.535029 15091 net.cpp:84] Creating Layer inception_5b/1x1
I0429 16:37:18.535042 15091 net.cpp:406] inception_5b/1x1 <- inception_5a/output_inception_5a/output_0_split_0
I0429 16:37:18.535055 15091 net.cpp:380] inception_5b/1x1 -> inception_5b/1x1
I0429 16:37:18.541916 15091 net.cpp:122] Setting up inception_5b/1x1
I0429 16:37:18.541941 15091 net.cpp:129] Top shape: 1 384 7 7 (18816)
I0429 16:37:18.541954 15091 net.cpp:137] Memory required for data: 55324484
I0429 16:37:18.541967 15091 layer_factory.hpp:77] Creating layer inception_5b/relu_1x1
I0429 16:37:18.541981 15091 net.cpp:84] Creating Layer inception_5b/relu_1x1
I0429 16:37:18.541992 15091 net.cpp:406] inception_5b/relu_1x1 <- inception_5b/1x1
I0429 16:37:18.542008 15091 net.cpp:367] inception_5b/relu_1x1 -> inception_5b/1x1 (in-place)
I0429 16:37:18.542271 15091 net.cpp:122] Setting up inception_5b/relu_1x1
I0429 16:37:18.542289 15091 net.cpp:129] Top shape: 1 384 7 7 (18816)
I0429 16:37:18.542297 15091 net.cpp:137] Memory required for data: 55399748
I0429 16:37:18.542307 15091 layer_factory.hpp:77] Creating layer inception_5b/3x3_reduce
I0429 16:37:18.542326 15091 net.cpp:84] Creating Layer inception_5b/3x3_reduce
I0429 16:37:18.542336 15091 net.cpp:406] inception_5b/3x3_reduce <- inception_5a/output_inception_5a/output_0_split_1
I0429 16:37:18.542351 15091 net.cpp:380] inception_5b/3x3_reduce -> inception_5b/3x3_reduce
I0429 16:37:18.570619 15091 net.cpp:122] Setting up inception_5b/3x3_reduce
I0429 16:37:18.570660 15091 net.cpp:129] Top shape: 1 192 7 7 (9408)
I0429 16:37:18.570669 15091 net.cpp:137] Memory required for data: 55437380
I0429 16:37:18.570686 15091 layer_factory.hpp:77] Creating layer inception_5b/relu_3x3_reduce
I0429 16:37:18.570703 15091 net.cpp:84] Creating Layer inception_5b/relu_3x3_reduce
I0429 16:37:18.570714 15091 net.cpp:406] inception_5b/relu_3x3_reduce <- inception_5b/3x3_reduce
I0429 16:37:18.570731 15091 net.cpp:367] inception_5b/relu_3x3_reduce -> inception_5b/3x3_reduce (in-place)
I0429 16:37:18.572211 15091 net.cpp:122] Setting up inception_5b/relu_3x3_reduce
I0429 16:37:18.572242 15091 net.cpp:129] Top shape: 1 192 7 7 (9408)
I0429 16:37:18.572252 15091 net.cpp:137] Memory required for data: 55475012
I0429 16:37:18.572259 15091 layer_factory.hpp:77] Creating layer inception_5b/3x3
I0429 16:37:18.572288 15091 net.cpp:84] Creating Layer inception_5b/3x3
I0429 16:37:18.572301 15091 net.cpp:406] inception_5b/3x3 <- inception_5b/3x3_reduce
I0429 16:37:18.572320 15091 net.cpp:380] inception_5b/3x3 -> inception_5b/3x3
I0429 16:37:18.584584 15091 net.cpp:122] Setting up inception_5b/3x3
I0429 16:37:18.584627 15091 net.cpp:129] Top shape: 1 384 7 7 (18816)
I0429 16:37:18.584637 15091 net.cpp:137] Memory required for data: 55550276
I0429 16:37:18.584656 15091 layer_factory.hpp:77] Creating layer inception_5b/relu_3x3
I0429 16:37:18.584671 15091 net.cpp:84] Creating Layer inception_5b/relu_3x3
I0429 16:37:18.584682 15091 net.cpp:406] inception_5b/relu_3x3 <- inception_5b/3x3
I0429 16:37:18.584699 15091 net.cpp:367] inception_5b/relu_3x3 -> inception_5b/3x3 (in-place)
I0429 16:37:18.585875 15091 net.cpp:122] Setting up inception_5b/relu_3x3
I0429 16:37:18.585892 15091 net.cpp:129] Top shape: 1 384 7 7 (18816)
I0429 16:37:18.585896 15091 net.cpp:137] Memory required for data: 55625540
I0429 16:37:18.585902 15091 layer_factory.hpp:77] Creating layer inception_5b/5x5_reduce
I0429 16:37:18.585917 15091 net.cpp:84] Creating Layer inception_5b/5x5_reduce
I0429 16:37:18.585923 15091 net.cpp:406] inception_5b/5x5_reduce <- inception_5a/output_inception_5a/output_0_split_2
I0429 16:37:18.585935 15091 net.cpp:380] inception_5b/5x5_reduce -> inception_5b/5x5_reduce
I0429 16:37:18.587654 15091 net.cpp:122] Setting up inception_5b/5x5_reduce
I0429 16:37:18.587693 15091 net.cpp:129] Top shape: 1 48 7 7 (2352)
I0429 16:37:18.587698 15091 net.cpp:137] Memory required for data: 55634948
I0429 16:37:18.587707 15091 layer_factory.hpp:77] Creating layer inception_5b/relu_5x5_reduce
I0429 16:37:18.587716 15091 net.cpp:84] Creating Layer inception_5b/relu_5x5_reduce
I0429 16:37:18.587723 15091 net.cpp:406] inception_5b/relu_5x5_reduce <- inception_5b/5x5_reduce
I0429 16:37:18.587731 15091 net.cpp:367] inception_5b/relu_5x5_reduce -> inception_5b/5x5_reduce (in-place)
I0429 16:37:18.587906 15091 net.cpp:122] Setting up inception_5b/relu_5x5_reduce
I0429 16:37:18.587915 15091 net.cpp:129] Top shape: 1 48 7 7 (2352)
I0429 16:37:18.587919 15091 net.cpp:137] Memory required for data: 55644356
I0429 16:37:18.587924 15091 layer_factory.hpp:77] Creating layer inception_5b/5x5
I0429 16:37:18.587935 15091 net.cpp:84] Creating Layer inception_5b/5x5
I0429 16:37:18.587941 15091 net.cpp:406] inception_5b/5x5 <- inception_5b/5x5_reduce
I0429 16:37:18.587952 15091 net.cpp:380] inception_5b/5x5 -> inception_5b/5x5
I0429 16:37:18.590193 15091 net.cpp:122] Setting up inception_5b/5x5
I0429 16:37:18.590215 15091 net.cpp:129] Top shape: 1 128 7 7 (6272)
I0429 16:37:18.590220 15091 net.cpp:137] Memory required for data: 55669444
I0429 16:37:18.590229 15091 layer_factory.hpp:77] Creating layer inception_5b/relu_5x5
I0429 16:37:18.590239 15091 net.cpp:84] Creating Layer inception_5b/relu_5x5
I0429 16:37:18.590245 15091 net.cpp:406] inception_5b/relu_5x5 <- inception_5b/5x5
I0429 16:37:18.590255 15091 net.cpp:367] inception_5b/relu_5x5 -> inception_5b/5x5 (in-place)
I0429 16:37:18.590422 15091 net.cpp:122] Setting up inception_5b/relu_5x5
I0429 16:37:18.590431 15091 net.cpp:129] Top shape: 1 128 7 7 (6272)
I0429 16:37:18.590435 15091 net.cpp:137] Memory required for data: 55694532
I0429 16:37:18.590440 15091 layer_factory.hpp:77] Creating layer inception_5b/pool
I0429 16:37:18.590447 15091 net.cpp:84] Creating Layer inception_5b/pool
I0429 16:37:18.590453 15091 net.cpp:406] inception_5b/pool <- inception_5a/output_inception_5a/output_0_split_3
I0429 16:37:18.590461 15091 net.cpp:380] inception_5b/pool -> inception_5b/pool
I0429 16:37:18.590523 15091 net.cpp:122] Setting up inception_5b/pool
I0429 16:37:18.590531 15091 net.cpp:129] Top shape: 1 832 7 7 (40768)
I0429 16:37:18.590535 15091 net.cpp:137] Memory required for data: 55857604
I0429 16:37:18.590539 15091 layer_factory.hpp:77] Creating layer inception_5b/pool_proj
I0429 16:37:18.590553 15091 net.cpp:84] Creating Layer inception_5b/pool_proj
I0429 16:37:18.590559 15091 net.cpp:406] inception_5b/pool_proj <- inception_5b/pool
I0429 16:37:18.590565 15091 net.cpp:380] inception_5b/pool_proj -> inception_5b/pool_proj
I0429 16:37:18.593966 15091 net.cpp:122] Setting up inception_5b/pool_proj
I0429 16:37:18.594065 15091 net.cpp:129] Top shape: 1 128 7 7 (6272)
I0429 16:37:18.594077 15091 net.cpp:137] Memory required for data: 55882692
I0429 16:37:18.594099 15091 layer_factory.hpp:77] Creating layer inception_5b/relu_pool_proj
I0429 16:37:18.594120 15091 net.cpp:84] Creating Layer inception_5b/relu_pool_proj
I0429 16:37:18.594135 15091 net.cpp:406] inception_5b/relu_pool_proj <- inception_5b/pool_proj
I0429 16:37:18.594153 15091 net.cpp:367] inception_5b/relu_pool_proj -> inception_5b/pool_proj (in-place)
I0429 16:37:18.594465 15091 net.cpp:122] Setting up inception_5b/relu_pool_proj
I0429 16:37:18.594487 15091 net.cpp:129] Top shape: 1 128 7 7 (6272)
I0429 16:37:18.594497 15091 net.cpp:137] Memory required for data: 55907780
I0429 16:37:18.594504 15091 layer_factory.hpp:77] Creating layer inception_5b/output
I0429 16:37:18.594519 15091 net.cpp:84] Creating Layer inception_5b/output
I0429 16:37:18.594528 15091 net.cpp:406] inception_5b/output <- inception_5b/1x1
I0429 16:37:18.594542 15091 net.cpp:406] inception_5b/output <- inception_5b/3x3
I0429 16:37:18.594552 15091 net.cpp:406] inception_5b/output <- inception_5b/5x5
I0429 16:37:18.594561 15091 net.cpp:406] inception_5b/output <- inception_5b/pool_proj
I0429 16:37:18.594594 15091 net.cpp:380] inception_5b/output -> inception_5b/output
I0429 16:37:18.594709 15091 net.cpp:122] Setting up inception_5b/output
I0429 16:37:18.594722 15091 net.cpp:129] Top shape: 1 1024 7 7 (50176)
I0429 16:37:18.594729 15091 net.cpp:137] Memory required for data: 56108484
I0429 16:37:18.594734 15091 layer_factory.hpp:77] Creating layer pool5/7x7_s1
I0429 16:37:18.594746 15091 net.cpp:84] Creating Layer pool5/7x7_s1
I0429 16:37:18.594753 15091 net.cpp:406] pool5/7x7_s1 <- inception_5b/output
I0429 16:37:18.594763 15091 net.cpp:380] pool5/7x7_s1 -> pool5/7x7_s1
I0429 16:37:18.596135 15091 net.cpp:122] Setting up pool5/7x7_s1
I0429 16:37:18.596179 15091 net.cpp:129] Top shape: 1 1024 1 1 (1024)
I0429 16:37:18.596184 15091 net.cpp:137] Memory required for data: 56112580
I0429 16:37:18.596189 15091 layer_factory.hpp:77] Creating layer pool5/drop_7x7_s1
I0429 16:37:18.596204 15091 net.cpp:84] Creating Layer pool5/drop_7x7_s1
I0429 16:37:18.596210 15091 net.cpp:406] pool5/drop_7x7_s1 <- pool5/7x7_s1
I0429 16:37:18.596220 15091 net.cpp:367] pool5/drop_7x7_s1 -> pool5/7x7_s1 (in-place)
I0429 16:37:18.596257 15091 net.cpp:122] Setting up pool5/drop_7x7_s1
I0429 16:37:18.596264 15091 net.cpp:129] Top shape: 1 1024 1 1 (1024)
I0429 16:37:18.596268 15091 net.cpp:137] Memory required for data: 56116676
I0429 16:37:18.596272 15091 layer_factory.hpp:77] Creating layer loss3/classifier
I0429 16:37:18.596282 15091 net.cpp:84] Creating Layer loss3/classifier
I0429 16:37:18.596287 15091 net.cpp:406] loss3/classifier <- pool5/7x7_s1
I0429 16:37:18.596298 15091 net.cpp:380] loss3/classifier -> loss3/classifier
I0429 16:37:18.596573 15091 net.cpp:122] Setting up loss3/classifier
I0429 16:37:18.596581 15091 net.cpp:129] Top shape: 1 5 (5)
I0429 16:37:18.596585 15091 net.cpp:137] Memory required for data: 56116696
I0429 16:37:18.596598 15091 layer_factory.hpp:77] Creating layer loss3/classifier_loss3/classifier_0_split
I0429 16:37:18.596613 15091 net.cpp:84] Creating Layer loss3/classifier_loss3/classifier_0_split
I0429 16:37:18.596617 15091 net.cpp:406] loss3/classifier_loss3/classifier_0_split <- loss3/classifier
I0429 16:37:18.596623 15091 net.cpp:380] loss3/classifier_loss3/classifier_0_split -> loss3/classifier_loss3/classifier_0_split_0
I0429 16:37:18.596632 15091 net.cpp:380] loss3/classifier_loss3/classifier_0_split -> loss3/classifier_loss3/classifier_0_split_1
I0429 16:37:18.596642 15091 net.cpp:380] loss3/classifier_loss3/classifier_0_split -> loss3/classifier_loss3/classifier_0_split_2
I0429 16:37:18.596648 15091 net.cpp:380] loss3/classifier_loss3/classifier_0_split -> loss3/classifier_loss3/classifier_0_split_3
I0429 16:37:18.596727 15091 net.cpp:122] Setting up loss3/classifier_loss3/classifier_0_split
I0429 16:37:18.596735 15091 net.cpp:129] Top shape: 1 5 (5)
I0429 16:37:18.596740 15091 net.cpp:129] Top shape: 1 5 (5)
I0429 16:37:18.596743 15091 net.cpp:129] Top shape: 1 5 (5)
I0429 16:37:18.596747 15091 net.cpp:129] Top shape: 1 5 (5)
I0429 16:37:18.596752 15091 net.cpp:137] Memory required for data: 56116776
I0429 16:37:18.596756 15091 layer_factory.hpp:77] Creating layer loss3/loss3
I0429 16:37:18.596768 15091 net.cpp:84] Creating Layer loss3/loss3
I0429 16:37:18.596773 15091 net.cpp:406] loss3/loss3 <- loss3/classifier_loss3/classifier_0_split_0
I0429 16:37:18.596781 15091 net.cpp:406] loss3/loss3 <- label_data_1_split_6
…
