…
I0429 14:18:42.623363 29880 net.cpp:294] The NetState phase (0) differed from the phase (1) specified by a rule in layer accuracy_top3
I0429 14:18:42.624992 29880 net.cpp:51] Initializing net from parameters: 
name: "GoogleNet"
state {
  phase: TRAIN
  level: 0
  stage: ""
}
layer {
  name: "data"
  type: "Data"
  top: "data"
  top: "label"
  include {
    phase: TRAIN
  }
  transform_param {
    mirror: true
    crop_size: 224
    mean_file: "retina256/retina256_train_mean.binaryproto"
  }
  data_param {
    source: "retina256/retina256_train_lmdb"
    batch_size: 50
    backend: LMDB
  }
}
layer {
  name: "conv1/7x7_s2"
  type: "Convolution"
  bottom: "data"
  top: "conv1/7x7_s2"
  param {
    lr_mult: 1
    decay_mult: 1
  }
  param {
    lr_mult: 2
    decay_mult: 0
  }
  convolution_param {
    num_output: 64
    pad: 3
    kernel_size: 7
    stride: 2
    weight_filler {
      type: "xavier"
    }
    bias_filler {
      type: "constant"
      value: 0.2
    }
  }
}
layer {
  name: "conv1/relu_7x7"
  type: "ReLU"
  bottom: "conv1/7x7_s2"
  top: "conv1/7x7_s2"
}
layer {
  name: "pool1/3x3_s2"
  type: "Pooling"
  bottom: "conv1/7x7_s2"
  top: "pool1/3x3_s2"
  pooling_param {
    pool: MAX
    kernel_size: 3
    stride: 2
  }
}
layer {
  name: "pool1/norm1"
  type: "LRN"
  bottom: "pool1/3x3_s2"
  top: "pool1/norm1"
  lrn_param {
    local_size: 5
    alpha: 0.0001
    beta: 0.75
  }
}
layer {
  name: "conv2/3x3_reduce"
  type: "Convolution"
  bottom: "pool1/norm1"
  top: "conv2/3x3_reduce"
  param {
    lr_mult: 1
    decay_mult: 1
  }
  param {
    lr_mult: 2
    decay_mult: 0
  }
  convolution_param {
    num_output: 64
    kernel_size: 1
    weight_filler {
      type: "xavier"
    }
    bias_filler {
      type: "constant"
      value: 0.2
    }
  }
}
layer {
  name: "conv2/relu_3x3_reduce"
  type: "ReLU"
  bottom: "conv2/3x3_reduce"
  top: "conv2/3x3_reduce"
}
layer {
  name: "conv2/3x3"
  type: "Convolution"
  bottom: "conv2/3x3_reduce"
  top: "conv2/3x3"
  param {
    lr_mult: 1
    decay_mult: 1
  }
  param {
    lr_mult: 2
    decay_mult: 0
  }
  convolution_param {
    num_output: 192
    pad: 1
    kernel_size: 3
    weight_filler {
      type: "xavier"
    }
    bias_filler {
      type: "constant"
      value: 0.2
    }
  }
}
layer {
  name: "conv2/relu_3x3"
  type: "ReLU"
  bottom: "conv2/3x3"
  top: "conv2/3x3"
}
layer {
  name: "conv2/norm2"
  type: "LRN"
  bottom: "conv2/3x3"
  top: "conv2/norm2"
  lrn_param {
    local_size: 5
    alpha: 0.0001
    beta: 0.75
  }
}
layer {
  name: "pool2/3x3_s2"
  type: "Pooling"
  bottom: "conv2/norm2"
  top: "pool2/3x3_s2"
  pooling_param {
    pool: MAX
    kernel_size: 3
    stride: 2
  }
}
layer {
  name: "inception_3a/1x1"
  type: "Convolution"
  bottom: "pool2/3x3_s2"
  top: "inception_3a/1x1"
  param {
    lr_mult: 1
    decay_mult: 1
  }
  param {
    lr_mult: 2
    decay_mult: 0
  }
  convolution_param {
    num_output: 64
    kernel_size: 1
    weight_filler {
      type: "xavier"
    }
    bias_filler {
      type: "constant"
      value: 0.2
    }
  }
}
layer {
  name: "inception_3a/relu_1x1"
  type: "ReLU"
  bottom: "inception_3a/1x1"
  top: "inception_3a/1x1"
}
layer {
  name: "inception_3a/3x3_reduce"
  type: "Convolution"
  bottom: "pool2/3x3_s2"
  top: "inception_3a/3x3_reduce"
  param {
    lr_mult: 1
    decay_mult: 1
  }
  param {
    lr_mult: 2
    decay_mult: 0
  }
  convolution_param {
    num_output: 96
    kernel_size: 1
    weight_filler {
      type: "xavier"
    }
    bias_filler {
      type: "constant"
      value: 0.2
    }
  }
}
layer {
  name: "inception_3a/relu_3x3_reduce"
  type: "ReLU"
  bottom: "inception_3a/3x3_reduce"
  top: "inception_3a/3x3_reduce"
}
layer {
  name: "inception_3a/3x3"
  type: "Convolution"
  bottom: "inception_3a/3x3_reduce"
  top: "inception_3a/3x3"
  param {
    lr_mult: 1
    decay_mult: 1
  }
  param {
    lr_mult: 2
    decay_mult: 0
  }
  convolution_param {
    num_output: 128
    pad: 1
    kernel_size: 3
    weight_filler {
      type: "xavier"
    }
    bias_filler {
      type: "constant"
      value: 0.2
    }
  }
}
layer {
  name: "inception_3a/relu_3x3"
  type: "ReLU"
  bottom: "inception_3a/3x3"
  top: "inception_3a/3x3"
}
layer {
  name: "inception_3a/5x5_reduce"
  type: "Convolution"
  bottom: "pool2/3x3_s2"
  top: "inception_3a/5x5_reduce"
  param {
    lr_mult: 1
    decay_mult: 1
  }
  param {
    lr_mult: 2
    decay_mult: 0
  }
  convolution_param {
    num_output: 16
    kernel_size: 1
    weight_filler {
      type: "xavier"
    }
    bias_filler {
      type: "constant"
      value: 0.2
    }
  }
}
layer {
  name: "inception_3a/relu_5x5_reduce"
  type: "ReLU"
  bottom: "inception_3a/5x5_reduce"
  top: "inception_3a/5x5_reduce"
}
layer {
  name: "inception_3a/5x5"
  type: "Convolution"
  bottom: "inception_3a/5x5_reduce"
  top: "inception_3a/5x5"
  param {
    lr_mult: 1
    decay_mult: 1
  }
  param {
    lr_mult: 2
    decay_mult: 0
  }
  convolution_param {
    num_output: 32
    pad: 2
    kernel_size: 5
    weight_filler {
      type: "xavier"
    }
    bias_filler {
      type: "constant"
      value: 0.2
    }
  }
}
layer {
  name: "inception_3a/relu_5x5"
  type: "ReLU"
  bottom: "inception_3a/5x5"
  top: "inception_3a/5x5"
}
layer {
  name: "inception_3a/pool"
  type: "Pooling"
  bottom: "pool2/3x3_s2"
  top: "inception_3a/pool"
  pooling_param {
    pool: MAX
    kernel_size: 3
    stride: 1
    pad: 1
  }
}
layer {
  name: "inception_3a/pool_proj"
  type: "Convolution"
  bottom: "inception_3a/pool"
  top: "inception_3a/pool_proj"
  param {
    lr_mult: 1
    decay_mult: 1
  }
  param {
    lr_mult: 2
    decay_mult: 0
  }
  convolution_param {
    num_output: 32
    kernel_size: 1
    weight_filler {
      type: "xavier"
    }
    bias_filler {
      type: "constant"
      value: 0.2
    }
  }
}
layer {
  name: "inception_3a/relu_pool_proj"
  type: "ReLU"
  bottom: "inception_3a/pool_proj"
  top: "inception_3a/pool_proj"
}
layer {
  name: "inception_3a/output"
  type: "Concat"
  bottom: "inception_3a/1x1"
  bottom: "inception_3a/3x3"
  bottom: "inception_3a/5x5"
  bottom: "inception_3a/pool_proj"
  top: "inception_3a/output"
}
layer {
  name: "inception_3b/1x1"
  type: "Convolution"
  bottom: "inception_3a/output"
  top: "inception_3b/1x1"
  param {
    lr_mult: 1
    decay_mult: 1
  }
  param {
    lr_mult: 2
    decay_mult: 0
  }
  convolution_param {
    num_output: 128
    kernel_size: 1
    weight_filler {
      type: "xavier"
    }
    bias_filler {
      type: "constant"
      value: 0.2
    }
  }
}
layer {
  name: "inception_3b/relu_1x1"
  type: "ReLU"
  bottom: "inception_3b/1x1"
  top: "inception_3b/1x1"
}
layer {
  name: "inception_3b/3x3_reduce"
  type: "Convolution"
  bottom: "inception_3a/output"
  top: "inception_3b/3x3_reduce"
  param {
    lr_mult: 1
    decay_mult: 1
  }
  param {
    lr_mult: 2
    decay_mult: 0
  }
  convolution_param {
    num_output: 128
    kernel_size: 1
    weight_filler {
      type: "xavier"
    }
    bias_filler {
      type: "constant"
      value: 0.2
    }
  }
}
layer {
  name: "inception_3b/relu_3x3_reduce"
  type: "ReLU"
  bottom: "inception_3b/3x3_reduce"
  top: "inception_3b/3x3_reduce"
}
layer {
  name: "inception_3b/3x3"
  type: "Convolution"
  bottom: "inception_3b/3x3_reduce"
  top: "inception_3b/3x3"
  param {
    lr_mult: 1
    decay_mult: 1
  }
  param {
    lr_mult: 2
    decay_mult: 0
  }
  convolution_param {
    num_output: 192
    pad: 1
    kernel_size: 3
    weight_filler {
      type: "xavier"
    }
    bias_filler {
      type: "constant"
      value: 0.2
    }
  }
}
layer {
  name: "inception_3b/relu_3x3"
  type: "ReLU"
  bottom: "inception_3b/3x3"
  top: "inception_3b/3x3"
}
layer {
  name: "inception_3b/5x5_reduce"
  type: "Convolution"
  bottom: "inception_3a/output"
  top: "inception_3b/5x5_reduce"
  param {
    lr_mult: 1
    decay_mult: 1
  }
  param {
    lr_mult: 2
    decay_mult: 0
  }
  convolution_param {
    num_output: 32
    kernel_size: 1
    weight_filler {
      type: "xavier"
    }
    bias_filler {
      type: "constant"
      value: 0.2
    }
  }
}
layer {
  name: "inception_3b/relu_5x5_reduce"
  type: "ReLU"
  bottom: "inception_3b/5x5_reduce"
  top: "inception_3b/5x5_reduce"
}
layer {
  name: "inception_3b/5x5"
  type: "Convolution"
  bottom: "inception_3b/5x5_reduce"
  top: "inception_3b/5x5"
  param {
    lr_mult: 1
    decay_mult: 1
  }
  param {
    lr_mult: 2
    decay_mult: 0
  }
  convolution_param {
    num_output: 96
    pad: 2
    kernel_size: 5
    weight_filler {
      type: "xavier"
    }
    bias_filler {
      type: "constant"
      value: 0.2
    }
  }
}
layer {
  name: "inception_3b/relu_5x5"
  type: "ReLU"
  bottom: "inception_3b/5x5"
  top: "inception_3b/5x5"
}
layer {
  name: "inception_3b/pool"
  type: "Pooling"
  bottom: "inception_3a/output"
  top: "inception_3b/pool"
  pooling_param {
    pool: MAX
    kernel_size: 3
    stride: 1
    pad: 1
  }
}
layer {
  name: "inception_3b/pool_proj"
  type: "Convolution"
  bottom: "inception_3b/pool"
  top: "inception_3b/pool_proj"
  param {
    lr_mult: 1
    decay_mult: 1
  }
  param {
    lr_mult: 2
    decay_mult: 0
  }
  convolution_param {
    num_output: 64
    kernel_size: 1
    weight_filler {
      type: "xavier"
    }
    bias_filler {
      type: "constant"
      value: 0.2
    }
  }
}
layer {
  name: "inception_3b/relu_pool_proj"
  type: "ReLU"
  bottom: "inception_3b/pool_proj"
  top: "inception_3b/pool_proj"
}
layer {
  name: "inception_3b/output"
  type: "Concat"
  bottom: "inception_3b/1x1"
  bottom: "inception_3b/3x3"
  bottom: "inception_3b/5x5"
  bottom: "inception_3b/pool_proj"
  top: "inception_3b/output"
}
layer {
  name: "pool3/3x3_s2"
  type: "Pooling"
  bottom: "inception_3b/output"
  top: "pool3/3x3_s2"
  pooling_param {
    pool: MAX
    kernel_size: 3
    stride: 2
  }
}
layer {
  name: "inception_4a/1x1"
  type: "Convolution"
  bottom: "pool3/3x3_s2"
  top: "inception_4a/1x1"
  param {
    lr_mult: 1
    decay_mult: 1
  }
  param {
    lr_mult: 2
    decay_mult: 0
  }
  convolution_param {
    num_output: 192
    kernel_size: 1
    weight_filler {
      type: "xavier"
    }
    bias_filler {
      type: "constant"
      value: 0.2
    }
  }
}
layer {
  name: "inception_4a/relu_1x1"
  type: "ReLU"
  bottom: "inception_4a/1x1"
  top: "inception_4a/1x1"
}
layer {
  name: "inception_4a/3x3_reduce"
  type: "Convolution"
  bottom: "pool3/3x3_s2"
  top: "inception_4a/3x3_reduce"
  param {
    lr_mult: 1
    decay_mult: 1
  }
  param {
    lr_mult: 2
    decay_mult: 0
  }
  convolution_param {
    num_output: 96
    kernel_size: 1
    weight_filler {
      type: "xavier"
    }
    bias_filler {
      type: "constant"
      value: 0.2
    }
  }
}
layer {
  name: "inception_4a/relu_3x3_reduce"
  type: "ReLU"
  bottom: "inception_4a/3x3_reduce"
  top: "inception_4a/3x3_reduce"
}
layer {
  name: "inception_4a/3x3"
  type: "Convolution"
  bottom: "inception_4a/3x3_reduce"
  top: "inception_4a/3x3"
  param {
    lr_mult: 1
    decay_mult: 1
  }
  param {
    lr_mult: 2
    decay_mult: 0
  }
  convolution_param {
    num_output: 208
    pad: 1
    kernel_size: 3
    weight_filler {
      type: "xavier"
    }
    bias_filler {
      type: "constant"
      value: 0.2
    }
  }
}
layer {
  name: "inception_4a/relu_3x3"
  type: "ReLU"
  bottom: "inception_4a/3x3"
  top: "inception_4a/3x3"
}
layer {
  name: "inception_4a/5x5_reduce"
  type: "Convolution"
  bottom: "pool3/3x3_s2"
  top: "inception_4a/5x5_reduce"
  param {
    lr_mult: 1
    decay_mult: 1
  }
  param {
    lr_mult: 2
    decay_mult: 0
  }
  convolution_param {
    num_output: 16
    kernel_size: 1
    weight_filler {
      type: "xavier"
    }
    bias_filler {
      type: "constant"
      value: 0.2
    }
  }
}
layer {
  name: "inception_4a/relu_5x5_reduce"
  type: "ReLU"
  bottom: "inception_4a/5x5_reduce"
  top: "inception_4a/5x5_reduce"
}
layer {
  name: "inception_4a/5x5"
  type: "Convolution"
  bottom: "inception_4a/5x5_reduce"
  top: "inception_4a/5x5"
  param {
    lr_mult: 1
    decay_mult: 1
  }
  param {
    lr_mult: 2
    decay_mult: 0
  }
  convolution_param {
    num_output: 48
    pad: 2
    kernel_size: 5
    weight_filler {
      type: "xavier"
    }
    bias_filler {
      type: "constant"
      value: 0.2
    }
  }
}
layer {
  name: "inception_4a/relu_5x5"
  type: "ReLU"
  bottom: "inception_4a/5x5"
  top: "inception_4a/5x5"
}
layer {
  name: "inception_4a/pool"
  type: "Pooling"
  bottom: "pool3/3x3_s2"
  top: "inception_4a/pool"
  pooling_param {
    pool: MAX
    kernel_size: 3
    stride: 1
    pad: 1
  }
}
layer {
  name: "inception_4a/pool_proj"
  type: "Convolution"
  bottom: "inception_4a/pool"
  top: "inception_4a/pool_proj"
  param {
    lr_mult: 1
    decay_mult: 1
  }
  param {
    lr_mult: 2
    decay_mult: 0
  }
  convolution_param {
    num_output: 64
    kernel_size: 1
    weight_filler {
      type: "xavier"
    }
    bias_filler {
      type: "constant"
      value: 0.2
    }
  }
}
layer {
  name: "inception_4a/relu_pool_proj"
  type: "ReLU"
  bottom: "inception_4a/pool_proj"
  top: "inception_4a/pool_proj"
}
layer {
  name: "inception_4a/output"
  type: "Concat"
  bottom: "inception_4a/1x1"
  bottom: "inception_4a/3x3"
  bottom: "inception_4a/5x5"
  bottom: "inception_4a/pool_proj"
  top: "inception_4a/output"
}
layer {
  name: "loss1/ave_pool"
  type: "Pooling"
  bottom: "inception_4a/output"
  top: "loss1/ave_pool"
  pooling_param {
    pool: AVE
    kernel_size: 5
    stride: 3
  }
}
layer {
  name: "loss1/conv"
  type: "Convolution"
  bottom: "loss1/ave_pool"
  top: "loss1/conv"
  param {
    lr_mult: 1
    decay_mult: 1
  }
  param {
    lr_mult: 2
    decay_mult: 0
  }
  convolution_param {
    num_output: 128
    kernel_size: 1
    weight_filler {
      type: "xavier"
    }
    bias_filler {
      type: "constant"
      value: 0.2
    }
  }
}
layer {
  name: "loss1/relu_conv"
  type: "ReLU"
  bottom: "loss1/conv"
  top: "loss1/conv"
}
layer {
  name: "loss1/fc"
  type: "InnerProduct"
  bottom: "loss1/conv"
  top: "loss1/fc"
  param {
    lr_mult: 1
    decay_mult: 1
  }
  param {
    lr_mult: 2
    decay_mult: 0
  }
  inner_product_param {
    num_output: 1024
    weight_filler {
      type: "xavier"
    }
    bias_filler {
      type: "constant"
      value: 0.2
    }
  }
}
layer {
  name: "loss1/relu_fc"
  type: "ReLU"
  bottom: "loss1/fc"
  top: "loss1/fc"
}
layer {
  name: "loss1/drop_fc"
  type: "Dropout"
  bottom: "loss1/fc"
  top: "loss1/fc"
  dropout_param {
    dropout_ratio: 0.7
  }
}
layer {
  name: "loss1/classifier"
  type: "InnerProduct"
  bottom: "loss1/fc"
  top: "loss1/classifier"
  param {
    lr_mult: 1
    decay_mult: 1
  }
  param {
    lr_mult: 2
    decay_mult: 0
  }
  inner_product_param {
    num_output: 1000
    weight_filler {
      type: "xavier"
    }
    bias_filler {
      type: "constant"
      value: 0
    }
  }
}
layer {
  name: "loss1/loss"
  type: "SoftmaxWithLoss"
  bottom: "loss1/classifier"
  bottom: "label"
  top: "loss1/loss1"
  loss_weight: 0.3
}
layer {
  name: "inception_4b/1x1"
  type: "Convolution"
  bottom: "inception_4a/output"
  top: "inception_4b/1x1"
  param {
    lr_mult: 1
    decay_mult: 1
  }
  param {
    lr_mult: 2
    decay_mult: 0
  }
  convolution_param {
    num_output: 160
    kernel_size: 1
    weight_filler {
      type: "xavier"
    }
    bias_filler {
      type: "constant"
      value: 0.2
    }
  }
}
layer {
  name: "inception_4b/relu_1x1"
  type: "ReLU"
  bottom: "inception_4b/1x1"
  top: "inception_4b/1x1"
}
layer {
  name: "inception_4b/3x3_reduce"
  type: "Convolution"
  bottom: "inception_4a/output"
  top: "inception_4b/3x3_reduce"
  param {
    lr_mult: 1
    decay_mult: 1
  }
  param {
    lr_mult: 2
    decay_mult: 0
  }
  convolution_param {
    num_output: 112
    kernel_size: 1
    weight_filler {
      type: "xavier"
    }
    bias_filler {
      type: "constant"
      value: 0.2
    }
  }
}
layer {
  name: "inception_4b/relu_3x3_reduce"
  type: "ReLU"
  bottom: "inception_4b/3x3_reduce"
  top: "inception_4b/3x3_reduce"
}
layer {
  name: "inception_4b/3x3"
  type: "Convolution"
  bottom: "inception_4b/3x3_reduce"
  top: "inception_4b/3x3"
  param {
    lr_mult: 1
    decay_mult: 1
  }
  param {
    lr_mult: 2
    decay_mult: 0
  }
  convolution_param {
    num_output: 224
    pad: 1
    kernel_size: 3
    weight_filler {
      type: "xavier"
    }
    bias_filler {
      type: "constant"
      value: 0.2
    }
  }
}
layer {
  name: "inception_4b/relu_3x3"
  type: "ReLU"
  bottom: "inception_4b/3x3"
  top: "inception_4b/3x3"
}
layer {
  name: "inception_4b/5x5_reduce"
  type: "Convolution"
  bottom: "inception_4a/output"
  top: "inception_4b/5x5_reduce"
  param {
    lr_mult: 1
    decay_mult: 1
  }
  param {
    lr_mult: 2
    decay_mult: 0
  }
  convolution_param {
    num_output: 24
    kernel_size: 1
    weight_filler {
      type: "xavier"
    }
    bias_filler {
      type: "constant"
      value: 0.2
    }
  }
}
layer {
  name: "inception_4b/relu_5x5_reduce"
  type: "ReLU"
  bottom: "inception_4b/5x5_reduce"
  top: "inception_4b/5x5_reduce"
}
layer {
  name: "inception_4b/5x5"
  type: "Convolution"
  bottom: "inception_4b/5x5_reduce"
  top: "inception_4b/5x5"
  param {
    lr_mult: 1
    decay_mult: 1
  }
  param {
    lr_mult: 2
    decay_mult: 0
  }
  convolution_param {
    num_output: 64
    pad: 2
    kernel_size: 5
    weight_filler {
      type: "xavier"
    }
    bias_filler {
      type: "constant"
      value: 0.2
    }
  }
}
layer {
  name: "inception_4b/relu_5x5"
  type: "ReLU"
  bottom: "inception_4b/5x5"
  top: "inception_4b/5x5"
}
layer {
  name: "inception_4b/pool"
  type: "Pooling"
  bottom: "inception_4a/output"
  top: "inception_4b/pool"
  pooling_param {
    pool: MAX
    kernel_size: 3
    stride: 1
    pad: 1
  }
}
layer {
  name: "inception_4b/pool_proj"
  type: "Convolution"
  bottom: "inception_4b/pool"
  top: "inception_4b/pool_proj"
  param {
    lr_mult: 1
    decay_mult: 1
  }
  param {
    lr_mult: 2
    decay_mult: 0
  }
  convolution_param {
    num_output: 64
    kernel_size: 1
    weight_filler {
      type: "xavier"
    }
    bias_filler {
      type: "constant"
      value: 0.2
    }
  }
}
layer {
  name: "inception_4b/relu_pool_proj"
  type: "ReLU"
  bottom: "inception_4b/pool_proj"
  top: "inception_4b/pool_proj"
}
layer {
  name: "inception_4b/output"
  type: "Concat"
  bottom: "inception_4b/1x1"
  bottom: "inception_4b/3x3"
  bottom: "inception_4b/5x5"
  bottom: "inception_4b/pool_proj"
  top: "inception_4b/output"
}
layer {
  name: "inception_4c/1x1"
  type: "Convolution"
  bottom: "inception_4b/output"
  top: "inception_4c/1x1"
  param {
    lr_mult: 1
    decay_mult: 1
  }
  param {
    lr_mult: 2
    decay_mult: 0
  }
  convolution_param {
    num_output: 128
    kernel_size: 1
    weight_filler {
      type: "xavier"
    }
    bias_filler {
      type: "constant"
      value: 0.2
    }
  }
}
layer {
  name: "inception_4c/relu_1x1"
  type: "ReLU"
  bottom: "inception_4c/1x1"
  top: "inception_4c/1x1"
}
layer {
  name: "inception_4c/3x3_reduce"
  type: "Convolution"
  bottom: "inception_4b/output"
  top: "inception_4c/3x3_reduce"
  param {
    lr_mult: 1
    decay_mult: 1
  }
  param {
    lr_mult: 2
    decay_mult: 0
  }
  convolution_param {
    num_output: 128
    kernel_size: 1
    weight_filler {
      type: "xavier"
    }
    bias_filler {
      type: "constant"
      value: 0.2
    }
  }
}
layer {
  name: "inception_4c/relu_3x3_reduce"
  type: "ReLU"
  bottom: "inception_4c/3x3_reduce"
  top: "inception_4c/3x3_reduce"
}
layer {
  name: "inception_4c/3x3"
  type: "Convolution"
  bottom: "inception_4c/3x3_reduce"
  top: "inception_4c/3x3"
  param {
    lr_mult: 1
    decay_mult: 1
  }
  param {
    lr_mult: 2
    decay_mult: 0
  }
  convolution_param {
    num_output: 256
    pad: 1
    kernel_size: 3
    weight_filler {
      type: "xavier"
    }
    bias_filler {
      type: "constant"
      value: 0.2
    }
  }
}
layer {
  name: "inception_4c/relu_3x3"
  type: "ReLU"
  bottom: "inception_4c/3x3"
  top: "inception_4c/3x3"
}
layer {
  name: "inception_4c/5x5_reduce"
  type: "Convolution"
  bottom: "inception_4b/output"
  top: "inception_4c/5x5_reduce"
  param {
    lr_mult: 1
    decay_mult: 1
  }
  param {
    lr_mult: 2
    decay_mult: 0
  }
  convolution_param {
    num_output: 24
    kernel_size: 1
    weight_filler {
      type: "xavier"
    }
    bias_filler {
      type: "constant"
      value: 0.2
    }
  }
}
layer {
  name: "inception_4c/relu_5x5_reduce"
  type: "ReLU"
  bottom: "inception_4c/5x5_reduce"
  top: "inception_4c/5x5_reduce"
}
layer {
  name: "inception_4c/5x5"
  type: "Convolution"
  bottom: "inception_4c/5x5_reduce"
  top: "inception_4c/5x5"
  param {
    lr_mult: 1
    decay_mult: 1
  }
  param {
    lr_mult: 2
    decay_mult: 0
  }
  convolution_param {
    num_output: 64
    pad: 2
    kernel_size: 5
    weight_filler {
      type: "xavier"
    }
    bias_filler {
      type: "constant"
      value: 0.2
    }
  }
}
layer {
  name: "inception_4c/relu_5x5"
  type: "ReLU"
  bottom: "inception_4c/5x5"
  top: "inception_4c/5x5"
}
layer {
  name: "inception_4c/pool"
  type: "Pooling"
  bottom: "inception_4b/output"
  top: "inception_4c/pool"
  pooling_param {
    pool: MAX
    kernel_size: 3
    stride: 1
    pad: 1
  }
}
layer {
  name: "inception_4c/pool_proj"
  type: "Convolution"
  bottom: "inception_4c/pool"
  top: "inception_4c/pool_proj"
  param {
    lr_mult: 1
    decay_mult: 1
  }
  param {
    lr_mult: 2
    decay_mult: 0
  }
  convolution_param {
    num_output: 64
    kernel_size: 1
    weight_filler {
      type: "xavier"
    }
    bias_filler {
      type: "constant"
      value: 0.2
    }
  }
}
layer {
  name: "inception_4c/relu_pool_proj"
  type: "ReLU"
  bottom: "inception_4c/pool_proj"
  top: "inception_4c/pool_proj"
}
layer {
  name: "inception_4c/output"
  type: "Concat"
  bottom: "inception_4c/1x1"
  bottom: "inception_4c/3x3"
  bottom: "inception_4c/5x5"
  bottom: "inception_4c/pool_proj"
  top: "inception_4c/output"
}
layer {
  name: "inception_4d/1x1"
  type: "Convolution"
  bottom: "inception_4c/output"
  top: "inception_4d/1x1"
  param {
    lr_mult: 1
    decay_mult: 1
  }
  param {
    lr_mult: 2
    decay_mult: 0
  }
  convolution_param {
    num_output: 112
    kernel_size: 1
    weight_filler {
      type: "xavier"
    }
    bias_filler {
      type: "constant"
      value: 0.2
    }
  }
}
layer {
  name: "inception_4d/relu_1x1"
  type: "ReLU"
  bottom: "inception_4d/1x1"
  top: "inception_4d/1x1"
}
layer {
  name: "inception_4d/3x3_reduce"
  type: "Convolution"
  bottom: "inception_4c/output"
  top: "inception_4d/3x3_reduce"
  param {
    lr_mult: 1
    decay_mult: 1
  }
  param {
    lr_mult: 2
    decay_mult: 0
  }
  convolution_param {
    num_output: 144
    kernel_size: 1
    weight_filler {
      type: "xavier"
    }
    bias_filler {
      type: "constant"
      value: 0.2
    }
  }
}
layer {
  name: "inception_4d/relu_3x3_reduce"
  type: "ReLU"
  bottom: "inception_4d/3x3_reduce"
  top: "inception_4d/3x3_reduce"
}
layer {
  name: "inception_4d/3x3"
  type: "Convolution"
  bottom: "inception_4d/3x3_reduce"
  top: "inception_4d/3x3"
  param {
    lr_mult: 1
    decay_mult: 1
  }
  param {
    lr_mult: 2
    decay_mult: 0
  }
  convolution_param {
    num_output: 288
    pad: 1
    kernel_size: 3
    weight_filler {
      type: "xavier"
    }
    bias_filler {
      type: "constant"
      value: 0.2
    }
  }
}
layer {
  name: "inception_4d/relu_3x3"
  type: "ReLU"
  bottom: "inception_4d/3x3"
  top: "inception_4d/3x3"
}
layer {
  name: "inception_4d/5x5_reduce"
  type: "Convolution"
  bottom: "inception_4c/output"
  top: "inception_4d/5x5_reduce"
  param {
    lr_mult: 1
    decay_mult: 1
  }
  param {
    lr_mult: 2
    decay_mult: 0
  }
  convolution_param {
    num_output: 32
    kernel_size: 1
    weight_filler {
      type: "xavier"
    }
    bias_filler {
      type: "constant"
      value: 0.2
    }
  }
}
layer {
  name: "inception_4d/relu_5x5_reduce"
  type: "ReLU"
  bottom: "inception_4d/5x5_reduce"
  top: "inception_4d/5x5_reduce"
}
layer {
  name: "inception_4d/5x5"
  type: "Convolution"
  bottom: "inception_4d/5x5_reduce"
  top: "inception_4d/5x5"
  param {
    lr_mult: 1
    decay_mult: 1
  }
  param {
    lr_mult: 2
    decay_mult: 0
  }
  convolution_param {
    num_output: 64
    pad: 2
    kernel_size: 5
    weight_filler {
      type: "xavier"
    }
    bias_filler {
      type: "constant"
      value: 0.2
    }
  }
}
layer {
  name: "inception_4d/relu_5x5"
  type: "ReLU"
  bottom: "inception_4d/5x5"
  top: "inception_4d/5x5"
}
layer {
  name: "inception_4d/pool"
  type: "Pooling"
  bottom: "inception_4c/output"
  top: "inception_4d/pool"
  pooling_param {
    pool: MAX
    kernel_size: 3
    stride: 1
    pad: 1
  }
}
layer {
  name: "inception_4d/pool_proj"
  type: "Convolution"
  bottom: "inception_4d/pool"
  top: "inception_4d/pool_proj"
  param {
    lr_mult: 1
    decay_mult: 1
  }
  param {
    lr_mult: 2
    decay_mult: 0
  }
  convolution_param {
    num_output: 64
    kernel_size: 1
    weight_filler {
      type: "xavier"
    }
    bias_filler {
      type: "constant"
      value: 0.2
    }
  }
}
layer {
  name: "inception_4d/relu_pool_proj"
  type: "ReLU"
  bottom: "inception_4d/pool_proj"
  top: "inception_4d/pool_proj"
}
layer {
  name: "inception_4d/output"
  type: "Concat"
  bottom: "inception_4d/1x1"
  bottom: "inception_4d/3x3"
  bottom: "inception_4d/5x5"
  bottom: "inception_4d/pool_proj"
  top: "inception_4d/output"
}
layer {
  name: "loss2/ave_pool"
  type: "Pooling"
  bottom: "inception_4d/output"
  top: "loss2/ave_pool"
  pooling_param {
    pool: AVE
    kernel_size: 5
    stride: 3
  }
}
layer {
  name: "loss2/conv"
  type: "Convolution"
  bottom: "loss2/ave_pool"
  top: "loss2/conv"
  param {
    lr_mult: 1
    decay_mult: 1
  }
  param {
    lr_mult: 2
    decay_mult: 0
  }
  convolution_param {
    num_output: 128
    kernel_size: 1
    weight_filler {
      type: "xavier"
    }
    bias_filler {
      type: "constant"
      value: 0.2
    }
  }
}
layer {
  name: "loss2/relu_conv"
  type: "ReLU"
  bottom: "loss2/conv"
  top: "loss2/conv"
}
layer {
  name: "loss2/fc"
  type: "InnerProduct"
  bottom: "loss2/conv"
  top: "loss2/fc"
  param {
    lr_mult: 1
    decay_mult: 1
  }
  param {
    lr_mult: 2
    decay_mult: 0
  }
  inner_product_param {
    num_output: 1024
    weight_filler {
      type: "xavier"
    }
    bias_filler {
      type: "constant"
      value: 0.2
    }
  }
}
layer {
  name: "loss2/relu_fc"
  type: "ReLU"
  bottom: "loss2/fc"
  top: "loss2/fc"
}
layer {
  name: "loss2/drop_fc"
  type: "Dropout"
  bottom: "loss2/fc"
  top: "loss2/fc"
  dropout_param {
    dropout_ratio: 0.7
  }
}
layer {
  name: "loss2/classifier"
  type: "InnerProduct"
  bottom: "loss2/fc"
  top: "loss2/classifier"
  param {
    lr_mult: 1
    decay_mult: 1
  }
  param {
    lr_mult: 2
    decay_mult: 0
  }
  inner_product_param {
    num_output: 1000
    weight_filler {
      type: "xavier"
    }
    bias_filler {
      type: "constant"
      value: 0
    }
  }
}
layer {
  name: "loss2/loss"
  type: "SoftmaxWithLoss"
  bottom: "loss2/classifier"
  bottom: "label"
  top: "loss2/loss2"
  loss_weight: 0.3
}
layer {
  name: "inception_4e/1x1"
  type: "Convolution"
  bottom: "inception_4d/output"
  top: "inception_4e/1x1"
  param {
    lr_mult: 1
    decay_mult: 1
  }
  param {
    lr_mult: 2
    decay_mult: 0
  }
  convolution_param {
    num_output: 256
    kernel_size: 1
    weight_filler {
      type: "xavier"
    }
    bias_filler {
      type: "constant"
      value: 0.2
    }
  }
}
layer {
  name: "inception_4e/relu_1x1"
  type: "ReLU"
  bottom: "inception_4e/1x1"
  top: "inception_4e/1x1"
}
layer {
  name: "inception_4e/3x3_reduce"
  type: "Convolution"
  bottom: "inception_4d/output"
  top: "inception_4e/3x3_reduce"
  param {
    lr_mult: 1
    decay_mult: 1
  }
  param {
    lr_mult: 2
    decay_mult: 0
  }
  convolution_param {
    num_output: 160
    kernel_size: 1
    weight_filler {
      type: "xavier"
    }
    bias_filler {
      type: "constant"
      value: 0.2
    }
  }
}
layer {
  name: "inception_4e/relu_3x3_reduce"
  type: "ReLU"
  bottom: "inception_4e/3x3_reduce"
  top: "inception_4e/3x3_reduce"
}
layer {
  name: "inception_4e/3x3"
  type: "Convolution"
  bottom: "inception_4e/3x3_reduce"
  top: "inception_4e/3x3"
  param {
    lr_mult: 1
    decay_mult: 1
  }
  param {
    lr_mult: 2
    decay_mult: 0
  }
  convolution_param {
    num_output: 320
    pad: 1
    kernel_size: 3
    weight_filler {
      type: "xavier"
    }
    bias_filler {
      type: "constant"
      value: 0.2
    }
  }
}
layer {
  name: "inception_4e/relu_3x3"
  type: "ReLU"
  bottom: "inception_4e/3x3"
  top: "inception_4e/3x3"
}
layer {
  name: "inception_4e/5x5_reduce"
  type: "Convolution"
  bottom: "inception_4d/output"
  top: "inception_4e/5x5_reduce"
  param {
    lr_mult: 1
    decay_mult: 1
  }
  param {
    lr_mult: 2
    decay_mult: 0
  }
  convolution_param {
    num_output: 32
    kernel_size: 1
    weight_filler {
      type: "xavier"
    }
    bias_filler {
      type: "constant"
      value: 0.2
    }
  }
}
layer {
  name: "inception_4e/relu_5x5_reduce"
  type: "ReLU"
  bottom: "inception_4e/5x5_reduce"
  top: "inception_4e/5x5_reduce"
}
layer {
  name: "inception_4e/5x5"
  type: "Convolution"
  bottom: "inception_4e/5x5_reduce"
  top: "inception_4e/5x5"
  param {
    lr_mult: 1
    decay_mult: 1
  }
  param {
    lr_mult: 2
    decay_mult: 0
  }
  convolution_param {
    num_output: 128
    pad: 2
    kernel_size: 5
    weight_filler {
      type: "xavier"
    }
    bias_filler {
      type: "constant"
      value: 0.2
    }
  }
}
layer {
  name: "inception_4e/relu_5x5"
  type: "ReLU"
  bottom: "inception_4e/5x5"
  top: "inception_4e/5x5"
}
layer {
  name: "inception_4e/pool"
  type: "Pooling"
  bottom: "inception_4d/output"
  top: "inception_4e/pool"
  pooling_param {
    pool: MAX
    kernel_size: 
I0429 14:18:42.626190 29880 layer_factory.hpp:77] Creating layer data
I0429 14:18:42.627779 29880 db_lmdb.cpp:35] Opened lmdb retina256/retina256_train_lmdb
I0429 14:18:42.629523 29880 net.cpp:84] Creating Layer data
I0429 14:18:42.629555 29880 net.cpp:380] data -> data
I0429 14:18:42.629596 29880 net.cpp:380] data -> label
I0429 14:18:42.629629 29880 data_transformer.cpp:25] Loading mean file from: retina256/retina256_train_mean.binaryproto
I0429 14:18:42.638612 29880 data_layer.cpp:45] output data size: 50,3,224,224
I0429 14:18:42.912014 29880 net.cpp:122] Setting up data
I0429 14:18:42.912060 29880 net.cpp:129] Top shape: 50 3 224 224 (7526400)
I0429 14:18:42.912071 29880 net.cpp:129] Top shape: 50 (50)
I0429 14:18:42.912078 29880 net.cpp:137] Memory required for data: 30105800
I0429 14:18:42.912096 29880 layer_factory.hpp:77] Creating layer label_data_1_split
I0429 14:18:42.912117 29880 net.cpp:84] Creating Layer label_data_1_split
I0429 14:18:42.912128 29880 net.cpp:406] label_data_1_split <- label
I0429 14:18:42.912147 29880 net.cpp:380] label_data_1_split -> label_data_1_split_0
I0429 14:18:42.912178 29880 net.cpp:380] label_data_1_split -> label_data_1_split_1
I0429 14:18:42.912315 29880 net.cpp:380] label_data_1_split -> label_data_1_split_2
I0429 14:18:42.912400 29880 net.cpp:122] Setting up label_data_1_split
I0429 14:18:42.912413 29880 net.cpp:129] Top shape: 50 (50)
I0429 14:18:42.912422 29880 net.cpp:129] Top shape: 50 (50)
I0429 14:18:42.912432 29880 net.cpp:129] Top shape: 50 (50)
I0429 14:18:42.912438 29880 net.cpp:137] Memory required for data: 30106400
I0429 14:18:42.912444 29880 layer_factory.hpp:77] Creating layer conv1/7x7_s2
I0429 14:18:42.912469 29880 net.cpp:84] Creating Layer conv1/7x7_s2
I0429 14:18:42.912482 29880 net.cpp:406] conv1/7x7_s2 <- data
I0429 14:18:42.912493 29880 net.cpp:380] conv1/7x7_s2 -> conv1/7x7_s2
I0429 14:18:44.058241 29880 net.cpp:122] Setting up conv1/7x7_s2
I0429 14:18:44.058281 29880 net.cpp:129] Top shape: 50 64 112 112 (40140800)
I0429 14:18:44.058291 29880 net.cpp:137] Memory required for data: 190669600
I0429 14:18:44.058316 29880 layer_factory.hpp:77] Creating layer conv1/relu_7x7
I0429 14:18:44.058331 29880 net.cpp:84] Creating Layer conv1/relu_7x7
I0429 14:18:44.058336 29880 net.cpp:406] conv1/relu_7x7 <- conv1/7x7_s2
I0429 14:18:44.058346 29880 net.cpp:367] conv1/relu_7x7 -> conv1/7x7_s2 (in-place)
I0429 14:18:44.058548 29880 net.cpp:122] Setting up conv1/relu_7x7
I0429 14:18:44.058562 29880 net.cpp:129] Top shape: 50 64 112 112 (40140800)
I0429 14:18:44.058568 29880 net.cpp:137] Memory required for data: 351232800
I0429 14:18:44.058576 29880 layer_factory.hpp:77] Creating layer pool1/3x3_s2
I0429 14:18:44.058588 29880 net.cpp:84] Creating Layer pool1/3x3_s2
I0429 14:18:44.058595 29880 net.cpp:406] pool1/3x3_s2 <- conv1/7x7_s2
I0429 14:18:44.058604 29880 net.cpp:380] pool1/3x3_s2 -> pool1/3x3_s2
I0429 14:18:44.058665 29880 net.cpp:122] Setting up pool1/3x3_s2
I0429 14:18:44.058679 29880 net.cpp:129] Top shape: 50 64 56 56 (10035200)
I0429 14:18:44.058686 29880 net.cpp:137] Memory required for data: 391373600
I0429 14:18:44.058691 29880 layer_factory.hpp:77] Creating layer pool1/norm1
I0429 14:18:44.058704 29880 net.cpp:84] Creating Layer pool1/norm1
I0429 14:18:44.058710 29880 net.cpp:406] pool1/norm1 <- pool1/3x3_s2
I0429 14:18:44.058718 29880 net.cpp:380] pool1/norm1 -> pool1/norm1
I0429 14:18:44.058935 29880 net.cpp:122] Setting up pool1/norm1
I0429 14:18:44.058950 29880 net.cpp:129] Top shape: 50 64 56 56 (10035200)
I0429 14:18:44.058956 29880 net.cpp:137] Memory required for data: 431514400
I0429 14:18:44.058962 29880 layer_factory.hpp:77] Creating layer conv2/3x3_reduce
I0429 14:18:44.058979 29880 net.cpp:84] Creating Layer conv2/3x3_reduce
I0429 14:18:44.058987 29880 net.cpp:406] conv2/3x3_reduce <- pool1/norm1
I0429 14:18:44.058997 29880 net.cpp:380] conv2/3x3_reduce -> conv2/3x3_reduce
I0429 14:18:44.061528 29880 net.cpp:122] Setting up conv2/3x3_reduce
I0429 14:18:44.061550 29880 net.cpp:129] Top shape: 50 64 56 56 (10035200)
I0429 14:18:44.061558 29880 net.cpp:137] Memory required for data: 471655200
I0429 14:18:44.061573 29880 layer_factory.hpp:77] Creating layer conv2/relu_3x3_reduce
I0429 14:18:44.061583 29880 net.cpp:84] Creating Layer conv2/relu_3x3_reduce
I0429 14:18:44.061590 29880 net.cpp:406] conv2/relu_3x3_reduce <- conv2/3x3_reduce
I0429 14:18:44.061599 29880 net.cpp:367] conv2/relu_3x3_reduce -> conv2/3x3_reduce (in-place)
I0429 14:18:44.061847 29880 net.cpp:122] Setting up conv2/relu_3x3_reduce
I0429 14:18:44.061863 29880 net.cpp:129] Top shape: 50 64 56 56 (10035200)
I0429 14:18:44.061869 29880 net.cpp:137] Memory required for data: 511796000
I0429 14:18:44.061877 29880 layer_factory.hpp:77] Creating layer conv2/3x3
I0429 14:18:44.061893 29880 net.cpp:84] Creating Layer conv2/3x3
I0429 14:18:44.061899 29880 net.cpp:406] conv2/3x3 <- conv2/3x3_reduce
I0429 14:18:44.061909 29880 net.cpp:380] conv2/3x3 -> conv2/3x3
I0429 14:18:44.064726 29880 net.cpp:122] Setting up conv2/3x3
I0429 14:18:44.064744 29880 net.cpp:129] Top shape: 50 192 56 56 (30105600)
I0429 14:18:44.064750 29880 net.cpp:137] Memory required for data: 632218400
I0429 14:18:44.064808 29880 layer_factory.hpp:77] Creating layer conv2/relu_3x3
I0429 14:18:44.064822 29880 net.cpp:84] Creating Layer conv2/relu_3x3
I0429 14:18:44.064829 29880 net.cpp:406] conv2/relu_3x3 <- conv2/3x3
I0429 14:18:44.064837 29880 net.cpp:367] conv2/relu_3x3 -> conv2/3x3 (in-place)
I0429 14:18:44.065479 29880 net.cpp:122] Setting up conv2/relu_3x3
I0429 14:18:44.065497 29880 net.cpp:129] Top shape: 50 192 56 56 (30105600)
I0429 14:18:44.065502 29880 net.cpp:137] Memory required for data: 752640800
I0429 14:18:44.065508 29880 layer_factory.hpp:77] Creating layer conv2/norm2
I0429 14:18:44.065518 29880 net.cpp:84] Creating Layer conv2/norm2
I0429 14:18:44.065526 29880 net.cpp:406] conv2/norm2 <- conv2/3x3
I0429 14:18:44.065534 29880 net.cpp:380] conv2/norm2 -> conv2/norm2
I0429 14:18:44.065810 29880 net.cpp:122] Setting up conv2/norm2
I0429 14:18:44.065825 29880 net.cpp:129] Top shape: 50 192 56 56 (30105600)
I0429 14:18:44.065832 29880 net.cpp:137] Memory required for data: 873063200
I0429 14:18:44.065838 29880 layer_factory.hpp:77] Creating layer pool2/3x3_s2
I0429 14:18:44.065847 29880 net.cpp:84] Creating Layer pool2/3x3_s2
I0429 14:18:44.065853 29880 net.cpp:406] pool2/3x3_s2 <- conv2/norm2
I0429 14:18:44.065862 29880 net.cpp:380] pool2/3x3_s2 -> pool2/3x3_s2
I0429 14:18:44.065906 29880 net.cpp:122] Setting up pool2/3x3_s2
I0429 14:18:44.065917 29880 net.cpp:129] Top shape: 50 192 28 28 (7526400)
I0429 14:18:44.065922 29880 net.cpp:137] Memory required for data: 903168800
I0429 14:18:44.065928 29880 layer_factory.hpp:77] Creating layer pool2/3x3_s2_pool2/3x3_s2_0_split
I0429 14:18:44.065937 29880 net.cpp:84] Creating Layer pool2/3x3_s2_pool2/3x3_s2_0_split
I0429 14:18:44.065943 29880 net.cpp:406] pool2/3x3_s2_pool2/3x3_s2_0_split <- pool2/3x3_s2
I0429 14:18:44.065951 29880 net.cpp:380] pool2/3x3_s2_pool2/3x3_s2_0_split -> pool2/3x3_s2_pool2/3x3_s2_0_split_0
I0429 14:18:44.065963 29880 net.cpp:380] pool2/3x3_s2_pool2/3x3_s2_0_split -> pool2/3x3_s2_pool2/3x3_s2_0_split_1
I0429 14:18:44.065974 29880 net.cpp:380] pool2/3x3_s2_pool2/3x3_s2_0_split -> pool2/3x3_s2_pool2/3x3_s2_0_split_2
I0429 14:18:44.065985 29880 net.cpp:380] pool2/3x3_s2_pool2/3x3_s2_0_split -> pool2/3x3_s2_pool2/3x3_s2_0_split_3
I0429 14:18:44.066048 29880 net.cpp:122] Setting up pool2/3x3_s2_pool2/3x3_s2_0_split
I0429 14:18:44.066061 29880 net.cpp:129] Top shape: 50 192 28 28 (7526400)
I0429 14:18:44.066067 29880 net.cpp:129] Top shape: 50 192 28 28 (7526400)
I0429 14:18:44.066076 29880 net.cpp:129] Top shape: 50 192 28 28 (7526400)
I0429 14:18:44.066082 29880 net.cpp:129] Top shape: 50 192 28 28 (7526400)
I0429 14:18:44.066089 29880 net.cpp:137] Memory required for data: 1023591200
I0429 14:18:44.066095 29880 layer_factory.hpp:77] Creating layer inception_3a/1x1
I0429 14:18:44.066109 29880 net.cpp:84] Creating Layer inception_3a/1x1
I0429 14:18:44.066115 29880 net.cpp:406] inception_3a/1x1 <- pool2/3x3_s2_pool2/3x3_s2_0_split_0
I0429 14:18:44.066125 29880 net.cpp:380] inception_3a/1x1 -> inception_3a/1x1
I0429 14:18:44.068646 29880 net.cpp:122] Setting up inception_3a/1x1
I0429 14:18:44.068666 29880 net.cpp:129] Top shape: 50 64 28 28 (2508800)
I0429 14:18:44.068672 29880 net.cpp:137] Memory required for data: 1033626400
I0429 14:18:44.068684 29880 layer_factory.hpp:77] Creating layer inception_3a/relu_1x1
I0429 14:18:44.068694 29880 net.cpp:84] Creating Layer inception_3a/relu_1x1
I0429 14:18:44.068701 29880 net.cpp:406] inception_3a/relu_1x1 <- inception_3a/1x1
I0429 14:18:44.068709 29880 net.cpp:367] inception_3a/relu_1x1 -> inception_3a/1x1 (in-place)
I0429 14:18:44.068905 29880 net.cpp:122] Setting up inception_3a/relu_1x1
I0429 14:18:44.068919 29880 net.cpp:129] Top shape: 50 64 28 28 (2508800)
I0429 14:18:44.068925 29880 net.cpp:137] Memory required for data: 1043661600
I0429 14:18:44.068933 29880 layer_factory.hpp:77] Creating layer inception_3a/3x3_reduce
I0429 14:18:44.068946 29880 net.cpp:84] Creating Layer inception_3a/3x3_reduce
I0429 14:18:44.068953 29880 net.cpp:406] inception_3a/3x3_reduce <- pool2/3x3_s2_pool2/3x3_s2_0_split_1
I0429 14:18:44.068998 29880 net.cpp:380] inception_3a/3x3_reduce -> inception_3a/3x3_reduce
I0429 14:18:44.071808 29880 net.cpp:122] Setting up inception_3a/3x3_reduce
I0429 14:18:44.071836 29880 net.cpp:129] Top shape: 50 96 28 28 (3763200)
I0429 14:18:44.071843 29880 net.cpp:137] Memory required for data: 1058714400
I0429 14:18:44.071861 29880 layer_factory.hpp:77] Creating layer inception_3a/relu_3x3_reduce
I0429 14:18:44.071878 29880 net.cpp:84] Creating Layer inception_3a/relu_3x3_reduce
I0429 14:18:44.071887 29880 net.cpp:406] inception_3a/relu_3x3_reduce <- inception_3a/3x3_reduce
I0429 14:18:44.071897 29880 net.cpp:367] inception_3a/relu_3x3_reduce -> inception_3a/3x3_reduce (in-place)
I0429 14:18:44.072134 29880 net.cpp:122] Setting up inception_3a/relu_3x3_reduce
I0429 14:18:44.072151 29880 net.cpp:129] Top shape: 50 96 28 28 (3763200)
I0429 14:18:44.072160 29880 net.cpp:137] Memory required for data: 1073767200
I0429 14:18:44.072166 29880 layer_factory.hpp:77] Creating layer inception_3a/3x3
I0429 14:18:44.072185 29880 net.cpp:84] Creating Layer inception_3a/3x3
I0429 14:18:44.072192 29880 net.cpp:406] inception_3a/3x3 <- inception_3a/3x3_reduce
I0429 14:18:44.072206 29880 net.cpp:380] inception_3a/3x3 -> inception_3a/3x3
I0429 14:18:44.076207 29880 net.cpp:122] Setting up inception_3a/3x3
I0429 14:18:44.076226 29880 net.cpp:129] Top shape: 50 128 28 28 (5017600)
I0429 14:18:44.076233 29880 net.cpp:137] Memory required for data: 1093837600
I0429 14:18:44.076244 29880 layer_factory.hpp:77] Creating layer inception_3a/relu_3x3
I0429 14:18:44.076256 29880 net.cpp:84] Creating Layer inception_3a/relu_3x3
I0429 14:18:44.076262 29880 net.cpp:406] inception_3a/relu_3x3 <- inception_3a/3x3
I0429 14:18:44.076272 29880 net.cpp:367] inception_3a/relu_3x3 -> inception_3a/3x3 (in-place)
I0429 14:18:44.076462 29880 net.cpp:122] Setting up inception_3a/relu_3x3
I0429 14:18:44.076474 29880 net.cpp:129] Top shape: 50 128 28 28 (5017600)
I0429 14:18:44.076479 29880 net.cpp:137] Memory required for data: 1113908000
I0429 14:18:44.076485 29880 layer_factory.hpp:77] Creating layer inception_3a/5x5_reduce
I0429 14:18:44.076499 29880 net.cpp:84] Creating Layer inception_3a/5x5_reduce
I0429 14:18:44.076506 29880 net.cpp:406] inception_3a/5x5_reduce <- pool2/3x3_s2_pool2/3x3_s2_0_split_2
I0429 14:18:44.076516 29880 net.cpp:380] inception_3a/5x5_reduce -> inception_3a/5x5_reduce
I0429 14:18:44.077905 29880 net.cpp:122] Setting up inception_3a/5x5_reduce
I0429 14:18:44.077924 29880 net.cpp:129] Top shape: 50 16 28 28 (627200)
I0429 14:18:44.077931 29880 net.cpp:137] Memory required for data: 1116416800
I0429 14:18:44.077941 29880 layer_factory.hpp:77] Creating layer inception_3a/relu_5x5_reduce
I0429 14:18:44.077951 29880 net.cpp:84] Creating Layer inception_3a/relu_5x5_reduce
I0429 14:18:44.077958 29880 net.cpp:406] inception_3a/relu_5x5_reduce <- inception_3a/5x5_reduce
I0429 14:18:44.077966 29880 net.cpp:367] inception_3a/relu_5x5_reduce -> inception_3a/5x5_reduce (in-place)
I0429 14:18:44.078161 29880 net.cpp:122] Setting up inception_3a/relu_5x5_reduce
I0429 14:18:44.078176 29880 net.cpp:129] Top shape: 50 16 28 28 (627200)
I0429 14:18:44.078181 29880 net.cpp:137] Memory required for data: 1118925600
I0429 14:18:44.078187 29880 layer_factory.hpp:77] Creating layer inception_3a/5x5
I0429 14:18:44.078202 29880 net.cpp:84] Creating Layer inception_3a/5x5
I0429 14:18:44.078208 29880 net.cpp:406] inception_3a/5x5 <- inception_3a/5x5_reduce
I0429 14:18:44.078218 29880 net.cpp:380] inception_3a/5x5 -> inception_3a/5x5
I0429 14:18:44.079649 29880 net.cpp:122] Setting up inception_3a/5x5
I0429 14:18:44.079665 29880 net.cpp:129] Top shape: 50 32 28 28 (1254400)
I0429 14:18:44.079671 29880 net.cpp:137] Memory required for data: 1123943200
I0429 14:18:44.079682 29880 layer_factory.hpp:77] Creating layer inception_3a/relu_5x5
I0429 14:18:44.079694 29880 net.cpp:84] Creating Layer inception_3a/relu_5x5
I0429 14:18:44.079699 29880 net.cpp:406] inception_3a/relu_5x5 <- inception_3a/5x5
I0429 14:18:44.079715 29880 net.cpp:367] inception_3a/relu_5x5 -> inception_3a/5x5 (in-place)
I0429 14:18:44.080410 29880 net.cpp:122] Setting up inception_3a/relu_5x5
I0429 14:18:44.080425 29880 net.cpp:129] Top shape: 50 32 28 28 (1254400)
I0429 14:18:44.080431 29880 net.cpp:137] Memory required for data: 1128960800
I0429 14:18:44.080437 29880 layer_factory.hpp:77] Creating layer inception_3a/pool
I0429 14:18:44.080451 29880 net.cpp:84] Creating Layer inception_3a/pool
I0429 14:18:44.080456 29880 net.cpp:406] inception_3a/pool <- pool2/3x3_s2_pool2/3x3_s2_0_split_3
I0429 14:18:44.080466 29880 net.cpp:380] inception_3a/pool -> inception_3a/pool
I0429 14:18:44.080520 29880 net.cpp:122] Setting up inception_3a/pool
I0429 14:18:44.080533 29880 net.cpp:129] Top shape: 50 192 28 28 (7526400)
I0429 14:18:44.080538 29880 net.cpp:137] Memory required for data: 1159066400
I0429 14:18:44.080543 29880 layer_factory.hpp:77] Creating layer inception_3a/pool_proj
I0429 14:18:44.080556 29880 net.cpp:84] Creating Layer inception_3a/pool_proj
I0429 14:18:44.080564 29880 net.cpp:406] inception_3a/pool_proj <- inception_3a/pool
I0429 14:18:44.080574 29880 net.cpp:380] inception_3a/pool_proj -> inception_3a/pool_proj
I0429 14:18:44.081974 29880 net.cpp:122] Setting up inception_3a/pool_proj
I0429 14:18:44.081990 29880 net.cpp:129] Top shape: 50 32 28 28 (1254400)
I0429 14:18:44.081997 29880 net.cpp:137] Memory required for data: 1164084000
I0429 14:18:44.082012 29880 layer_factory.hpp:77] Creating layer inception_3a/relu_pool_proj
I0429 14:18:44.082022 29880 net.cpp:84] Creating Layer inception_3a/relu_pool_proj
I0429 14:18:44.082028 29880 net.cpp:406] inception_3a/relu_pool_proj <- inception_3a/pool_proj
I0429 14:18:44.082041 29880 net.cpp:367] inception_3a/relu_pool_proj -> inception_3a/pool_proj (in-place)
I0429 14:18:44.082237 29880 net.cpp:122] Setting up inception_3a/relu_pool_proj
I0429 14:18:44.082248 29880 net.cpp:129] Top shape: 50 32 28 28 (1254400)
I0429 14:18:44.082254 29880 net.cpp:137] Memory required for data: 1169101600
I0429 14:18:44.082260 29880 layer_factory.hpp:77] Creating layer inception_3a/output
I0429 14:18:44.082270 29880 net.cpp:84] Creating Layer inception_3a/output
I0429 14:18:44.082275 29880 net.cpp:406] inception_3a/output <- inception_3a/1x1
I0429 14:18:44.082283 29880 net.cpp:406] inception_3a/output <- inception_3a/3x3
I0429 14:18:44.082289 29880 net.cpp:406] inception_3a/output <- inception_3a/5x5
I0429 14:18:44.082296 29880 net.cpp:406] inception_3a/output <- inception_3a/pool_proj
I0429 14:18:44.082305 29880 net.cpp:380] inception_3a/output -> inception_3a/output
I0429 14:18:44.082340 29880 net.cpp:122] Setting up inception_3a/output
I0429 14:18:44.082352 29880 net.cpp:129] Top shape: 50 256 28 28 (10035200)
I0429 14:18:44.082357 29880 net.cpp:137] Memory required for data: 1209242400
I0429 14:18:44.082363 29880 layer_factory.hpp:77] Creating layer inception_3a/output_inception_3a/output_0_split
I0429 14:18:44.082373 29880 net.cpp:84] Creating Layer inception_3a/output_inception_3a/output_0_split
I0429 14:18:44.082381 29880 net.cpp:406] inception_3a/output_inception_3a/output_0_split <- inception_3a/output
I0429 14:18:44.082392 29880 net.cpp:380] inception_3a/output_inception_3a/output_0_split -> inception_3a/output_inception_3a/output_0_split_0
I0429 14:18:44.082403 29880 net.cpp:380] inception_3a/output_inception_3a/output_0_split -> inception_3a/output_inception_3a/output_0_split_1
I0429 14:18:44.082414 29880 net.cpp:380] inception_3a/output_inception_3a/output_0_split -> inception_3a/output_inception_3a/output_0_split_2
I0429 14:18:44.082427 29880 net.cpp:380] inception_3a/output_inception_3a/output_0_split -> inception_3a/output_inception_3a/output_0_split_3
I0429 14:18:44.082496 29880 net.cpp:122] Setting up inception_3a/output_inception_3a/output_0_split
I0429 14:18:44.082506 29880 net.cpp:129] Top shape: 50 256 28 28 (10035200)
I0429 14:18:44.082514 29880 net.cpp:129] Top shape: 50 256 28 28 (10035200)
I0429 14:18:44.082520 29880 net.cpp:129] Top shape: 50 256 28 28 (10035200)
I0429 14:18:44.082526 29880 net.cpp:129] Top shape: 50 256 28 28 (10035200)
I0429 14:18:44.082548 29880 net.cpp:137] Memory required for data: 1369805600
I0429 14:18:44.082556 29880 layer_factory.hpp:77] Creating layer inception_3b/1x1
I0429 14:18:44.082571 29880 net.cpp:84] Creating Layer inception_3b/1x1
I0429 14:18:44.082576 29880 net.cpp:406] inception_3b/1x1 <- inception_3a/output_inception_3a/output_0_split_0
I0429 14:18:44.082587 29880 net.cpp:380] inception_3b/1x1 -> inception_3b/1x1
I0429 14:18:44.084250 29880 net.cpp:122] Setting up inception_3b/1x1
I0429 14:18:44.084270 29880 net.cpp:129] Top shape: 50 128 28 28 (5017600)
I0429 14:18:44.084275 29880 net.cpp:137] Memory required for data: 1389876000
I0429 14:18:44.084285 29880 layer_factory.hpp:77] Creating layer inception_3b/relu_1x1
I0429 14:18:44.084293 29880 net.cpp:84] Creating Layer inception_3b/relu_1x1
I0429 14:18:44.084300 29880 net.cpp:406] inception_3b/relu_1x1 <- inception_3b/1x1
I0429 14:18:44.084312 29880 net.cpp:367] inception_3b/relu_1x1 -> inception_3b/1x1 (in-place)
I0429 14:18:44.084509 29880 net.cpp:122] Setting up inception_3b/relu_1x1
I0429 14:18:44.084522 29880 net.cpp:129] Top shape: 50 128 28 28 (5017600)
I0429 14:18:44.084527 29880 net.cpp:137] Memory required for data: 1409946400
I0429 14:18:44.084533 29880 layer_factory.hpp:77] Creating layer inception_3b/3x3_reduce
I0429 14:18:44.084547 29880 net.cpp:84] Creating Layer inception_3b/3x3_reduce
I0429 14:18:44.084553 29880 net.cpp:406] inception_3b/3x3_reduce <- inception_3a/output_inception_3a/output_0_split_1
I0429 14:18:44.084564 29880 net.cpp:380] inception_3b/3x3_reduce -> inception_3b/3x3_reduce
I0429 14:18:44.086151 29880 net.cpp:122] Setting up inception_3b/3x3_reduce
I0429 14:18:44.086169 29880 net.cpp:129] Top shape: 50 128 28 28 (5017600)
I0429 14:18:44.086174 29880 net.cpp:137] Memory required for data: 1430016800
I0429 14:18:44.086184 29880 layer_factory.hpp:77] Creating layer inception_3b/relu_3x3_reduce
I0429 14:18:44.086194 29880 net.cpp:84] Creating Layer inception_3b/relu_3x3_reduce
I0429 14:18:44.086199 29880 net.cpp:406] inception_3b/relu_3x3_reduce <- inception_3b/3x3_reduce
I0429 14:18:44.086207 29880 net.cpp:367] inception_3b/relu_3x3_reduce -> inception_3b/3x3_reduce (in-place)
I0429 14:18:44.086407 29880 net.cpp:122] Setting up inception_3b/relu_3x3_reduce
I0429 14:18:44.086421 29880 net.cpp:129] Top shape: 50 128 28 28 (5017600)
I0429 14:18:44.086426 29880 net.cpp:137] Memory required for data: 1450087200
I0429 14:18:44.086431 29880 layer_factory.hpp:77] Creating layer inception_3b/3x3
I0429 14:18:44.086454 29880 net.cpp:84] Creating Layer inception_3b/3x3
I0429 14:18:44.086462 29880 net.cpp:406] inception_3b/3x3 <- inception_3b/3x3_reduce
I0429 14:18:44.086470 29880 net.cpp:380] inception_3b/3x3 -> inception_3b/3x3
I0429 14:18:44.091063 29880 net.cpp:122] Setting up inception_3b/3x3
I0429 14:18:44.091089 29880 net.cpp:129] Top shape: 50 192 28 28 (7526400)
I0429 14:18:44.091095 29880 net.cpp:137] Memory required for data: 1480192800
I0429 14:18:44.091106 29880 layer_factory.hpp:77] Creating layer inception_3b/relu_3x3
I0429 14:18:44.091116 29880 net.cpp:84] Creating Layer inception_3b/relu_3x3
I0429 14:18:44.091125 29880 net.cpp:406] inception_3b/relu_3x3 <- inception_3b/3x3
I0429 14:18:44.091135 29880 net.cpp:367] inception_3b/relu_3x3 -> inception_3b/3x3 (in-place)
I0429 14:18:44.091346 29880 net.cpp:122] Setting up inception_3b/relu_3x3
I0429 14:18:44.091357 29880 net.cpp:129] Top shape: 50 192 28 28 (7526400)
I0429 14:18:44.091364 29880 net.cpp:137] Memory required for data: 1510298400
I0429 14:18:44.091370 29880 layer_factory.hpp:77] Creating layer inception_3b/5x5_reduce
I0429 14:18:44.091387 29880 net.cpp:84] Creating Layer inception_3b/5x5_reduce
I0429 14:18:44.091393 29880 net.cpp:406] inception_3b/5x5_reduce <- inception_3a/output_inception_3a/output_0_split_2
I0429 14:18:44.091405 29880 net.cpp:380] inception_3b/5x5_reduce -> inception_3b/5x5_reduce
I0429 14:18:44.092813 29880 net.cpp:122] Setting up inception_3b/5x5_reduce
I0429 14:18:44.092828 29880 net.cpp:129] Top shape: 50 32 28 28 (1254400)
I0429 14:18:44.092841 29880 net.cpp:137] Memory required for data: 1515316000
I0429 14:18:44.092865 29880 layer_factory.hpp:77] Creating layer inception_3b/relu_5x5_reduce
I0429 14:18:44.092875 29880 net.cpp:84] Creating Layer inception_3b/relu_5x5_reduce
I0429 14:18:44.092880 29880 net.cpp:406] inception_3b/relu_5x5_reduce <- inception_3b/5x5_reduce
I0429 14:18:44.092890 29880 net.cpp:367] inception_3b/relu_5x5_reduce -> inception_3b/5x5_reduce (in-place)
I0429 14:18:44.093091 29880 net.cpp:122] Setting up inception_3b/relu_5x5_reduce
I0429 14:18:44.093103 29880 net.cpp:129] Top shape: 50 32 28 28 (1254400)
I0429 14:18:44.093109 29880 net.cpp:137] Memory required for data: 1520333600
I0429 14:18:44.093114 29880 layer_factory.hpp:77] Creating layer inception_3b/5x5
I0429 14:18:44.093128 29880 net.cpp:84] Creating Layer inception_3b/5x5
I0429 14:18:44.093134 29880 net.cpp:406] inception_3b/5x5 <- inception_3b/5x5_reduce
I0429 14:18:44.093145 29880 net.cpp:380] inception_3b/5x5 -> inception_3b/5x5
I0429 14:18:44.096837 29880 net.cpp:122] Setting up inception_3b/5x5
I0429 14:18:44.096859 29880 net.cpp:129] Top shape: 50 96 28 28 (3763200)
I0429 14:18:44.096865 29880 net.cpp:137] Memory required for data: 1535386400
I0429 14:18:44.096875 29880 layer_factory.hpp:77] Creating layer inception_3b/relu_5x5
I0429 14:18:44.096884 29880 net.cpp:84] Creating Layer inception_3b/relu_5x5
I0429 14:18:44.096891 29880 net.cpp:406] inception_3b/relu_5x5 <- inception_3b/5x5
I0429 14:18:44.096902 29880 net.cpp:367] inception_3b/relu_5x5 -> inception_3b/5x5 (in-place)
I0429 14:18:44.097586 29880 net.cpp:122] Setting up inception_3b/relu_5x5
I0429 14:18:44.097602 29880 net.cpp:129] Top shape: 50 96 28 28 (3763200)
I0429 14:18:44.097609 29880 net.cpp:137] Memory required for data: 1550439200
I0429 14:18:44.097615 29880 layer_factory.hpp:77] Creating layer inception_3b/pool
I0429 14:18:44.097627 29880 net.cpp:84] Creating Layer inception_3b/pool
I0429 14:18:44.097635 29880 net.cpp:406] inception_3b/pool <- inception_3a/output_inception_3a/output_0_split_3
I0429 14:18:44.097648 29880 net.cpp:380] inception_3b/pool -> inception_3b/pool
I0429 14:18:44.097775 29880 net.cpp:122] Setting up inception_3b/pool
I0429 14:18:44.097790 29880 net.cpp:129] Top shape: 50 256 28 28 (10035200)
I0429 14:18:44.097796 29880 net.cpp:137] Memory required for data: 1590580000
I0429 14:18:44.097803 29880 layer_factory.hpp:77] Creating layer inception_3b/pool_proj
I0429 14:18:44.097818 29880 net.cpp:84] Creating Layer inception_3b/pool_proj
I0429 14:18:44.097824 29880 net.cpp:406] inception_3b/pool_proj <- inception_3b/pool
I0429 14:18:44.097836 29880 net.cpp:380] inception_3b/pool_proj -> inception_3b/pool_proj
I0429 14:18:44.099479 29880 net.cpp:122] Setting up inception_3b/pool_proj
I0429 14:18:44.099498 29880 net.cpp:129] Top shape: 50 64 28 28 (2508800)
I0429 14:18:44.099505 29880 net.cpp:137] Memory required for data: 1600615200
I0429 14:18:44.099515 29880 layer_factory.hpp:77] Creating layer inception_3b/relu_pool_proj
I0429 14:18:44.099526 29880 net.cpp:84] Creating Layer inception_3b/relu_pool_proj
I0429 14:18:44.099534 29880 net.cpp:406] inception_3b/relu_pool_proj <- inception_3b/pool_proj
I0429 14:18:44.099545 29880 net.cpp:367] inception_3b/relu_pool_proj -> inception_3b/pool_proj (in-place)
I0429 14:18:44.099756 29880 net.cpp:122] Setting up inception_3b/relu_pool_proj
I0429 14:18:44.099771 29880 net.cpp:129] Top shape: 50 64 28 28 (2508800)
I0429 14:18:44.099776 29880 net.cpp:137] Memory required for data: 1610650400
I0429 14:18:44.099781 29880 layer_factory.hpp:77] Creating layer inception_3b/output
I0429 14:18:44.099791 29880 net.cpp:84] Creating Layer inception_3b/output
I0429 14:18:44.099797 29880 net.cpp:406] inception_3b/output <- inception_3b/1x1
I0429 14:18:44.099804 29880 net.cpp:406] inception_3b/output <- inception_3b/3x3
I0429 14:18:44.099810 29880 net.cpp:406] inception_3b/output <- inception_3b/5x5
I0429 14:18:44.099817 29880 net.cpp:406] inception_3b/output <- inception_3b/pool_proj
I0429 14:18:44.099828 29880 net.cpp:380] inception_3b/output -> inception_3b/output
I0429 14:18:44.099885 29880 net.cpp:122] Setting up inception_3b/output
I0429 14:18:44.099895 29880 net.cpp:129] Top shape: 50 480 28 28 (18816000)
I0429 14:18:44.099901 29880 net.cpp:137] Memory required for data: 1685914400
I0429 14:18:44.099908 29880 layer_factory.hpp:77] Creating layer pool3/3x3_s2
I0429 14:18:44.099916 29880 net.cpp:84] Creating Layer pool3/3x3_s2
I0429 14:18:44.099922 29880 net.cpp:406] pool3/3x3_s2 <- inception_3b/output
I0429 14:18:44.099931 29880 net.cpp:380] pool3/3x3_s2 -> pool3/3x3_s2
I0429 14:18:44.099982 29880 net.cpp:122] Setting up pool3/3x3_s2
I0429 14:18:44.099993 29880 net.cpp:129] Top shape: 50 480 14 14 (4704000)
I0429 14:18:44.099999 29880 net.cpp:137] Memory required for data: 1704730400
I0429 14:18:44.100005 29880 layer_factory.hpp:77] Creating layer pool3/3x3_s2_pool3/3x3_s2_0_split
I0429 14:18:44.100018 29880 net.cpp:84] Creating Layer pool3/3x3_s2_pool3/3x3_s2_0_split
I0429 14:18:44.100023 29880 net.cpp:406] pool3/3x3_s2_pool3/3x3_s2_0_split <- pool3/3x3_s2
I0429 14:18:44.100033 29880 net.cpp:380] pool3/3x3_s2_pool3/3x3_s2_0_split -> pool3/3x3_s2_pool3/3x3_s2_0_split_0
I0429 14:18:44.100046 29880 net.cpp:380] pool3/3x3_s2_pool3/3x3_s2_0_split -> pool3/3x3_s2_pool3/3x3_s2_0_split_1
I0429 14:18:44.100059 29880 net.cpp:380] pool3/3x3_s2_pool3/3x3_s2_0_split -> pool3/3x3_s2_pool3/3x3_s2_0_split_2
I0429 14:18:44.100069 29880 net.cpp:380] pool3/3x3_s2_pool3/3x3_s2_0_split -> pool3/3x3_s2_pool3/3x3_s2_0_split_3
I0429 14:18:44.100149 29880 net.cpp:122] Setting up pool3/3x3_s2_pool3/3x3_s2_0_split
I0429 14:18:44.100162 29880 net.cpp:129] Top shape: 50 480 14 14 (4704000)
I0429 14:18:44.100169 29880 net.cpp:129] Top shape: 50 480 14 14 (4704000)
I0429 14:18:44.100175 29880 net.cpp:129] Top shape: 50 480 14 14 (4704000)
I0429 14:18:44.100183 29880 net.cpp:129] Top shape: 50 480 14 14 (4704000)
I0429 14:18:44.100188 29880 net.cpp:137] Memory required for data: 1779994400
I0429 14:18:44.100193 29880 layer_factory.hpp:77] Creating layer inception_4a/1x1
I0429 14:18:44.100209 29880 net.cpp:84] Creating Layer inception_4a/1x1
I0429 14:18:44.100215 29880 net.cpp:406] inception_4a/1x1 <- pool3/3x3_s2_pool3/3x3_s2_0_split_0
I0429 14:18:44.100225 29880 net.cpp:380] inception_4a/1x1 -> inception_4a/1x1
I0429 14:18:44.102795 29880 net.cpp:122] Setting up inception_4a/1x1
I0429 14:18:44.102814 29880 net.cpp:129] Top shape: 50 192 14 14 (1881600)
I0429 14:18:44.102820 29880 net.cpp:137] Memory required for data: 1787520800
I0429 14:18:44.102830 29880 layer_factory.hpp:77] Creating layer inception_4a/relu_1x1
I0429 14:18:44.102840 29880 net.cpp:84] Creating Layer inception_4a/relu_1x1
I0429 14:18:44.102847 29880 net.cpp:406] inception_4a/relu_1x1 <- inception_4a/1x1
I0429 14:18:44.102857 29880 net.cpp:367] inception_4a/relu_1x1 -> inception_4a/1x1 (in-place)
I0429 14:18:44.103072 29880 net.cpp:122] Setting up inception_4a/relu_1x1
I0429 14:18:44.103086 29880 net.cpp:129] Top shape: 50 192 14 14 (1881600)
I0429 14:18:44.103093 29880 net.cpp:137] Memory required for data: 1795047200
I0429 14:18:44.103099 29880 layer_factory.hpp:77] Creating layer inception_4a/3x3_reduce
I0429 14:18:44.103114 29880 net.cpp:84] Creating Layer inception_4a/3x3_reduce
I0429 14:18:44.103122 29880 net.cpp:406] inception_4a/3x3_reduce <- pool3/3x3_s2_pool3/3x3_s2_0_split_1
I0429 14:18:44.103134 29880 net.cpp:380] inception_4a/3x3_reduce -> inception_4a/3x3_reduce
I0429 14:18:44.104900 29880 net.cpp:122] Setting up inception_4a/3x3_reduce
I0429 14:18:44.104918 29880 net.cpp:129] Top shape: 50 96 14 14 (940800)
I0429 14:18:44.104925 29880 net.cpp:137] Memory required for data: 1798810400
I0429 14:18:44.104943 29880 layer_factory.hpp:77] Creating layer inception_4a/relu_3x3_reduce
I0429 14:18:44.104954 29880 net.cpp:84] Creating Layer inception_4a/relu_3x3_reduce
I0429 14:18:44.104959 29880 net.cpp:406] inception_4a/relu_3x3_reduce <- inception_4a/3x3_reduce
I0429 14:18:44.104971 29880 net.cpp:367] inception_4a/relu_3x3_reduce -> inception_4a/3x3_reduce (in-place)
I0429 14:18:44.105165 29880 net.cpp:122] Setting up inception_4a/relu_3x3_reduce
I0429 14:18:44.105196 29880 net.cpp:129] Top shape: 50 96 14 14 (940800)
I0429 14:18:44.105202 29880 net.cpp:137] Memory required for data: 1802573600
I0429 14:18:44.105208 29880 layer_factory.hpp:77] Creating layer inception_4a/3x3
I0429 14:18:44.105223 29880 net.cpp:84] Creating Layer inception_4a/3x3
I0429 14:18:44.105231 29880 net.cpp:406] inception_4a/3x3 <- inception_4a/3x3_reduce
I0429 14:18:44.105242 29880 net.cpp:380] inception_4a/3x3 -> inception_4a/3x3
I0429 14:18:44.109522 29880 net.cpp:122] Setting up inception_4a/3x3
I0429 14:18:44.109545 29880 net.cpp:129] Top shape: 50 208 14 14 (2038400)
I0429 14:18:44.109551 29880 net.cpp:137] Memory required for data: 1810727200
I0429 14:18:44.109563 29880 layer_factory.hpp:77] Creating layer inception_4a/relu_3x3
I0429 14:18:44.109577 29880 net.cpp:84] Creating Layer inception_4a/relu_3x3
I0429 14:18:44.109585 29880 net.cpp:406] inception_4a/relu_3x3 <- inception_4a/3x3
I0429 14:18:44.109593 29880 net.cpp:367] inception_4a/relu_3x3 -> inception_4a/3x3 (in-place)
I0429 14:18:44.109824 29880 net.cpp:122] Setting up inception_4a/relu_3x3
I0429 14:18:44.109839 29880 net.cpp:129] Top shape: 50 208 14 14 (2038400)
I0429 14:18:44.109844 29880 net.cpp:137] Memory required for data: 1818880800
I0429 14:18:44.109850 29880 layer_factory.hpp:77] Creating layer inception_4a/5x5_reduce
I0429 14:18:44.109863 29880 net.cpp:84] Creating Layer inception_4a/5x5_reduce
I0429 14:18:44.109870 29880 net.cpp:406] inception_4a/5x5_reduce <- pool3/3x3_s2_pool3/3x3_s2_0_split_2
I0429 14:18:44.109881 29880 net.cpp:380] inception_4a/5x5_reduce -> inception_4a/5x5_reduce
I0429 14:18:44.111937 29880 net.cpp:122] Setting up inception_4a/5x5_reduce
I0429 14:18:44.111958 29880 net.cpp:129] Top shape: 50 16 14 14 (156800)
I0429 14:18:44.111965 29880 net.cpp:137] Memory required for data: 1819508000
I0429 14:18:44.111977 29880 layer_factory.hpp:77] Creating layer inception_4a/relu_5x5_reduce
I0429 14:18:44.111989 29880 net.cpp:84] Creating Layer inception_4a/relu_5x5_reduce
I0429 14:18:44.111996 29880 net.cpp:406] inception_4a/relu_5x5_reduce <- inception_4a/5x5_reduce
I0429 14:18:44.112005 29880 net.cpp:367] inception_4a/relu_5x5_reduce -> inception_4a/5x5_reduce (in-place)
I0429 14:18:44.112200 29880 net.cpp:122] Setting up inception_4a/relu_5x5_reduce
I0429 14:18:44.112213 29880 net.cpp:129] Top shape: 50 16 14 14 (156800)
I0429 14:18:44.112218 29880 net.cpp:137] Memory required for data: 1820135200
I0429 14:18:44.112224 29880 layer_factory.hpp:77] Creating layer inception_4a/5x5
I0429 14:18:44.112239 29880 net.cpp:84] Creating Layer inception_4a/5x5
I0429 14:18:44.112246 29880 net.cpp:406] inception_4a/5x5 <- inception_4a/5x5_reduce
I0429 14:18:44.112256 29880 net.cpp:380] inception_4a/5x5 -> inception_4a/5x5
I0429 14:18:44.113837 29880 net.cpp:122] Setting up inception_4a/5x5
I0429 14:18:44.113855 29880 net.cpp:129] Top shape: 50 48 14 14 (470400)
I0429 14:18:44.113862 29880 net.cpp:137] Memory required for data: 1822016800
I0429 14:18:44.113873 29880 layer_factory.hpp:77] Creating layer inception_4a/relu_5x5
I0429 14:18:44.113883 29880 net.cpp:84] Creating Layer inception_4a/relu_5x5
I0429 14:18:44.113888 29880 net.cpp:406] inception_4a/relu_5x5 <- inception_4a/5x5
I0429 14:18:44.113899 29880 net.cpp:367] inception_4a/relu_5x5 -> inception_4a/5x5 (in-place)
I0429 14:18:44.115996 29880 net.cpp:122] Setting up inception_4a/relu_5x5
I0429 14:18:44.116013 29880 net.cpp:129] Top shape: 50 48 14 14 (470400)
I0429 14:18:44.116017 29880 net.cpp:137] Memory required for data: 1823898400
I0429 14:18:44.116024 29880 layer_factory.hpp:77] Creating layer inception_4a/pool
I0429 14:18:44.116039 29880 net.cpp:84] Creating Layer inception_4a/pool
I0429 14:18:44.116046 29880 net.cpp:406] inception_4a/pool <- pool3/3x3_s2_pool3/3x3_s2_0_split_3
I0429 14:18:44.116056 29880 net.cpp:380] inception_4a/pool -> inception_4a/pool
I0429 14:18:44.116112 29880 net.cpp:122] Setting up inception_4a/pool
I0429 14:18:44.116122 29880 net.cpp:129] Top shape: 50 480 14 14 (4704000)
I0429 14:18:44.116137 29880 net.cpp:137] Memory required for data: 1842714400
I0429 14:18:44.116156 29880 layer_factory.hpp:77] Creating layer inception_4a/pool_proj
I0429 14:18:44.116173 29880 net.cpp:84] Creating Layer inception_4a/pool_proj
I0429 14:18:44.116178 29880 net.cpp:406] inception_4a/pool_proj <- inception_4a/pool
I0429 14:18:44.116190 29880 net.cpp:380] inception_4a/pool_proj -> inception_4a/pool_proj
I0429 14:18:44.118126 29880 net.cpp:122] Setting up inception_4a/pool_proj
I0429 14:18:44.118144 29880 net.cpp:129] Top shape: 50 64 14 14 (627200)
I0429 14:18:44.118149 29880 net.cpp:137] Memory required for data: 1845223200
I0429 14:18:44.118160 29880 layer_factory.hpp:77] Creating layer inception_4a/relu_pool_proj
I0429 14:18:44.118170 29880 net.cpp:84] Creating Layer inception_4a/relu_pool_proj
I0429 14:18:44.118177 29880 net.cpp:406] inception_4a/relu_pool_proj <- inception_4a/pool_proj
I0429 14:18:44.118185 29880 net.cpp:367] inception_4a/relu_pool_proj -> inception_4a/pool_proj (in-place)
I0429 14:18:44.118396 29880 net.cpp:122] Setting up inception_4a/relu_pool_proj
I0429 14:18:44.118409 29880 net.cpp:129] Top shape: 50 64 14 14 (627200)
I0429 14:18:44.118415 29880 net.cpp:137] Memory required for data: 1847732000
I0429 14:18:44.118422 29880 layer_factory.hpp:77] Creating layer inception_4a/output
I0429 14:18:44.118430 29880 net.cpp:84] Creating Layer inception_4a/output
I0429 14:18:44.118438 29880 net.cpp:406] inception_4a/output <- inception_4a/1x1
I0429 14:18:44.118444 29880 net.cpp:406] inception_4a/output <- inception_4a/3x3
I0429 14:18:44.118451 29880 net.cpp:406] inception_4a/output <- inception_4a/5x5
I0429 14:18:44.118458 29880 net.cpp:406] inception_4a/output <- inception_4a/pool_proj
I0429 14:18:44.118466 29880 net.cpp:380] inception_4a/output -> inception_4a/output
I0429 14:18:44.118504 29880 net.cpp:122] Setting up inception_4a/output
I0429 14:18:44.118516 29880 net.cpp:129] Top shape: 50 512 14 14 (5017600)
I0429 14:18:44.118522 29880 net.cpp:137] Memory required for data: 1867802400
I0429 14:18:44.118528 29880 layer_factory.hpp:77] Creating layer inception_4a/output_inception_4a/output_0_split
I0429 14:18:44.118538 29880 net.cpp:84] Creating Layer inception_4a/output_inception_4a/output_0_split
I0429 14:18:44.118544 29880 net.cpp:406] inception_4a/output_inception_4a/output_0_split <- inception_4a/output
I0429 14:18:44.118554 29880 net.cpp:380] inception_4a/output_inception_4a/output_0_split -> inception_4a/output_inception_4a/output_0_split_0
I0429 14:18:44.118564 29880 net.cpp:380] inception_4a/output_inception_4a/output_0_split -> inception_4a/output_inception_4a/output_0_split_1
I0429 14:18:44.118577 29880 net.cpp:380] inception_4a/output_inception_4a/output_0_split -> inception_4a/output_inception_4a/output_0_split_2
I0429 14:18:44.118587 29880 net.cpp:380] inception_4a/output_inception_4a/output_0_split -> inception_4a/output_inception_4a/output_0_split_3
I0429 14:18:44.118597 29880 net.cpp:380] inception_4a/output_inception_4a/output_0_split -> inception_4a/output_inception_4a/output_0_split_4
I0429 14:18:44.118686 29880 net.cpp:122] Setting up inception_4a/output_inception_4a/output_0_split
I0429 14:18:44.118696 29880 net.cpp:129] Top shape: 50 512 14 14 (5017600)
I0429 14:18:44.118702 29880 net.cpp:129] Top shape: 50 512 14 14 (5017600)
I0429 14:18:44.118710 29880 net.cpp:129] Top shape: 50 512 14 14 (5017600)
I0429 14:18:44.118716 29880 net.cpp:129] Top shape: 50 512 14 14 (5017600)
I0429 14:18:44.118723 29880 net.cpp:129] Top shape: 50 512 14 14 (5017600)
I0429 14:18:44.118728 29880 net.cpp:137] Memory required for data: 1968154400
I0429 14:18:44.118736 29880 layer_factory.hpp:77] Creating layer loss1/ave_pool
I0429 14:18:44.118743 29880 net.cpp:84] Creating Layer loss1/ave_pool
I0429 14:18:44.118751 29880 net.cpp:406] loss1/ave_pool <- inception_4a/output_inception_4a/output_0_split_0
I0429 14:18:44.118757 29880 net.cpp:380] loss1/ave_pool -> loss1/ave_pool
I0429 14:18:44.118989 29880 net.cpp:122] Setting up loss1/ave_pool
I0429 14:18:44.119002 29880 net.cpp:129] Top shape: 50 512 4 4 (409600)
I0429 14:18:44.119014 29880 net.cpp:137] Memory required for data: 1969792800
I0429 14:18:44.119030 29880 layer_factory.hpp:77] Creating layer loss1/conv
I0429 14:18:44.119045 29880 net.cpp:84] Creating Layer loss1/conv
I0429 14:18:44.119051 29880 net.cpp:406] loss1/conv <- loss1/ave_pool
I0429 14:18:44.119061 29880 net.cpp:380] loss1/conv -> loss1/conv
I0429 14:18:44.120990 29880 net.cpp:122] Setting up loss1/conv
I0429 14:18:44.121011 29880 net.cpp:129] Top shape: 50 128 4 4 (102400)
I0429 14:18:44.121017 29880 net.cpp:137] Memory required for data: 1970202400
I0429 14:18:44.121027 29880 layer_factory.hpp:77] Creating layer loss1/relu_conv
I0429 14:18:44.121037 29880 net.cpp:84] Creating Layer loss1/relu_conv
I0429 14:18:44.121044 29880 net.cpp:406] loss1/relu_conv <- loss1/conv
I0429 14:18:44.121054 29880 net.cpp:367] loss1/relu_conv -> loss1/conv (in-place)
I0429 14:18:44.121268 29880 net.cpp:122] Setting up loss1/relu_conv
I0429 14:18:44.121280 29880 net.cpp:129] Top shape: 50 128 4 4 (102400)
I0429 14:18:44.121287 29880 net.cpp:137] Memory required for data: 1970612000
I0429 14:18:44.121295 29880 layer_factory.hpp:77] Creating layer loss1/fc
I0429 14:18:44.121307 29880 net.cpp:84] Creating Layer loss1/fc
I0429 14:18:44.121312 29880 net.cpp:406] loss1/fc <- loss1/conv
I0429 14:18:44.121325 29880 net.cpp:380] loss1/fc -> loss1/fc
I0429 14:18:44.140451 29880 net.cpp:122] Setting up loss1/fc
I0429 14:18:44.140496 29880 net.cpp:129] Top shape: 50 1024 (51200)
I0429 14:18:44.140502 29880 net.cpp:137] Memory required for data: 1970816800
I0429 14:18:44.140518 29880 layer_factory.hpp:77] Creating layer loss1/relu_fc
I0429 14:18:44.140533 29880 net.cpp:84] Creating Layer loss1/relu_fc
I0429 14:18:44.140542 29880 net.cpp:406] loss1/relu_fc <- loss1/fc
I0429 14:18:44.140552 29880 net.cpp:367] loss1/relu_fc -> loss1/fc (in-place)
I0429 14:18:44.140836 29880 net.cpp:122] Setting up loss1/relu_fc
I0429 14:18:44.140849 29880 net.cpp:129] Top shape: 50 1024 (51200)
I0429 14:18:44.140856 29880 net.cpp:137] Memory required for data: 1971021600
I0429 14:18:44.140861 29880 layer_factory.hpp:77] Creating layer loss1/drop_fc
I0429 14:18:44.140894 29880 net.cpp:84] Creating Layer loss1/drop_fc
I0429 14:18:44.140902 29880 net.cpp:406] loss1/drop_fc <- loss1/fc
I0429 14:18:44.140911 29880 net.cpp:367] loss1/drop_fc -> loss1/fc (in-place)
I0429 14:18:44.140956 29880 net.cpp:122] Setting up loss1/drop_fc
I0429 14:18:44.140969 29880 net.cpp:129] Top shape: 50 1024 (51200)
I0429 14:18:44.140975 29880 net.cpp:137] Memory required for data: 1971226400
I0429 14:18:44.140981 29880 layer_factory.hpp:77] Creating layer loss1/classifier
I0429 14:18:44.140993 29880 net.cpp:84] Creating Layer loss1/classifier
I0429 14:18:44.141000 29880 net.cpp:406] loss1/classifier <- loss1/fc
I0429 14:18:44.141013 29880 net.cpp:380] loss1/classifier -> loss1/classifier
I0429 14:18:44.150475 29880 net.cpp:122] Setting up loss1/classifier
I0429 14:18:44.150508 29880 net.cpp:129] Top shape: 50 1000 (50000)
I0429 14:18:44.150514 29880 net.cpp:137] Memory required for data: 1971426400
I0429 14:18:44.150527 29880 layer_factory.hpp:77] Creating layer loss1/loss
I0429 14:18:44.150543 29880 net.cpp:84] Creating Layer loss1/loss
I0429 14:18:44.150550 29880 net.cpp:406] loss1/loss <- loss1/classifier
I0429 14:18:44.150560 29880 net.cpp:406] loss1/loss <- label_data_1_split_0
I0429 14:18:44.150569 29880 net.cpp:380] loss1/loss -> loss1/loss1
I0429 14:18:44.150586 29880 layer_factory.hpp:77] Creating layer loss1/loss
I0429 14:18:44.154250 29880 net.cpp:122] Setting up loss1/loss
I0429 14:18:44.154270 29880 net.cpp:129] Top shape: (1)
I0429 14:18:44.154276 29880 net.cpp:132]     with loss weight 0.3
I0429 14:18:44.154306 29880 net.cpp:137] Memory required for data: 1971426404
I0429 14:18:44.154314 29880 layer_factory.hpp:77] Creating layer inception_4b/1x1
I0429 14:18:44.154332 29880 net.cpp:84] Creating Layer inception_4b/1x1
I0429 14:18:44.154340 29880 net.cpp:406] inception_4b/1x1 <- inception_4a/output_inception_4a/output_0_split_1
I0429 14:18:44.154361 29880 net.cpp:380] inception_4b/1x1 -> inception_4b/1x1
I0429 14:18:44.156438 29880 net.cpp:122] Setting up inception_4b/1x1
I0429 14:18:44.156455 29880 net.cpp:129] Top shape: 50 160 14 14 (1568000)
I0429 14:18:44.156461 29880 net.cpp:137] Memory required for data: 1977698404
I0429 14:18:44.156471 29880 layer_factory.hpp:77] Creating layer inception_4b/relu_1x1
I0429 14:18:44.156481 29880 net.cpp:84] Creating Layer inception_4b/relu_1x1
I0429 14:18:44.156487 29880 net.cpp:406] inception_4b/relu_1x1 <- inception_4b/1x1
I0429 14:18:44.156497 29880 net.cpp:367] inception_4b/relu_1x1 -> inception_4b/1x1 (in-place)
I0429 14:18:44.156693 29880 net.cpp:122] Setting up inception_4b/relu_1x1
I0429 14:18:44.156704 29880 net.cpp:129] Top shape: 50 160 14 14 (1568000)
I0429 14:18:44.156710 29880 net.cpp:137] Memory required for data: 1983970404
I0429 14:18:44.156716 29880 layer_factory.hpp:77] Creating layer inception_4b/3x3_reduce
I0429 14:18:44.156729 29880 net.cpp:84] Creating Layer inception_4b/3x3_reduce
I0429 14:18:44.156735 29880 net.cpp:406] inception_4b/3x3_reduce <- inception_4a/output_inception_4a/output_0_split_2
I0429 14:18:44.156749 29880 net.cpp:380] inception_4b/3x3_reduce -> inception_4b/3x3_reduce
I0429 14:18:44.158810 29880 net.cpp:122] Setting up inception_4b/3x3_reduce
I0429 14:18:44.158828 29880 net.cpp:129] Top shape: 50 112 14 14 (1097600)
I0429 14:18:44.158834 29880 net.cpp:137] Memory required for data: 1988360804
I0429 14:18:44.158845 29880 layer_factory.hpp:77] Creating layer inception_4b/relu_3x3_reduce
I0429 14:18:44.158856 29880 net.cpp:84] Creating Layer inception_4b/relu_3x3_reduce
I0429 14:18:44.158864 29880 net.cpp:406] inception_4b/relu_3x3_reduce <- inception_4b/3x3_reduce
I0429 14:18:44.158871 29880 net.cpp:367] inception_4b/relu_3x3_reduce -> inception_4b/3x3_reduce (in-place)
I0429 14:18:44.159070 29880 net.cpp:122] Setting up inception_4b/relu_3x3_reduce
I0429 14:18:44.159082 29880 net.cpp:129] Top shape: 50 112 14 14 (1097600)
I0429 14:18:44.159088 29880 net.cpp:137] Memory required for data: 1992751204
I0429 14:18:44.159093 29880 layer_factory.hpp:77] Creating layer inception_4b/3x3
I0429 14:18:44.159108 29880 net.cpp:84] Creating Layer inception_4b/3x3
I0429 14:18:44.159116 29880 net.cpp:406] inception_4b/3x3 <- inception_4b/3x3_reduce
I0429 14:18:44.159124 29880 net.cpp:380] inception_4b/3x3 -> inception_4b/3x3
I0429 14:18:44.188211 29880 net.cpp:122] Setting up inception_4b/3x3
I0429 14:18:44.188251 29880 net.cpp:129] Top shape: 50 224 14 14 (2195200)
I0429 14:18:44.188257 29880 net.cpp:137] Memory required for data: 2001532004
I0429 14:18:44.188272 29880 layer_factory.hpp:77] Creating layer inception_4b/relu_3x3
I0429 14:18:44.188287 29880 net.cpp:84] Creating Layer inception_4b/relu_3x3
I0429 14:18:44.188295 29880 net.cpp:406] inception_4b/relu_3x3 <- inception_4b/3x3
I0429 14:18:44.188307 29880 net.cpp:367] inception_4b/relu_3x3 -> inception_4b/3x3 (in-place)
I0429 14:18:44.188555 29880 net.cpp:122] Setting up inception_4b/relu_3x3
I0429 14:18:44.188570 29880 net.cpp:129] Top shape: 50 224 14 14 (2195200)
I0429 14:18:44.188576 29880 net.cpp:137] Memory required for data: 2010312804
I0429 14:18:44.188582 29880 layer_factory.hpp:77] Creating layer inception_4b/5x5_reduce
I0429 14:18:44.188601 29880 net.cpp:84] Creating Layer inception_4b/5x5_reduce
I0429 14:18:44.188609 29880 net.cpp:406] inception_4b/5x5_reduce <- inception_4a/output_inception_4a/output_0_split_3
I0429 14:18:44.188621 29880 net.cpp:380] inception_4b/5x5_reduce -> inception_4b/5x5_reduce
I0429 14:18:44.190366 29880 net.cpp:122] Setting up inception_4b/5x5_reduce
I0429 14:18:44.190387 29880 net.cpp:129] Top shape: 50 24 14 14 (235200)
I0429 14:18:44.190392 29880 net.cpp:137] Memory required for data: 2011253604
I0429 14:18:44.190403 29880 layer_factory.hpp:77] Creating layer inception_4b/relu_5x5_reduce
I0429 14:18:44.190413 29880 net.cpp:84] Creating Layer inception_4b/relu_5x5_reduce
I0429 14:18:44.190419 29880 net.cpp:406] inception_4b/relu_5x5_reduce <- inception_4b/5x5_reduce
I0429 14:18:44.190428 29880 net.cpp:367] inception_4b/relu_5x5_reduce -> inception_4b/5x5_reduce (in-place)
I0429 14:18:44.190722 29880 net.cpp:122] Setting up inception_4b/relu_5x5_reduce
I0429 14:18:44.190737 29880 net.cpp:129] Top shape: 50 24 14 14 (235200)
I0429 14:18:44.190742 29880 net.cpp:137] Memory required for data: 2012194404
I0429 14:18:44.190747 29880 layer_factory.hpp:77] Creating layer inception_4b/5x5
I0429 14:18:44.190765 29880 net.cpp:84] Creating Layer inception_4b/5x5
I0429 14:18:44.190773 29880 net.cpp:406] inception_4b/5x5 <- inception_4b/5x5_reduce
I0429 14:18:44.190781 29880 net.cpp:380] inception_4b/5x5 -> inception_4b/5x5
I0429 14:18:44.193410 29880 net.cpp:122] Setting up inception_4b/5x5
I0429 14:18:44.193431 29880 net.cpp:129] Top shape: 50 64 14 14 (627200)
I0429 14:18:44.193439 29880 net.cpp:137] Memory required for data: 2014703204
I0429 14:18:44.193449 29880 layer_factory.hpp:77] Creating layer inception_4b/relu_5x5
I0429 14:18:44.193459 29880 net.cpp:84] Creating Layer inception_4b/relu_5x5
I0429 14:18:44.193467 29880 net.cpp:406] inception_4b/relu_5x5 <- inception_4b/5x5
I0429 14:18:44.193478 29880 net.cpp:367] inception_4b/relu_5x5 -> inception_4b/5x5 (in-place)
I0429 14:18:44.195971 29880 net.cpp:122] Setting up inception_4b/relu_5x5
I0429 14:18:44.195992 29880 net.cpp:129] Top shape: 50 64 14 14 (627200)
I0429 14:18:44.195999 29880 net.cpp:137] Memory required for data: 2017212004
I0429 14:18:44.196005 29880 layer_factory.hpp:77] Creating layer inception_4b/pool
I0429 14:18:44.196017 29880 net.cpp:84] Creating Layer inception_4b/pool
I0429 14:18:44.196022 29880 net.cpp:406] inception_4b/pool <- inception_4a/output_inception_4a/output_0_split_4
I0429 14:18:44.196035 29880 net.cpp:380] inception_4b/pool -> inception_4b/pool
I0429 14:18:44.196127 29880 net.cpp:122] Setting up inception_4b/pool
I0429 14:18:44.196139 29880 net.cpp:129] Top shape: 50 512 14 14 (5017600)
I0429 14:18:44.196146 29880 net.cpp:137] Memory required for data: 2037282404
I0429 14:18:44.196152 29880 layer_factory.hpp:77] Creating layer inception_4b/pool_proj
I0429 14:18:44.196168 29880 net.cpp:84] Creating Layer inception_4b/pool_proj
I0429 14:18:44.196175 29880 net.cpp:406] inception_4b/pool_proj <- inception_4b/pool
I0429 14:18:44.196187 29880 net.cpp:380] inception_4b/pool_proj -> inception_4b/pool_proj
I0429 14:18:44.197432 29880 net.cpp:122] Setting up inception_4b/pool_proj
I0429 14:18:44.197448 29880 net.cpp:129] Top shape: 50 64 14 14 (627200)
I0429 14:18:44.197454 29880 net.cpp:137] Memory required for data: 2039791204
I0429 14:18:44.197465 29880 layer_factory.hpp:77] Creating layer inception_4b/relu_pool_proj
I0429 14:18:44.197476 29880 net.cpp:84] Creating Layer inception_4b/relu_pool_proj
I0429 14:18:44.197482 29880 net.cpp:406] inception_4b/relu_pool_proj <- inception_4b/pool_proj
I0429 14:18:44.197494 29880 net.cpp:367] inception_4b/relu_pool_proj -> inception_4b/pool_proj (in-place)
I0429 14:18:44.201086 29880 net.cpp:122] Setting up inception_4b/relu_pool_proj
I0429 14:18:44.201107 29880 net.cpp:129] Top shape: 50 64 14 14 (627200)
I0429 14:18:44.201113 29880 net.cpp:137] Memory required for data: 2042300004
I0429 14:18:44.201119 29880 layer_factory.hpp:77] Creating layer inception_4b/output
I0429 14:18:44.201130 29880 net.cpp:84] Creating Layer inception_4b/output
I0429 14:18:44.201138 29880 net.cpp:406] inception_4b/output <- inception_4b/1x1
I0429 14:18:44.201146 29880 net.cpp:406] inception_4b/output <- inception_4b/3x3
I0429 14:18:44.201153 29880 net.cpp:406] inception_4b/output <- inception_4b/5x5
I0429 14:18:44.201159 29880 net.cpp:406] inception_4b/output <- inception_4b/pool_proj
I0429 14:18:44.201169 29880 net.cpp:380] inception_4b/output -> inception_4b/output
I0429 14:18:44.201217 29880 net.cpp:122] Setting up inception_4b/output
I0429 14:18:44.201227 29880 net.cpp:129] Top shape: 50 512 14 14 (5017600)
I0429 14:18:44.201232 29880 net.cpp:137] Memory required for data: 2062370404
I0429 14:18:44.201238 29880 layer_factory.hpp:77] Creating layer inception_4b/output_inception_4b/output_0_split
I0429 14:18:44.201247 29880 net.cpp:84] Creating Layer inception_4b/output_inception_4b/output_0_split
I0429 14:18:44.201274 29880 net.cpp:406] inception_4b/output_inception_4b/output_0_split <- inception_4b/output
I0429 14:18:44.201284 29880 net.cpp:380] inception_4b/output_inception_4b/output_0_split -> inception_4b/output_inception_4b/output_0_split_0
I0429 14:18:44.201297 29880 net.cpp:380] inception_4b/output_inception_4b/output_0_split -> inception_4b/output_inception_4b/output_0_split_1
I0429 14:18:44.201306 29880 net.cpp:380] inception_4b/output_inception_4b/output_0_split -> inception_4b/output_inception_4b/output_0_split_2
I0429 14:18:44.201318 29880 net.cpp:380] inception_4b/output_inception_4b/output_0_split -> inception_4b/output_inception_4b/output_0_split_3
I0429 14:18:44.201400 29880 net.cpp:122] Setting up inception_4b/output_inception_4b/output_0_split
I0429 14:18:44.201411 29880 net.cpp:129] Top shape: 50 512 14 14 (5017600)
I0429 14:18:44.201418 29880 net.cpp:129] Top shape: 50 512 14 14 (5017600)
I0429 14:18:44.201424 29880 net.cpp:129] Top shape: 50 512 14 14 (5017600)
I0429 14:18:44.201431 29880 net.cpp:129] Top shape: 50 512 14 14 (5017600)
I0429 14:18:44.201436 29880 net.cpp:137] Memory required for data: 2142652004
I0429 14:18:44.201442 29880 layer_factory.hpp:77] Creating layer inception_4c/1x1
I0429 14:18:44.201459 29880 net.cpp:84] Creating Layer inception_4c/1x1
I0429 14:18:44.201465 29880 net.cpp:406] inception_4c/1x1 <- inception_4b/output_inception_4b/output_0_split_0
I0429 14:18:44.201475 29880 net.cpp:380] inception_4c/1x1 -> inception_4c/1x1
I0429 14:18:44.203855 29880 net.cpp:122] Setting up inception_4c/1x1
I0429 14:18:44.203876 29880 net.cpp:129] Top shape: 50 128 14 14 (1254400)
I0429 14:18:44.203882 29880 net.cpp:137] Memory required for data: 2147669604
I0429 14:18:44.203896 29880 layer_factory.hpp:77] Creating layer inception_4c/relu_1x1
I0429 14:18:44.203908 29880 net.cpp:84] Creating Layer inception_4c/relu_1x1
I0429 14:18:44.203914 29880 net.cpp:406] inception_4c/relu_1x1 <- inception_4c/1x1
I0429 14:18:44.203923 29880 net.cpp:367] inception_4c/relu_1x1 -> inception_4c/1x1 (in-place)
I0429 14:18:44.204126 29880 net.cpp:122] Setting up inception_4c/relu_1x1
I0429 14:18:44.204138 29880 net.cpp:129] Top shape: 50 128 14 14 (1254400)
I0429 14:18:44.204144 29880 net.cpp:137] Memory required for data: 2152687204
I0429 14:18:44.204149 29880 layer_factory.hpp:77] Creating layer inception_4c/3x3_reduce
I0429 14:18:44.204165 29880 net.cpp:84] Creating Layer inception_4c/3x3_reduce
I0429 14:18:44.204172 29880 net.cpp:406] inception_4c/3x3_reduce <- inception_4b/output_inception_4b/output_0_split_1
I0429 14:18:44.204183 29880 net.cpp:380] inception_4c/3x3_reduce -> inception_4c/3x3_reduce
I0429 14:18:44.213225 29880 net.cpp:122] Setting up inception_4c/3x3_reduce
I0429 14:18:44.213265 29880 net.cpp:129] Top shape: 50 128 14 14 (1254400)
I0429 14:18:44.213274 29880 net.cpp:137] Memory required for data: 2157704804
I0429 14:18:44.213290 29880 layer_factory.hpp:77] Creating layer inception_4c/relu_3x3_reduce
I0429 14:18:44.213307 29880 net.cpp:84] Creating Layer inception_4c/relu_3x3_reduce
I0429 14:18:44.213318 29880 net.cpp:406] inception_4c/relu_3x3_reduce <- inception_4c/3x3_reduce
I0429 14:18:44.213331 29880 net.cpp:367] inception_4c/relu_3x3_reduce -> inception_4c/3x3_reduce (in-place)
I0429 14:18:44.213589 29880 net.cpp:122] Setting up inception_4c/relu_3x3_reduce
I0429 14:18:44.213608 29880 net.cpp:129] Top shape: 50 128 14 14 (1254400)
I0429 14:18:44.213616 29880 net.cpp:137] Memory required for data: 2162722404
I0429 14:18:44.213625 29880 layer_factory.hpp:77] Creating layer inception_4c/3x3
I0429 14:18:44.213645 29880 net.cpp:84] Creating Layer inception_4c/3x3
I0429 14:18:44.213656 29880 net.cpp:406] inception_4c/3x3 <- inception_4c/3x3_reduce
I0429 14:18:44.213672 29880 net.cpp:380] inception_4c/3x3 -> inception_4c/3x3
I0429 14:18:44.219817 29880 net.cpp:122] Setting up inception_4c/3x3
I0429 14:18:44.219853 29880 net.cpp:129] Top shape: 50 256 14 14 (2508800)
I0429 14:18:44.219862 29880 net.cpp:137] Memory required for data: 2172757604
I0429 14:18:44.219905 29880 layer_factory.hpp:77] Creating layer inception_4c/relu_3x3
I0429 14:18:44.219949 29880 net.cpp:84] Creating Layer inception_4c/relu_3x3
I0429 14:18:44.219959 29880 net.cpp:406] inception_4c/relu_3x3 <- inception_4c/3x3
I0429 14:18:44.219971 29880 net.cpp:367] inception_4c/relu_3x3 -> inception_4c/3x3 (in-place)
I0429 14:18:44.220229 29880 net.cpp:122] Setting up inception_4c/relu_3x3
I0429 14:18:44.220247 29880 net.cpp:129] Top shape: 50 256 14 14 (2508800)
I0429 14:18:44.220253 29880 net.cpp:137] Memory required for data: 2182792804
I0429 14:18:44.220260 29880 layer_factory.hpp:77] Creating layer inception_4c/5x5_reduce
I0429 14:18:44.220280 29880 net.cpp:84] Creating Layer inception_4c/5x5_reduce
I0429 14:18:44.220289 29880 net.cpp:406] inception_4c/5x5_reduce <- inception_4b/output_inception_4b/output_0_split_2
I0429 14:18:44.220305 29880 net.cpp:380] inception_4c/5x5_reduce -> inception_4c/5x5_reduce
I0429 14:18:44.230382 29880 net.cpp:122] Setting up inception_4c/5x5_reduce
I0429 14:18:44.230417 29880 net.cpp:129] Top shape: 50 24 14 14 (235200)
I0429 14:18:44.230425 29880 net.cpp:137] Memory required for data: 2183733604
I0429 14:18:44.230439 29880 layer_factory.hpp:77] Creating layer inception_4c/relu_5x5_reduce
I0429 14:18:44.230455 29880 net.cpp:84] Creating Layer inception_4c/relu_5x5_reduce
I0429 14:18:44.230465 29880 net.cpp:406] inception_4c/relu_5x5_reduce <- inception_4c/5x5_reduce
I0429 14:18:44.230480 29880 net.cpp:367] inception_4c/relu_5x5_reduce -> inception_4c/5x5_reduce (in-place)
I0429 14:18:44.230731 29880 net.cpp:122] Setting up inception_4c/relu_5x5_reduce
I0429 14:18:44.230747 29880 net.cpp:129] Top shape: 50 24 14 14 (235200)
I0429 14:18:44.230756 29880 net.cpp:137] Memory required for data: 2184674404
I0429 14:18:44.230762 29880 layer_factory.hpp:77] Creating layer inception_4c/5x5
I0429 14:18:44.230782 29880 net.cpp:84] Creating Layer inception_4c/5x5
I0429 14:18:44.230790 29880 net.cpp:406] inception_4c/5x5 <- inception_4c/5x5_reduce
I0429 14:18:44.230806 29880 net.cpp:380] inception_4c/5x5 -> inception_4c/5x5
I0429 14:18:44.240972 29880 net.cpp:122] Setting up inception_4c/5x5
I0429 14:18:44.241005 29880 net.cpp:129] Top shape: 50 64 14 14 (627200)
I0429 14:18:44.241014 29880 net.cpp:137] Memory required for data: 2187183204
I0429 14:18:44.241030 29880 layer_factory.hpp:77] Creating layer inception_4c/relu_5x5
I0429 14:18:44.241046 29880 net.cpp:84] Creating Layer inception_4c/relu_5x5
I0429 14:18:44.241056 29880 net.cpp:406] inception_4c/relu_5x5 <- inception_4c/5x5
I0429 14:18:44.241071 29880 net.cpp:367] inception_4c/relu_5x5 -> inception_4c/5x5 (in-place)
I0429 14:18:44.241994 29880 net.cpp:122] Setting up inception_4c/relu_5x5
I0429 14:18:44.242017 29880 net.cpp:129] Top shape: 50 64 14 14 (627200)
I0429 14:18:44.242028 29880 net.cpp:137] Memory required for data: 2189692004
I0429 14:18:44.242036 29880 layer_factory.hpp:77] Creating layer inception_4c/pool
I0429 14:18:44.242048 29880 net.cpp:84] Creating Layer inception_4c/pool
I0429 14:18:44.242058 29880 net.cpp:406] inception_4c/pool <- inception_4b/output_inception_4b/output_0_split_3
I0429 14:18:44.242074 29880 net.cpp:380] inception_4c/pool -> inception_4c/pool
I0429 14:18:44.242156 29880 net.cpp:122] Setting up inception_4c/pool
I0429 14:18:44.242172 29880 net.cpp:129] Top shape: 50 512 14 14 (5017600)
I0429 14:18:44.242180 29880 net.cpp:137] Memory required for data: 2209762404
I0429 14:18:44.242187 29880 layer_factory.hpp:77] Creating layer inception_4c/pool_proj
I0429 14:18:44.242205 29880 net.cpp:84] Creating Layer inception_4c/pool_proj
I0429 14:18:44.242215 29880 net.cpp:406] inception_4c/pool_proj <- inception_4c/pool
I0429 14:18:44.242229 29880 net.cpp:380] inception_4c/pool_proj -> inception_4c/pool_proj
I0429 14:18:44.243681 29880 net.cpp:122] Setting up inception_4c/pool_proj
I0429 14:18:44.243698 29880 net.cpp:129] Top shape: 50 64 14 14 (627200)
I0429 14:18:44.243707 29880 net.cpp:137] Memory required for data: 2212271204
I0429 14:18:44.243718 29880 layer_factory.hpp:77] Creating layer inception_4c/relu_pool_proj
I0429 14:18:44.243757 29880 net.cpp:84] Creating Layer inception_4c/relu_pool_proj
I0429 14:18:44.243765 29880 net.cpp:406] inception_4c/relu_pool_proj <- inception_4c/pool_proj
I0429 14:18:44.243779 29880 net.cpp:367] inception_4c/relu_pool_proj -> inception_4c/pool_proj (in-place)
I0429 14:18:44.244614 29880 net.cpp:122] Setting up inception_4c/relu_pool_proj
I0429 14:18:44.244632 29880 net.cpp:129] Top shape: 50 64 14 14 (627200)
I0429 14:18:44.244639 29880 net.cpp:137] Memory required for data: 2214780004
I0429 14:18:44.244647 29880 layer_factory.hpp:77] Creating layer inception_4c/output
I0429 14:18:44.244658 29880 net.cpp:84] Creating Layer inception_4c/output
I0429 14:18:44.244666 29880 net.cpp:406] inception_4c/output <- inception_4c/1x1
I0429 14:18:44.244674 29880 net.cpp:406] inception_4c/output <- inception_4c/3x3
I0429 14:18:44.244683 29880 net.cpp:406] inception_4c/output <- inception_4c/5x5
I0429 14:18:44.244691 29880 net.cpp:406] inception_4c/output <- inception_4c/pool_proj
I0429 14:18:44.244704 29880 net.cpp:380] inception_4c/output -> inception_4c/output
I0429 14:18:44.244753 29880 net.cpp:122] Setting up inception_4c/output
I0429 14:18:44.244767 29880 net.cpp:129] Top shape: 50 512 14 14 (5017600)
I0429 14:18:44.244774 29880 net.cpp:137] Memory required for data: 2234850404
I0429 14:18:44.244781 29880 layer_factory.hpp:77] Creating layer inception_4c/output_inception_4c/output_0_split
I0429 14:18:44.244791 29880 net.cpp:84] Creating Layer inception_4c/output_inception_4c/output_0_split
I0429 14:18:44.244801 29880 net.cpp:406] inception_4c/output_inception_4c/output_0_split <- inception_4c/output
I0429 14:18:44.244813 29880 net.cpp:380] inception_4c/output_inception_4c/output_0_split -> inception_4c/output_inception_4c/output_0_split_0
I0429 14:18:44.244828 29880 net.cpp:380] inception_4c/output_inception_4c/output_0_split -> inception_4c/output_inception_4c/output_0_split_1
I0429 14:18:44.244841 29880 net.cpp:380] inception_4c/output_inception_4c/output_0_split -> inception_4c/output_inception_4c/output_0_split_2
I0429 14:18:44.244858 29880 net.cpp:380] inception_4c/output_inception_4c/output_0_split -> inception_4c/output_inception_4c/output_0_split_3
I0429 14:18:44.244961 29880 net.cpp:122] Setting up inception_4c/output_inception_4c/output_0_split
I0429 14:18:44.244974 29880 net.cpp:129] Top shape: 50 512 14 14 (5017600)
I0429 14:18:44.244983 29880 net.cpp:129] Top shape: 50 512 14 14 (5017600)
I0429 14:18:44.244992 29880 net.cpp:129] Top shape: 50 512 14 14 (5017600)
I0429 14:18:44.244999 29880 net.cpp:129] Top shape: 50 512 14 14 (5017600)
I0429 14:18:44.245005 29880 net.cpp:137] Memory required for data: 2315132004
I0429 14:18:44.245012 29880 layer_factory.hpp:77] Creating layer inception_4d/1x1
I0429 14:18:44.245028 29880 net.cpp:84] Creating Layer inception_4d/1x1
I0429 14:18:44.245038 29880 net.cpp:406] inception_4d/1x1 <- inception_4c/output_inception_4c/output_0_split_0
I0429 14:18:44.245051 29880 net.cpp:380] inception_4d/1x1 -> inception_4d/1x1
I0429 14:18:44.247246 29880 net.cpp:122] Setting up inception_4d/1x1
I0429 14:18:44.247267 29880 net.cpp:129] Top shape: 50 112 14 14 (1097600)
I0429 14:18:44.247273 29880 net.cpp:137] Memory required for data: 2319522404
I0429 14:18:44.247285 29880 layer_factory.hpp:77] Creating layer inception_4d/relu_1x1
I0429 14:18:44.247295 29880 net.cpp:84] Creating Layer inception_4d/relu_1x1
I0429 14:18:44.247304 29880 net.cpp:406] inception_4d/relu_1x1 <- inception_4d/1x1
I0429 14:18:44.247318 29880 net.cpp:367] inception_4d/relu_1x1 -> inception_4d/1x1 (in-place)
I0429 14:18:44.247561 29880 net.cpp:122] Setting up inception_4d/relu_1x1
I0429 14:18:44.247577 29880 net.cpp:129] Top shape: 50 112 14 14 (1097600)
I0429 14:18:44.247586 29880 net.cpp:137] Memory required for data: 2323912804
I0429 14:18:44.247592 29880 layer_factory.hpp:77] Creating layer inception_4d/3x3_reduce
I0429 14:18:44.247609 29880 net.cpp:84] Creating Layer inception_4d/3x3_reduce
I0429 14:18:44.247619 29880 net.cpp:406] inception_4d/3x3_reduce <- inception_4c/output_inception_4c/output_0_split_1
I0429 14:18:44.247651 29880 net.cpp:380] inception_4d/3x3_reduce -> inception_4d/3x3_reduce
I0429 14:18:44.250569 29880 net.cpp:122] Setting up inception_4d/3x3_reduce
I0429 14:18:44.250596 29880 net.cpp:129] Top shape: 50 144 14 14 (1411200)
I0429 14:18:44.250603 29880 net.cpp:137] Memory required for data: 2329557604
I0429 14:18:44.250617 29880 layer_factory.hpp:77] Creating layer inception_4d/relu_3x3_reduce
I0429 14:18:44.250629 29880 net.cpp:84] Creating Layer inception_4d/relu_3x3_reduce
I0429 14:18:44.250638 29880 net.cpp:406] inception_4d/relu_3x3_reduce <- inception_4d/3x3_reduce
I0429 14:18:44.250651 29880 net.cpp:367] inception_4d/relu_3x3_reduce -> inception_4d/3x3_reduce (in-place)
I0429 14:18:44.250896 29880 net.cpp:122] Setting up inception_4d/relu_3x3_reduce
I0429 14:18:44.250912 29880 net.cpp:129] Top shape: 50 144 14 14 (1411200)
I0429 14:18:44.250921 29880 net.cpp:137] Memory required for data: 2335202404
I0429 14:18:44.250927 29880 layer_factory.hpp:77] Creating layer inception_4d/3x3
I0429 14:18:44.250948 29880 net.cpp:84] Creating Layer inception_4d/3x3
I0429 14:18:44.250957 29880 net.cpp:406] inception_4d/3x3 <- inception_4d/3x3_reduce
I0429 14:18:44.250972 29880 net.cpp:380] inception_4d/3x3 -> inception_4d/3x3
I0429 14:18:44.257635 29880 net.cpp:122] Setting up inception_4d/3x3
I0429 14:18:44.257674 29880 net.cpp:129] Top shape: 50 288 14 14 (2822400)
I0429 14:18:44.257683 29880 net.cpp:137] Memory required for data: 2346492004
I0429 14:18:44.257699 29880 layer_factory.hpp:77] Creating layer inception_4d/relu_3x3
I0429 14:18:44.257748 29880 net.cpp:84] Creating Layer inception_4d/relu_3x3
I0429 14:18:44.257760 29880 net.cpp:406] inception_4d/relu_3x3 <- inception_4d/3x3
I0429 14:18:44.257773 29880 net.cpp:367] inception_4d/relu_3x3 -> inception_4d/3x3 (in-place)
I0429 14:18:44.258031 29880 net.cpp:122] Setting up inception_4d/relu_3x3
I0429 14:18:44.258049 29880 net.cpp:129] Top shape: 50 288 14 14 (2822400)
I0429 14:18:44.258057 29880 net.cpp:137] Memory required for data: 2357781604
I0429 14:18:44.258064 29880 layer_factory.hpp:77] Creating layer inception_4d/5x5_reduce
I0429 14:18:44.258083 29880 net.cpp:84] Creating Layer inception_4d/5x5_reduce
I0429 14:18:44.258092 29880 net.cpp:406] inception_4d/5x5_reduce <- inception_4c/output_inception_4c/output_0_split_2
I0429 14:18:44.258106 29880 net.cpp:380] inception_4d/5x5_reduce -> inception_4d/5x5_reduce
I0429 14:18:44.259994 29880 net.cpp:122] Setting up inception_4d/5x5_reduce
I0429 14:18:44.260015 29880 net.cpp:129] Top shape: 50 32 14 14 (313600)
I0429 14:18:44.260022 29880 net.cpp:137] Memory required for data: 2359036004
I0429 14:18:44.260035 29880 layer_factory.hpp:77] Creating layer inception_4d/relu_5x5_reduce
I0429 14:18:44.260044 29880 net.cpp:84] Creating Layer inception_4d/relu_5x5_reduce
I0429 14:18:44.260052 29880 net.cpp:406] inception_4d/relu_5x5_reduce <- inception_4d/5x5_reduce
I0429 14:18:44.260064 29880 net.cpp:367] inception_4d/relu_5x5_reduce -> inception_4d/5x5_reduce (in-place)
I0429 14:18:44.260316 29880 net.cpp:122] Setting up inception_4d/relu_5x5_reduce
I0429 14:18:44.260334 29880 net.cpp:129] Top shape: 50 32 14 14 (313600)
I0429 14:18:44.260342 29880 net.cpp:137] Memory required for data: 2360290404
I0429 14:18:44.260349 29880 layer_factory.hpp:77] Creating layer inception_4d/5x5
I0429 14:18:44.260366 29880 net.cpp:84] Creating Layer inception_4d/5x5
I0429 14:18:44.260376 29880 net.cpp:406] inception_4d/5x5 <- inception_4d/5x5_reduce
I0429 14:18:44.260390 29880 net.cpp:380] inception_4d/5x5 -> inception_4d/5x5
I0429 14:18:44.262565 29880 net.cpp:122] Setting up inception_4d/5x5
I0429 14:18:44.262588 29880 net.cpp:129] Top shape: 50 64 14 14 (627200)
I0429 14:18:44.262596 29880 net.cpp:137] Memory required for data: 2362799204
I0429 14:18:44.262609 29880 layer_factory.hpp:77] Creating layer inception_4d/relu_5x5
I0429 14:18:44.262619 29880 net.cpp:84] Creating Layer inception_4d/relu_5x5
I0429 14:18:44.262627 29880 net.cpp:406] inception_4d/relu_5x5 <- inception_4d/5x5
I0429 14:18:44.262650 29880 net.cpp:367] inception_4d/relu_5x5 -> inception_4d/5x5 (in-place)
I0429 14:18:44.263459 29880 net.cpp:122] Setting up inception_4d/relu_5x5
I0429 14:18:44.263479 29880 net.cpp:129] Top shape: 50 64 14 14 (627200)
I0429 14:18:44.263489 29880 net.cpp:137] Memory required for data: 2365308004
I0429 14:18:44.263496 29880 layer_factory.hpp:77] Creating layer inception_4d/pool
I0429 14:18:44.263509 29880 net.cpp:84] Creating Layer inception_4d/pool
I0429 14:18:44.263516 29880 net.cpp:406] inception_4d/pool <- inception_4c/output_inception_4c/output_0_split_3
I0429 14:18:44.263531 29880 net.cpp:380] inception_4d/pool -> inception_4d/pool
I0429 14:18:44.263605 29880 net.cpp:122] Setting up inception_4d/pool
I0429 14:18:44.263622 29880 net.cpp:129] Top shape: 50 512 14 14 (5017600)
I0429 14:18:44.263629 29880 net.cpp:137] Memory required for data: 2385378404
I0429 14:18:44.263638 29880 layer_factory.hpp:77] Creating layer inception_4d/pool_proj
I0429 14:18:44.263653 29880 net.cpp:84] Creating Layer inception_4d/pool_proj
I0429 14:18:44.263662 29880 net.cpp:406] inception_4d/pool_proj <- inception_4d/pool
I0429 14:18:44.263674 29880 net.cpp:380] inception_4d/pool_proj -> inception_4d/pool_proj
I0429 14:18:44.265131 29880 net.cpp:122] Setting up inception_4d/pool_proj
I0429 14:18:44.265151 29880 net.cpp:129] Top shape: 50 64 14 14 (627200)
I0429 14:18:44.265161 29880 net.cpp:137] Memory required for data: 2387887204
I0429 14:18:44.265172 29880 layer_factory.hpp:77] Creating layer inception_4d/relu_pool_proj
I0429 14:18:44.265185 29880 net.cpp:84] Creating Layer inception_4d/relu_pool_proj
I0429 14:18:44.265193 29880 net.cpp:406] inception_4d/relu_pool_proj <- inception_4d/pool_proj
I0429 14:18:44.265202 29880 net.cpp:367] inception_4d/relu_pool_proj -> inception_4d/pool_proj (in-place)
I0429 14:18:44.266026 29880 net.cpp:122] Setting up inception_4d/relu_pool_proj
I0429 14:18:44.266047 29880 net.cpp:129] Top shape: 50 64 14 14 (627200)
I0429 14:18:44.266054 29880 net.cpp:137] Memory required for data: 2390396004
I0429 14:18:44.266060 29880 layer_factory.hpp:77] Creating layer inception_4d/output
I0429 14:18:44.266072 29880 net.cpp:84] Creating Layer inception_4d/output
I0429 14:18:44.266080 29880 net.cpp:406] inception_4d/output <- inception_4d/1x1
I0429 14:18:44.266088 29880 net.cpp:406] inception_4d/output <- inception_4d/3x3
I0429 14:18:44.266095 29880 net.cpp:406] inception_4d/output <- inception_4d/5x5
I0429 14:18:44.266103 29880 net.cpp:406] inception_4d/output <- inception_4d/pool_proj
I0429 14:18:44.266115 29880 net.cpp:380] inception_4d/output -> inception_4d/output
I0429 14:18:44.266162 29880 net.cpp:122] Setting up inception_4d/output
I0429 14:18:44.266178 29880 net.cpp:129] Top shape: 50 528 14 14 (5174400)
I0429 14:18:44.266185 29880 net.cpp:137] Memory required for data: 2411093604
I0429 14:18:44.266193 29880 layer_factory.hpp:77] Creating layer inception_4d/output_inception_4d/output_0_split
I0429 14:18:44.266204 29880 net.cpp:84] Creating Layer inception_4d/output_inception_4d/output_0_split
I0429 14:18:44.266211 29880 net.cpp:406] inception_4d/output_inception_4d/output_0_split <- inception_4d/output
I0429 14:18:44.266224 29880 net.cpp:380] inception_4d/output_inception_4d/output_0_split -> inception_4d/output_inception_4d/output_0_split_0
I0429 14:18:44.266240 29880 net.cpp:380] inception_4d/output_inception_4d/output_0_split -> inception_4d/output_inception_4d/output_0_split_1
I0429 14:18:44.266254 29880 net.cpp:380] inception_4d/output_inception_4d/output_0_split -> inception_4d/output_inception_4d/output_0_split_2
I0429 14:18:44.266268 29880 net.cpp:380] inception_4d/output_inception_4d/output_0_split -> inception_4d/output_inception_4d/output_0_split_3
I0429 14:18:44.266283 29880 net.cpp:380] inception_4d/output_inception_4d/output_0_split -> inception_4d/output_inception_4d/output_0_split_4
I0429 14:18:44.266409 29880 net.cpp:122] Setting up inception_4d/output_inception_4d/output_0_split
I0429 14:18:44.266422 29880 net.cpp:129] Top shape: 50 528 14 14 (5174400)
I0429 14:18:44.266438 29880 net.cpp:129] Top shape: 50 528 14 14 (5174400)
I0429 14:18:44.266471 29880 net.cpp:129] Top shape: 50 528 14 14 (5174400)
I0429 14:18:44.266480 29880 net.cpp:129] Top shape: 50 528 14 14 (5174400)
I0429 14:18:44.266489 29880 net.cpp:129] Top shape: 50 528 14 14 (5174400)
I0429 14:18:44.266494 29880 net.cpp:137] Memory required for data: 2514581604
I0429 14:18:44.266500 29880 layer_factory.hpp:77] Creating layer loss2/ave_pool
I0429 14:18:44.266511 29880 net.cpp:84] Creating Layer loss2/ave_pool
I0429 14:18:44.266520 29880 net.cpp:406] loss2/ave_pool <- inception_4d/output_inception_4d/output_0_split_0
I0429 14:18:44.266535 29880 net.cpp:380] loss2/ave_pool -> loss2/ave_pool
I0429 14:18:44.266806 29880 net.cpp:122] Setting up loss2/ave_pool
I0429 14:18:44.266824 29880 net.cpp:129] Top shape: 50 528 4 4 (422400)
I0429 14:18:44.266830 29880 net.cpp:137] Memory required for data: 2516271204
I0429 14:18:44.266837 29880 layer_factory.hpp:77] Creating layer loss2/conv
I0429 14:18:44.266852 29880 net.cpp:84] Creating Layer loss2/conv
I0429 14:18:44.266862 29880 net.cpp:406] loss2/conv <- loss2/ave_pool
I0429 14:18:44.266876 29880 net.cpp:380] loss2/conv -> loss2/conv
I0429 14:18:44.269161 29880 net.cpp:122] Setting up loss2/conv
I0429 14:18:44.269182 29880 net.cpp:129] Top shape: 50 128 4 4 (102400)
I0429 14:18:44.269191 29880 net.cpp:137] Memory required for data: 2516680804
I0429 14:18:44.269203 29880 layer_factory.hpp:77] Creating layer loss2/relu_conv
I0429 14:18:44.269214 29880 net.cpp:84] Creating Layer loss2/relu_conv
I0429 14:18:44.269223 29880 net.cpp:406] loss2/relu_conv <- loss2/conv
I0429 14:18:44.269237 29880 net.cpp:367] loss2/relu_conv -> loss2/conv (in-place)
I0429 14:18:44.269482 29880 net.cpp:122] Setting up loss2/relu_conv
I0429 14:18:44.269501 29880 net.cpp:129] Top shape: 50 128 4 4 (102400)
I0429 14:18:44.269510 29880 net.cpp:137] Memory required for data: 2517090404
I0429 14:18:44.269516 29880 layer_factory.hpp:77] Creating layer loss2/fc
I0429 14:18:44.269529 29880 net.cpp:84] Creating Layer loss2/fc
I0429 14:18:44.269537 29880 net.cpp:406] loss2/fc <- loss2/conv
I0429 14:18:44.269551 29880 net.cpp:380] loss2/fc -> loss2/fc
I0429 14:18:44.289465 29880 net.cpp:122] Setting up loss2/fc
I0429 14:18:44.289503 29880 net.cpp:129] Top shape: 50 1024 (51200)
I0429 14:18:44.289513 29880 net.cpp:137] Memory required for data: 2517295204
I0429 14:18:44.289530 29880 layer_factory.hpp:77] Creating layer loss2/relu_fc
I0429 14:18:44.289546 29880 net.cpp:84] Creating Layer loss2/relu_fc
I0429 14:18:44.289556 29880 net.cpp:406] loss2/relu_fc <- loss2/fc
I0429 14:18:44.289568 29880 net.cpp:367] loss2/relu_fc -> loss2/fc (in-place)
I0429 14:18:44.289917 29880 net.cpp:122] Setting up loss2/relu_fc
I0429 14:18:44.289937 29880 net.cpp:129] Top shape: 50 1024 (51200)
I0429 14:18:44.289945 29880 net.cpp:137] Memory required for data: 2517500004
I0429 14:18:44.289953 29880 layer_factory.hpp:77] Creating layer loss2/drop_fc
I0429 14:18:44.289968 29880 net.cpp:84] Creating Layer loss2/drop_fc
I0429 14:18:44.289976 29880 net.cpp:406] loss2/drop_fc <- loss2/fc
I0429 14:18:44.289989 29880 net.cpp:367] loss2/drop_fc -> loss2/fc (in-place)
I0429 14:18:44.290060 29880 net.cpp:122] Setting up loss2/drop_fc
I0429 14:18:44.290078 29880 net.cpp:129] Top shape: 50 1024 (51200)
I0429 14:18:44.290091 29880 net.cpp:137] Memory required for data: 2517704804
I0429 14:18:44.290099 29880 layer_factory.hpp:77] Creating layer loss2/classifier
I0429 14:18:44.290124 29880 net.cpp:84] Creating Layer loss2/classifier
I0429 14:18:44.290138 29880 net.cpp:406] loss2/classifier <- loss2/fc
I0429 14:18:44.290161 29880 net.cpp:380] loss2/classifier -> loss2/classifier
I0429 14:18:44.304500 29880 net.cpp:122] Setting up loss2/classifier
I0429 14:18:44.304538 29880 net.cpp:129] Top shape: 50 1000 (50000)
I0429 14:18:44.304548 29880 net.cpp:137] Memory required for data: 2517904804
I0429 14:18:44.304563 29880 layer_factory.hpp:77] Creating layer loss2/loss
I0429 14:18:44.304579 29880 net.cpp:84] Creating Layer loss2/loss
I0429 14:18:44.304599 29880 net.cpp:406] loss2/loss <- loss2/classifier
I0429 14:18:44.304628 29880 net.cpp:406] loss2/loss <- label_data_1_split_1
I0429 14:18:44.304646 29880 net.cpp:380] loss2/loss -> loss2/loss2
I0429 14:18:44.304664 29880 layer_factory.hpp:77] Creating layer loss2/loss
I0429 14:18:44.307791 29880 net.cpp:122] Setting up loss2/loss
I0429 14:18:44.307813 29880 net.cpp:129] Top shape: (1)
I0429 14:18:44.307823 29880 net.cpp:132]     with loss weight 0.3
I0429 14:18:44.307842 29880 net.cpp:137] Memory required for data: 2517904808
I0429 14:18:44.307852 29880 layer_factory.hpp:77] Creating layer inception_4e/1x1
I0429 14:18:44.307873 29880 net.cpp:84] Creating Layer inception_4e/1x1
I0429 14:18:44.307883 29880 net.cpp:406] inception_4e/1x1 <- inception_4d/output_inception_4d/output_0_split_1
I0429 14:18:44.307902 29880 net.cpp:380] inception_4e/1x1 -> inception_4e/1x1
I0429 14:18:44.311533 29880 net.cpp:122] Setting up inception_4e/1x1
I0429 14:18:44.311555 29880 net.cpp:129] Top shape: 50 256 14 14 (2508800)
I0429 14:18:44.311563 29880 net.cpp:137] Memory required for data: 2527940008
I0429 14:18:44.311576 29880 layer_factory.hpp:77] Creating layer inception_4e/relu_1x1
I0429 14:18:44.311591 29880 net.cpp:84] Creating Layer inception_4e/relu_1x1
I0429 14:18:44.311599 29880 net.cpp:406] inception_4e/relu_1x1 <- inception_4e/1x1
I0429 14:18:44.311610 29880 net.cpp:367] inception_4e/relu_1x1 -> inception_4e/1x1 (in-place)
I0429 14:18:44.311862 29880 net.cpp:122] Setting up inception_4e/relu_1x1
I0429 14:18:44.311882 29880 net.cpp:129] Top shape: 50 256 14 14 (2508800)
I0429 14:18:44.311889 29880 net.cpp:137] Memory required for data: 2537975208
I0429 14:18:44.311897 29880 layer_factory.hpp:77] Creating layer inception_4e/3x3_reduce
I0429 14:18:44.311914 29880 net.cpp:84] Creating Layer inception_4e/3x3_reduce
I0429 14:18:44.311923 29880 net.cpp:406] inception_4e/3x3_reduce <- inception_4d/output_inception_4d/output_0_split_2
I0429 14:18:44.311935 29880 net.cpp:380] inception_4e/3x3_reduce -> inception_4e/3x3_reduce
I0429 14:18:44.332741 29880 net.cpp:122] Setting up inception_4e/3x3_reduce
I0429 14:18:44.332782 29880 net.cpp:129] Top shape: 50 160 14 14 (1568000)
I0429 14:18:44.332792 29880 net.cpp:137] Memory required for data: 2544247208
I0429 14:18:44.332806 29880 layer_factory.hpp:77] Creating layer inception_4e/relu_3x3_reduce
I0429 14:18:44.332826 29880 net.cpp:84] Creating Layer inception_4e/relu_3x3_reduce
I0429 14:18:44.332837 29880 net.cpp:406] inception_4e/relu_3x3_reduce <- inception_4e/3x3_reduce
I0429 14:18:44.332851 29880 net.cpp:367] inception_4e/relu_3x3_reduce -> inception_4e/3x3_reduce (in-place)
I0429 14:18:44.333104 29880 net.cpp:122] Setting up inception_4e/relu_3x3_reduce
I0429 14:18:44.333122 29880 net.cpp:129] Top shape: 50 160 14 14 (1568000)
I0429 14:18:44.333129 29880 net.cpp:137] Memory required for data: 2550519208
I0429 14:18:44.333137 29880 layer_factory.hpp:77] Creating layer inception_4e/3x3
I0429 14:18:44.333156 29880 net.cpp:84] Creating Layer inception_4e/3x3
I0429 14:18:44.333166 29880 net.cpp:406] inception_4e/3x3 <- inception_4e/3x3_reduce
I0429 14:18:44.333180 29880 net.cpp:380] inception_4e/3x3 -> inception_4e/3x3
I0429 14:18:44.347839 29880 net.cpp:122] Setting up inception_4e/3x3
I0429 14:18:44.347877 29880 net.cpp:129] Top shape: 50 320 14 14 (3136000)
I0429 14:18:44.347888 29880 net.cpp:137] Memory required for data: 2563063208
I0429 14:18:44.347903 29880 layer_factory.hpp:77] Creating layer inception_4e/relu_3x3
I0429 14:18:44.347918 29880 net.cpp:84] Creating Layer inception_4e/relu_3x3
I0429 14:18:44.347929 29880 net.cpp:406] inception_4e/relu_3x3 <- inception_4e/3x3
I0429 14:18:44.347947 29880 net.cpp:367] inception_4e/relu_3x3 -> inception_4e/3x3 (in-place)
I0429 14:18:44.348203 29880 net.cpp:122] Setting up inception_4e/relu_3x3
I0429 14:18:44.348219 29880 net.cpp:129] Top shape: 50 320 14 14 (3136000)
I0429 14:18:44.348227 29880 net.cpp:137] Memory required for data: 2575607208
I0429 14:18:44.348234 29880 layer_factory.hpp:77] Creating layer inception_4e/5x5_reduce
I0429 14:18:44.348263 29880 net.cpp:84] Creating Layer inception_4e/5x5_reduce
I0429 14:18:44.348290 29880 net.cpp:406] inception_4e/5x5_reduce <- inception_4d/output_inception_4d/output_0_split_3
I0429 14:18:44.348306 29880 net.cpp:380] inception_4e/5x5_reduce -> inception_4e/5x5_reduce
I0429 14:18:44.350734 29880 net.cpp:122] Setting up inception_4e/5x5_reduce
I0429 14:18:44.350755 29880 net.cpp:129] Top shape: 50 32 14 14 (313600)
I0429 14:18:44.350764 29880 net.cpp:137] Memory required for data: 2576861608
I0429 14:18:44.350777 29880 layer_factory.hpp:77] Creating layer inception_4e/relu_5x5_reduce
I0429 14:18:44.350843 29880 net.cpp:84] Creating Layer inception_4e/relu_5x5_reduce
I0429 14:18:44.350854 29880 net.cpp:406] inception_4e/relu_5x5_reduce <- inception_4e/5x5_reduce
I0429 14:18:44.350868 29880 net.cpp:367] inception_4e/relu_5x5_reduce -> inception_4e/5x5_reduce (in-place)
I0429 14:18:44.351147 29880 net.cpp:122] Setting up inception_4e/relu_5x5_reduce
I0429 14:18:44.351166 29880 net.cpp:129] Top shape: 50 32 14 14 (313600)
I0429 14:18:44.351172 29880 net.cpp:137] Memory required for data: 2578116008
I0429 14:18:44.351179 29880 layer_factory.hpp:77] Creating layer inception_4e/5x5
I0429 14:18:44.351234 29880 net.cpp:84] Creating Layer inception_4e/5x5
I0429 14:18:44.351246 29880 net.cpp:406] inception_4e/5x5 <- inception_4e/5x5_reduce
I0429 14:18:44.351259 29880 net.cpp:380] inception_4e/5x5 -> inception_4e/5x5
I0429 14:18:44.354692 29880 net.cpp:122] Setting up inception_4e/5x5
I0429 14:18:44.354732 29880 net.cpp:129] Top shape: 50 128 14 14 (1254400)
I0429 14:18:44.354764 29880 net.cpp:137] Memory required for data: 2583133608
I0429 14:18:44.354784 29880 layer_factory.hpp:77] Creating layer inception_4e/relu_5x5
I0429 14:18:44.354802 29880 net.cpp:84] Creating Layer inception_4e/relu_5x5
I0429 14:18:44.354812 29880 net.cpp:406] inception_4e/relu_5x5 <- inception_4e/5x5
I0429 14:18:44.354849 29880 net.cpp:367] inception_4e/relu_5x5 -> inception_4e/5x5 (in-place)
I0429 14:18:44.356101 29880 net.cpp:122] Setting up inception_4e/relu_5x5
I0429 14:18:44.356120 29880 net.cpp:129] Top shape: 50 128 14 14 (1254400)
I0429 14:18:44.356189 29880 net.cpp:137] Memory required for data: 2588151208
I0429 14:18:44.356199 29880 layer_factory.hpp:77] Creating layer inception_4e/pool
I0429 14:18:44.356210 29880 net.cpp:84] Creating Layer inception_4e/pool
I0429 14:18:44.356220 29880 net.cpp:406] inception_4e/pool <- inception_4d/output_inception_4d/output_0_split_4
I0429 14:18:44.356266 29880 net.cpp:380] inception_4e/pool -> inception_4e/pool
I0429 14:18:44.356426 29880 net.cpp:122] Setting up inception_4e/pool
I0429 14:18:44.356442 29880 net.cpp:129] Top shape: 50 528 14 14 (5174400)
I0429 14:18:44.356449 29880 net.cpp:137] Memory required for data: 2608848808
I0429 14:18:44.356456 29880 layer_factory.hpp:77] Creating layer inception_4e/pool_proj
I0429 14:18:44.356477 29880 net.cpp:84] Creating Layer inception_4e/pool_proj
I0429 14:18:44.356521 29880 net.cpp:406] inception_4e/pool_proj <- inception_4e/pool
I0429 14:18:44.356539 29880 net.cpp:380] inception_4e/pool_proj -> inception_4e/pool_proj
I0429 14:18:44.359617 29880 net.cpp:122] Setting up inception_4e/pool_proj
I0429 14:18:44.359642 29880 net.cpp:129] Top shape: 50 128 14 14 (1254400)
I0429 14:18:44.359650 29880 net.cpp:137] Memory required for data: 2613866408
I0429 14:18:44.359695 29880 layer_factory.hpp:77] Creating layer inception_4e/relu_pool_proj
I0429 14:18:44.359707 29880 net.cpp:84] Creating Layer inception_4e/relu_pool_proj
I0429 14:18:44.359716 29880 net.cpp:406] inception_4e/relu_pool_proj <- inception_4e/pool_proj
I0429 14:18:44.359727 29880 net.cpp:367] inception_4e/relu_pool_proj -> inception_4e/pool_proj (in-place)
I0429 14:18:44.360872 29880 net.cpp:122] Setting up inception_4e/relu_pool_proj
I0429 14:18:44.360890 29880 net.cpp:129] Top shape: 50 128 14 14 (1254400)
I0429 14:18:44.360900 29880 net.cpp:137] Memory required for data: 2618884008
I0429 14:18:44.360908 29880 layer_factory.hpp:77] Creating layer inception_4e/output
I0429 14:18:44.360920 29880 net.cpp:84] Creating Layer inception_4e/output
I0429 14:18:44.360965 29880 net.cpp:406] inception_4e/output <- inception_4e/1x1
I0429 14:18:44.360977 29880 net.cpp:406] inception_4e/output <- inception_4e/3x3
I0429 14:18:44.360985 29880 net.cpp:406] inception_4e/output <- inception_4e/5x5
I0429 14:18:44.360994 29880 net.cpp:406] inception_4e/output <- inception_4e/pool_proj
I0429 14:18:44.361007 29880 net.cpp:380] inception_4e/output -> inception_4e/output
I0429 14:18:44.361069 29880 net.cpp:122] Setting up inception_4e/output
I0429 14:18:44.361085 29880 net.cpp:129] Top shape: 50 832 14 14 (8153600)
I0429 14:18:44.361093 29880 net.cpp:137] Memory required for data: 2651498408
I0429 14:18:44.361100 29880 layer_factory.hpp:77] Creating layer pool4/3x3_s2
I0429 14:18:44.361114 29880 net.cpp:84] Creating Layer pool4/3x3_s2
I0429 14:18:44.361121 29880 net.cpp:406] pool4/3x3_s2 <- inception_4e/output
I0429 14:18:44.361132 29880 net.cpp:380] pool4/3x3_s2 -> pool4/3x3_s2
I0429 14:18:44.361208 29880 net.cpp:122] Setting up pool4/3x3_s2
I0429 14:18:44.361223 29880 net.cpp:129] Top shape: 50 832 7 7 (2038400)
I0429 14:18:44.361230 29880 net.cpp:137] Memory required for data: 2659652008
I0429 14:18:44.361238 29880 layer_factory.hpp:77] Creating layer pool4/3x3_s2_pool4/3x3_s2_0_split
I0429 14:18:44.361248 29880 net.cpp:84] Creating Layer pool4/3x3_s2_pool4/3x3_s2_0_split
I0429 14:18:44.361258 29880 net.cpp:406] pool4/3x3_s2_pool4/3x3_s2_0_split <- pool4/3x3_s2
I0429 14:18:44.361271 29880 net.cpp:380] pool4/3x3_s2_pool4/3x3_s2_0_split -> pool4/3x3_s2_pool4/3x3_s2_0_split_0
I0429 14:18:44.361285 29880 net.cpp:380] pool4/3x3_s2_pool4/3x3_s2_0_split -> pool4/3x3_s2_pool4/3x3_s2_0_split_1
I0429 14:18:44.361300 29880 net.cpp:380] pool4/3x3_s2_pool4/3x3_s2_0_split -> pool4/3x3_s2_pool4/3x3_s2_0_split_2
I0429 14:18:44.361315 29880 net.cpp:380] pool4/3x3_s2_pool4/3x3_s2_0_split -> pool4/3x3_s2_pool4/3x3_s2_0_split_3
I0429 14:18:44.361418 29880 net.cpp:122] Setting up pool4/3x3_s2_pool4/3x3_s2_0_split
I0429 14:18:44.361433 29880 net.cpp:129] Top shape: 50 832 7 7 (2038400)
I0429 14:18:44.361441 29880 net.cpp:129] Top shape: 50 832 7 7 (2038400)
I0429 14:18:44.361505 29880 net.cpp:129] Top shape: 50 832 7 7 (2038400)
I0429 14:18:44.361519 29880 net.cpp:129] Top shape: 50 832 7 7 (2038400)
I0429 14:18:44.361526 29880 net.cpp:137] Memory required for data: 2692266408
I0429 14:18:44.361533 29880 layer_factory.hpp:77] Creating layer inception_5a/1x1
I0429 14:18:44.361552 29880 net.cpp:84] Creating Layer inception_5a/1x1
I0429 14:18:44.361595 29880 net.cpp:406] inception_5a/1x1 <- pool4/3x3_s2_pool4/3x3_s2_0_split_0
I0429 14:18:44.361614 29880 net.cpp:380] inception_5a/1x1 -> inception_5a/1x1
I0429 14:18:44.367296 29880 net.cpp:122] Setting up inception_5a/1x1
I0429 14:18:44.367317 29880 net.cpp:129] Top shape: 50 256 7 7 (627200)
I0429 14:18:44.367326 29880 net.cpp:137] Memory required for data: 2694775208
I0429 14:18:44.367338 29880 layer_factory.hpp:77] Creating layer inception_5a/relu_1x1
I0429 14:18:44.367352 29880 net.cpp:84] Creating Layer inception_5a/relu_1x1
I0429 14:18:44.367362 29880 net.cpp:406] inception_5a/relu_1x1 <- inception_5a/1x1
I0429 14:18:44.367374 29880 net.cpp:367] inception_5a/relu_1x1 -> inception_5a/1x1 (in-place)
I0429 14:18:44.367635 29880 net.cpp:122] Setting up inception_5a/relu_1x1
I0429 14:18:44.367653 29880 net.cpp:129] Top shape: 50 256 7 7 (627200)
I0429 14:18:44.367662 29880 net.cpp:137] Memory required for data: 2697284008
I0429 14:18:44.367669 29880 layer_factory.hpp:77] Creating layer inception_5a/3x3_reduce
I0429 14:18:44.367689 29880 net.cpp:84] Creating Layer inception_5a/3x3_reduce
I0429 14:18:44.367699 29880 net.cpp:406] inception_5a/3x3_reduce <- pool4/3x3_s2_pool4/3x3_s2_0_split_1
I0429 14:18:44.367712 29880 net.cpp:380] inception_5a/3x3_reduce -> inception_5a/3x3_reduce
I0429 14:18:44.371881 29880 net.cpp:122] Setting up inception_5a/3x3_reduce
I0429 14:18:44.371906 29880 net.cpp:129] Top shape: 50 160 7 7 (392000)
I0429 14:18:44.371917 29880 net.cpp:137] Memory required for data: 2698852008
I0429 14:18:44.371940 29880 layer_factory.hpp:77] Creating layer inception_5a/relu_3x3_reduce
I0429 14:18:44.372012 29880 net.cpp:84] Creating Layer inception_5a/relu_3x3_reduce
I0429 14:18:44.372022 29880 net.cpp:406] inception_5a/relu_3x3_reduce <- inception_5a/3x3_reduce
I0429 14:18:44.372035 29880 net.cpp:367] inception_5a/relu_3x3_reduce -> inception_5a/3x3_reduce (in-place)
I0429 14:18:44.372298 29880 net.cpp:122] Setting up inception_5a/relu_3x3_reduce
I0429 14:18:44.372315 29880 net.cpp:129] Top shape: 50 160 7 7 (392000)
I0429 14:18:44.372323 29880 net.cpp:137] Memory required for data: 2700420008
I0429 14:18:44.372330 29880 layer_factory.hpp:77] Creating layer inception_5a/3x3
I0429 14:18:44.372351 29880 net.cpp:84] Creating Layer inception_5a/3x3
I0429 14:18:44.372359 29880 net.cpp:406] inception_5a/3x3 <- inception_5a/3x3_reduce
I0429 14:18:44.372372 29880 net.cpp:380] inception_5a/3x3 -> inception_5a/3x3
I0429 14:18:44.379678 29880 net.cpp:122] Setting up inception_5a/3x3
I0429 14:18:44.379704 29880 net.cpp:129] Top shape: 50 320 7 7 (784000)
I0429 14:18:44.379712 29880 net.cpp:137] Memory required for data: 2703556008
I0429 14:18:44.379725 29880 layer_factory.hpp:77] Creating layer inception_5a/relu_3x3
I0429 14:18:44.379737 29880 net.cpp:84] Creating Layer inception_5a/relu_3x3
I0429 14:18:44.379746 29880 net.cpp:406] inception_5a/relu_3x3 <- inception_5a/3x3
I0429 14:18:44.379761 29880 net.cpp:367] inception_5a/relu_3x3 -> inception_5a/3x3 (in-place)
I0429 14:18:44.380019 29880 net.cpp:122] Setting up inception_5a/relu_3x3
I0429 14:18:44.380035 29880 net.cpp:129] Top shape: 50 320 7 7 (784000)
I0429 14:18:44.380043 29880 net.cpp:137] Memory required for data: 2706692008
I0429 14:18:44.380053 29880 layer_factory.hpp:77] Creating layer inception_5a/5x5_reduce
I0429 14:18:44.380070 29880 net.cpp:84] Creating Layer inception_5a/5x5_reduce
I0429 14:18:44.380080 29880 net.cpp:406] inception_5a/5x5_reduce <- pool4/3x3_s2_pool4/3x3_s2_0_split_2
I0429 14:18:44.380097 29880 net.cpp:380] inception_5a/5x5_reduce -> inception_5a/5x5_reduce
I0429 14:18:44.382195 29880 net.cpp:122] Setting up inception_5a/5x5_reduce
I0429 14:18:44.382215 29880 net.cpp:129] Top shape: 50 32 7 7 (78400)
I0429 14:18:44.382222 29880 net.cpp:137] Memory required for data: 2707005608
I0429 14:18:44.382234 29880 layer_factory.hpp:77] Creating layer inception_5a/relu_5x5_reduce
I0429 14:18:44.382246 29880 net.cpp:84] Creating Layer inception_5a/relu_5x5_reduce
I0429 14:18:44.382252 29880 net.cpp:406] inception_5a/relu_5x5_reduce <- inception_5a/5x5_reduce
I0429 14:18:44.382266 29880 net.cpp:367] inception_5a/relu_5x5_reduce -> inception_5a/5x5_reduce (in-place)
I0429 14:18:44.382521 29880 net.cpp:122] Setting up inception_5a/relu_5x5_reduce
I0429 14:18:44.382537 29880 net.cpp:129] Top shape: 50 32 7 7 (78400)
I0429 14:18:44.382544 29880 net.cpp:137] Memory required for data: 2707319208
I0429 14:18:44.382551 29880 layer_factory.hpp:77] Creating layer inception_5a/5x5
I0429 14:18:44.382572 29880 net.cpp:84] Creating Layer inception_5a/5x5
I0429 14:18:44.382582 29880 net.cpp:406] inception_5a/5x5 <- inception_5a/5x5_reduce
I0429 14:18:44.382597 29880 net.cpp:380] inception_5a/5x5 -> inception_5a/5x5
I0429 14:18:44.385661 29880 net.cpp:122] Setting up inception_5a/5x5
I0429 14:18:44.385681 29880 net.cpp:129] Top shape: 50 128 7 7 (313600)
I0429 14:18:44.385689 29880 net.cpp:137] Memory required for data: 2708573608
I0429 14:18:44.385699 29880 layer_factory.hpp:77] Creating layer inception_5a/relu_5x5
I0429 14:18:44.385771 29880 net.cpp:84] Creating Layer inception_5a/relu_5x5
I0429 14:18:44.385781 29880 net.cpp:406] inception_5a/relu_5x5 <- inception_5a/5x5
I0429 14:18:44.385793 29880 net.cpp:367] inception_5a/relu_5x5 -> inception_5a/5x5 (in-place)
I0429 14:18:44.395097 29880 net.cpp:122] Setting up inception_5a/relu_5x5
I0429 14:18:44.395124 29880 net.cpp:129] Top shape: 50 128 7 7 (313600)
I0429 14:18:44.395134 29880 net.cpp:137] Memory required for data: 2709828008
I0429 14:18:44.395143 29880 layer_factory.hpp:77] Creating layer inception_5a/pool
I0429 14:18:44.395164 29880 net.cpp:84] Creating Layer inception_5a/pool
I0429 14:18:44.395190 29880 net.cpp:406] inception_5a/pool <- pool4/3x3_s2_pool4/3x3_s2_0_split_3
I0429 14:18:44.395207 29880 net.cpp:380] inception_5a/pool -> inception_5a/pool
I0429 14:18:44.395300 29880 net.cpp:122] Setting up inception_5a/pool
I0429 14:18:44.395315 29880 net.cpp:129] Top shape: 50 832 7 7 (2038400)
I0429 14:18:44.395323 29880 net.cpp:137] Memory required for data: 2717981608
I0429 14:18:44.395329 29880 layer_factory.hpp:77] Creating layer inception_5a/pool_proj
I0429 14:18:44.395349 29880 net.cpp:84] Creating Layer inception_5a/pool_proj
I0429 14:18:44.395359 29880 net.cpp:406] inception_5a/pool_proj <- inception_5a/pool
I0429 14:18:44.395372 29880 net.cpp:380] inception_5a/pool_proj -> inception_5a/pool_proj
I0429 14:18:44.399436 29880 net.cpp:122] Setting up inception_5a/pool_proj
I0429 14:18:44.399461 29880 net.cpp:129] Top shape: 50 128 7 7 (313600)
I0429 14:18:44.399468 29880 net.cpp:137] Memory required for data: 2719236008
I0429 14:18:44.399480 29880 layer_factory.hpp:77] Creating layer inception_5a/relu_pool_proj
I0429 14:18:44.399494 29880 net.cpp:84] Creating Layer inception_5a/relu_pool_proj
I0429 14:18:44.399503 29880 net.cpp:406] inception_5a/relu_pool_proj <- inception_5a/pool_proj
I0429 14:18:44.399514 29880 net.cpp:367] inception_5a/relu_pool_proj -> inception_5a/pool_proj (in-place)
I0429 14:18:44.400831 29880 net.cpp:122] Setting up inception_5a/relu_pool_proj
I0429 14:18:44.400853 29880 net.cpp:129] Top shape: 50 128 7 7 (313600)
I0429 14:18:44.400862 29880 net.cpp:137] Memory required for data: 2720490408
I0429 14:18:44.400871 29880 layer_factory.hpp:77] Creating layer inception_5a/output
I0429 14:18:44.400882 29880 net.cpp:84] Creating Layer inception_5a/output
I0429 14:18:44.400890 29880 net.cpp:406] inception_5a/output <- inception_5a/1x1
I0429 14:18:44.400899 29880 net.cpp:406] inception_5a/output <- inception_5a/3x3
I0429 14:18:44.400908 29880 net.cpp:406] inception_5a/output <- inception_5a/5x5
I0429 14:18:44.400916 29880 net.cpp:406] inception_5a/output <- inception_5a/pool_proj
I0429 14:18:44.400930 29880 net.cpp:380] inception_5a/output -> inception_5a/output
I0429 14:18:44.400991 29880 net.cpp:122] Setting up inception_5a/output
I0429 14:18:44.401011 29880 net.cpp:129] Top shape: 50 832 7 7 (2038400)
I0429 14:18:44.401023 29880 net.cpp:137] Memory required for data: 2728644008
I0429 14:18:44.401032 29880 layer_factory.hpp:77] Creating layer inception_5a/output_inception_5a/output_0_split
I0429 14:18:44.401047 29880 net.cpp:84] Creating Layer inception_5a/output_inception_5a/output_0_split
I0429 14:18:44.401057 29880 net.cpp:406] inception_5a/output_inception_5a/output_0_split <- inception_5a/output
I0429 14:18:44.401072 29880 net.cpp:380] inception_5a/output_inception_5a/output_0_split -> inception_5a/output_inception_5a/output_0_split_0
I0429 14:18:44.401095 29880 net.cpp:380] inception_5a/output_inception_5a/output_0_split -> inception_5a/output_inception_5a/output_0_split_1
I0429 14:18:44.401114 29880 net.cpp:380] inception_5a/output_inception_5a/output_0_split -> inception_5a/output_inception_5a/output_0_split_2
I0429 14:18:44.401132 29880 net.cpp:380] inception_5a/output_inception_5a/output_0_split -> inception_5a/output_inception_5a/output_0_split_3
I0429 14:18:44.401258 29880 net.cpp:122] Setting up inception_5a/output_inception_5a/output_0_split
I0429 14:18:44.401274 29880 net.cpp:129] Top shape: 50 832 7 7 (2038400)
I0429 14:18:44.401283 29880 net.cpp:129] Top shape: 50 832 7 7 (2038400)
I0429 14:18:44.401291 29880 net.cpp:129] Top shape: 50 832 7 7 (2038400)
I0429 14:18:44.401301 29880 net.cpp:129] Top shape: 50 832 7 7 (2038400)
I0429 14:18:44.401309 29880 net.cpp:137] Memory required for data: 2761258408
I0429 14:18:44.401317 29880 layer_factory.hpp:77] Creating layer inception_5b/1x1
I0429 14:18:44.401337 29880 net.cpp:84] Creating Layer inception_5b/1x1
I0429 14:18:44.401347 29880 net.cpp:406] inception_5b/1x1 <- inception_5a/output_inception_5a/output_0_split_0
I0429 14:18:44.401365 29880 net.cpp:380] inception_5b/1x1 -> inception_5b/1x1
I0429 14:18:44.406354 29880 net.cpp:122] Setting up inception_5b/1x1
I0429 14:18:44.406381 29880 net.cpp:129] Top shape: 50 384 7 7 (940800)
I0429 14:18:44.406390 29880 net.cpp:137] Memory required for data: 2765021608
I0429 14:18:44.406404 29880 layer_factory.hpp:77] Creating layer inception_5b/relu_1x1
I0429 14:18:44.406417 29880 net.cpp:84] Creating Layer inception_5b/relu_1x1
I0429 14:18:44.406427 29880 net.cpp:406] inception_5b/relu_1x1 <- inception_5b/1x1
I0429 14:18:44.406440 29880 net.cpp:367] inception_5b/relu_1x1 -> inception_5b/1x1 (in-place)
I0429 14:18:44.406700 29880 net.cpp:122] Setting up inception_5b/relu_1x1
I0429 14:18:44.406716 29880 net.cpp:129] Top shape: 50 384 7 7 (940800)
I0429 14:18:44.406724 29880 net.cpp:137] Memory required for data: 2768784808
I0429 14:18:44.406730 29880 layer_factory.hpp:77] Creating layer inception_5b/3x3_reduce
I0429 14:18:44.406750 29880 net.cpp:84] Creating Layer inception_5b/3x3_reduce
I0429 14:18:44.406760 29880 net.cpp:406] inception_5b/3x3_reduce <- inception_5a/output_inception_5a/output_0_split_1
I0429 14:18:44.406775 29880 net.cpp:380] inception_5b/3x3_reduce -> inception_5b/3x3_reduce
I0429 14:18:44.413568 29880 net.cpp:122] Setting up inception_5b/3x3_reduce
I0429 14:18:44.413599 29880 net.cpp:129] Top shape: 50 192 7 7 (470400)
I0429 14:18:44.413607 29880 net.cpp:137] Memory required for data: 2770666408
I0429 14:18:44.413621 29880 layer_factory.hpp:77] Creating layer inception_5b/relu_3x3_reduce
I0429 14:18:44.413636 29880 net.cpp:84] Creating Layer inception_5b/relu_3x3_reduce
I0429 14:18:44.413646 29880 net.cpp:406] inception_5b/relu_3x3_reduce <- inception_5b/3x3_reduce
I0429 14:18:44.413657 29880 net.cpp:367] inception_5b/relu_3x3_reduce -> inception_5b/3x3_reduce (in-place)
I0429 14:18:44.413980 29880 net.cpp:122] Setting up inception_5b/relu_3x3_reduce
I0429 14:18:44.413997 29880 net.cpp:129] Top shape: 50 192 7 7 (470400)
I0429 14:18:44.414006 29880 net.cpp:137] Memory required for data: 2772548008
I0429 14:18:44.414016 29880 layer_factory.hpp:77] Creating layer inception_5b/3x3
I0429 14:18:44.414037 29880 net.cpp:84] Creating Layer inception_5b/3x3
I0429 14:18:44.414047 29880 net.cpp:406] inception_5b/3x3 <- inception_5b/3x3_reduce
I0429 14:18:44.414063 29880 net.cpp:380] inception_5b/3x3 -> inception_5b/3x3
I0429 14:18:44.435111 29880 net.cpp:122] Setting up inception_5b/3x3
I0429 14:18:44.435155 29880 net.cpp:129] Top shape: 50 384 7 7 (940800)
I0429 14:18:44.435164 29880 net.cpp:137] Memory required for data: 2776311208
I0429 14:18:44.435183 29880 layer_factory.hpp:77] Creating layer inception_5b/relu_3x3
I0429 14:18:44.435200 29880 net.cpp:84] Creating Layer inception_5b/relu_3x3
I0429 14:18:44.435211 29880 net.cpp:406] inception_5b/relu_3x3 <- inception_5b/3x3
I0429 14:18:44.435225 29880 net.cpp:367] inception_5b/relu_3x3 -> inception_5b/3x3 (in-place)
I0429 14:18:44.435501 29880 net.cpp:122] Setting up inception_5b/relu_3x3
I0429 14:18:44.435519 29880 net.cpp:129] Top shape: 50 384 7 7 (940800)
I0429 14:18:44.435528 29880 net.cpp:137] Memory required for data: 2780074408
I0429 14:18:44.435534 29880 layer_factory.hpp:77] Creating layer inception_5b/5x5_reduce
I0429 14:18:44.435556 29880 net.cpp:84] Creating Layer inception_5b/5x5_reduce
I0429 14:18:44.435566 29880 net.cpp:406] inception_5b/5x5_reduce <- inception_5a/output_inception_5a/output_0_split_2
I0429 14:18:44.435578 29880 net.cpp:380] inception_5b/5x5_reduce -> inception_5b/5x5_reduce
I0429 14:18:44.437993 29880 net.cpp:122] Setting up inception_5b/5x5_reduce
I0429 14:18:44.438017 29880 net.cpp:129] Top shape: 50 48 7 7 (117600)
I0429 14:18:44.438026 29880 net.cpp:137] Memory required for data: 2780544808
I0429 14:18:44.438040 29880 layer_factory.hpp:77] Creating layer inception_5b/relu_5x5_reduce
I0429 14:18:44.438050 29880 net.cpp:84] Creating Layer inception_5b/relu_5x5_reduce
I0429 14:18:44.438060 29880 net.cpp:406] inception_5b/relu_5x5_reduce <- inception_5b/5x5_reduce
I0429 14:18:44.438072 29880 net.cpp:367] inception_5b/relu_5x5_reduce -> inception_5b/5x5_reduce (in-place)
I0429 14:18:44.438352 29880 net.cpp:122] Setting up inception_5b/relu_5x5_reduce
I0429 14:18:44.438371 29880 net.cpp:129] Top shape: 50 48 7 7 (117600)
I0429 14:18:44.438380 29880 net.cpp:137] Memory required for data: 2781015208
I0429 14:18:44.438387 29880 layer_factory.hpp:77] Creating layer inception_5b/5x5
I0429 14:18:44.438405 29880 net.cpp:84] Creating Layer inception_5b/5x5
I0429 14:18:44.438416 29880 net.cpp:406] inception_5b/5x5 <- inception_5b/5x5_reduce
I0429 14:18:44.438428 29880 net.cpp:380] inception_5b/5x5 -> inception_5b/5x5
I0429 14:18:44.441639 29880 net.cpp:122] Setting up inception_5b/5x5
I0429 14:18:44.441675 29880 net.cpp:129] Top shape: 50 128 7 7 (313600)
I0429 14:18:44.441684 29880 net.cpp:137] Memory required for data: 2782269608
I0429 14:18:44.441699 29880 layer_factory.hpp:77] Creating layer inception_5b/relu_5x5
I0429 14:18:44.441747 29880 net.cpp:84] Creating Layer inception_5b/relu_5x5
I0429 14:18:44.441761 29880 net.cpp:406] inception_5b/relu_5x5 <- inception_5b/5x5
I0429 14:18:44.441771 29880 net.cpp:367] inception_5b/relu_5x5 -> inception_5b/5x5 (in-place)
I0429 14:18:44.442754 29880 net.cpp:122] Setting up inception_5b/relu_5x5
I0429 14:18:44.442775 29880 net.cpp:129] Top shape: 50 128 7 7 (313600)
I0429 14:18:44.442782 29880 net.cpp:137] Memory required for data: 2783524008
I0429 14:18:44.442790 29880 layer_factory.hpp:77] Creating layer inception_5b/pool
I0429 14:18:44.442806 29880 net.cpp:84] Creating Layer inception_5b/pool
I0429 14:18:44.442816 29880 net.cpp:406] inception_5b/pool <- inception_5a/output_inception_5a/output_0_split_3
I0429 14:18:44.442828 29880 net.cpp:380] inception_5b/pool -> inception_5b/pool
I0429 14:18:44.442924 29880 net.cpp:122] Setting up inception_5b/pool
I0429 14:18:44.442940 29880 net.cpp:129] Top shape: 50 832 7 7 (2038400)
I0429 14:18:44.442947 29880 net.cpp:137] Memory required for data: 2791677608
I0429 14:18:44.442953 29880 layer_factory.hpp:77] Creating layer inception_5b/pool_proj
I0429 14:18:44.442976 29880 net.cpp:84] Creating Layer inception_5b/pool_proj
I0429 14:18:44.442986 29880 net.cpp:406] inception_5b/pool_proj <- inception_5b/pool
I0429 14:18:44.443001 29880 net.cpp:380] inception_5b/pool_proj -> inception_5b/pool_proj
I0429 14:18:44.445233 29880 net.cpp:122] Setting up inception_5b/pool_proj
I0429 14:18:44.445257 29880 net.cpp:129] Top shape: 50 128 7 7 (313600)
I0429 14:18:44.445269 29880 net.cpp:137] Memory required for data: 2792932008
I0429 14:18:44.445283 29880 layer_factory.hpp:77] Creating layer inception_5b/relu_pool_proj
I0429 14:18:44.445297 29880 net.cpp:84] Creating Layer inception_5b/relu_pool_proj
I0429 14:18:44.445305 29880 net.cpp:406] inception_5b/relu_pool_proj <- inception_5b/pool_proj
I0429 14:18:44.445322 29880 net.cpp:367] inception_5b/relu_pool_proj -> inception_5b/pool_proj (in-place)
I0429 14:18:44.446432 29880 net.cpp:122] Setting up inception_5b/relu_pool_proj
I0429 14:18:44.446455 29880 net.cpp:129] Top shape: 50 128 7 7 (313600)
I0429 14:18:44.446463 29880 net.cpp:137] Memory required for data: 2794186408
I0429 14:18:44.446471 29880 layer_factory.hpp:77] Creating layer inception_5b/output
I0429 14:18:44.446483 29880 net.cpp:84] Creating Layer inception_5b/output
I0429 14:18:44.446491 29880 net.cpp:406] inception_5b/output <- inception_5b/1x1
I0429 14:18:44.446501 29880 net.cpp:406] inception_5b/output <- inception_5b/3x3
I0429 14:18:44.446509 29880 net.cpp:406] inception_5b/output <- inception_5b/5x5
I0429 14:18:44.446516 29880 net.cpp:406] inception_5b/output <- inception_5b/pool_proj
I0429 14:18:44.446529 29880 net.cpp:380] inception_5b/output -> inception_5b/output
I0429 14:18:44.446583 29880 net.cpp:122] Setting up inception_5b/output
I0429 14:18:44.446596 29880 net.cpp:129] Top shape: 50 1024 7 7 (2508800)
I0429 14:18:44.446604 29880 net.cpp:137] Memory required for data: 2804221608
I0429 14:18:44.446609 29880 layer_factory.hpp:77] Creating layer pool5/7x7_s1
I0429 14:18:44.446624 29880 net.cpp:84] Creating Layer pool5/7x7_s1
I0429 14:18:44.446633 29880 net.cpp:406] pool5/7x7_s1 <- inception_5b/output
I0429 14:18:44.446671 29880 net.cpp:380] pool5/7x7_s1 -> pool5/7x7_s1
I0429 14:18:44.447563 29880 net.cpp:122] Setting up pool5/7x7_s1
I0429 14:18:44.447582 29880 net.cpp:129] Top shape: 50 1024 1 1 (51200)
I0429 14:18:44.447592 29880 net.cpp:137] Memory required for data: 2804426408
I0429 14:18:44.447599 29880 layer_factory.hpp:77] Creating layer pool5/drop_7x7_s1
I0429 14:18:44.447610 29880 net.cpp:84] Creating Layer pool5/drop_7x7_s1
I0429 14:18:44.447618 29880 net.cpp:406] pool5/drop_7x7_s1 <- pool5/7x7_s1
I0429 14:18:44.447628 29880 net.cpp:367] pool5/drop_7x7_s1 -> pool5/7x7_s1 (in-place)
I0429 14:18:44.447674 29880 net.cpp:122] Setting up pool5/drop_7x7_s1
I0429 14:18:44.447686 29880 net.cpp:129] Top shape: 50 1024 1 1 (51200)
I0429 14:18:44.447693 29880 net.cpp:137] Memory required for data: 2804631208
I0429 14:18:44.447701 29880 layer_factory.hpp:77] Creating layer loss3/classifier
I0429 14:18:44.447717 29880 net.cpp:84] Creating Layer loss3/classifier
I0429 14:18:44.447724 29880 net.cpp:406] loss3/classifier <- pool5/7x7_s1
I0429 14:18:44.447736 29880 net.cpp:380] loss3/classifier -> loss3/classifier
I0429 14:18:44.447996 29880 net.cpp:122] Setting up loss3/classifier
I0429 14:18:44.448010 29880 net.cpp:129] Top shape: 50 5 (250)
I0429 14:18:44.448017 29880 net.cpp:137] Memory required for data: 2804632208
I0429 14:18:44.448027 29880 layer_factory.hpp:77] Creating layer loss3/loss3
I0429 14:18:44.448042 29880 net.cpp:84] Creating Layer loss3/loss3
I0429 14:18:44.448051 29880 net.cpp:406] loss3/loss3 <- loss3/classifier
I0429 14:18:44.448060 29880 net.cpp:406] loss3/loss3 <- label_data_1_split_2
I0429 14:18:44.448071 29880 net.cpp:380] loss3/loss3 -> loss3/loss3
…
I0429 14:18:44.453054 29880 net.cpp:294] The NetState phase (1) differed from the phase (0) specified by a rule in layer data
I0429 14:18:44.455173 29880 net.cpp:51] Initializing net from parameters: 
name: "GoogleNet"
state {
  phase: TEST
}
layer {
  name: "data"
  type: "Data"
  top: "data"
  top: "label"
  include {
    phase: TEST
  }
  transform_param {
    mirror: false
    crop_size: 224
    mean_file: "retina256/retina256_train_mean.binaryproto"
  }
  data_param {
    source: "retina256/retina256_test_lmdb"
    batch_size: 1
    backend: LMDB
  }
}
layer {
  name: "conv1/7x7_s2"
  type: "Convolution"
  bottom: "data"
  top: "conv1/7x7_s2"
  param {
    lr_mult: 1
    decay_mult: 1
  }
  param {
    lr_mult: 2
    decay_mult: 0
  }
  convolution_param {
    num_output: 64
    pad: 3
    kernel_size: 7
    stride: 2
    weight_filler {
      type: "xavier"
    }
    bias_filler {
      type: "constant"
      value: 0.2
    }
  }
}
layer {
  name: "conv1/relu_7x7"
  type: "ReLU"
  bottom: "conv1/7x7_s2"
  top: "conv1/7x7_s2"
}
layer {
  name: "pool1/3x3_s2"
  type: "Pooling"
  bottom: "conv1/7x7_s2"
  top: "pool1/3x3_s2"
  pooling_param {
    pool: MAX
    kernel_size: 3
    stride: 2
  }
}
layer {
  name: "pool1/norm1"
  type: "LRN"
  bottom: "pool1/3x3_s2"
  top: "pool1/norm1"
  lrn_param {
    local_size: 5
    alpha: 0.0001
    beta: 0.75
  }
}
layer {
  name: "conv2/3x3_reduce"
  type: "Convolution"
  bottom: "pool1/norm1"
  top: "conv2/3x3_reduce"
  param {
    lr_mult: 1
    decay_mult: 1
  }
  param {
    lr_mult: 2
    decay_mult: 0
  }
  convolution_param {
    num_output: 64
    kernel_size: 1
    weight_filler {
      type: "xavier"
    }
    bias_filler {
      type: "constant"
      value: 0.2
    }
  }
}
layer {
  name: "conv2/relu_3x3_reduce"
  type: "ReLU"
  bottom: "conv2/3x3_reduce"
  top: "conv2/3x3_reduce"
}
layer {
  name: "conv2/3x3"
  type: "Convolution"
  bottom: "conv2/3x3_reduce"
  top: "conv2/3x3"
  param {
    lr_mult: 1
    decay_mult: 1
  }
  param {
    lr_mult: 2
    decay_mult: 0
  }
  convolution_param {
    num_output: 192
    pad: 1
    kernel_size: 3
    weight_filler {
      type: "xavier"
    }
    bias_filler {
      type: "constant"
      value: 0.2
    }
  }
}
layer {
  name: "conv2/relu_3x3"
  type: "ReLU"
  bottom: "conv2/3x3"
  top: "conv2/3x3"
}
layer {
  name: "conv2/norm2"
  type: "LRN"
  bottom: "conv2/3x3"
  top: "conv2/norm2"
  lrn_param {
    local_size: 5
    alpha: 0.0001
    beta: 0.75
  }
}
layer {
  name: "pool2/3x3_s2"
  type: "Pooling"
  bottom: "conv2/norm2"
  top: "pool2/3x3_s2"
  pooling_param {
    pool: MAX
    kernel_size: 3
    stride: 2
  }
}
layer {
  name: "inception_3a/1x1"
  type: "Convolution"
  bottom: "pool2/3x3_s2"
  top: "inception_3a/1x1"
  param {
    lr_mult: 1
    decay_mult: 1
  }
  param {
    lr_mult: 2
    decay_mult: 0
  }
  convolution_param {
    num_output: 64
    kernel_size: 1
    weight_filler {
      type: "xavier"
    }
    bias_filler {
      type: "constant"
      value: 0.2
    }
  }
}
layer {
  name: "inception_3a/relu_1x1"
  type: "ReLU"
  bottom: "inception_3a/1x1"
  top: "inception_3a/1x1"
}
layer {
  name: "inception_3a/3x3_reduce"
  type: "Convolution"
  bottom: "pool2/3x3_s2"
  top: "inception_3a/3x3_reduce"
  param {
    lr_mult: 1
    decay_mult: 1
  }
  param {
    lr_mult: 2
    decay_mult: 0
  }
  convolution_param {
    num_output: 96
    kernel_size: 1
    weight_filler {
      type: "xavier"
    }
    bias_filler {
      type: "constant"
      value: 0.2
    }
  }
}
layer {
  name: "inception_3a/relu_3x3_reduce"
  type: "ReLU"
  bottom: "inception_3a/3x3_reduce"
  top: "inception_3a/3x3_reduce"
}
layer {
  name: "inception_3a/3x3"
  type: "Convolution"
  bottom: "inception_3a/3x3_reduce"
  top: "inception_3a/3x3"
  param {
    lr_mult: 1
    decay_mult: 1
  }
  param {
    lr_mult: 2
    decay_mult: 0
  }
  convolution_param {
    num_output: 128
    pad: 1
    kernel_size: 3
    weight_filler {
      type: "xavier"
    }
    bias_filler {
      type: "constant"
      value: 0.2
    }
  }
}
layer {
  name: "inception_3a/relu_3x3"
  type: "ReLU"
  bottom: "inception_3a/3x3"
  top: "inception_3a/3x3"
}
layer {
  name: "inception_3a/5x5_reduce"
  type: "Convolution"
  bottom: "pool2/3x3_s2"
  top: "inception_3a/5x5_reduce"
  param {
    lr_mult: 1
    decay_mult: 1
  }
  param {
    lr_mult: 2
    decay_mult: 0
  }
  convolution_param {
    num_output: 16
    kernel_size: 1
    weight_filler {
      type: "xavier"
    }
    bias_filler {
      type: "constant"
      value: 0.2
    }
  }
}
layer {
  name: "inception_3a/relu_5x5_reduce"
  type: "ReLU"
  bottom: "inception_3a/5x5_reduce"
  top: "inception_3a/5x5_reduce"
}
layer {
  name: "inception_3a/5x5"
  type: "Convolution"
  bottom: "inception_3a/5x5_reduce"
  top: "inception_3a/5x5"
  param {
    lr_mult: 1
    decay_mult: 1
  }
  param {
    lr_mult: 2
    decay_mult: 0
  }
  convolution_param {
    num_output: 32
    pad: 2
    kernel_size: 5
    weight_filler {
      type: "xavier"
    }
    bias_filler {
      type: "constant"
      value: 0.2
    }
  }
}
layer {
  name: "inception_3a/relu_5x5"
  type: "ReLU"
  bottom: "inception_3a/5x5"
  top: "inception_3a/5x5"
}
layer {
  name: "inception_3a/pool"
  type: "Pooling"
  bottom: "pool2/3x3_s2"
  top: "inception_3a/pool"
  pooling_param {
    pool: MAX
    kernel_size: 3
    stride: 1
    pad: 1
  }
}
layer {
  name: "inception_3a/pool_proj"
  type: "Convolution"
  bottom: "inception_3a/pool"
  top: "inception_3a/pool_proj"
  param {
    lr_mult: 1
    decay_mult: 1
  }
  param {
    lr_mult: 2
    decay_mult: 0
  }
  convolution_param {
    num_output: 32
    kernel_size: 1
    weight_filler {
      type: "xavier"
    }
    bias_filler {
      type: "constant"
      value: 0.2
    }
  }
}
layer {
  name: "inception_3a/relu_pool_proj"
  type: "ReLU"
  bottom: "inception_3a/pool_proj"
  top: "inception_3a/pool_proj"
}
layer {
  name: "inception_3a/output"
  type: "Concat"
  bottom: "inception_3a/1x1"
  bottom: "inception_3a/3x3"
  bottom: "inception_3a/5x5"
  bottom: "inception_3a/pool_proj"
  top: "inception_3a/output"
}
layer {
  name: "inception_3b/1x1"
  type: "Convolution"
  bottom: "inception_3a/output"
  top: "inception_3b/1x1"
  param {
    lr_mult: 1
    decay_mult: 1
  }
  param {
    lr_mult: 2
    decay_mult: 0
  }
  convolution_param {
    num_output: 128
    kernel_size: 1
    weight_filler {
      type: "xavier"
    }
    bias_filler {
      type: "constant"
      value: 0.2
    }
  }
}
layer {
  name: "inception_3b/relu_1x1"
  type: "ReLU"
  bottom: "inception_3b/1x1"
  top: "inception_3b/1x1"
}
layer {
  name: "inception_3b/3x3_reduce"
  type: "Convolution"
  bottom: "inception_3a/output"
  top: "inception_3b/3x3_reduce"
  param {
    lr_mult: 1
    decay_mult: 1
  }
  param {
    lr_mult: 2
    decay_mult: 0
  }
  convolution_param {
    num_output: 128
    kernel_size: 1
    weight_filler {
      type: "xavier"
    }
    bias_filler {
      type: "constant"
      value: 0.2
    }
  }
}
layer {
  name: "inception_3b/relu_3x3_reduce"
  type: "ReLU"
  bottom: "inception_3b/3x3_reduce"
  top: "inception_3b/3x3_reduce"
}
layer {
  name: "inception_3b/3x3"
  type: "Convolution"
  bottom: "inception_3b/3x3_reduce"
  top: "inception_3b/3x3"
  param {
    lr_mult: 1
    decay_mult: 1
  }
  param {
    lr_mult: 2
    decay_mult: 0
  }
  convolution_param {
    num_output: 192
    pad: 1
    kernel_size: 3
    weight_filler {
      type: "xavier"
    }
    bias_filler {
      type: "constant"
      value: 0.2
    }
  }
}
layer {
  name: "inception_3b/relu_3x3"
  type: "ReLU"
  bottom: "inception_3b/3x3"
  top: "inception_3b/3x3"
}
layer {
  name: "inception_3b/5x5_reduce"
  type: "Convolution"
  bottom: "inception_3a/output"
  top: "inception_3b/5x5_reduce"
  param {
    lr_mult: 1
    decay_mult: 1
  }
  param {
    lr_mult: 2
    decay_mult: 0
  }
  convolution_param {
    num_output: 32
    kernel_size: 1
    weight_filler {
      type: "xavier"
    }
    bias_filler {
      type: "constant"
      value: 0.2
    }
  }
}
layer {
  name: "inception_3b/relu_5x5_reduce"
  type: "ReLU"
  bottom: "inception_3b/5x5_reduce"
  top: "inception_3b/5x5_reduce"
}
layer {
  name: "inception_3b/5x5"
  type: "Convolution"
  bottom: "inception_3b/5x5_reduce"
  top: "inception_3b/5x5"
  param {
    lr_mult: 1
    decay_mult: 1
  }
  param {
    lr_mult: 2
    decay_mult: 0
  }
  convolution_param {
    num_output: 96
    pad: 2
    kernel_size: 5
    weight_filler {
      type: "xavier"
    }
    bias_filler {
      type: "constant"
      value: 0.2
    }
  }
}
layer {
  name: "inception_3b/relu_5x5"
  type: "ReLU"
  bottom: "inception_3b/5x5"
  top: "inception_3b/5x5"
}
layer {
  name: "inception_3b/pool"
  type: "Pooling"
  bottom: "inception_3a/output"
  top: "inception_3b/pool"
  pooling_param {
    pool: MAX
    kernel_size: 3
    stride: 1
    pad: 1
  }
}
layer {
  name: "inception_3b/pool_proj"
  type: "Convolution"
  bottom: "inception_3b/pool"
  top: "inception_3b/pool_proj"
  param {
    lr_mult: 1
    decay_mult: 1
  }
  param {
    lr_mult: 2
    decay_mult: 0
  }
  convolution_param {
    num_output: 64
    kernel_size: 1
    weight_filler {
      type: "xavier"
    }
    bias_filler {
      type: "constant"
      value: 0.2
    }
  }
}
layer {
  name: "inception_3b/relu_pool_proj"
  type: "ReLU"
  bottom: "inception_3b/pool_proj"
  top: "inception_3b/pool_proj"
}
layer {
  name: "inception_3b/output"
  type: "Concat"
  bottom: "inception_3b/1x1"
  bottom: "inception_3b/3x3"
  bottom: "inception_3b/5x5"
  bottom: "inception_3b/pool_proj"
  top: "inception_3b/output"
}
layer {
  name: "pool3/3x3_s2"
  type: "Pooling"
  bottom: "inception_3b/output"
  top: "pool3/3x3_s2"
  pooling_param {
    pool: MAX
    kernel_size: 3
    stride: 2
  }
}
layer {
  name: "inception_4a/1x1"
  type: "Convolution"
  bottom: "pool3/3x3_s2"
  top: "inception_4a/1x1"
  param {
    lr_mult: 1
    decay_mult: 1
  }
  param {
    lr_mult: 2
    decay_mult: 0
  }
  convolution_param {
    num_output: 192
    kernel_size: 1
    weight_filler {
      type: "xavier"
    }
    bias_filler {
      type: "constant"
      value: 0.2
    }
  }
}
layer {
  name: "inception_4a/relu_1x1"
  type: "ReLU"
  bottom: "inception_4a/1x1"
  top: "inception_4a/1x1"
}
layer {
  name: "inception_4a/3x3_reduce"
  type: "Convolution"
  bottom: "pool3/3x3_s2"
  top: "inception_4a/3x3_reduce"
  param {
    lr_mult: 1
    decay_mult: 1
  }
  param {
    lr_mult: 2
    decay_mult: 0
  }
  convolution_param {
    num_output: 96
    kernel_size: 1
    weight_filler {
      type: "xavier"
    }
    bias_filler {
      type: "constant"
      value: 0.2
    }
  }
}
layer {
  name: "inception_4a/relu_3x3_reduce"
  type: "ReLU"
  bottom: "inception_4a/3x3_reduce"
  top: "inception_4a/3x3_reduce"
}
layer {
  name: "inception_4a/3x3"
  type: "Convolution"
  bottom: "inception_4a/3x3_reduce"
  top: "inception_4a/3x3"
  param {
    lr_mult: 1
    decay_mult: 1
  }
  param {
    lr_mult: 2
    decay_mult: 0
  }
  convolution_param {
    num_output: 208
    pad: 1
    kernel_size: 3
    weight_filler {
      type: "xavier"
    }
    bias_filler {
      type: "constant"
      value: 0.2
    }
  }
}
layer {
  name: "inception_4a/relu_3x3"
  type: "ReLU"
  bottom: "inception_4a/3x3"
  top: "inception_4a/3x3"
}
layer {
  name: "inception_4a/5x5_reduce"
  type: "Convolution"
  bottom: "pool3/3x3_s2"
  top: "inception_4a/5x5_reduce"
  param {
    lr_mult: 1
    decay_mult: 1
  }
  param {
    lr_mult: 2
    decay_mult: 0
  }
  convolution_param {
    num_output: 16
    kernel_size: 1
    weight_filler {
      type: "xavier"
    }
    bias_filler {
      type: "constant"
      value: 0.2
    }
  }
}
layer {
  name: "inception_4a/relu_5x5_reduce"
  type: "ReLU"
  bottom: "inception_4a/5x5_reduce"
  top: "inception_4a/5x5_reduce"
}
layer {
  name: "inception_4a/5x5"
  type: "Convolution"
  bottom: "inception_4a/5x5_reduce"
  top: "inception_4a/5x5"
  param {
    lr_mult: 1
    decay_mult: 1
  }
  param {
    lr_mult: 2
    decay_mult: 0
  }
  convolution_param {
    num_output: 48
    pad: 2
    kernel_size: 5
    weight_filler {
      type: "xavier"
    }
    bias_filler {
      type: "constant"
      value: 0.2
    }
  }
}
layer {
  name: "inception_4a/relu_5x5"
  type: "ReLU"
  bottom: "inception_4a/5x5"
  top: "inception_4a/5x5"
}
layer {
  name: "inception_4a/pool"
  type: "Pooling"
  bottom: "pool3/3x3_s2"
  top: "inception_4a/pool"
  pooling_param {
    pool: MAX
    kernel_size: 3
    stride: 1
    pad: 1
  }
}
layer {
  name: "inception_4a/pool_proj"
  type: "Convolution"
  bottom: "inception_4a/pool"
  top: "inception_4a/pool_proj"
  param {
    lr_mult: 1
    decay_mult: 1
  }
  param {
    lr_mult: 2
    decay_mult: 0
  }
  convolution_param {
    num_output: 64
    kernel_size: 1
    weight_filler {
      type: "xavier"
    }
    bias_filler {
      type: "constant"
      value: 0.2
    }
  }
}
layer {
  name: "inception_4a/relu_pool_proj"
  type: "ReLU"
  bottom: "inception_4a/pool_proj"
  top: "inception_4a/pool_proj"
}
layer {
  name: "inception_4a/output"
  type: "Concat"
  bottom: "inception_4a/1x1"
  bottom: "inception_4a/3x3"
  bottom: "inception_4a/5x5"
  bottom: "inception_4a/pool_proj"
  top: "inception_4a/output"
}
layer {
  name: "loss1/ave_pool"
  type: "Pooling"
  bottom: "inception_4a/output"
  top: "loss1/ave_pool"
  pooling_param {
    pool: AVE
    kernel_size: 5
    stride: 3
  }
}
layer {
  name: "loss1/conv"
  type: "Convolution"
  bottom: "loss1/ave_pool"
  top: "loss1/conv"
  param {
    lr_mult: 1
    decay_mult: 1
  }
  param {
    lr_mult: 2
    decay_mult: 0
  }
  convolution_param {
    num_output: 128
    kernel_size: 1
    weight_filler {
      type: "xavier"
    }
    bias_filler {
      type: "constant"
      value: 0.2
    }
  }
}
layer {
  name: "loss1/relu_conv"
  type: "ReLU"
  bottom: "loss1/conv"
  top: "loss1/conv"
}
layer {
  name: "loss1/fc"
  type: "InnerProduct"
  bottom: "loss1/conv"
  top: "loss1/fc"
  param {
    lr_mult: 1
    decay_mult: 1
  }
  param {
    lr_mult: 2
    decay_mult: 0
  }
  inner_product_param {
    num_output: 1024
    weight_filler {
      type: "xavier"
    }
    bias_filler {
      type: "constant"
      value: 0.2
    }
  }
}
layer {
  name: "loss1/relu_fc"
  type: "ReLU"
  bottom: "loss1/fc"
  top: "loss1/fc"
}
layer {
  name: "loss1/drop_fc"
  type: "Dropout"
  bottom: "loss1/fc"
  top: "loss1/fc"
  dropout_param {
    dropout_ratio: 0.7
  }
}
layer {
  name: "loss1/classifier"
  type: "InnerProduct"
  bottom: "loss1/fc"
…
I0429 14:18:44.665925 29880 net.cpp:406] inception_4c/relu_5x5 <- inception_4c/5x5
I0429 14:18:44.665931 29880 net.cpp:367] inception_4c/relu_5x5 -> inception_4c/5x5 (in-place)
I0429 14:18:44.666102 29880 net.cpp:122] Setting up inception_4c/relu_5x5
I0429 14:18:44.666111 29880 net.cpp:129] Top shape: 1 64 14 14 (12544)
I0429 14:18:44.666115 29880 net.cpp:137] Memory required for data: 43805880
I0429 14:18:44.666121 29880 layer_factory.hpp:77] Creating layer inception_4c/pool
I0429 14:18:44.666131 29880 net.cpp:84] Creating Layer inception_4c/pool
I0429 14:18:44.666136 29880 net.cpp:406] inception_4c/pool <- inception_4b/output_inception_4b/output_0_split_3
I0429 14:18:44.666143 29880 net.cpp:380] inception_4c/pool -> inception_4c/pool
I0429 14:18:44.666198 29880 net.cpp:122] Setting up inception_4c/pool
I0429 14:18:44.666204 29880 net.cpp:129] Top shape: 1 512 14 14 (100352)
I0429 14:18:44.666208 29880 net.cpp:137] Memory required for data: 44207288
I0429 14:18:44.666213 29880 layer_factory.hpp:77] Creating layer inception_4c/pool_proj
I0429 14:18:44.666223 29880 net.cpp:84] Creating Layer inception_4c/pool_proj
I0429 14:18:44.666226 29880 net.cpp:406] inception_4c/pool_proj <- inception_4c/pool
I0429 14:18:44.666234 29880 net.cpp:380] inception_4c/pool_proj -> inception_4c/pool_proj
I0429 14:18:44.667570 29880 net.cpp:122] Setting up inception_4c/pool_proj
I0429 14:18:44.667583 29880 net.cpp:129] Top shape: 1 64 14 14 (12544)
I0429 14:18:44.667587 29880 net.cpp:137] Memory required for data: 44257464
I0429 14:18:44.667594 29880 layer_factory.hpp:77] Creating layer inception_4c/relu_pool_proj
I0429 14:18:44.667603 29880 net.cpp:84] Creating Layer inception_4c/relu_pool_proj
I0429 14:18:44.667608 29880 net.cpp:406] inception_4c/relu_pool_proj <- inception_4c/pool_proj
I0429 14:18:44.667613 29880 net.cpp:367] inception_4c/relu_pool_proj -> inception_4c/pool_proj (in-place)
I0429 14:18:44.667773 29880 net.cpp:122] Setting up inception_4c/relu_pool_proj
I0429 14:18:44.667781 29880 net.cpp:129] Top shape: 1 64 14 14 (12544)
I0429 14:18:44.667785 29880 net.cpp:137] Memory required for data: 44307640
I0429 14:18:44.667790 29880 layer_factory.hpp:77] Creating layer inception_4c/output
I0429 14:18:44.667798 29880 net.cpp:84] Creating Layer inception_4c/output
I0429 14:18:44.667803 29880 net.cpp:406] inception_4c/output <- inception_4c/1x1
I0429 14:18:44.667809 29880 net.cpp:406] inception_4c/output <- inception_4c/3x3
I0429 14:18:44.667814 29880 net.cpp:406] inception_4c/output <- inception_4c/5x5
I0429 14:18:44.667817 29880 net.cpp:406] inception_4c/output <- inception_4c/pool_proj
I0429 14:18:44.667824 29880 net.cpp:380] inception_4c/output -> inception_4c/output
I0429 14:18:44.667858 29880 net.cpp:122] Setting up inception_4c/output
I0429 14:18:44.667866 29880 net.cpp:129] Top shape: 1 512 14 14 (100352)
I0429 14:18:44.667871 29880 net.cpp:137] Memory required for data: 44709048
I0429 14:18:44.667877 29880 layer_factory.hpp:77] Creating layer inception_4c/output_inception_4c/output_0_split
I0429 14:18:44.667943 29880 net.cpp:84] Creating Layer inception_4c/output_inception_4c/output_0_split
I0429 14:18:44.667949 29880 net.cpp:406] inception_4c/output_inception_4c/output_0_split <- inception_4c/output
I0429 14:18:44.667958 29880 net.cpp:380] inception_4c/output_inception_4c/output_0_split -> inception_4c/output_inception_4c/output_0_split_0
I0429 14:18:44.667965 29880 net.cpp:380] inception_4c/output_inception_4c/output_0_split -> inception_4c/output_inception_4c/output_0_split_1
I0429 14:18:44.667975 29880 net.cpp:380] inception_4c/output_inception_4c/output_0_split -> inception_4c/output_inception_4c/output_0_split_2
I0429 14:18:44.667982 29880 net.cpp:380] inception_4c/output_inception_4c/output_0_split -> inception_4c/output_inception_4c/output_0_split_3
I0429 14:18:44.668061 29880 net.cpp:122] Setting up inception_4c/output_inception_4c/output_0_split
I0429 14:18:44.668068 29880 net.cpp:129] Top shape: 1 512 14 14 (100352)
I0429 14:18:44.668073 29880 net.cpp:129] Top shape: 1 512 14 14 (100352)
I0429 14:18:44.668077 29880 net.cpp:129] Top shape: 1 512 14 14 (100352)
I0429 14:18:44.668082 29880 net.cpp:129] Top shape: 1 512 14 14 (100352)
I0429 14:18:44.668087 29880 net.cpp:137] Memory required for data: 46314680
I0429 14:18:44.668092 29880 layer_factory.hpp:77] Creating layer inception_4d/1x1
I0429 14:18:44.668102 29880 net.cpp:84] Creating Layer inception_4d/1x1
I0429 14:18:44.668107 29880 net.cpp:406] inception_4d/1x1 <- inception_4c/output_inception_4c/output_0_split_0
I0429 14:18:44.668113 29880 net.cpp:380] inception_4d/1x1 -> inception_4d/1x1
I0429 14:18:44.670837 29880 net.cpp:122] Setting up inception_4d/1x1
I0429 14:18:44.670863 29880 net.cpp:129] Top shape: 1 112 14 14 (21952)
I0429 14:18:44.670868 29880 net.cpp:137] Memory required for data: 46402488
I0429 14:18:44.670878 29880 layer_factory.hpp:77] Creating layer inception_4d/relu_1x1
I0429 14:18:44.670887 29880 net.cpp:84] Creating Layer inception_4d/relu_1x1
I0429 14:18:44.670893 29880 net.cpp:406] inception_4d/relu_1x1 <- inception_4d/1x1
I0429 14:18:44.670902 29880 net.cpp:367] inception_4d/relu_1x1 -> inception_4d/1x1 (in-place)
I0429 14:18:44.671066 29880 net.cpp:122] Setting up inception_4d/relu_1x1
I0429 14:18:44.671077 29880 net.cpp:129] Top shape: 1 112 14 14 (21952)
I0429 14:18:44.671079 29880 net.cpp:137] Memory required for data: 46490296
I0429 14:18:44.671083 29880 layer_factory.hpp:77] Creating layer inception_4d/3x3_reduce
I0429 14:18:44.671095 29880 net.cpp:84] Creating Layer inception_4d/3x3_reduce
I0429 14:18:44.671100 29880 net.cpp:406] inception_4d/3x3_reduce <- inception_4c/output_inception_4c/output_0_split_1
I0429 14:18:44.671108 29880 net.cpp:380] inception_4d/3x3_reduce -> inception_4d/3x3_reduce
I0429 14:18:44.673265 29880 net.cpp:122] Setting up inception_4d/3x3_reduce
I0429 14:18:44.673285 29880 net.cpp:129] Top shape: 1 144 14 14 (28224)
I0429 14:18:44.673295 29880 net.cpp:137] Memory required for data: 46603192
I0429 14:18:44.673305 29880 layer_factory.hpp:77] Creating layer inception_4d/relu_3x3_reduce
I0429 14:18:44.673316 29880 net.cpp:84] Creating Layer inception_4d/relu_3x3_reduce
I0429 14:18:44.673323 29880 net.cpp:406] inception_4d/relu_3x3_reduce <- inception_4d/3x3_reduce
I0429 14:18:44.673336 29880 net.cpp:367] inception_4d/relu_3x3_reduce -> inception_4d/3x3_reduce (in-place)
I0429 14:18:44.674196 29880 net.cpp:122] Setting up inception_4d/relu_3x3_reduce
I0429 14:18:44.674213 29880 net.cpp:129] Top shape: 1 144 14 14 (28224)
I0429 14:18:44.674221 29880 net.cpp:137] Memory required for data: 46716088
I0429 14:18:44.674229 29880 layer_factory.hpp:77] Creating layer inception_4d/3x3
I0429 14:18:44.674248 29880 net.cpp:84] Creating Layer inception_4d/3x3
I0429 14:18:44.674258 29880 net.cpp:406] inception_4d/3x3 <- inception_4d/3x3_reduce
I0429 14:18:44.674271 29880 net.cpp:380] inception_4d/3x3 -> inception_4d/3x3
I0429 14:18:44.680805 29880 net.cpp:122] Setting up inception_4d/3x3
I0429 14:18:44.680830 29880 net.cpp:129] Top shape: 1 288 14 14 (56448)
I0429 14:18:44.680841 29880 net.cpp:137] Memory required for data: 46941880
I0429 14:18:44.680863 29880 layer_factory.hpp:77] Creating layer inception_4d/relu_3x3
I0429 14:18:44.680876 29880 net.cpp:84] Creating Layer inception_4d/relu_3x3
I0429 14:18:44.680882 29880 net.cpp:406] inception_4d/relu_3x3 <- inception_4d/3x3
I0429 14:18:44.680889 29880 net.cpp:367] inception_4d/relu_3x3 -> inception_4d/3x3 (in-place)
I0429 14:18:44.681068 29880 net.cpp:122] Setting up inception_4d/relu_3x3
I0429 14:18:44.681077 29880 net.cpp:129] Top shape: 1 288 14 14 (56448)
I0429 14:18:44.681082 29880 net.cpp:137] Memory required for data: 47167672
I0429 14:18:44.681085 29880 layer_factory.hpp:77] Creating layer inception_4d/5x5_reduce
I0429 14:18:44.681097 29880 net.cpp:84] Creating Layer inception_4d/5x5_reduce
I0429 14:18:44.681102 29880 net.cpp:406] inception_4d/5x5_reduce <- inception_4c/output_inception_4c/output_0_split_2
I0429 14:18:44.681110 29880 net.cpp:380] inception_4d/5x5_reduce -> inception_4d/5x5_reduce
I0429 14:18:44.682518 29880 net.cpp:122] Setting up inception_4d/5x5_reduce
I0429 14:18:44.682533 29880 net.cpp:129] Top shape: 1 32 14 14 (6272)
I0429 14:18:44.682538 29880 net.cpp:137] Memory required for data: 47192760
I0429 14:18:44.682546 29880 layer_factory.hpp:77] Creating layer inception_4d/relu_5x5_reduce
I0429 14:18:44.682555 29880 net.cpp:84] Creating Layer inception_4d/relu_5x5_reduce
I0429 14:18:44.682561 29880 net.cpp:406] inception_4d/relu_5x5_reduce <- inception_4d/5x5_reduce
I0429 14:18:44.682569 29880 net.cpp:367] inception_4d/relu_5x5_reduce -> inception_4d/5x5_reduce (in-place)
I0429 14:18:44.682739 29880 net.cpp:122] Setting up inception_4d/relu_5x5_reduce
I0429 14:18:44.682750 29880 net.cpp:129] Top shape: 1 32 14 14 (6272)
I0429 14:18:44.682754 29880 net.cpp:137] Memory required for data: 47217848
I0429 14:18:44.682759 29880 layer_factory.hpp:77] Creating layer inception_4d/5x5
I0429 14:18:44.682768 29880 net.cpp:84] Creating Layer inception_4d/5x5
I0429 14:18:44.682773 29880 net.cpp:406] inception_4d/5x5 <- inception_4d/5x5_reduce
I0429 14:18:44.682781 29880 net.cpp:380] inception_4d/5x5 -> inception_4d/5x5
I0429 14:18:44.689348 29880 net.cpp:122] Setting up inception_4d/5x5
I0429 14:18:44.689376 29880 net.cpp:129] Top shape: 1 64 14 14 (12544)
I0429 14:18:44.689384 29880 net.cpp:137] Memory required for data: 47268024
I0429 14:18:44.689399 29880 layer_factory.hpp:77] Creating layer inception_4d/relu_5x5
I0429 14:18:44.689415 29880 net.cpp:84] Creating Layer inception_4d/relu_5x5
I0429 14:18:44.689424 29880 net.cpp:406] inception_4d/relu_5x5 <- inception_4d/5x5
I0429 14:18:44.689435 29880 net.cpp:367] inception_4d/relu_5x5 -> inception_4d/5x5 (in-place)
I0429 14:18:44.689698 29880 net.cpp:122] Setting up inception_4d/relu_5x5
I0429 14:18:44.689770 29880 net.cpp:129] Top shape: 1 64 14 14 (12544)
I0429 14:18:44.689777 29880 net.cpp:137] Memory required for data: 47318200
I0429 14:18:44.689785 29880 layer_factory.hpp:77] Creating layer inception_4d/pool
I0429 14:18:44.689796 29880 net.cpp:84] Creating Layer inception_4d/pool
I0429 14:18:44.689805 29880 net.cpp:406] inception_4d/pool <- inception_4c/output_inception_4c/output_0_split_3
I0429 14:18:44.689816 29880 net.cpp:380] inception_4d/pool -> inception_4d/pool
I0429 14:18:44.689908 29880 net.cpp:122] Setting up inception_4d/pool
I0429 14:18:44.689920 29880 net.cpp:129] Top shape: 1 512 14 14 (100352)
I0429 14:18:44.689927 29880 net.cpp:137] Memory required for data: 47719608
I0429 14:18:44.689934 29880 layer_factory.hpp:77] Creating layer inception_4d/pool_proj
I0429 14:18:44.689951 29880 net.cpp:84] Creating Layer inception_4d/pool_proj
I0429 14:18:44.689961 29880 net.cpp:406] inception_4d/pool_proj <- inception_4d/pool
I0429 14:18:44.689973 29880 net.cpp:380] inception_4d/pool_proj -> inception_4d/pool_proj
I0429 14:18:44.691644 29880 net.cpp:122] Setting up inception_4d/pool_proj
I0429 14:18:44.691658 29880 net.cpp:129] Top shape: 1 64 14 14 (12544)
I0429 14:18:44.691663 29880 net.cpp:137] Memory required for data: 47769784
I0429 14:18:44.691681 29880 layer_factory.hpp:77] Creating layer inception_4d/relu_pool_proj
I0429 14:18:44.691706 29880 net.cpp:84] Creating Layer inception_4d/relu_pool_proj
I0429 14:18:44.691711 29880 net.cpp:406] inception_4d/relu_pool_proj <- inception_4d/pool_proj
I0429 14:18:44.691718 29880 net.cpp:367] inception_4d/relu_pool_proj -> inception_4d/pool_proj (in-place)
I0429 14:18:44.692000 29880 net.cpp:122] Setting up inception_4d/relu_pool_proj
I0429 14:18:44.692021 29880 net.cpp:129] Top shape: 1 64 14 14 (12544)
I0429 14:18:44.692029 29880 net.cpp:137] Memory required for data: 47819960
I0429 14:18:44.692039 29880 layer_factory.hpp:77] Creating layer inception_4d/output
I0429 14:18:44.692055 29880 net.cpp:84] Creating Layer inception_4d/output
I0429 14:18:44.692062 29880 net.cpp:406] inception_4d/output <- inception_4d/1x1
I0429 14:18:44.692071 29880 net.cpp:406] inception_4d/output <- inception_4d/3x3
I0429 14:18:44.692078 29880 net.cpp:406] inception_4d/output <- inception_4d/5x5
I0429 14:18:44.692083 29880 net.cpp:406] inception_4d/output <- inception_4d/pool_proj
I0429 14:18:44.692091 29880 net.cpp:380] inception_4d/output -> inception_4d/output
I0429 14:18:44.692129 29880 net.cpp:122] Setting up inception_4d/output
I0429 14:18:44.692137 29880 net.cpp:129] Top shape: 1 528 14 14 (103488)
I0429 14:18:44.692143 29880 net.cpp:137] Memory required for data: 48233912
I0429 14:18:44.692152 29880 layer_factory.hpp:77] Creating layer inception_4d/output_inception_4d/output_0_split
I0429 14:18:44.692167 29880 net.cpp:84] Creating Layer inception_4d/output_inception_4d/output_0_split
I0429 14:18:44.692175 29880 net.cpp:406] inception_4d/output_inception_4d/output_0_split <- inception_4d/output
I0429 14:18:44.692186 29880 net.cpp:380] inception_4d/output_inception_4d/output_0_split -> inception_4d/output_inception_4d/output_0_split_0
I0429 14:18:44.692204 29880 net.cpp:380] inception_4d/output_inception_4d/output_0_split -> inception_4d/output_inception_4d/output_0_split_1
I0429 14:18:44.692217 29880 net.cpp:380] inception_4d/output_inception_4d/output_0_split -> inception_4d/output_inception_4d/output_0_split_2
I0429 14:18:44.692231 29880 net.cpp:380] inception_4d/output_inception_4d/output_0_split -> inception_4d/output_inception_4d/output_0_split_3
I0429 14:18:44.692241 29880 net.cpp:380] inception_4d/output_inception_4d/output_0_split -> inception_4d/output_inception_4d/output_0_split_4
I0429 14:18:44.692348 29880 net.cpp:122] Setting up inception_4d/output_inception_4d/output_0_split
I0429 14:18:44.692358 29880 net.cpp:129] Top shape: 1 528 14 14 (103488)
I0429 14:18:44.692366 29880 net.cpp:129] Top shape: 1 528 14 14 (103488)
I0429 14:18:44.692374 29880 net.cpp:129] Top shape: 1 528 14 14 (103488)
I0429 14:18:44.692382 29880 net.cpp:129] Top shape: 1 528 14 14 (103488)
I0429 14:18:44.692390 29880 net.cpp:129] Top shape: 1 528 14 14 (103488)
I0429 14:18:44.692399 29880 net.cpp:137] Memory required for data: 50303672
I0429 14:18:44.692406 29880 layer_factory.hpp:77] Creating layer loss2/ave_pool
I0429 14:18:44.692417 29880 net.cpp:84] Creating Layer loss2/ave_pool
I0429 14:18:44.692425 29880 net.cpp:406] loss2/ave_pool <- inception_4d/output_inception_4d/output_0_split_0
I0429 14:18:44.692432 29880 net.cpp:380] loss2/ave_pool -> loss2/ave_pool
I0429 14:18:44.693173 29880 net.cpp:122] Setting up loss2/ave_pool
I0429 14:18:44.693186 29880 net.cpp:129] Top shape: 1 528 4 4 (8448)
I0429 14:18:44.693189 29880 net.cpp:137] Memory required for data: 50337464
I0429 14:18:44.693194 29880 layer_factory.hpp:77] Creating layer loss2/conv
I0429 14:18:44.693204 29880 net.cpp:84] Creating Layer loss2/conv
I0429 14:18:44.693209 29880 net.cpp:406] loss2/conv <- loss2/ave_pool
I0429 14:18:44.693218 29880 net.cpp:380] loss2/conv -> loss2/conv
I0429 14:18:44.694746 29880 net.cpp:122] Setting up loss2/conv
I0429 14:18:44.694875 29880 net.cpp:129] Top shape: 1 128 4 4 (2048)
I0429 14:18:44.694890 29880 net.cpp:137] Memory required for data: 50345656
I0429 14:18:44.694903 29880 layer_factory.hpp:77] Creating layer loss2/relu_conv
I0429 14:18:44.694926 29880 net.cpp:84] Creating Layer loss2/relu_conv
I0429 14:18:44.694954 29880 net.cpp:406] loss2/relu_conv <- loss2/conv
I0429 14:18:44.694965 29880 net.cpp:367] loss2/relu_conv -> loss2/conv (in-place)
I0429 14:18:44.695849 29880 net.cpp:122] Setting up loss2/relu_conv
I0429 14:18:44.695869 29880 net.cpp:129] Top shape: 1 128 4 4 (2048)
I0429 14:18:44.695879 29880 net.cpp:137] Memory required for data: 50353848
I0429 14:18:44.695894 29880 layer_factory.hpp:77] Creating layer loss2/fc
I0429 14:18:44.695914 29880 net.cpp:84] Creating Layer loss2/fc
I0429 14:18:44.695930 29880 net.cpp:406] loss2/fc <- loss2/conv
I0429 14:18:44.695948 29880 net.cpp:380] loss2/fc -> loss2/fc
I0429 14:18:44.718647 29880 net.cpp:122] Setting up loss2/fc
I0429 14:18:44.718679 29880 net.cpp:129] Top shape: 1 1024 (1024)
I0429 14:18:44.718686 29880 net.cpp:137] Memory required for data: 50357944
I0429 14:18:44.718698 29880 layer_factory.hpp:77] Creating layer loss2/relu_fc
I0429 14:18:44.718708 29880 net.cpp:84] Creating Layer loss2/relu_fc
I0429 14:18:44.718719 29880 net.cpp:406] loss2/relu_fc <- loss2/fc
I0429 14:18:44.718726 29880 net.cpp:367] loss2/relu_fc -> loss2/fc (in-place)
I0429 14:18:44.718987 29880 net.cpp:122] Setting up loss2/relu_fc
I0429 14:18:44.718997 29880 net.cpp:129] Top shape: 1 1024 (1024)
I0429 14:18:44.719002 29880 net.cpp:137] Memory required for data: 50362040
I0429 14:18:44.719007 29880 layer_factory.hpp:77] Creating layer loss2/drop_fc
I0429 14:18:44.719019 29880 net.cpp:84] Creating Layer loss2/drop_fc
I0429 14:18:44.719027 29880 net.cpp:406] loss2/drop_fc <- loss2/fc
I0429 14:18:44.719036 29880 net.cpp:367] loss2/drop_fc -> loss2/fc (in-place)
I0429 14:18:44.719095 29880 net.cpp:122] Setting up loss2/drop_fc
I0429 14:18:44.719105 29880 net.cpp:129] Top shape: 1 1024 (1024)
I0429 14:18:44.719108 29880 net.cpp:137] Memory required for data: 50366136
I0429 14:18:44.719113 29880 layer_factory.hpp:77] Creating layer loss2/classifier
I0429 14:18:44.719125 29880 net.cpp:84] Creating Layer loss2/classifier
I0429 14:18:44.719132 29880 net.cpp:406] loss2/classifier <- loss2/fc
I0429 14:18:44.719144 29880 net.cpp:380] loss2/classifier -> loss2/classifier
I0429 14:18:44.730016 29880 net.cpp:122] Setting up loss2/classifier
I0429 14:18:44.730056 29880 net.cpp:129] Top shape: 1 1000 (1000)
I0429 14:18:44.730063 29880 net.cpp:137] Memory required for data: 50370136
I0429 14:18:44.730077 29880 layer_factory.hpp:77] Creating layer loss2/classifier_loss2/classifier_0_split
I0429 14:18:44.730089 29880 net.cpp:84] Creating Layer loss2/classifier_loss2/classifier_0_split
I0429 14:18:44.730098 29880 net.cpp:406] loss2/classifier_loss2/classifier_0_split <- loss2/classifier
I0429 14:18:44.730110 29880 net.cpp:380] loss2/classifier_loss2/classifier_0_split -> loss2/classifier_loss2/classifier_0_split_0
I0429 14:18:44.730125 29880 net.cpp:380] loss2/classifier_loss2/classifier_0_split -> loss2/classifier_loss2/classifier_0_split_1
I0429 14:18:44.730136 29880 net.cpp:380] loss2/classifier_loss2/classifier_0_split -> loss2/classifier_loss2/classifier_0_split_2
I0429 14:18:44.730227 29880 net.cpp:122] Setting up loss2/classifier_loss2/classifier_0_split
I0429 14:18:44.730237 29880 net.cpp:129] Top shape: 1 1000 (1000)
I0429 14:18:44.730245 29880 net.cpp:129] Top shape: 1 1000 (1000)
I0429 14:18:44.730252 29880 net.cpp:129] Top shape: 1 1000 (1000)
I0429 14:18:44.730257 29880 net.cpp:137] Memory required for data: 50382136
I0429 14:18:44.730263 29880 layer_factory.hpp:77] Creating layer loss2/loss
I0429 14:18:44.730273 29880 net.cpp:84] Creating Layer loss2/loss
I0429 14:18:44.730279 29880 net.cpp:406] loss2/loss <- loss2/classifier_loss2/classifier_0_split_0
I0429 14:18:44.730288 29880 net.cpp:406] loss2/loss <- label_data_1_split_3
…
I0429 14:18:44.731461 29880 net.cpp:122] Setting up loss2/top-5
I0429 14:18:44.731479 29880 net.cpp:129] Top shape: (1)
I0429 14:18:44.731489 29880 net.cpp:137] Memory required for data: 50382148
I0429 14:18:44.731499 29880 layer_factory.hpp:77] Creating layer inception_4e/1x1
I0429 14:18:44.731535 29880 net.cpp:84] Creating Layer inception_4e/1x1
I0429 14:18:44.731549 29880 net.cpp:406] inception_4e/1x1 <- inception_4d/output_inception_4d/output_0_split_1
I0429 14:18:44.731570 29880 net.cpp:380] inception_4e/1x1 -> inception_4e/1x1
I0429 14:18:44.733975 29880 net.cpp:122] Setting up inception_4e/1x1
I0429 14:18:44.733994 29880 net.cpp:129] Top shape: 1 256 14 14 (50176)
I0429 14:18:44.733997 29880 net.cpp:137] Memory required for data: 50582852
I0429 14:18:44.734005 29880 layer_factory.hpp:77] Creating layer inception_4e/relu_1x1
I0429 14:18:44.734014 29880 net.cpp:84] Creating Layer inception_4e/relu_1x1
I0429 14:18:44.734019 29880 net.cpp:406] inception_4e/relu_1x1 <- inception_4e/1x1
I0429 14:18:44.734026 29880 net.cpp:367] inception_4e/relu_1x1 -> inception_4e/1x1 (in-place)
I0429 14:18:44.734191 29880 net.cpp:122] Setting up inception_4e/relu_1x1
I0429 14:18:44.734200 29880 net.cpp:129] Top shape: 1 256 14 14 (50176)
I0429 14:18:44.734205 29880 net.cpp:137] Memory required for data: 50783556
I0429 14:18:44.734208 29880 layer_factory.hpp:77] Creating layer inception_4e/3x3_reduce
I0429 14:18:44.734252 29880 net.cpp:84] Creating Layer inception_4e/3x3_reduce
I0429 14:18:44.734258 29880 net.cpp:406] inception_4e/3x3_reduce <- inception_4d/output_inception_4d/output_0_split_2
I0429 14:18:44.734266 29880 net.cpp:380] inception_4e/3x3_reduce -> inception_4e/3x3_reduce
I0429 14:18:44.736766 29880 net.cpp:122] Setting up inception_4e/3x3_reduce
I0429 14:18:44.736785 29880 net.cpp:129] Top shape: 1 160 14 14 (31360)
I0429 14:18:44.736789 29880 net.cpp:137] Memory required for data: 50908996
I0429 14:18:44.736800 29880 layer_factory.hpp:77] Creating layer inception_4e/relu_3x3_reduce
I0429 14:18:44.736809 29880 net.cpp:84] Creating Layer inception_4e/relu_3x3_reduce
I0429 14:18:44.736814 29880 net.cpp:406] inception_4e/relu_3x3_reduce <- inception_4e/3x3_reduce
I0429 14:18:44.736822 29880 net.cpp:367] inception_4e/relu_3x3_reduce -> inception_4e/3x3_reduce (in-place)
I0429 14:18:44.738219 29880 net.cpp:122] Setting up inception_4e/relu_3x3_reduce
I0429 14:18:44.738239 29880 net.cpp:129] Top shape: 1 160 14 14 (31360)
I0429 14:18:44.738247 29880 net.cpp:137] Memory required for data: 51034436
I0429 14:18:44.738258 29880 layer_factory.hpp:77] Creating layer inception_4e/3x3
I0429 14:18:44.738276 29880 net.cpp:84] Creating Layer inception_4e/3x3
I0429 14:18:44.738283 29880 net.cpp:406] inception_4e/3x3 <- inception_4e/3x3_reduce
I0429 14:18:44.738296 29880 net.cpp:380] inception_4e/3x3 -> inception_4e/3x3
I0429 14:18:44.745625 29880 net.cpp:122] Setting up inception_4e/3x3
I0429 14:18:44.745667 29880 net.cpp:129] Top shape: 1 320 14 14 (62720)
I0429 14:18:44.745678 29880 net.cpp:137] Memory required for data: 51285316
I0429 14:18:44.745812 29880 layer_factory.hpp:77] Creating layer inception_4e/relu_3x3
I0429 14:18:44.745857 29880 net.cpp:84] Creating Layer inception_4e/relu_3x3
I0429 14:18:44.745879 29880 net.cpp:406] inception_4e/relu_3x3 <- inception_4e/3x3
I0429 14:18:44.745908 29880 net.cpp:367] inception_4e/relu_3x3 -> inception_4e/3x3 (in-place)
I0429 14:18:44.748031 29880 net.cpp:122] Setting up inception_4e/relu_3x3
I0429 14:18:44.748075 29880 net.cpp:129] Top shape: 1 320 14 14 (62720)
I0429 14:18:44.748095 29880 net.cpp:137] Memory required for data: 51536196
I0429 14:18:44.748114 29880 layer_factory.hpp:77] Creating layer inception_4e/5x5_reduce
I0429 14:18:44.748158 29880 net.cpp:84] Creating Layer inception_4e/5x5_reduce
I0429 14:18:44.748181 29880 net.cpp:406] inception_4e/5x5_reduce <- inception_4d/output_inception_4d/output_0_split_3
I0429 14:18:44.748219 29880 net.cpp:380] inception_4e/5x5_reduce -> inception_4e/5x5_reduce
I0429 14:18:44.750342 29880 net.cpp:122] Setting up inception_4e/5x5_reduce
I0429 14:18:44.750358 29880 net.cpp:129] Top shape: 1 32 14 14 (6272)
I0429 14:18:44.750362 29880 net.cpp:137] Memory required for data: 51561284
I0429 14:18:44.750370 29880 layer_factory.hpp:77] Creating layer inception_4e/relu_5x5_reduce
I0429 14:18:44.750378 29880 net.cpp:84] Creating Layer inception_4e/relu_5x5_reduce
I0429 14:18:44.750383 29880 net.cpp:406] inception_4e/relu_5x5_reduce <- inception_4e/5x5_reduce
I0429 14:18:44.750391 29880 net.cpp:367] inception_4e/relu_5x5_reduce -> inception_4e/5x5_reduce (in-place)
I0429 14:18:44.750628 29880 net.cpp:122] Setting up inception_4e/relu_5x5_reduce
I0429 14:18:44.750641 29880 net.cpp:129] Top shape: 1 32 14 14 (6272)
I0429 14:18:44.750645 29880 net.cpp:137] Memory required for data: 51586372
I0429 14:18:44.750650 29880 layer_factory.hpp:77] Creating layer inception_4e/5x5
I0429 14:18:44.750669 29880 net.cpp:84] Creating Layer inception_4e/5x5
I0429 14:18:44.750676 29880 net.cpp:406] inception_4e/5x5 <- inception_4e/5x5_reduce
I0429 14:18:44.750684 29880 net.cpp:380] inception_4e/5x5 -> inception_4e/5x5
I0429 14:18:44.753105 29880 net.cpp:122] Setting up inception_4e/5x5
I0429 14:18:44.753123 29880 net.cpp:129] Top shape: 1 128 14 14 (25088)
I0429 14:18:44.753127 29880 net.cpp:137] Memory required for data: 51686724
I0429 14:18:44.753135 29880 layer_factory.hpp:77] Creating layer inception_4e/relu_5x5
I0429 14:18:44.753144 29880 net.cpp:84] Creating Layer inception_4e/relu_5x5
I0429 14:18:44.753149 29880 net.cpp:406] inception_4e/relu_5x5 <- inception_4e/5x5
I0429 14:18:44.753157 29880 net.cpp:367] inception_4e/relu_5x5 -> inception_4e/5x5 (in-place)
I0429 14:18:44.753326 29880 net.cpp:122] Setting up inception_4e/relu_5x5
I0429 14:18:44.753337 29880 net.cpp:129] Top shape: 1 128 14 14 (25088)
I0429 14:18:44.753343 29880 net.cpp:137] Memory required for data: 51787076
I0429 14:18:44.753348 29880 layer_factory.hpp:77] Creating layer inception_4e/pool
I0429 14:18:44.753357 29880 net.cpp:84] Creating Layer inception_4e/pool
I0429 14:18:44.753362 29880 net.cpp:406] inception_4e/pool <- inception_4d/output_inception_4d/output_0_split_4
I0429 14:18:44.753370 29880 net.cpp:380] inception_4e/pool -> inception_4e/pool
I0429 14:18:44.753435 29880 net.cpp:122] Setting up inception_4e/pool
I0429 14:18:44.753445 29880 net.cpp:129] Top shape: 1 528 14 14 (103488)
I0429 14:18:44.753451 29880 net.cpp:137] Memory required for data: 52201028
I0429 14:18:44.753458 29880 layer_factory.hpp:77] Creating layer inception_4e/pool_proj
I0429 14:18:44.753475 29880 net.cpp:84] Creating Layer inception_4e/pool_proj
I0429 14:18:44.753484 29880 net.cpp:406] inception_4e/pool_proj <- inception_4e/pool
I0429 14:18:44.753496 29880 net.cpp:380] inception_4e/pool_proj -> inception_4e/pool_proj
I0429 14:18:44.755540 29880 net.cpp:122] Setting up inception_4e/pool_proj
I0429 14:18:44.755560 29880 net.cpp:129] Top shape: 1 128 14 14 (25088)
I0429 14:18:44.755566 29880 net.cpp:137] Memory required for data: 52301380
I0429 14:18:44.755575 29880 layer_factory.hpp:77] Creating layer inception_4e/relu_pool_proj
I0429 14:18:44.755607 29880 net.cpp:84] Creating Layer inception_4e/relu_pool_proj
I0429 14:18:44.755614 29880 net.cpp:406] inception_4e/relu_pool_proj <- inception_4e/pool_proj
I0429 14:18:44.755625 29880 net.cpp:367] inception_4e/relu_pool_proj -> inception_4e/pool_proj (in-place)
I0429 14:18:44.755852 29880 net.cpp:122] Setting up inception_4e/relu_pool_proj
I0429 14:18:44.755865 29880 net.cpp:129] Top shape: 1 128 14 14 (25088)
I0429 14:18:44.755872 29880 net.cpp:137] Memory required for data: 52401732
I0429 14:18:44.755877 29880 layer_factory.hpp:77] Creating layer inception_4e/output
I0429 14:18:44.755885 29880 net.cpp:84] Creating Layer inception_4e/output
I0429 14:18:44.755892 29880 net.cpp:406] inception_4e/output <- inception_4e/1x1
I0429 14:18:44.755900 29880 net.cpp:406] inception_4e/output <- inception_4e/3x3
I0429 14:18:44.755906 29880 net.cpp:406] inception_4e/output <- inception_4e/5x5
I0429 14:18:44.755913 29880 net.cpp:406] inception_4e/output <- inception_4e/pool_proj
I0429 14:18:44.755924 29880 net.cpp:380] inception_4e/output -> inception_4e/output
I0429 14:18:44.755975 29880 net.cpp:122] Setting up inception_4e/output
I0429 14:18:44.755987 29880 net.cpp:129] Top shape: 1 832 14 14 (163072)
I0429 14:18:44.755995 29880 net.cpp:137] Memory required for data: 53054020
I0429 14:18:44.756000 29880 layer_factory.hpp:77] Creating layer pool4/3x3_s2
I0429 14:18:44.756011 29880 net.cpp:84] Creating Layer pool4/3x3_s2
I0429 14:18:44.756018 29880 net.cpp:406] pool4/3x3_s2 <- inception_4e/output
I0429 14:18:44.756028 29880 net.cpp:380] pool4/3x3_s2 -> pool4/3x3_s2
I0429 14:18:44.756119 29880 net.cpp:122] Setting up pool4/3x3_s2
I0429 14:18:44.756131 29880 net.cpp:129] Top shape: 1 832 7 7 (40768)
I0429 14:18:44.756137 29880 net.cpp:137] Memory required for data: 53217092
I0429 14:18:44.756144 29880 layer_factory.hpp:77] Creating layer pool4/3x3_s2_pool4/3x3_s2_0_split
I0429 14:18:44.756156 29880 net.cpp:84] Creating Layer pool4/3x3_s2_pool4/3x3_s2_0_split
I0429 14:18:44.756165 29880 net.cpp:406] pool4/3x3_s2_pool4/3x3_s2_0_split <- pool4/3x3_s2
I0429 14:18:44.756173 29880 net.cpp:380] pool4/3x3_s2_pool4/3x3_s2_0_split -> pool4/3x3_s2_pool4/3x3_s2_0_split_0
I0429 14:18:44.756186 29880 net.cpp:380] pool4/3x3_s2_pool4/3x3_s2_0_split -> pool4/3x3_s2_pool4/3x3_s2_0_split_1
I0429 14:18:44.756235 29880 net.cpp:380] pool4/3x3_s2_pool4/3x3_s2_0_split -> pool4/3x3_s2_pool4/3x3_s2_0_split_2
I0429 14:18:44.756250 29880 net.cpp:380] pool4/3x3_s2_pool4/3x3_s2_0_split -> pool4/3x3_s2_pool4/3x3_s2_0_split_3
I0429 14:18:44.756371 29880 net.cpp:122] Setting up pool4/3x3_s2_pool4/3x3_s2_0_split
I0429 14:18:44.756386 29880 net.cpp:129] Top shape: 1 832 7 7 (40768)
I0429 14:18:44.756397 29880 net.cpp:129] Top shape: 1 832 7 7 (40768)
I0429 14:18:44.756404 29880 net.cpp:129] Top shape: 1 832 7 7 (40768)
I0429 14:18:44.756410 29880 net.cpp:129] Top shape: 1 832 7 7 (40768)
I0429 14:18:44.756415 29880 net.cpp:137] Memory required for data: 53869380
I0429 14:18:44.756422 29880 layer_factory.hpp:77] Creating layer inception_5a/1x1
I0429 14:18:44.756435 29880 net.cpp:84] Creating Layer inception_5a/1x1
I0429 14:18:44.756443 29880 net.cpp:406] inception_5a/1x1 <- pool4/3x3_s2_pool4/3x3_s2_0_split_0
I0429 14:18:44.756454 29880 net.cpp:380] inception_5a/1x1 -> inception_5a/1x1
I0429 14:18:44.761633 29880 net.cpp:122] Setting up inception_5a/1x1
I0429 14:18:44.761673 29880 net.cpp:129] Top shape: 1 256 7 7 (12544)
I0429 14:18:44.761682 29880 net.cpp:137] Memory required for data: 53919556
I0429 14:18:44.761696 29880 layer_factory.hpp:77] Creating layer inception_5a/relu_1x1
I0429 14:18:44.761746 29880 net.cpp:84] Creating Layer inception_5a/relu_1x1
I0429 14:18:44.761760 29880 net.cpp:406] inception_5a/relu_1x1 <- inception_5a/1x1
I0429 14:18:44.761773 29880 net.cpp:367] inception_5a/relu_1x1 -> inception_5a/1x1 (in-place)
I0429 14:18:44.762069 29880 net.cpp:122] Setting up inception_5a/relu_1x1
I0429 14:18:44.762089 29880 net.cpp:129] Top shape: 1 256 7 7 (12544)
I0429 14:18:44.762099 29880 net.cpp:137] Memory required for data: 53969732
I0429 14:18:44.762121 29880 layer_factory.hpp:77] Creating layer inception_5a/3x3_reduce
I0429 14:18:44.762154 29880 net.cpp:84] Creating Layer inception_5a/3x3_reduce
I0429 14:18:44.762164 29880 net.cpp:406] inception_5a/3x3_reduce <- pool4/3x3_s2_pool4/3x3_s2_0_split_1
I0429 14:18:44.762178 29880 net.cpp:380] inception_5a/3x3_reduce -> inception_5a/3x3_reduce
I0429 14:18:44.766273 29880 net.cpp:122] Setting up inception_5a/3x3_reduce
I0429 14:18:44.766300 29880 net.cpp:129] Top shape: 1 160 7 7 (7840)
I0429 14:18:44.766305 29880 net.cpp:137] Memory required for data: 54001092
I0429 14:18:44.766317 29880 layer_factory.hpp:77] Creating layer inception_5a/relu_3x3_reduce
I0429 14:18:44.766329 29880 net.cpp:84] Creating Layer inception_5a/relu_3x3_reduce
I0429 14:18:44.766335 29880 net.cpp:406] inception_5a/relu_3x3_reduce <- inception_5a/3x3_reduce
I0429 14:18:44.766345 29880 net.cpp:367] inception_5a/relu_3x3_reduce -> inception_5a/3x3_reduce (in-place)
I0429 14:18:44.767086 29880 net.cpp:122] Setting up inception_5a/relu_3x3_reduce
I0429 14:18:44.767101 29880 net.cpp:129] Top shape: 1 160 7 7 (7840)
I0429 14:18:44.767107 29880 net.cpp:137] Memory required for data: 54032452
I0429 14:18:44.767115 29880 layer_factory.hpp:77] Creating layer inception_5a/3x3
I0429 14:18:44.767134 29880 net.cpp:84] Creating Layer inception_5a/3x3
I0429 14:18:44.767140 29880 net.cpp:406] inception_5a/3x3 <- inception_5a/3x3_reduce
I0429 14:18:44.767148 29880 net.cpp:380] inception_5a/3x3 -> inception_5a/3x3
I0429 14:18:44.772496 29880 net.cpp:122] Setting up inception_5a/3x3
I0429 14:18:44.772554 29880 net.cpp:129] Top shape: 1 320 7 7 (15680)
I0429 14:18:44.772562 29880 net.cpp:137] Memory required for data: 54095172
I0429 14:18:44.772584 29880 layer_factory.hpp:77] Creating layer inception_5a/relu_3x3
I0429 14:18:44.772606 29880 net.cpp:84] Creating Layer inception_5a/relu_3x3
I0429 14:18:44.772616 29880 net.cpp:406] inception_5a/relu_3x3 <- inception_5a/3x3
I0429 14:18:44.772634 29880 net.cpp:367] inception_5a/relu_3x3 -> inception_5a/3x3 (in-place)
I0429 14:18:44.773957 29880 net.cpp:122] Setting up inception_5a/relu_3x3
I0429 14:18:44.773978 29880 net.cpp:129] Top shape: 1 320 7 7 (15680)
I0429 14:18:44.773983 29880 net.cpp:137] Memory required for data: 54157892
I0429 14:18:44.773988 29880 layer_factory.hpp:77] Creating layer inception_5a/5x5_reduce
I0429 14:18:44.774010 29880 net.cpp:84] Creating Layer inception_5a/5x5_reduce
I0429 14:18:44.774016 29880 net.cpp:406] inception_5a/5x5_reduce <- pool4/3x3_s2_pool4/3x3_s2_0_split_2
I0429 14:18:44.774024 29880 net.cpp:380] inception_5a/5x5_reduce -> inception_5a/5x5_reduce
I0429 14:18:44.776531 29880 net.cpp:122] Setting up inception_5a/5x5_reduce
I0429 14:18:44.776566 29880 net.cpp:129] Top shape: 1 32 7 7 (1568)
I0429 14:18:44.776574 29880 net.cpp:137] Memory required for data: 54164164
I0429 14:18:44.776602 29880 layer_factory.hpp:77] Creating layer inception_5a/relu_5x5_reduce
I0429 14:18:44.776626 29880 net.cpp:84] Creating Layer inception_5a/relu_5x5_reduce
I0429 14:18:44.776648 29880 net.cpp:406] inception_5a/relu_5x5_reduce <- inception_5a/5x5_reduce
I0429 14:18:44.776669 29880 net.cpp:367] inception_5a/relu_5x5_reduce -> inception_5a/5x5_reduce (in-place)
I0429 14:18:44.777308 29880 net.cpp:122] Setting up inception_5a/relu_5x5_reduce
I0429 14:18:44.777341 29880 net.cpp:129] Top shape: 1 32 7 7 (1568)
I0429 14:18:44.777357 29880 net.cpp:137] Memory required for data: 54170436
I0429 14:18:44.777374 29880 layer_factory.hpp:77] Creating layer inception_5a/5x5
I0429 14:18:44.777420 29880 net.cpp:84] Creating Layer inception_5a/5x5
I0429 14:18:44.777438 29880 net.cpp:406] inception_5a/5x5 <- inception_5a/5x5_reduce
I0429 14:18:44.777467 29880 net.cpp:380] inception_5a/5x5 -> inception_5a/5x5
I0429 14:18:44.782742 29880 net.cpp:122] Setting up inception_5a/5x5
I0429 14:18:44.782784 29880 net.cpp:129] Top shape: 1 128 7 7 (6272)
I0429 14:18:44.782799 29880 net.cpp:137] Memory required for data: 54195524
I0429 14:18:44.782817 29880 layer_factory.hpp:77] Creating layer inception_5a/relu_5x5
I0429 14:18:44.782855 29880 net.cpp:84] Creating Layer inception_5a/relu_5x5
I0429 14:18:44.782937 29880 net.cpp:406] inception_5a/relu_5x5 <- inception_5a/5x5
I0429 14:18:44.782951 29880 net.cpp:367] inception_5a/relu_5x5 -> inception_5a/5x5 (in-place)
I0429 14:18:44.783298 29880 net.cpp:122] Setting up inception_5a/relu_5x5
I0429 14:18:44.783313 29880 net.cpp:129] Top shape: 1 128 7 7 (6272)
I0429 14:18:44.783318 29880 net.cpp:137] Memory required for data: 54220612
I0429 14:18:44.783327 29880 layer_factory.hpp:77] Creating layer inception_5a/pool
I0429 14:18:44.783345 29880 net.cpp:84] Creating Layer inception_5a/pool
I0429 14:18:44.783352 29880 net.cpp:406] inception_5a/pool <- pool4/3x3_s2_pool4/3x3_s2_0_split_3
I0429 14:18:44.783362 29880 net.cpp:380] inception_5a/pool -> inception_5a/pool
I0429 14:18:44.783453 29880 net.cpp:122] Setting up inception_5a/pool
I0429 14:18:44.783469 29880 net.cpp:129] Top shape: 1 832 7 7 (40768)
I0429 14:18:44.783474 29880 net.cpp:137] Memory required for data: 54383684
I0429 14:18:44.783478 29880 layer_factory.hpp:77] Creating layer inception_5a/pool_proj
I0429 14:18:44.783499 29880 net.cpp:84] Creating Layer inception_5a/pool_proj
I0429 14:18:44.783504 29880 net.cpp:406] inception_5a/pool_proj <- inception_5a/pool
I0429 14:18:44.783519 29880 net.cpp:380] inception_5a/pool_proj -> inception_5a/pool_proj
I0429 14:18:44.811020 29880 net.cpp:122] Setting up inception_5a/pool_proj
I0429 14:18:44.811062 29880 net.cpp:129] Top shape: 1 128 7 7 (6272)
I0429 14:18:44.811072 29880 net.cpp:137] Memory required for data: 54408772
I0429 14:18:44.811090 29880 layer_factory.hpp:77] Creating layer inception_5a/relu_pool_proj
I0429 14:18:44.811106 29880 net.cpp:84] Creating Layer inception_5a/relu_pool_proj
I0429 14:18:44.811123 29880 net.cpp:406] inception_5a/relu_pool_proj <- inception_5a/pool_proj
I0429 14:18:44.811136 29880 net.cpp:367] inception_5a/relu_pool_proj -> inception_5a/pool_proj (in-place)
I0429 14:18:44.811421 29880 net.cpp:122] Setting up inception_5a/relu_pool_proj
I0429 14:18:44.811441 29880 net.cpp:129] Top shape: 1 128 7 7 (6272)
I0429 14:18:44.811450 29880 net.cpp:137] Memory required for data: 54433860
I0429 14:18:44.811458 29880 layer_factory.hpp:77] Creating layer inception_5a/output
I0429 14:18:44.811470 29880 net.cpp:84] Creating Layer inception_5a/output
I0429 14:18:44.811478 29880 net.cpp:406] inception_5a/output <- inception_5a/1x1
I0429 14:18:44.811489 29880 net.cpp:406] inception_5a/output <- inception_5a/3x3
I0429 14:18:44.811501 29880 net.cpp:406] inception_5a/output <- inception_5a/5x5
I0429 14:18:44.811509 29880 net.cpp:406] inception_5a/output <- inception_5a/pool_proj
I0429 14:18:44.811523 29880 net.cpp:380] inception_5a/output -> inception_5a/output
I0429 14:18:44.811589 29880 net.cpp:122] Setting up inception_5a/output
I0429 14:18:44.811604 29880 net.cpp:129] Top shape: 1 832 7 7 (40768)
I0429 14:18:44.811612 29880 net.cpp:137] Memory required for data: 54596932
I0429 14:18:44.811620 29880 layer_factory.hpp:77] Creating layer inception_5a/output_inception_5a/output_0_split
I0429 14:18:44.811631 29880 net.cpp:84] Creating Layer inception_5a/output_inception_5a/output_0_split
I0429 14:18:44.811638 29880 net.cpp:406] inception_5a/output_inception_5a/output_0_split <- inception_5a/output
I0429 14:18:44.811652 29880 net.cpp:380] inception_5a/output_inception_5a/output_0_split -> inception_5a/output_inception_5a/output_0_split_0
I0429 14:18:44.811668 29880 net.cpp:380] inception_5a/output_inception_5a/output_0_split -> inception_5a/output_inception_5a/output_0_split_1
I0429 14:18:44.811686 29880 net.cpp:380] inception_5a/output_inception_5a/output_0_split -> inception_5a/output_inception_5a/output_0_split_2
I0429 14:18:44.811699 29880 net.cpp:380] inception_5a/output_inception_5a/output_0_split -> inception_5a/output_inception_5a/output_0_split_3
I0429 14:18:44.811847 29880 net.cpp:122] Setting up inception_5a/output_inception_5a/output_0_split
I0429 14:18:44.811861 29880 net.cpp:129] Top shape: 1 832 7 7 (40768)
I0429 14:18:44.811879 29880 net.cpp:129] Top shape: 1 832 7 7 (40768)
I0429 14:18:44.811906 29880 net.cpp:129] Top shape: 1 832 7 7 (40768)
I0429 14:18:44.811915 29880 net.cpp:129] Top shape: 1 832 7 7 (40768)
I0429 14:18:44.811923 29880 net.cpp:137] Memory required for data: 55249220
I0429 14:18:44.811929 29880 layer_factory.hpp:77] Creating layer inception_5b/1x1
I0429 14:18:44.811949 29880 net.cpp:84] Creating Layer inception_5b/1x1
I0429 14:18:44.811959 29880 net.cpp:406] inception_5b/1x1 <- inception_5a/output_inception_5a/output_0_split_0
I0429 14:18:44.811974 29880 net.cpp:380] inception_5b/1x1 -> inception_5b/1x1
I0429 14:18:44.825232 29880 net.cpp:122] Setting up inception_5b/1x1
I0429 14:18:44.825276 29880 net.cpp:129] Top shape: 1 384 7 7 (18816)
I0429 14:18:44.825286 29880 net.cpp:137] Memory required for data: 55324484
I0429 14:18:44.825309 29880 layer_factory.hpp:77] Creating layer inception_5b/relu_1x1
I0429 14:18:44.825332 29880 net.cpp:84] Creating Layer inception_5b/relu_1x1
I0429 14:18:44.825345 29880 net.cpp:406] inception_5b/relu_1x1 <- inception_5b/1x1
I0429 14:18:44.825356 29880 net.cpp:367] inception_5b/relu_1x1 -> inception_5b/1x1 (in-place)
I0429 14:18:44.825659 29880 net.cpp:122] Setting up inception_5b/relu_1x1
I0429 14:18:44.825682 29880 net.cpp:129] Top shape: 1 384 7 7 (18816)
I0429 14:18:44.825698 29880 net.cpp:137] Memory required for data: 55399748
I0429 14:18:44.825762 29880 layer_factory.hpp:77] Creating layer inception_5b/3x3_reduce
I0429 14:18:44.825790 29880 net.cpp:84] Creating Layer inception_5b/3x3_reduce
I0429 14:18:44.825808 29880 net.cpp:406] inception_5b/3x3_reduce <- inception_5a/output_inception_5a/output_0_split_1
I0429 14:18:44.825820 29880 net.cpp:380] inception_5b/3x3_reduce -> inception_5b/3x3_reduce
I0429 14:18:44.835697 29880 net.cpp:122] Setting up inception_5b/3x3_reduce
I0429 14:18:44.835768 29880 net.cpp:129] Top shape: 1 192 7 7 (9408)
I0429 14:18:44.835783 29880 net.cpp:137] Memory required for data: 55437380
I0429 14:18:44.835805 29880 layer_factory.hpp:77] Creating layer inception_5b/relu_3x3_reduce
I0429 14:18:44.835830 29880 net.cpp:84] Creating Layer inception_5b/relu_3x3_reduce
I0429 14:18:44.835849 29880 net.cpp:406] inception_5b/relu_3x3_reduce <- inception_5b/3x3_reduce
I0429 14:18:44.835880 29880 net.cpp:367] inception_5b/relu_3x3_reduce -> inception_5b/3x3_reduce (in-place)
I0429 14:18:44.838490 29880 net.cpp:122] Setting up inception_5b/relu_3x3_reduce
I0429 14:18:44.838520 29880 net.cpp:129] Top shape: 1 192 7 7 (9408)
I0429 14:18:44.838526 29880 net.cpp:137] Memory required for data: 55475012
I0429 14:18:44.838536 29880 layer_factory.hpp:77] Creating layer inception_5b/3x3
I0429 14:18:44.838559 29880 net.cpp:84] Creating Layer inception_5b/3x3
I0429 14:18:44.838570 29880 net.cpp:406] inception_5b/3x3 <- inception_5b/3x3_reduce
I0429 14:18:44.838587 29880 net.cpp:380] inception_5b/3x3 -> inception_5b/3x3
I0429 14:18:44.867095 29880 net.cpp:122] Setting up inception_5b/3x3
I0429 14:18:44.867148 29880 net.cpp:129] Top shape: 1 384 7 7 (18816)
I0429 14:18:44.867156 29880 net.cpp:137] Memory required for data: 55550276
I0429 14:18:44.867180 29880 layer_factory.hpp:77] Creating layer inception_5b/relu_3x3
I0429 14:18:44.867197 29880 net.cpp:84] Creating Layer inception_5b/relu_3x3
I0429 14:18:44.867213 29880 net.cpp:406] inception_5b/relu_3x3 <- inception_5b/3x3
I0429 14:18:44.867233 29880 net.cpp:367] inception_5b/relu_3x3 -> inception_5b/3x3 (in-place)
I0429 14:18:44.878096 29880 net.cpp:122] Setting up inception_5b/relu_3x3
I0429 14:18:44.878177 29880 net.cpp:129] Top shape: 1 384 7 7 (18816)
I0429 14:18:44.878202 29880 net.cpp:137] Memory required for data: 55625540
I0429 14:18:44.878232 29880 layer_factory.hpp:77] Creating layer inception_5b/5x5_reduce
I0429 14:18:44.878273 29880 net.cpp:84] Creating Layer inception_5b/5x5_reduce
I0429 14:18:44.878286 29880 net.cpp:406] inception_5b/5x5_reduce <- inception_5a/output_inception_5a/output_0_split_2
I0429 14:18:44.878311 29880 net.cpp:380] inception_5b/5x5_reduce -> inception_5b/5x5_reduce
I0429 14:18:44.882048 29880 net.cpp:122] Setting up inception_5b/5x5_reduce
I0429 14:18:44.882158 29880 net.cpp:129] Top shape: 1 48 7 7 (2352)
I0429 14:18:44.882184 29880 net.cpp:137] Memory required for data: 55634948
I0429 14:18:44.882199 29880 layer_factory.hpp:77] Creating layer inception_5b/relu_5x5_reduce
I0429 14:18:44.882215 29880 net.cpp:84] Creating Layer inception_5b/relu_5x5_reduce
I0429 14:18:44.882226 29880 net.cpp:406] inception_5b/relu_5x5_reduce <- inception_5b/5x5_reduce
I0429 14:18:44.882261 29880 net.cpp:367] inception_5b/relu_5x5_reduce -> inception_5b/5x5_reduce (in-place)
I0429 14:18:44.882577 29880 net.cpp:122] Setting up inception_5b/relu_5x5_reduce
I0429 14:18:44.882592 29880 net.cpp:129] Top shape: 1 48 7 7 (2352)
I0429 14:18:44.882599 29880 net.cpp:137] Memory required for data: 55644356
I0429 14:18:44.882629 29880 layer_factory.hpp:77] Creating layer inception_5b/5x5
I0429 14:18:44.882647 29880 net.cpp:84] Creating Layer inception_5b/5x5
I0429 14:18:44.882655 29880 net.cpp:406] inception_5b/5x5 <- inception_5b/5x5_reduce
I0429 14:18:44.882668 29880 net.cpp:380] inception_5b/5x5 -> inception_5b/5x5
I0429 14:18:44.889780 29880 net.cpp:122] Setting up inception_5b/5x5
I0429 14:18:44.889822 29880 net.cpp:129] Top shape: 1 128 7 7 (6272)
I0429 14:18:44.889829 29880 net.cpp:137] Memory required for data: 55669444
I0429 14:18:44.889853 29880 layer_factory.hpp:77] Creating layer inception_5b/relu_5x5
I0429 14:18:44.889863 29880 net.cpp:84] Creating Layer inception_5b/relu_5x5
I0429 14:18:44.889870 29880 net.cpp:406] inception_5b/relu_5x5 <- inception_5b/5x5
I0429 14:18:44.889900 29880 net.cpp:367] inception_5b/relu_5x5 -> inception_5b/5x5 (in-place)
I0429 14:18:44.890275 29880 net.cpp:122] Setting up inception_5b/relu_5x5
I0429 14:18:44.890288 29880 net.cpp:129] Top shape: 1 128 7 7 (6272)
I0429 14:18:44.890297 29880 net.cpp:137] Memory required for data: 55694532
I0429 14:18:44.890303 29880 layer_factory.hpp:77] Creating layer inception_5b/pool
I0429 14:18:44.890333 29880 net.cpp:84] Creating Layer inception_5b/pool
I0429 14:18:44.890343 29880 net.cpp:406] inception_5b/pool <- inception_5a/output_inception_5a/output_0_split_3
I0429 14:18:44.890362 29880 net.cpp:380] inception_5b/pool -> inception_5b/pool
I0429 14:18:44.890506 29880 net.cpp:122] Setting up inception_5b/pool
I0429 14:18:44.890525 29880 net.cpp:129] Top shape: 1 832 7 7 (40768)
I0429 14:18:44.890552 29880 net.cpp:137] Memory required for data: 55857604
I0429 14:18:44.890559 29880 layer_factory.hpp:77] Creating layer inception_5b/pool_proj
I0429 14:18:44.890588 29880 net.cpp:84] Creating Layer inception_5b/pool_proj
I0429 14:18:44.890600 29880 net.cpp:406] inception_5b/pool_proj <- inception_5b/pool
I0429 14:18:44.890632 29880 net.cpp:380] inception_5b/pool_proj -> inception_5b/pool_proj
I0429 14:18:44.896791 29880 net.cpp:122] Setting up inception_5b/pool_proj
I0429 14:18:44.896834 29880 net.cpp:129] Top shape: 1 128 7 7 (6272)
I0429 14:18:44.896841 29880 net.cpp:137] Memory required for data: 55882692
I0429 14:18:44.896853 29880 layer_factory.hpp:77] Creating layer inception_5b/relu_pool_proj
I0429 14:18:44.896867 29880 net.cpp:84] Creating Layer inception_5b/relu_pool_proj
I0429 14:18:44.896891 29880 net.cpp:406] inception_5b/relu_pool_proj <- inception_5b/pool_proj
I0429 14:18:44.896903 29880 net.cpp:367] inception_5b/relu_pool_proj -> inception_5b/pool_proj (in-place)
I0429 14:18:44.897282 29880 net.cpp:122] Setting up inception_5b/relu_pool_proj
I0429 14:18:44.897341 29880 net.cpp:129] Top shape: 1 128 7 7 (6272)
I0429 14:18:44.897361 29880 net.cpp:137] Memory required for data: 55907780
I0429 14:18:44.897397 29880 layer_factory.hpp:77] Creating layer inception_5b/output
I0429 14:18:44.897429 29880 net.cpp:84] Creating Layer inception_5b/output
I0429 14:18:44.897465 29880 net.cpp:406] inception_5b/output <- inception_5b/1x1
I0429 14:18:44.897481 29880 net.cpp:406] inception_5b/output <- inception_5b/3x3
I0429 14:18:44.897488 29880 net.cpp:406] inception_5b/output <- inception_5b/5x5
I0429 14:18:44.897495 29880 net.cpp:406] inception_5b/output <- inception_5b/pool_proj
I0429 14:18:44.897512 29880 net.cpp:380] inception_5b/output -> inception_5b/output
I0429 14:18:44.897619 29880 net.cpp:122] Setting up inception_5b/output
I0429 14:18:44.897631 29880 net.cpp:129] Top shape: 1 1024 7 7 (50176)
I0429 14:18:44.897636 29880 net.cpp:137] Memory required for data: 56108484
I0429 14:18:44.897644 29880 layer_factory.hpp:77] Creating layer pool5/7x7_s1
I0429 14:18:44.897655 29880 net.cpp:84] Creating Layer pool5/7x7_s1
I0429 14:18:44.897661 29880 net.cpp:406] pool5/7x7_s1 <- inception_5b/output
I0429 14:18:44.897689 29880 net.cpp:380] pool5/7x7_s1 -> pool5/7x7_s1
I0429 14:18:44.898893 29880 net.cpp:122] Setting up pool5/7x7_s1
I0429 14:18:44.898911 29880 net.cpp:129] Top shape: 1 1024 1 1 (1024)
I0429 14:18:44.898917 29880 net.cpp:137] Memory required for data: 56112580
I0429 14:18:44.898923 29880 layer_factory.hpp:77] Creating layer pool5/drop_7x7_s1
I0429 14:18:44.898950 29880 net.cpp:84] Creating Layer pool5/drop_7x7_s1
I0429 14:18:44.898959 29880 net.cpp:406] pool5/drop_7x7_s1 <- pool5/7x7_s1
I0429 14:18:44.898972 29880 net.cpp:367] pool5/drop_7x7_s1 -> pool5/7x7_s1 (in-place)
I0429 14:18:44.899040 29880 net.cpp:122] Setting up pool5/drop_7x7_s1
I0429 14:18:44.899052 29880 net.cpp:129] Top shape: 1 1024 1 1 (1024)
I0429 14:18:44.899058 29880 net.cpp:137] Memory required for data: 56116676
I0429 14:18:44.899065 29880 layer_factory.hpp:77] Creating layer loss3/classifier
I0429 14:18:44.899076 29880 net.cpp:84] Creating Layer loss3/classifier
I0429 14:18:44.899101 29880 net.cpp:406] loss3/classifier <- pool5/7x7_s1
I0429 14:18:44.899113 29880 net.cpp:380] loss3/classifier -> loss3/classifier
I0429 14:18:44.899478 29880 net.cpp:122] Setting up loss3/classifier
I0429 14:18:44.899492 29880 net.cpp:129] Top shape: 1 5 (5)
I0429 14:18:44.899497 29880 net.cpp:137] Memory required for data: 56116696
I0429 14:18:44.899507 29880 layer_factory.hpp:77] Creating layer loss3/classifier_loss3/classifier_0_split
I0429 14:18:44.899549 29880 net.cpp:84] Creating Layer loss3/classifier_loss3/classifier_0_split
I0429 14:18:44.899564 29880 net.cpp:406] loss3/classifier_loss3/classifier_0_split <- loss3/classifier
I0429 14:18:44.899610 29880 net.cpp:380] loss3/classifier_loss3/classifier_0_split -> loss3/classifier_loss3/classifier_0_split_0
I0429 14:18:44.899643 29880 net.cpp:380] loss3/classifier_loss3/classifier_0_split -> loss3/classifier_loss3/classifier_0_split_1
I0429 14:18:44.899693 29880 net.cpp:380] loss3/classifier_loss3/classifier_0_split -> loss3/classifier_loss3/classifier_0_split_2
I0429 14:18:44.899719 29880 net.cpp:380] loss3/classifier_loss3/classifier_0_split -> loss3/classifier_loss3/classifier_0_split_3
I0429 14:18:44.899935 29880 net.cpp:122] Setting up loss3/classifier_loss3/classifier_0_split
I0429 14:18:44.899963 29880 net.cpp:129] Top shape: 1 5 (5)
I0429 14:18:44.899971 29880 net.cpp:129] Top shape: 1 5 (5)
I0429 14:18:44.899977 29880 net.cpp:129] Top shape: 1 5 (5)
I0429 14:18:44.899983 29880 net.cpp:129] Top shape: 1 5 (5)
I0429 14:18:44.899989 29880 net.cpp:137] Memory required for data: 56116776
I0429 14:18:44.899997 29880 layer_factory.hpp:77] Creating layer loss3/loss3
I0429 14:18:44.900007 29880 net.cpp:84] Creating Layer loss3/loss3
I0429 14:18:44.900030 29880 net.cpp:406] loss3/loss3 <- loss3/classifier_loss3/classifier_0_split_0
I0429 14:18:44.900040 29880 net.cpp:406] loss3/loss3 <- label_data_1_split_6
…
