…
I0430 10:34:34.702721 12726 net.cpp:294] The NetState phase (0) differed from the phase (1) specified by a rule in layer accuracy_top_2
I0430 10:34:34.702728 12726 net.cpp:294] The NetState phase (0) differed from the phase (1) specified by a rule in layer accuracy_top3
I0430 10:34:34.702839 12726 net.cpp:51] Initializing net from parameters: 
name: "LeNet"
state {
  phase: TRAIN
  level: 0
  stage: ""
}
layer {
  name: "mnist"
  type: "Data"
  top: "data"
  top: "label"
  include {
    phase: TRAIN
  }
  transform_param {
    scale: 0.00390625
    crop_size: 32
  }
  data_param {
    source: "./retina256/retina256_train_lmdb"
    batch_size: 100
    backend: LMDB
  }
}
layer {
  name: "conv1"
  type: "Convolution"
  bottom: "data"
  top: "conv1"
  param {
    lr_mult: 1
  }
  param {
    lr_mult: 2
  }
  convolution_param {
    num_output: 20
    kernel_size: 5
    stride: 1
    weight_filler {
      type: "xavier"
    }
    bias_filler {
      type: "constant"
    }
  }
}
layer {
  name: "pool1"
  type: "Pooling"
  bottom: "conv1"
  top: "pool1"
  pooling_param {
    pool: MAX
    kernel_size: 2
    stride: 2
  }
}
layer {
  name: "conv2"
  type: "Convolution"
  bottom: "pool1"
  top: "conv2"
  param {
    lr_mult: 1
  }
  param {
    lr_mult: 2
  }
  convolution_param {
    num_output: 50
    kernel_size: 5
    stride: 1
    weight_filler {
      type: "xavier"
    }
    bias_filler {
      type: "constant"
    }
  }
}
layer {
  name: "pool2"
  type: "Pooling"
  bottom: "conv2"
  top: "pool2"
  pooling_param {
    pool: MAX
    kernel_size: 2
    stride: 2
  }
}
layer {
  name: "ip1"
  type: "InnerProduct"
  bottom: "pool2"
  top: "ip1"
  param {
    lr_mult: 1
  }
  param {
    lr_mult: 2
  }
  inner_product_param {
    num_output: 500
    weight_filler {
      type: "xavier"
    }
    bias_filler {
      type: "constant"
    }
  }
}
layer {
  name: "relu1"
  type: "ReLU"
  bottom: "ip1"
  top: "ip1"
}
layer {
  name: "ip2"
  type: "InnerProduct"
  bottom: "ip1"
  top: "ip2"
  param {
    lr_mult: 1
  }
  param {
    lr_mult: 2
  }
  inner_product_param {
    num_output: 5
    weight_filler {
      type: "xavier"
    }
    bias_filler {
      type: "constant"
    }
  }
}
layer {
  name: "loss"
  type: "SoftmaxWithLoss"
  bottom: "ip2"
  bottom: "label"
  top: "loss"
}
I0430 10:34:34.702919 12726 layer_factory.hpp:77] Creating layer mnist
I0430 10:34:34.703045 12726 db_lmdb.cpp:35] Opened lmdb ./retina256/retina256_train_lmdb
I0430 10:34:34.703855 12726 net.cpp:84] Creating Layer mnist
I0430 10:34:34.703878 12726 net.cpp:380] mnist -> data
I0430 10:34:34.703917 12726 net.cpp:380] mnist -> label
I0430 10:34:34.706648 12726 data_layer.cpp:45] output data size: 100,3,32,32
I0430 10:34:34.718016 12726 net.cpp:122] Setting up mnist
I0430 10:34:34.718060 12726 net.cpp:129] Top shape: 100 3 32 32 (307200)
I0430 10:34:34.718072 12726 net.cpp:129] Top shape: 100 (100)
I0430 10:34:34.718080 12726 net.cpp:137] Memory required for data: 1229200
I0430 10:34:34.718094 12726 layer_factory.hpp:77] Creating layer conv1
I0430 10:34:34.718127 12726 net.cpp:84] Creating Layer conv1
I0430 10:34:34.718142 12726 net.cpp:406] conv1 <- data
I0430 10:34:34.718163 12726 net.cpp:380] conv1 -> conv1
I0430 10:34:35.748729 12726 net.cpp:122] Setting up conv1
I0430 10:34:35.748826 12726 net.cpp:129] Top shape: 100 20 28 28 (1568000)
I0430 10:34:35.748834 12726 net.cpp:137] Memory required for data: 7501200
I0430 10:34:35.748863 12726 layer_factory.hpp:77] Creating layer pool1
I0430 10:34:35.748883 12726 net.cpp:84] Creating Layer pool1
I0430 10:34:35.748893 12726 net.cpp:406] pool1 <- conv1
I0430 10:34:35.748906 12726 net.cpp:380] pool1 -> pool1
I0430 10:34:35.748983 12726 net.cpp:122] Setting up pool1
I0430 10:34:35.748996 12726 net.cpp:129] Top shape: 100 20 14 14 (392000)
I0430 10:34:35.749001 12726 net.cpp:137] Memory required for data: 9069200
I0430 10:34:35.749007 12726 layer_factory.hpp:77] Creating layer conv2
I0430 10:34:35.749027 12726 net.cpp:84] Creating Layer conv2
I0430 10:34:35.749037 12726 net.cpp:406] conv2 <- pool1
I0430 10:34:35.749044 12726 net.cpp:380] conv2 -> conv2
I0430 10:34:35.752337 12726 net.cpp:122] Setting up conv2
I0430 10:34:35.752385 12726 net.cpp:129] Top shape: 100 50 10 10 (500000)
I0430 10:34:35.752391 12726 net.cpp:137] Memory required for data: 11069200
I0430 10:34:35.752411 12726 layer_factory.hpp:77] Creating layer pool2
I0430 10:34:35.752429 12726 net.cpp:84] Creating Layer pool2
I0430 10:34:35.752435 12726 net.cpp:406] pool2 <- conv2
I0430 10:34:35.752445 12726 net.cpp:380] pool2 -> pool2
I0430 10:34:35.752509 12726 net.cpp:122] Setting up pool2
I0430 10:34:35.752521 12726 net.cpp:129] Top shape: 100 50 5 5 (125000)
I0430 10:34:35.752526 12726 net.cpp:137] Memory required for data: 11569200
I0430 10:34:35.752532 12726 layer_factory.hpp:77] Creating layer ip1
I0430 10:34:35.752543 12726 net.cpp:84] Creating Layer ip1
I0430 10:34:35.752550 12726 net.cpp:406] ip1 <- pool2
I0430 10:34:35.752559 12726 net.cpp:380] ip1 -> ip1
I0430 10:34:35.757813 12726 net.cpp:122] Setting up ip1
I0430 10:34:35.757848 12726 net.cpp:129] Top shape: 100 500 (50000)
I0430 10:34:35.757854 12726 net.cpp:137] Memory required for data: 11769200
I0430 10:34:35.757869 12726 layer_factory.hpp:77] Creating layer relu1
I0430 10:34:35.757880 12726 net.cpp:84] Creating Layer relu1
I0430 10:34:35.757887 12726 net.cpp:406] relu1 <- ip1
I0430 10:34:35.757894 12726 net.cpp:367] relu1 -> ip1 (in-place)
I0430 10:34:35.758081 12726 net.cpp:122] Setting up relu1
I0430 10:34:35.758090 12726 net.cpp:129] Top shape: 100 500 (50000)
I0430 10:34:35.758095 12726 net.cpp:137] Memory required for data: 11969200
I0430 10:34:35.758100 12726 layer_factory.hpp:77] Creating layer ip2
I0430 10:34:35.758108 12726 net.cpp:84] Creating Layer ip2
I0430 10:34:35.758112 12726 net.cpp:406] ip2 <- ip1
I0430 10:34:35.758119 12726 net.cpp:380] ip2 -> ip2
I0430 10:34:35.758224 12726 net.cpp:122] Setting up ip2
I0430 10:34:35.758231 12726 net.cpp:129] Top shape: 100 5 (500)
I0430 10:34:35.758235 12726 net.cpp:137] Memory required for data: 11971200
I0430 10:34:35.758241 12726 layer_factory.hpp:77] Creating layer loss
I0430 10:34:35.758250 12726 net.cpp:84] Creating Layer loss
I0430 10:34:35.758255 12726 net.cpp:406] loss <- ip2
I0430 10:34:35.758260 12726 net.cpp:406] loss <- label
I0430 10:34:35.758266 12726 net.cpp:380] loss -> loss
I0430 10:34:35.758280 12726 layer_factory.hpp:77] Creating layer loss
…
I0430 10:34:35.758790 12726 solver.cpp:190] Creating test net (#0) specified by net file: lenet.train_test.prototxt
I0430 10:34:35.758813 12726 net.cpp:294] The NetState phase (1) differed from the phase (0) specified by a rule in layer mnist
I0430 10:34:35.758896 12726 net.cpp:51] Initializing net from parameters: 
name: "LeNet"
state {
  phase: TEST
}
layer {
  name: "mnist"
  type: "Data"
  top: "data"
  top: "label"
  include {
    phase: TEST
  }
  transform_param {
    scale: 0.00390625
    crop_size: 32
  }
  data_param {
    source: "./retina256/retina256_test_lmdb"
    batch_size: 64
    backend: LMDB
  }
}
layer {
  name: "conv1"
  type: "Convolution"
  bottom: "data"
  top: "conv1"
  param {
    lr_mult: 1
  }
  param {
    lr_mult: 2
  }
  convolution_param {
    num_output: 20
    kernel_size: 5
    stride: 1
    weight_filler {
      type: "xavier"
    }
    bias_filler {
      type: "constant"
    }
  }
}
layer {
  name: "pool1"
  type: "Pooling"
  bottom: "conv1"
  top: "pool1"
  pooling_param {
    pool: MAX
    kernel_size: 2
    stride: 2
  }
}
layer {
  name: "conv2"
  type: "Convolution"
  bottom: "pool1"
  top: "conv2"
  param {
    lr_mult: 1
  }
  param {
    lr_mult: 2
  }
  convolution_param {
    num_output: 50
    kernel_size: 5
    stride: 1
    weight_filler {
      type: "xavier"
    }
    bias_filler {
      type: "constant"
    }
  }
}
layer {
  name: "pool2"
  type: "Pooling"
  bottom: "conv2"
  top: "pool2"
  pooling_param {
    pool: MAX
    kernel_size: 2
    stride: 2
  }
}
layer {
  name: "ip1"
  type: "InnerProduct"
  bottom: "pool2"
  top: "ip1"
  param {
    lr_mult: 1
  }
  param {
    lr_mult: 2
  }
  inner_product_param {
    num_output: 500
    weight_filler {
      type: "xavier"
    }
    bias_filler {
      type: "constant"
    }
  }
}
layer {
  name: "relu1"
  type: "ReLU"
  bottom: "ip1"
  top: "ip1"
}
layer {
  name: "ip2"
  type: "InnerProduct"
  bottom: "ip1"
  top: "ip2"
  param {
    lr_mult: 1
  }
  param {
    lr_mult: 2
  }
  inner_product_param {
    num_output: 5
    weight_filler {
      type: "xavier"
    }
    bias_filler {
      type: "constant"
    }
  }
}
layer {
  name: "loss"
  type: "SoftmaxWithLoss"
  bottom: "ip2"
  bottom: "label"
  top: "loss"
}
layer {
  name: "accuracy_top_1"
  type: "Accuracy"
  bottom: "ip2"
  bottom: "label"
  top: "accuracy_top_1"
  include {
    phase: TEST
  }
  accuracy_param {
    top_k: 1
  }
}
layer {
  name: "accuracy_top_2"
  type: "Accuracy"
  bottom: "ip2"
  bottom: "label"
  top: "accuracy_top_2"
  include {
    phase: TEST
  }
  accuracy_param {
    top_k: 2
  }
}
layer {
  name: "accuracy_top3"
  type: "Accuracy"
  bottom: "ip2"
  bottom: "label"
  top: "accuracy_top_3"
  include {
    phase: TEST
  }
  accuracy_param {
    top_k: 3
  }
}
I0430 10:34:35.758961 12726 layer_factory.hpp:77] Creating layer mnist
I0430 10:34:35.759022 12726 db_lmdb.cpp:35] Opened lmdb ./retina256/retina256_test_lmdb
I0430 10:34:35.761474 12726 net.cpp:84] Creating Layer mnist
I0430 10:34:35.761494 12726 net.cpp:380] mnist -> data
I0430 10:34:35.761505 12726 net.cpp:380] mnist -> label
I0430 10:34:35.762522 12726 data_layer.cpp:45] output data size: 64,3,32,32
I0430 10:34:35.763494 12726 net.cpp:122] Setting up mnist
I0430 10:34:35.763510 12726 net.cpp:129] Top shape: 64 3 32 32 (196608)
I0430 10:34:35.763515 12726 net.cpp:129] Top shape: 64 (64)
I0430 10:34:35.763520 12726 net.cpp:137] Memory required for data: 786688
I0430 10:34:35.763525 12726 layer_factory.hpp:77] Creating layer label_mnist_1_split
I0430 10:34:35.763536 12726 net.cpp:84] Creating Layer label_mnist_1_split
I0430 10:34:35.763543 12726 net.cpp:406] label_mnist_1_split <- label
I0430 10:34:35.763551 12726 net.cpp:380] label_mnist_1_split -> label_mnist_1_split_0
I0430 10:34:35.763561 12726 net.cpp:380] label_mnist_1_split -> label_mnist_1_split_1
I0430 10:34:35.763573 12726 net.cpp:380] label_mnist_1_split -> label_mnist_1_split_2
I0430 10:34:35.763595 12726 net.cpp:380] label_mnist_1_split -> label_mnist_1_split_3
I0430 10:34:35.763691 12726 net.cpp:122] Setting up label_mnist_1_split
I0430 10:34:35.763710 12726 net.cpp:129] Top shape: 64 (64)
I0430 10:34:35.763717 12726 net.cpp:129] Top shape: 64 (64)
I0430 10:34:35.763725 12726 net.cpp:129] Top shape: 64 (64)
I0430 10:34:35.763733 12726 net.cpp:129] Top shape: 64 (64)
I0430 10:34:35.763739 12726 net.cpp:137] Memory required for data: 787712
I0430 10:34:35.763746 12726 layer_factory.hpp:77] Creating layer conv1
I0430 10:34:35.763767 12726 net.cpp:84] Creating Layer conv1
I0430 10:34:35.763775 12726 net.cpp:406] conv1 <- data
I0430 10:34:35.763787 12726 net.cpp:380] conv1 -> conv1
I0430 10:34:35.766454 12726 net.cpp:122] Setting up conv1
I0430 10:34:35.766477 12726 net.cpp:129] Top shape: 64 20 28 28 (1003520)
I0430 10:34:35.766487 12726 net.cpp:137] Memory required for data: 4801792
I0430 10:34:35.766506 12726 layer_factory.hpp:77] Creating layer pool1
I0430 10:34:35.766520 12726 net.cpp:84] Creating Layer pool1
I0430 10:34:35.766530 12726 net.cpp:406] pool1 <- conv1
I0430 10:34:35.766541 12726 net.cpp:380] pool1 -> pool1
I0430 10:34:35.766598 12726 net.cpp:122] Setting up pool1
I0430 10:34:35.766611 12726 net.cpp:129] Top shape: 64 20 14 14 (250880)
I0430 10:34:35.766618 12726 net.cpp:137] Memory required for data: 5805312
I0430 10:34:35.766625 12726 layer_factory.hpp:77] Creating layer conv2
I0430 10:34:35.766643 12726 net.cpp:84] Creating Layer conv2
I0430 10:34:35.766650 12726 net.cpp:406] conv2 <- pool1
I0430 10:34:35.766662 12726 net.cpp:380] conv2 -> conv2
I0430 10:34:35.768419 12726 net.cpp:122] Setting up conv2
I0430 10:34:35.768438 12726 net.cpp:129] Top shape: 64 50 10 10 (320000)
I0430 10:34:35.768450 12726 net.cpp:137] Memory required for data: 7085312
I0430 10:34:35.768465 12726 layer_factory.hpp:77] Creating layer pool2
I0430 10:34:35.768479 12726 net.cpp:84] Creating Layer pool2
I0430 10:34:35.768487 12726 net.cpp:406] pool2 <- conv2
I0430 10:34:35.768501 12726 net.cpp:380] pool2 -> pool2
I0430 10:34:35.768561 12726 net.cpp:122] Setting up pool2
I0430 10:34:35.768576 12726 net.cpp:129] Top shape: 64 50 5 5 (80000)
I0430 10:34:35.768584 12726 net.cpp:137] Memory required for data: 7405312
I0430 10:34:35.768590 12726 layer_factory.hpp:77] Creating layer ip1
I0430 10:34:35.768602 12726 net.cpp:84] Creating Layer ip1
I0430 10:34:35.768611 12726 net.cpp:406] ip1 <- pool2
I0430 10:34:35.768622 12726 net.cpp:380] ip1 -> ip1
I0430 10:34:35.775179 12726 net.cpp:122] Setting up ip1
I0430 10:34:35.775216 12726 net.cpp:129] Top shape: 64 500 (32000)
I0430 10:34:35.775226 12726 net.cpp:137] Memory required for data: 7533312
I0430 10:34:35.775247 12726 layer_factory.hpp:77] Creating layer relu1
I0430 10:34:35.775262 12726 net.cpp:84] Creating Layer relu1
I0430 10:34:35.775272 12726 net.cpp:406] relu1 <- ip1
I0430 10:34:35.775283 12726 net.cpp:367] relu1 -> ip1 (in-place)
I0430 10:34:35.775554 12726 net.cpp:122] Setting up relu1
I0430 10:34:35.775570 12726 net.cpp:129] Top shape: 64 500 (32000)
I0430 10:34:35.775578 12726 net.cpp:137] Memory required for data: 7661312
I0430 10:34:35.775586 12726 layer_factory.hpp:77] Creating layer ip2
I0430 10:34:35.775604 12726 net.cpp:84] Creating Layer ip2
I0430 10:34:35.775611 12726 net.cpp:406] ip2 <- ip1
I0430 10:34:35.775622 12726 net.cpp:380] ip2 -> ip2
I0430 10:34:35.775799 12726 net.cpp:122] Setting up ip2
I0430 10:34:35.775813 12726 net.cpp:129] Top shape: 64 5 (320)
I0430 10:34:35.775821 12726 net.cpp:137] Memory required for data: 7662592
I0430 10:34:35.775832 12726 layer_factory.hpp:77] Creating layer ip2_ip2_0_split
I0430 10:34:35.775846 12726 net.cpp:84] Creating Layer ip2_ip2_0_split
I0430 10:34:35.775853 12726 net.cpp:406] ip2_ip2_0_split <- ip2
I0430 10:34:35.775864 12726 net.cpp:380] ip2_ip2_0_split -> ip2_ip2_0_split_0
I0430 10:34:35.775879 12726 net.cpp:380] ip2_ip2_0_split -> ip2_ip2_0_split_1
I0430 10:34:35.775892 12726 net.cpp:380] ip2_ip2_0_split -> ip2_ip2_0_split_2
I0430 10:34:35.775915 12726 net.cpp:380] ip2_ip2_0_split -> ip2_ip2_0_split_3
I0430 10:34:35.776016 12726 net.cpp:122] Setting up ip2_ip2_0_split
I0430 10:34:35.776029 12726 net.cpp:129] Top shape: 64 5 (320)
I0430 10:34:35.776038 12726 net.cpp:129] Top shape: 64 5 (320)
I0430 10:34:35.776046 12726 net.cpp:129] Top shape: 64 5 (320)
I0430 10:34:35.776052 12726 net.cpp:129] Top shape: 64 5 (320)
I0430 10:34:35.776058 12726 net.cpp:137] Memory required for data: 7667712
I0430 10:34:35.776067 12726 layer_factory.hpp:77] Creating layer loss
I0430 10:34:35.776077 12726 net.cpp:84] Creating Layer loss
I0430 10:34:35.776085 12726 net.cpp:406] loss <- ip2_ip2_0_split_0
I0430 10:34:35.776094 12726 net.cpp:406] loss <- label_mnist_1_split_0
I0430 10:34:35.776105 12726 net.cpp:380] loss -> loss
…
