…
I0430 14:51:17.725245 32703 net.cpp:294] The NetState phase (0) differed from the phase (1) specified by a rule in layer accuracy_top_2
I0430 14:51:17.725251 32703 net.cpp:294] The NetState phase (0) differed from the phase (1) specified by a rule in layer accuracy_top3
I0430 14:51:17.725369 32703 net.cpp:51] Initializing net from parameters: 
name: "LeNet"
state {
  phase: TRAIN
  level: 0
  stage: ""
}
layer {
  name: "mnist"
  type: "Data"
  top: "data"
  top: "label"
  include {
    phase: TRAIN
  }
  transform_param {
    scale: 0.00390625
    crop_size: 32
  }
  data_param {
    source: "./retina256/retina256_train_lmdb"
    batch_size: 100
    backend: LMDB
  }
}
layer {
  name: "conv1"
  type: "Convolution"
  bottom: "data"
  top: "conv1"
  param {
    lr_mult: 1
  }
  param {
    lr_mult: 2
  }
  convolution_param {
    num_output: 20
    kernel_size: 5
    stride: 1
    weight_filler {
      type: "xavier"
    }
    bias_filler {
      type: "constant"
    }
  }
}
layer {
  name: "pool1"
  type: "Pooling"
  bottom: "conv1"
  top: "pool1"
  pooling_param {
    pool: MAX
    kernel_size: 2
    stride: 2
  }
}
layer {
  name: "conv2"
  type: "Convolution"
  bottom: "pool1"
  top: "conv2"
  param {
    lr_mult: 1
  }
  param {
    lr_mult: 2
  }
  convolution_param {
    num_output: 50
    kernel_size: 5
    stride: 1
    weight_filler {
      type: "xavier"
    }
    bias_filler {
      type: "constant"
    }
  }
}
layer {
  name: "pool2"
  type: "Pooling"
  bottom: "conv2"
  top: "pool2"
  pooling_param {
    pool: MAX
    kernel_size: 2
    stride: 2
  }
}
layer {
  name: "ip1"
  type: "InnerProduct"
  bottom: "pool2"
  top: "ip1"
  param {
    lr_mult: 1
  }
  param {
    lr_mult: 2
  }
  inner_product_param {
    num_output: 500
    weight_filler {
      type: "xavier"
    }
    bias_filler {
      type: "constant"
    }
  }
}
layer {
  name: "relu1"
  type: "ReLU"
  bottom: "ip1"
  top: "ip1"
}
layer {
  name: "ip2"
  type: "InnerProduct"
  bottom: "ip1"
  top: "ip2"
  param {
    lr_mult: 1
  }
  param {
    lr_mult: 2
  }
  inner_product_param {
    num_output: 5
    weight_filler {
      type: "xavier"
    }
    bias_filler {
      type: "constant"
    }
  }
}
layer {
  name: "loss"
  type: "SoftmaxWithLoss"
  bottom: "ip2"
  bottom: "label"
  top: "loss"
}
I0430 14:51:17.725435 32703 layer_factory.hpp:77] Creating layer mnist
I0430 14:51:17.727535 32703 db_lmdb.cpp:35] Opened lmdb ./retina256/retina256_train_lmdb
I0430 14:51:17.728018 32703 net.cpp:84] Creating Layer mnist
I0430 14:51:17.728034 32703 net.cpp:380] mnist -> data
I0430 14:51:17.728058 32703 net.cpp:380] mnist -> label
I0430 14:51:17.730278 32703 data_layer.cpp:45] output data size: 100,3,32,32
I0430 14:51:17.735652 32703 net.cpp:122] Setting up mnist
I0430 14:51:17.735677 32703 net.cpp:129] Top shape: 100 3 32 32 (307200)
I0430 14:51:17.735682 32703 net.cpp:129] Top shape: 100 (100)
I0430 14:51:17.735685 32703 net.cpp:137] Memory required for data: 1229200
I0430 14:51:17.735695 32703 layer_factory.hpp:77] Creating layer conv1
I0430 14:51:17.735716 32703 net.cpp:84] Creating Layer conv1
I0430 14:51:17.735724 32703 net.cpp:406] conv1 <- data
I0430 14:51:17.735736 32703 net.cpp:380] conv1 -> conv1
I0430 14:51:18.311589 32703 net.cpp:122] Setting up conv1
I0430 14:51:18.311728 32703 net.cpp:129] Top shape: 100 20 28 28 (1568000)
I0430 14:51:18.311734 32703 net.cpp:137] Memory required for data: 7501200
I0430 14:51:18.311754 32703 layer_factory.hpp:77] Creating layer pool1
I0430 14:51:18.311766 32703 net.cpp:84] Creating Layer pool1
I0430 14:51:18.311777 32703 net.cpp:406] pool1 <- conv1
I0430 14:51:18.311789 32703 net.cpp:380] pool1 -> pool1
I0430 14:51:18.311846 32703 net.cpp:122] Setting up pool1
I0430 14:51:18.311854 32703 net.cpp:129] Top shape: 100 20 14 14 (392000)
I0430 14:51:18.311858 32703 net.cpp:137] Memory required for data: 9069200
I0430 14:51:18.311862 32703 layer_factory.hpp:77] Creating layer conv2
I0430 14:51:18.311874 32703 net.cpp:84] Creating Layer conv2
I0430 14:51:18.311878 32703 net.cpp:406] conv2 <- pool1
I0430 14:51:18.311884 32703 net.cpp:380] conv2 -> conv2
I0430 14:51:18.325191 32703 net.cpp:122] Setting up conv2
I0430 14:51:18.325215 32703 net.cpp:129] Top shape: 100 50 10 10 (500000)
I0430 14:51:18.325220 32703 net.cpp:137] Memory required for data: 11069200
I0430 14:51:18.325233 32703 layer_factory.hpp:77] Creating layer pool2
I0430 14:51:18.325245 32703 net.cpp:84] Creating Layer pool2
I0430 14:51:18.325250 32703 net.cpp:406] pool2 <- conv2
I0430 14:51:18.325261 32703 net.cpp:380] pool2 -> pool2
I0430 14:51:18.325310 32703 net.cpp:122] Setting up pool2
I0430 14:51:18.325318 32703 net.cpp:129] Top shape: 100 50 5 5 (125000)
I0430 14:51:18.325321 32703 net.cpp:137] Memory required for data: 11569200
I0430 14:51:18.325325 32703 layer_factory.hpp:77] Creating layer ip1
I0430 14:51:18.325333 32703 net.cpp:84] Creating Layer ip1
I0430 14:51:18.325338 32703 net.cpp:406] ip1 <- pool2
I0430 14:51:18.325345 32703 net.cpp:380] ip1 -> ip1
I0430 14:51:18.335208 32703 net.cpp:122] Setting up ip1
I0430 14:51:18.335240 32703 net.cpp:129] Top shape: 100 500 (50000)
I0430 14:51:18.335245 32703 net.cpp:137] Memory required for data: 11769200
I0430 14:51:18.335259 32703 layer_factory.hpp:77] Creating layer relu1
I0430 14:51:18.335268 32703 net.cpp:84] Creating Layer relu1
I0430 14:51:18.335273 32703 net.cpp:406] relu1 <- ip1
I0430 14:51:18.335280 32703 net.cpp:367] relu1 -> ip1 (in-place)
I0430 14:51:18.335487 32703 net.cpp:122] Setting up relu1
I0430 14:51:18.335495 32703 net.cpp:129] Top shape: 100 500 (50000)
I0430 14:51:18.335500 32703 net.cpp:137] Memory required for data: 11969200
I0430 14:51:18.335505 32703 layer_factory.hpp:77] Creating layer ip2
I0430 14:51:18.335512 32703 net.cpp:84] Creating Layer ip2
I0430 14:51:18.335516 32703 net.cpp:406] ip2 <- ip1
I0430 14:51:18.335523 32703 net.cpp:380] ip2 -> ip2
I0430 14:51:18.335633 32703 net.cpp:122] Setting up ip2
I0430 14:51:18.335639 32703 net.cpp:129] Top shape: 100 5 (500)
I0430 14:51:18.335644 32703 net.cpp:137] Memory required for data: 11971200
I0430 14:51:18.335649 32703 layer_factory.hpp:77] Creating layer loss
I0430 14:51:18.335659 32703 net.cpp:84] Creating Layer loss
I0430 14:51:18.335662 32703 net.cpp:406] loss <- ip2
I0430 14:51:18.335667 32703 net.cpp:406] loss <- label
I0430 14:51:18.335674 32703 net.cpp:380] loss -> loss
I0430 14:51:18.335686 32703 layer_factory.hpp:77] Creating layer loss
…
I0430 14:51:18.336190 32703 solver.cpp:190] Creating test net (#0) specified by net file: lenet.train_test.prototxt
I0430 14:51:18.336212 32703 net.cpp:294] The NetState phase (1) differed from the phase (0) specified by a rule in layer mnist
I0430 14:51:18.336300 32703 net.cpp:51] Initializing net from parameters: 
name: "LeNet"
state {
  phase: TEST
}
layer {
  name: "mnist"
  type: "Data"
  top: "data"
  top: "label"
  include {
    phase: TEST
  }
  transform_param {
    scale: 0.00390625
    crop_size: 32
  }
  data_param {
    source: "./retina256/retina256_test_lmdb"
    batch_size: 64
    backend: LMDB
  }
}
layer {
  name: "conv1"
  type: "Convolution"
  bottom: "data"
  top: "conv1"
  param {
    lr_mult: 1
  }
  param {
    lr_mult: 2
  }
  convolution_param {
    num_output: 20
    kernel_size: 5
    stride: 1
    weight_filler {
      type: "xavier"
    }
    bias_filler {
      type: "constant"
    }
  }
}
layer {
  name: "pool1"
  type: "Pooling"
  bottom: "conv1"
  top: "pool1"
  pooling_param {
    pool: MAX
    kernel_size: 2
    stride: 2
  }
}
layer {
  name: "conv2"
  type: "Convolution"
  bottom: "pool1"
  top: "conv2"
  param {
    lr_mult: 1
  }
  param {
    lr_mult: 2
  }
  convolution_param {
    num_output: 50
    kernel_size: 5
    stride: 1
    weight_filler {
      type: "xavier"
    }
    bias_filler {
      type: "constant"
    }
  }
}
layer {
  name: "pool2"
  type: "Pooling"
  bottom: "conv2"
  top: "pool2"
  pooling_param {
    pool: MAX
    kernel_size: 2
    stride: 2
  }
}
layer {
  name: "ip1"
  type: "InnerProduct"
  bottom: "pool2"
  top: "ip1"
  param {
    lr_mult: 1
  }
  param {
    lr_mult: 2
  }
  inner_product_param {
    num_output: 500
    weight_filler {
      type: "xavier"
    }
    bias_filler {
      type: "constant"
    }
  }
}
layer {
  name: "relu1"
  type: "ReLU"
  bottom: "ip1"
  top: "ip1"
}
layer {
  name: "ip2"
  type: "InnerProduct"
  bottom: "ip1"
  top: "ip2"
  param {
    lr_mult: 1
  }
  param {
    lr_mult: 2
  }
  inner_product_param {
    num_output: 5
    weight_filler {
      type: "xavier"
    }
    bias_filler {
      type: "constant"
    }
  }
}
layer {
  name: "loss"
  type: "SoftmaxWithLoss"
  bottom: "ip2"
  bottom: "label"
  top: "loss"
}
layer {
  name: "accuracy_top_1"
  type: "Accuracy"
  bottom: "ip2"
  bottom: "label"
  top: "accuracy_top_1"
  include {
    phase: TEST
  }
  accuracy_param {
    top_k: 1
  }
}
layer {
  name: "accuracy_top_2"
  type: "Accuracy"
  bottom: "ip2"
  bottom: "label"
  top: "accuracy_top_2"
  include {
    phase: TEST
  }
  accuracy_param {
    top_k: 2
  }
}
layer {
  name: "accuracy_top3"
  type: "Accuracy"
  bottom: "ip2"
  bottom: "label"
  top: "accuracy_top_3"
  include {
    phase: TEST
  }
  accuracy_param {
    top_k: 3
  }
}
I0430 14:51:18.336372 32703 layer_factory.hpp:77] Creating layer mnist
I0430 14:51:18.336977 32703 db_lmdb.cpp:35] Opened lmdb ./retina256/retina256_test_lmdb
I0430 14:51:18.336998 32703 net.cpp:84] Creating Layer mnist
I0430 14:51:18.337005 32703 net.cpp:380] mnist -> data
I0430 14:51:18.337015 32703 net.cpp:380] mnist -> label
I0430 14:51:18.337275 32703 data_layer.cpp:45] output data size: 64,3,32,32
I0430 14:51:18.338081 32703 net.cpp:122] Setting up mnist
I0430 14:51:18.338094 32703 net.cpp:129] Top shape: 64 3 32 32 (196608)
I0430 14:51:18.338099 32703 net.cpp:129] Top shape: 64 (64)
I0430 14:51:18.338104 32703 net.cpp:137] Memory required for data: 786688
I0430 14:51:18.338107 32703 layer_factory.hpp:77] Creating layer label_mnist_1_split
I0430 14:51:18.338119 32703 net.cpp:84] Creating Layer label_mnist_1_split
I0430 14:51:18.338124 32703 net.cpp:406] label_mnist_1_split <- label
I0430 14:51:18.338141 32703 net.cpp:380] label_mnist_1_split -> label_mnist_1_split_0
I0430 14:51:18.338150 32703 net.cpp:380] label_mnist_1_split -> label_mnist_1_split_1
I0430 14:51:18.338162 32703 net.cpp:380] label_mnist_1_split -> label_mnist_1_split_2
I0430 14:51:18.338179 32703 net.cpp:380] label_mnist_1_split -> label_mnist_1_split_3
I0430 14:51:18.338253 32703 net.cpp:122] Setting up label_mnist_1_split
I0430 14:51:18.338261 32703 net.cpp:129] Top shape: 64 (64)
I0430 14:51:18.338265 32703 net.cpp:129] Top shape: 64 (64)
I0430 14:51:18.338269 32703 net.cpp:129] Top shape: 64 (64)
I0430 14:51:18.338274 32703 net.cpp:129] Top shape: 64 (64)
I0430 14:51:18.338279 32703 net.cpp:137] Memory required for data: 787712
I0430 14:51:18.338282 32703 layer_factory.hpp:77] Creating layer conv1
I0430 14:51:18.338292 32703 net.cpp:84] Creating Layer conv1
I0430 14:51:18.338297 32703 net.cpp:406] conv1 <- data
I0430 14:51:18.338305 32703 net.cpp:380] conv1 -> conv1
I0430 14:51:18.339468 32703 net.cpp:122] Setting up conv1
I0430 14:51:18.339483 32703 net.cpp:129] Top shape: 64 20 28 28 (1003520)
I0430 14:51:18.339488 32703 net.cpp:137] Memory required for data: 4801792
I0430 14:51:18.339498 32703 layer_factory.hpp:77] Creating layer pool1
I0430 14:51:18.339504 32703 net.cpp:84] Creating Layer pool1
I0430 14:51:18.339509 32703 net.cpp:406] pool1 <- conv1
I0430 14:51:18.339514 32703 net.cpp:380] pool1 -> pool1
I0430 14:51:18.339551 32703 net.cpp:122] Setting up pool1
I0430 14:51:18.339557 32703 net.cpp:129] Top shape: 64 20 14 14 (250880)
I0430 14:51:18.339561 32703 net.cpp:137] Memory required for data: 5805312
I0430 14:51:18.339565 32703 layer_factory.hpp:77] Creating layer conv2
I0430 14:51:18.339574 32703 net.cpp:84] Creating Layer conv2
I0430 14:51:18.339579 32703 net.cpp:406] conv2 <- pool1
I0430 14:51:18.339586 32703 net.cpp:380] conv2 -> conv2
I0430 14:51:18.340682 32703 net.cpp:122] Setting up conv2
I0430 14:51:18.340697 32703 net.cpp:129] Top shape: 64 50 10 10 (320000)
I0430 14:51:18.340700 32703 net.cpp:137] Memory required for data: 7085312
I0430 14:51:18.340708 32703 layer_factory.hpp:77] Creating layer pool2
I0430 14:51:18.340715 32703 net.cpp:84] Creating Layer pool2
I0430 14:51:18.340719 32703 net.cpp:406] pool2 <- conv2
I0430 14:51:18.340725 32703 net.cpp:380] pool2 -> pool2
I0430 14:51:18.340759 32703 net.cpp:122] Setting up pool2
I0430 14:51:18.340766 32703 net.cpp:129] Top shape: 64 50 5 5 (80000)
I0430 14:51:18.340770 32703 net.cpp:137] Memory required for data: 7405312
I0430 14:51:18.340775 32703 layer_factory.hpp:77] Creating layer ip1
I0430 14:51:18.340781 32703 net.cpp:84] Creating Layer ip1
I0430 14:51:18.340786 32703 net.cpp:406] ip1 <- pool2
I0430 14:51:18.340791 32703 net.cpp:380] ip1 -> ip1
I0430 14:51:18.344430 32703 net.cpp:122] Setting up ip1
I0430 14:51:18.344460 32703 net.cpp:129] Top shape: 64 500 (32000)
I0430 14:51:18.344465 32703 net.cpp:137] Memory required for data: 7533312
I0430 14:51:18.344477 32703 layer_factory.hpp:77] Creating layer relu1
I0430 14:51:18.344487 32703 net.cpp:84] Creating Layer relu1
I0430 14:51:18.344492 32703 net.cpp:406] relu1 <- ip1
I0430 14:51:18.344499 32703 net.cpp:367] relu1 -> ip1 (in-place)
I0430 14:51:18.344671 32703 net.cpp:122] Setting up relu1
I0430 14:51:18.344679 32703 net.cpp:129] Top shape: 64 500 (32000)
I0430 14:51:18.344682 32703 net.cpp:137] Memory required for data: 7661312
I0430 14:51:18.344687 32703 layer_factory.hpp:77] Creating layer ip2
I0430 14:51:18.344697 32703 net.cpp:84] Creating Layer ip2
I0430 14:51:18.344702 32703 net.cpp:406] ip2 <- ip1
I0430 14:51:18.344707 32703 net.cpp:380] ip2 -> ip2
I0430 14:51:18.344830 32703 net.cpp:122] Setting up ip2
I0430 14:51:18.344836 32703 net.cpp:129] Top shape: 64 5 (320)
I0430 14:51:18.344841 32703 net.cpp:137] Memory required for data: 7662592
I0430 14:51:18.344846 32703 layer_factory.hpp:77] Creating layer ip2_ip2_0_split
I0430 14:51:18.344854 32703 net.cpp:84] Creating Layer ip2_ip2_0_split
I0430 14:51:18.344858 32703 net.cpp:406] ip2_ip2_0_split <- ip2
I0430 14:51:18.344864 32703 net.cpp:380] ip2_ip2_0_split -> ip2_ip2_0_split_0
I0430 14:51:18.344871 32703 net.cpp:380] ip2_ip2_0_split -> ip2_ip2_0_split_1
I0430 14:51:18.344879 32703 net.cpp:380] ip2_ip2_0_split -> ip2_ip2_0_split_2
I0430 14:51:18.344892 32703 net.cpp:380] ip2_ip2_0_split -> ip2_ip2_0_split_3
I0430 14:51:18.344950 32703 net.cpp:122] Setting up ip2_ip2_0_split
I0430 14:51:18.344956 32703 net.cpp:129] Top shape: 64 5 (320)
I0430 14:51:18.344961 32703 net.cpp:129] Top shape: 64 5 (320)
I0430 14:51:18.344965 32703 net.cpp:129] Top shape: 64 5 (320)
I0430 14:51:18.344969 32703 net.cpp:129] Top shape: 64 5 (320)
I0430 14:51:18.344972 32703 net.cpp:137] Memory required for data: 7667712
I0430 14:51:18.344976 32703 layer_factory.hpp:77] Creating layer loss
I0430 14:51:18.344985 32703 net.cpp:84] Creating Layer loss
I0430 14:51:18.344990 32703 net.cpp:406] loss <- ip2_ip2_0_split_0
I0430 14:51:18.344995 32703 net.cpp:406] loss <- label_mnist_1_split_0
I0430 14:51:18.345000 32703 net.cpp:380] loss -> loss
…
