…
I0503 20:20:23.887969 27287 net.cpp:294] The NetState phase (0) differed from the phase (1) specified by a rule in layer accuracy
I0503 20:20:23.888196 27287 net.cpp:51] Initializing net from parameters: 
name: "nin_imagenet"
state {
  phase: TRAIN
  level: 0
  stage: ""
}
layer {
  name: "data"
  type: "Data"
  top: "data"
  top: "label"
  include {
    phase: TRAIN
  }
  transform_param {
    mirror: true
    crop_size: 224
    mean_file: "retina256/retina256_train_mean.binaryproto"
  }
  data_param {
    source: "retina256/retina256_train_lmdb"
    batch_size: 100
    backend: LMDB
  }
}
layer {
  name: "conv1"
  type: "Convolution"
  bottom: "data"
  top: "conv1"
  param {
    lr_mult: 1
    decay_mult: 1
  }
  param {
    lr_mult: 2
    decay_mult: 0
  }
  convolution_param {
    num_output: 96
    kernel_size: 11
    stride: 4
    weight_filler {
      type: "gaussian"
      mean: 0
      std: 0.01
    }
    bias_filler {
      type: "constant"
      value: 0
    }
  }
}
layer {
  name: "relu0"
  type: "ReLU"
  bottom: "conv1"
  top: "conv1"
}
layer {
  name: "cccp1"
  type: "Convolution"
  bottom: "conv1"
  top: "cccp1"
  param {
    lr_mult: 1
    decay_mult: 1
  }
  param {
    lr_mult: 2
    decay_mult: 0
  }
  convolution_param {
    num_output: 96
    kernel_size: 1
    stride: 1
    weight_filler {
      type: "gaussian"
      mean: 0
      std: 0.05
    }
    bias_filler {
      type: "constant"
      value: 0
    }
  }
}
layer {
  name: "relu1"
  type: "ReLU"
  bottom: "cccp1"
  top: "cccp1"
}
layer {
  name: "cccp2"
  type: "Convolution"
  bottom: "cccp1"
  top: "cccp2"
  param {
    lr_mult: 1
    decay_mult: 1
  }
  param {
    lr_mult: 2
    decay_mult: 0
  }
  convolution_param {
    num_output: 96
    kernel_size: 1
    stride: 1
    weight_filler {
      type: "gaussian"
      mean: 0
      std: 0.05
    }
    bias_filler {
      type: "constant"
      value: 0
    }
  }
}
layer {
  name: "relu2"
  type: "ReLU"
  bottom: "cccp2"
  top: "cccp2"
}
layer {
  name: "pool1"
  type: "Pooling"
  bottom: "cccp2"
  top: "pool1"
  pooling_param {
    pool: MAX
    kernel_size: 3
    stride: 2
  }
}
layer {
  name: "conv2"
  type: "Convolution"
  bottom: "pool1"
  top: "conv2"
  param {
    lr_mult: 1
    decay_mult: 1
  }
  param {
    lr_mult: 2
    decay_mult: 0
  }
  convolution_param {
    num_output: 256
    pad: 2
    kernel_size: 5
    stride: 1
    weight_filler {
      type: "gaussian"
      mean: 0
      std: 0.05
    }
    bias_filler {
      type: "constant"
      value: 0
    }
  }
}
layer {
  name: "relu3"
  type: "ReLU"
  bottom: "conv2"
  top: "conv2"
}
layer {
  name: "cccp3"
  type: "Convolution"
  bottom: "conv2"
  top: "cccp3"
  param {
    lr_mult: 1
    decay_mult: 1
  }
  param {
    lr_mult: 2
    decay_mult: 0
  }
  convolution_param {
    num_output: 256
    kernel_size: 1
    stride: 1
    weight_filler {
      type: "gaussian"
      mean: 0
      std: 0.05
    }
    bias_filler {
      type: "constant"
      value: 0
    }
  }
}
layer {
  name: "relu5"
  type: "ReLU"
  bottom: "cccp3"
  top: "cccp3"
}
layer {
  name: "cccp4"
  type: "Convolution"
  bottom: "cccp3"
  top: "cccp4"
  param {
    lr_mult: 1
    decay_mult: 1
  }
  param {
    lr_mult: 2
    decay_mult: 0
  }
  convolution_param {
    num_output: 256
    kernel_size: 1
    stride: 1
    weight_filler {
      type: "gaussian"
      mean: 0
      std: 0.05
    }
    bias_filler {
      type: "constant"
      value: 0
    }
  }
}
layer {
  name: "relu6"
  type: "ReLU"
  bottom: "cccp4"
  top: "cccp4"
}
layer {
  name: "pool2"
  type: "Pooling"
  bottom: "cccp4"
  top: "pool2"
  pooling_param {
    pool: MAX
    kernel_size: 3
    stride: 2
  }
}
layer {
  name: "conv3"
  type: "Convolution"
  bottom: "pool2"
  top: "conv3"
  param {
    lr_mult: 1
    decay_mult: 1
  }
  param {
    lr_mult: 2
    decay_mult: 0
  }
  convolution_param {
    num_output: 384
    pad: 1
    kernel_size: 3
    stride: 1
    weight_filler {
      type: "gaussian"
      mean: 0
      std: 0.01
    }
    bias_filler {
      type: "constant"
      value: 0
    }
  }
}
layer {
  name: "relu7"
  type: "ReLU"
  bottom: "conv3"
  top: "conv3"
}
layer {
  name: "cccp5"
  type: "Convolution"
  bottom: "conv3"
  top: "cccp5"
  param {
    lr_mult: 1
    decay_mult: 1
  }
  param {
    lr_mult: 2
    decay_mult: 0
  }
  convolution_param {
    num_output: 384
    kernel_size: 1
    stride: 1
    weight_filler {
      type: "gaussian"
      mean: 0
      std: 0.05
    }
    bias_filler {
      type: "constant"
      value: 0
    }
  }
}
layer {
  name: "relu8"
  type: "ReLU"
  bottom: "cccp5"
  top: "cccp5"
}
layer {
  name: "cccp6"
  type: "Convolution"
  bottom: "cccp5"
  top: "cccp6"
  param {
    lr_mult: 1
    decay_mult: 1
  }
  param {
    lr_mult: 2
    decay_mult: 0
  }
  convolution_param {
    num_output: 384
    kernel_size: 1
    stride: 1
    weight_filler {
      type: "gaussian"
      mean: 0
      std: 0.05
    }
    bias_filler {
      type: "constant"
      value: 0
    }
  }
}
layer {
  name: "relu9"
  type: "ReLU"
  bottom: "cccp6"
  top: "cccp6"
}
layer {
  name: "pool3"
  type: "Pooling"
  bottom: "cccp6"
  top: "pool3"
  pooling_param {
    pool: MAX
    kernel_size: 3
    stride: 2
  }
}
layer {
  name: "drop"
  type: "Dropout"
  bottom: "pool3"
  top: "pool3"
  dropout_param {
    dropout_ratio: 0.5
  }
}
layer {
  name: "conv4-1024"
  type: "Convolution"
  bottom: "pool3"
  top: "conv4"
  param {
    lr_mult: 1
    decay_mult: 1
  }
  param {
    lr_mult: 2
    decay_mult: 0
  }
  convolution_param {
    num_output: 1024
    pad: 1
    kernel_size: 3
    stride: 1
    weight_filler {
      type: "gaussian"
      mean: 0
      std: 0.05
    }
    bias_filler {
      type: "constant"
      value: 0
    }
  }
}
layer {
  name: "relu10"
  type: "ReLU"
  bottom: "conv4"
  top: "conv4"
}
layer {
  name: "cccp7-1024"
  type: "Convolution"
  bottom: "conv4"
  top: "cccp7"
  param {
    lr_mult: 1
    decay_mult: 1
  }
  param {
    lr_mult: 2
    decay_mult: 0
  }
  convolution_param {
    num_output: 1024
    kernel_size: 1
    stride: 1
    weight_filler {
      type: "gaussian"
      mean: 0
      std: 0.05
    }
    bias_filler {
      type: "constant"
      value: 0
    }
  }
}
layer {
  name: "relu11"
  type: "ReLU"
  bottom: "cccp7"
  top: "cccp7"
}
layer {
  name: "cccp8-1024"
  type: "Convolution"
  bottom: "cccp7"
  top: "cccp8"
  param {
    lr_mult: 1
    decay_mult: 1
  }
  param {
    lr_mult: 2
    decay_mult: 0
  }
  convolution_param {
    num_output: 5
    kernel_size: 1
    stride: 1
    weight_filler {
      type: "gaussian"
      mean: 0
      std: 0.01
    }
    bias_filler {
      type: "constant"
      value: 0
    }
  }
}
layer {
  name: "relu12"
  type: "ReLU"
  bottom: "cccp8"
  top: "cccp8"
}
layer {
  name: "pool4"
  type: "Pooling"
  bottom: "cccp8"
  top: "pool4"
  pooling_param {
    pool: AVE
    kernel_size: 6
    stride: 1
  }
}
layer {
  name: "loss"
  type: "SoftmaxWithLoss"
  bottom: "pool4"
  bottom: "label"
  include {
    phase: TRAIN
  }
}
I0503 20:20:23.888356 27287 layer_factory.hpp:77] Creating layer data
I0503 20:20:23.888456 27287 db_lmdb.cpp:35] Opened lmdb retina256/retina256_train_lmdb
I0503 20:20:23.888502 27287 net.cpp:84] Creating Layer data
I0503 20:20:23.888517 27287 net.cpp:380] data -> data
I0503 20:20:23.888543 27287 net.cpp:380] data -> label
I0503 20:20:23.888562 27287 data_transformer.cpp:25] Loading mean file from: retina256/retina256_train_mean.binaryproto
I0503 20:20:23.892140 27287 data_layer.cpp:45] output data size: 100,3,224,224
I0503 20:20:23.987635 27287 net.cpp:122] Setting up data
I0503 20:20:23.987668 27287 net.cpp:129] Top shape: 100 3 224 224 (15052800)
I0503 20:20:23.987673 27287 net.cpp:129] Top shape: 100 (100)
I0503 20:20:23.987677 27287 net.cpp:137] Memory required for data: 60211600
I0503 20:20:23.987689 27287 layer_factory.hpp:77] Creating layer conv1
I0503 20:20:23.987707 27287 net.cpp:84] Creating Layer conv1
I0503 20:20:23.987715 27287 net.cpp:406] conv1 <- data
I0503 20:20:23.987727 27287 net.cpp:380] conv1 -> conv1
I0503 20:20:24.226907 27287 net.cpp:122] Setting up conv1
I0503 20:20:24.226935 27287 net.cpp:129] Top shape: 100 96 54 54 (27993600)
I0503 20:20:24.226940 27287 net.cpp:137] Memory required for data: 172186000
I0503 20:20:24.226959 27287 layer_factory.hpp:77] Creating layer relu0
I0503 20:20:24.226971 27287 net.cpp:84] Creating Layer relu0
I0503 20:20:24.226976 27287 net.cpp:406] relu0 <- conv1
I0503 20:20:24.226984 27287 net.cpp:367] relu0 -> conv1 (in-place)
I0503 20:20:24.227128 27287 net.cpp:122] Setting up relu0
I0503 20:20:24.227138 27287 net.cpp:129] Top shape: 100 96 54 54 (27993600)
I0503 20:20:24.227141 27287 net.cpp:137] Memory required for data: 284160400
I0503 20:20:24.227146 27287 layer_factory.hpp:77] Creating layer cccp1
I0503 20:20:24.227157 27287 net.cpp:84] Creating Layer cccp1
I0503 20:20:24.227162 27287 net.cpp:406] cccp1 <- conv1
I0503 20:20:24.227169 27287 net.cpp:380] cccp1 -> cccp1
I0503 20:20:24.228976 27287 net.cpp:122] Setting up cccp1
I0503 20:20:24.228989 27287 net.cpp:129] Top shape: 100 96 54 54 (27993600)
I0503 20:20:24.228993 27287 net.cpp:137] Memory required for data: 396134800
I0503 20:20:24.229003 27287 layer_factory.hpp:77] Creating layer relu1
I0503 20:20:24.229012 27287 net.cpp:84] Creating Layer relu1
I0503 20:20:24.229017 27287 net.cpp:406] relu1 <- cccp1
I0503 20:20:24.229022 27287 net.cpp:367] relu1 -> cccp1 (in-place)
I0503 20:20:24.229153 27287 net.cpp:122] Setting up relu1
I0503 20:20:24.229161 27287 net.cpp:129] Top shape: 100 96 54 54 (27993600)
I0503 20:20:24.229166 27287 net.cpp:137] Memory required for data: 508109200
I0503 20:20:24.229169 27287 layer_factory.hpp:77] Creating layer cccp2
I0503 20:20:24.229179 27287 net.cpp:84] Creating Layer cccp2
I0503 20:20:24.229183 27287 net.cpp:406] cccp2 <- cccp1
I0503 20:20:24.229189 27287 net.cpp:380] cccp2 -> cccp2
I0503 20:20:24.230165 27287 net.cpp:122] Setting up cccp2
I0503 20:20:24.230180 27287 net.cpp:129] Top shape: 100 96 54 54 (27993600)
I0503 20:20:24.230183 27287 net.cpp:137] Memory required for data: 620083600
I0503 20:20:24.230192 27287 layer_factory.hpp:77] Creating layer relu2
I0503 20:20:24.230198 27287 net.cpp:84] Creating Layer relu2
I0503 20:20:24.230203 27287 net.cpp:406] relu2 <- cccp2
I0503 20:20:24.230209 27287 net.cpp:367] relu2 -> cccp2 (in-place)
I0503 20:20:24.230337 27287 net.cpp:122] Setting up relu2
I0503 20:20:24.230346 27287 net.cpp:129] Top shape: 100 96 54 54 (27993600)
I0503 20:20:24.230350 27287 net.cpp:137] Memory required for data: 732058000
I0503 20:20:24.230355 27287 layer_factory.hpp:77] Creating layer pool1
I0503 20:20:24.230361 27287 net.cpp:84] Creating Layer pool1
I0503 20:20:24.230365 27287 net.cpp:406] pool1 <- cccp2
I0503 20:20:24.230371 27287 net.cpp:380] pool1 -> pool1
I0503 20:20:24.230410 27287 net.cpp:122] Setting up pool1
I0503 20:20:24.230417 27287 net.cpp:129] Top shape: 100 96 27 27 (6998400)
I0503 20:20:24.230422 27287 net.cpp:137] Memory required for data: 760051600
I0503 20:20:24.230425 27287 layer_factory.hpp:77] Creating layer conv2
I0503 20:20:24.230435 27287 net.cpp:84] Creating Layer conv2
I0503 20:20:24.230439 27287 net.cpp:406] conv2 <- pool1
I0503 20:20:24.230451 27287 net.cpp:380] conv2 -> conv2
I0503 20:20:24.237146 27287 net.cpp:122] Setting up conv2
I0503 20:20:24.237161 27287 net.cpp:129] Top shape: 100 256 27 27 (18662400)
I0503 20:20:24.237165 27287 net.cpp:137] Memory required for data: 834701200
I0503 20:20:24.237172 27287 layer_factory.hpp:77] Creating layer relu3
I0503 20:20:24.237181 27287 net.cpp:84] Creating Layer relu3
I0503 20:20:24.237186 27287 net.cpp:406] relu3 <- conv2
I0503 20:20:24.237192 27287 net.cpp:367] relu3 -> conv2 (in-place)
I0503 20:20:24.237341 27287 net.cpp:122] Setting up relu3
I0503 20:20:24.237351 27287 net.cpp:129] Top shape: 100 256 27 27 (18662400)
I0503 20:20:24.237355 27287 net.cpp:137] Memory required for data: 909350800
I0503 20:20:24.237360 27287 layer_factory.hpp:77] Creating layer cccp3
I0503 20:20:24.237370 27287 net.cpp:84] Creating Layer cccp3
I0503 20:20:24.237375 27287 net.cpp:406] cccp3 <- conv2
I0503 20:20:24.237381 27287 net.cpp:380] cccp3 -> cccp3
I0503 20:20:24.238806 27287 net.cpp:122] Setting up cccp3
I0503 20:20:24.238818 27287 net.cpp:129] Top shape: 100 256 27 27 (18662400)
I0503 20:20:24.238823 27287 net.cpp:137] Memory required for data: 984000400
I0503 20:20:24.238833 27287 layer_factory.hpp:77] Creating layer relu5
I0503 20:20:24.238840 27287 net.cpp:84] Creating Layer relu5
I0503 20:20:24.238844 27287 net.cpp:406] relu5 <- cccp3
I0503 20:20:24.238852 27287 net.cpp:367] relu5 -> cccp3 (in-place)
I0503 20:20:24.239337 27287 net.cpp:122] Setting up relu5
I0503 20:20:24.239351 27287 net.cpp:129] Top shape: 100 256 27 27 (18662400)
I0503 20:20:24.239354 27287 net.cpp:137] Memory required for data: 1058650000
I0503 20:20:24.239359 27287 layer_factory.hpp:77] Creating layer cccp4
I0503 20:20:24.239369 27287 net.cpp:84] Creating Layer cccp4
I0503 20:20:24.239373 27287 net.cpp:406] cccp4 <- cccp3
I0503 20:20:24.239380 27287 net.cpp:380] cccp4 -> cccp4
I0503 20:20:24.240443 27287 net.cpp:122] Setting up cccp4
I0503 20:20:24.240453 27287 net.cpp:129] Top shape: 100 256 27 27 (18662400)
I0503 20:20:24.240458 27287 net.cpp:137] Memory required for data: 1133299600
I0503 20:20:24.240463 27287 layer_factory.hpp:77] Creating layer relu6
I0503 20:20:24.240471 27287 net.cpp:84] Creating Layer relu6
I0503 20:20:24.240476 27287 net.cpp:406] relu6 <- cccp4
I0503 20:20:24.240481 27287 net.cpp:367] relu6 -> cccp4 (in-place)
I0503 20:20:24.240963 27287 net.cpp:122] Setting up relu6
I0503 20:20:24.240975 27287 net.cpp:129] Top shape: 100 256 27 27 (18662400)
I0503 20:20:24.240979 27287 net.cpp:137] Memory required for data: 1207949200
I0503 20:20:24.240984 27287 layer_factory.hpp:77] Creating layer pool2
I0503 20:20:24.240993 27287 net.cpp:84] Creating Layer pool2
I0503 20:20:24.240998 27287 net.cpp:406] pool2 <- cccp4
I0503 20:20:24.241003 27287 net.cpp:380] pool2 -> pool2
I0503 20:20:24.241041 27287 net.cpp:122] Setting up pool2
I0503 20:20:24.241047 27287 net.cpp:129] Top shape: 100 256 13 13 (4326400)
I0503 20:20:24.241052 27287 net.cpp:137] Memory required for data: 1225254800
I0503 20:20:24.241056 27287 layer_factory.hpp:77] Creating layer conv3
I0503 20:20:24.241065 27287 net.cpp:84] Creating Layer conv3
I0503 20:20:24.241070 27287 net.cpp:406] conv3 <- pool2
I0503 20:20:24.241077 27287 net.cpp:380] conv3 -> conv3
I0503 20:20:24.249446 27287 net.cpp:122] Setting up conv3
I0503 20:20:24.249460 27287 net.cpp:129] Top shape: 100 384 13 13 (6489600)
I0503 20:20:24.249465 27287 net.cpp:137] Memory required for data: 1251213200
I0503 20:20:24.249474 27287 layer_factory.hpp:77] Creating layer relu7
I0503 20:20:24.249483 27287 net.cpp:84] Creating Layer relu7
I0503 20:20:24.249488 27287 net.cpp:406] relu7 <- conv3
I0503 20:20:24.249495 27287 net.cpp:367] relu7 -> conv3 (in-place)
I0503 20:20:24.249649 27287 net.cpp:122] Setting up relu7
I0503 20:20:24.249657 27287 net.cpp:129] Top shape: 100 384 13 13 (6489600)
I0503 20:20:24.249661 27287 net.cpp:137] Memory required for data: 1277171600
I0503 20:20:24.249665 27287 layer_factory.hpp:77] Creating layer cccp5
I0503 20:20:24.249676 27287 net.cpp:84] Creating Layer cccp5
I0503 20:20:24.249686 27287 net.cpp:406] cccp5 <- conv3
I0503 20:20:24.249703 27287 net.cpp:380] cccp5 -> cccp5
I0503 20:20:24.252084 27287 net.cpp:122] Setting up cccp5
I0503 20:20:24.252097 27287 net.cpp:129] Top shape: 100 384 13 13 (6489600)
I0503 20:20:24.252101 27287 net.cpp:137] Memory required for data: 1303130000
I0503 20:20:24.252108 27287 layer_factory.hpp:77] Creating layer relu8
I0503 20:20:24.252115 27287 net.cpp:84] Creating Layer relu8
I0503 20:20:24.252120 27287 net.cpp:406] relu8 <- cccp5
I0503 20:20:24.252126 27287 net.cpp:367] relu8 -> cccp5 (in-place)
I0503 20:20:24.252279 27287 net.cpp:122] Setting up relu8
I0503 20:20:24.252288 27287 net.cpp:129] Top shape: 100 384 13 13 (6489600)
I0503 20:20:24.252293 27287 net.cpp:137] Memory required for data: 1329088400
I0503 20:20:24.252297 27287 layer_factory.hpp:77] Creating layer cccp6
I0503 20:20:24.252306 27287 net.cpp:84] Creating Layer cccp6
I0503 20:20:24.252310 27287 net.cpp:406] cccp6 <- cccp5
I0503 20:20:24.252319 27287 net.cpp:380] cccp6 -> cccp6
I0503 20:20:24.254364 27287 net.cpp:122] Setting up cccp6
I0503 20:20:24.254377 27287 net.cpp:129] Top shape: 100 384 13 13 (6489600)
I0503 20:20:24.254381 27287 net.cpp:137] Memory required for data: 1355046800
I0503 20:20:24.254392 27287 layer_factory.hpp:77] Creating layer relu9
I0503 20:20:24.254400 27287 net.cpp:84] Creating Layer relu9
I0503 20:20:24.254405 27287 net.cpp:406] relu9 <- cccp6
I0503 20:20:24.254410 27287 net.cpp:367] relu9 -> cccp6 (in-place)
I0503 20:20:24.254552 27287 net.cpp:122] Setting up relu9
I0503 20:20:24.254561 27287 net.cpp:129] Top shape: 100 384 13 13 (6489600)
I0503 20:20:24.254565 27287 net.cpp:137] Memory required for data: 1381005200
I0503 20:20:24.254570 27287 layer_factory.hpp:77] Creating layer pool3
I0503 20:20:24.254577 27287 net.cpp:84] Creating Layer pool3
I0503 20:20:24.254581 27287 net.cpp:406] pool3 <- cccp6
I0503 20:20:24.254587 27287 net.cpp:380] pool3 -> pool3
I0503 20:20:24.254624 27287 net.cpp:122] Setting up pool3
I0503 20:20:24.254631 27287 net.cpp:129] Top shape: 100 384 6 6 (1382400)
I0503 20:20:24.254636 27287 net.cpp:137] Memory required for data: 1386534800
I0503 20:20:24.254639 27287 layer_factory.hpp:77] Creating layer drop
I0503 20:20:24.254645 27287 net.cpp:84] Creating Layer drop
I0503 20:20:24.254650 27287 net.cpp:406] drop <- pool3
I0503 20:20:24.254663 27287 net.cpp:367] drop -> pool3 (in-place)
I0503 20:20:24.254684 27287 net.cpp:122] Setting up drop
I0503 20:20:24.254690 27287 net.cpp:129] Top shape: 100 384 6 6 (1382400)
I0503 20:20:24.254695 27287 net.cpp:137] Memory required for data: 1392064400
I0503 20:20:24.254698 27287 layer_factory.hpp:77] Creating layer conv4-1024
I0503 20:20:24.254709 27287 net.cpp:84] Creating Layer conv4-1024
I0503 20:20:24.254712 27287 net.cpp:406] conv4-1024 <- pool3
I0503 20:20:24.254720 27287 net.cpp:380] conv4-1024 -> conv4
I0503 20:20:24.284090 27287 net.cpp:122] Setting up conv4-1024
I0503 20:20:24.284116 27287 net.cpp:129] Top shape: 100 1024 6 6 (3686400)
I0503 20:20:24.284121 27287 net.cpp:137] Memory required for data: 1406810000
I0503 20:20:24.284131 27287 layer_factory.hpp:77] Creating layer relu10
I0503 20:20:24.284142 27287 net.cpp:84] Creating Layer relu10
I0503 20:20:24.284147 27287 net.cpp:406] relu10 <- conv4
I0503 20:20:24.284153 27287 net.cpp:367] relu10 -> conv4 (in-place)
I0503 20:20:24.284301 27287 net.cpp:122] Setting up relu10
I0503 20:20:24.284309 27287 net.cpp:129] Top shape: 100 1024 6 6 (3686400)
I0503 20:20:24.284313 27287 net.cpp:137] Memory required for data: 1421555600
I0503 20:20:24.284317 27287 layer_factory.hpp:77] Creating layer cccp7-1024
I0503 20:20:24.284329 27287 net.cpp:84] Creating Layer cccp7-1024
I0503 20:20:24.284334 27287 net.cpp:406] cccp7-1024 <- conv4
I0503 20:20:24.284341 27287 net.cpp:380] cccp7-1024 -> cccp7
I0503 20:20:24.294406 27287 net.cpp:122] Setting up cccp7-1024
I0503 20:20:24.294425 27287 net.cpp:129] Top shape: 100 1024 6 6 (3686400)
I0503 20:20:24.294428 27287 net.cpp:137] Memory required for data: 1436301200
I0503 20:20:24.294436 27287 layer_factory.hpp:77] Creating layer relu11
I0503 20:20:24.294450 27287 net.cpp:84] Creating Layer relu11
I0503 20:20:24.294462 27287 net.cpp:406] relu11 <- cccp7
I0503 20:20:24.294471 27287 net.cpp:367] relu11 -> cccp7 (in-place)
I0503 20:20:24.294977 27287 net.cpp:122] Setting up relu11
I0503 20:20:24.294989 27287 net.cpp:129] Top shape: 100 1024 6 6 (3686400)
I0503 20:20:24.294994 27287 net.cpp:137] Memory required for data: 1451046800
I0503 20:20:24.294998 27287 layer_factory.hpp:77] Creating layer cccp8-1024
I0503 20:20:24.295008 27287 net.cpp:84] Creating Layer cccp8-1024
I0503 20:20:24.295013 27287 net.cpp:406] cccp8-1024 <- cccp7
I0503 20:20:24.295022 27287 net.cpp:380] cccp8-1024 -> cccp8
I0503 20:20:24.295694 27287 net.cpp:122] Setting up cccp8-1024
I0503 20:20:24.295704 27287 net.cpp:129] Top shape: 100 5 6 6 (18000)
I0503 20:20:24.295708 27287 net.cpp:137] Memory required for data: 1451118800
I0503 20:20:24.295716 27287 layer_factory.hpp:77] Creating layer relu12
I0503 20:20:24.295722 27287 net.cpp:84] Creating Layer relu12
I0503 20:20:24.295727 27287 net.cpp:406] relu12 <- cccp8
I0503 20:20:24.295733 27287 net.cpp:367] relu12 -> cccp8 (in-place)
I0503 20:20:24.296231 27287 net.cpp:122] Setting up relu12
I0503 20:20:24.296242 27287 net.cpp:129] Top shape: 100 5 6 6 (18000)
I0503 20:20:24.296247 27287 net.cpp:137] Memory required for data: 1451190800
I0503 20:20:24.296250 27287 layer_factory.hpp:77] Creating layer pool4
I0503 20:20:24.296258 27287 net.cpp:84] Creating Layer pool4
I0503 20:20:24.296262 27287 net.cpp:406] pool4 <- cccp8
I0503 20:20:24.296269 27287 net.cpp:380] pool4 -> pool4
I0503 20:20:24.296437 27287 net.cpp:122] Setting up pool4
I0503 20:20:24.296447 27287 net.cpp:129] Top shape: 100 5 1 1 (500)
I0503 20:20:24.296450 27287 net.cpp:137] Memory required for data: 1451192800
I0503 20:20:24.296454 27287 layer_factory.hpp:77] Creating layer loss
I0503 20:20:24.296461 27287 net.cpp:84] Creating Layer loss
I0503 20:20:24.296465 27287 net.cpp:406] loss <- pool4
I0503 20:20:24.296470 27287 net.cpp:406] loss <- label
I0503 20:20:24.296491 27287 net.cpp:380] loss -> (automatic)
I0503 20:20:24.296499 27287 layer_factory.hpp:77] Creating layer loss
…
I0503 20:20:24.297332 27287 net.cpp:294] The NetState phase (1) differed from the phase (0) specified by a rule in layer loss
I0503 20:20:24.297525 27287 net.cpp:51] Initializing net from parameters: 
name: "nin_imagenet"
state {
  phase: TEST
}
layer {
  name: "data"
  type: "Data"
  top: "data"
  top: "label"
  include {
    phase: TEST
  }
  transform_param {
    mirror: false
    crop_size: 224
    mean_file: "retina256/retina256_train_mean.binaryproto"
  }
  data_param {
    source: "retina256/retina256_test_lmdb"
    batch_size: 64
    backend: LMDB
  }
}
layer {
  name: "conv1"
  type: "Convolution"
  bottom: "data"
  top: "conv1"
  param {
    lr_mult: 1
    decay_mult: 1
  }
  param {
    lr_mult: 2
    decay_mult: 0
  }
  convolution_param {
    num_output: 96
    kernel_size: 11
    stride: 4
    weight_filler {
      type: "gaussian"
      mean: 0
      std: 0.01
    }
    bias_filler {
      type: "constant"
      value: 0
    }
  }
}
layer {
  name: "relu0"
  type: "ReLU"
  bottom: "conv1"
  top: "conv1"
}
layer {
  name: "cccp1"
  type: "Convolution"
  bottom: "conv1"
  top: "cccp1"
  param {
    lr_mult: 1
    decay_mult: 1
  }
  param {
    lr_mult: 2
    decay_mult: 0
  }
  convolution_param {
    num_output: 96
    kernel_size: 1
    stride: 1
    weight_filler {
      type: "gaussian"
      mean: 0
      std: 0.05
    }
    bias_filler {
      type: "constant"
      value: 0
    }
  }
}
layer {
  name: "relu1"
  type: "ReLU"
  bottom: "cccp1"
  top: "cccp1"
}
layer {
  name: "cccp2"
  type: "Convolution"
  bottom: "cccp1"
  top: "cccp2"
  param {
    lr_mult: 1
    decay_mult: 1
  }
  param {
    lr_mult: 2
    decay_mult: 0
  }
  convolution_param {
    num_output: 96
    kernel_size: 1
    stride: 1
    weight_filler {
      type: "gaussian"
      mean: 0
      std: 0.05
    }
    bias_filler {
      type: "constant"
      value: 0
    }
  }
}
layer {
  name: "relu2"
  type: "ReLU"
  bottom: "cccp2"
  top: "cccp2"
}
layer {
  name: "pool1"
  type: "Pooling"
  bottom: "cccp2"
  top: "pool1"
  pooling_param {
    pool: MAX
    kernel_size: 3
    stride: 2
  }
}
layer {
  name: "conv2"
  type: "Convolution"
  bottom: "pool1"
  top: "conv2"
  param {
    lr_mult: 1
    decay_mult: 1
  }
  param {
    lr_mult: 2
    decay_mult: 0
  }
  convolution_param {
    num_output: 256
    pad: 2
    kernel_size: 5
    stride: 1
    weight_filler {
      type: "gaussian"
      mean: 0
      std: 0.05
    }
    bias_filler {
      type: "constant"
      value: 0
    }
  }
}
layer {
  name: "relu3"
  type: "ReLU"
  bottom: "conv2"
  top: "conv2"
}
layer {
  name: "cccp3"
  type: "Convolution"
  bottom: "conv2"
  top: "cccp3"
  param {
    lr_mult: 1
    decay_mult: 1
  }
  param {
    lr_mult: 2
    decay_mult: 0
  }
  convolution_param {
    num_output: 256
    kernel_size: 1
    stride: 1
    weight_filler {
      type: "gaussian"
      mean: 0
      std: 0.05
    }
    bias_filler {
      type: "constant"
      value: 0
    }
  }
}
layer {
  name: "relu5"
  type: "ReLU"
  bottom: "cccp3"
  top: "cccp3"
}
layer {
  name: "cccp4"
  type: "Convolution"
  bottom: "cccp3"
  top: "cccp4"
  param {
    lr_mult: 1
    decay_mult: 1
  }
  param {
    lr_mult: 2
    decay_mult: 0
  }
  convolution_param {
    num_output: 256
    kernel_size: 1
    stride: 1
    weight_filler {
      type: "gaussian"
      mean: 0
      std: 0.05
    }
    bias_filler {
      type: "constant"
      value: 0
    }
  }
}
layer {
  name: "relu6"
  type: "ReLU"
  bottom: "cccp4"
  top: "cccp4"
}
layer {
  name: "pool2"
  type: "Pooling"
  bottom: "cccp4"
  top: "pool2"
  pooling_param {
    pool: MAX
    kernel_size: 3
    stride: 2
  }
}
layer {
  name: "conv3"
  type: "Convolution"
  bottom: "pool2"
  top: "conv3"
  param {
    lr_mult: 1
    decay_mult: 1
  }
  param {
    lr_mult: 2
    decay_mult: 0
  }
  convolution_param {
    num_output: 384
    pad: 1
    kernel_size: 3
    stride: 1
    weight_filler {
      type: "gaussian"
      mean: 0
      std: 0.01
    }
    bias_filler {
      type: "constant"
      value: 0
    }
  }
}
layer {
  name: "relu7"
  type: "ReLU"
  bottom: "conv3"
  top: "conv3"
}
layer {
  name: "cccp5"
  type: "Convolution"
  bottom: "conv3"
  top: "cccp5"
  param {
    lr_mult: 1
    decay_mult: 1
  }
  param {
    lr_mult: 2
    decay_mult: 0
  }
  convolution_param {
    num_output: 384
    kernel_size: 1
    stride: 1
    weight_filler {
      type: "gaussian"
      mean: 0
      std: 0.05
    }
    bias_filler {
      type: "constant"
      value: 0
    }
  }
}
layer {
  name: "relu8"
  type: "ReLU"
  bottom: "cccp5"
  top: "cccp5"
}
layer {
  name: "cccp6"
  type: "Convolution"
  bottom: "cccp5"
  top: "cccp6"
  param {
    lr_mult: 1
    decay_mult: 1
  }
  param {
    lr_mult: 2
    decay_mult: 0
  }
  convolution_param {
    num_output: 384
    kernel_size: 1
    stride: 1
    weight_filler {
      type: "gaussian"
      mean: 0
      std: 0.05
    }
    bias_filler {
      type: "constant"
      value: 0
    }
  }
}
layer {
  name: "relu9"
  type: "ReLU"
  bottom: "cccp6"
  top: "cccp6"
}
layer {
  name: "pool3"
  type: "Pooling"
  bottom: "cccp6"
  top: "pool3"
  pooling_param {
    pool: MAX
    kernel_size: 3
    stride: 2
  }
}
layer {
  name: "drop"
  type: "Dropout"
  bottom: "pool3"
  top: "pool3"
  dropout_param {
    dropout_ratio: 0.5
  }
}
layer {
  name: "conv4-1024"
  type: "Convolution"
  bottom: "pool3"
  top: "conv4"
  param {
    lr_mult: 1
    decay_mult: 1
  }
  param {
    lr_mult: 2
    decay_mult: 0
  }
  convolution_param {
    num_output: 1024
    pad: 1
    kernel_size: 3
    stride: 1
    weight_filler {
      type: "gaussian"
      mean: 0
      std: 0.05
    }
    bias_filler {
      type: "constant"
      value: 0
    }
  }
}
layer {
  name: "relu10"
  type: "ReLU"
  bottom: "conv4"
  top: "conv4"
}
layer {
  name: "cccp7-1024"
  type: "Convolution"
  bottom: "conv4"
  top: "cccp7"
  param {
    lr_mult: 1
    decay_mult: 1
  }
  param {
    lr_mult: 2
    decay_mult: 0
  }
  convolution_param {
    num_output: 1024
    kernel_size: 1
    stride: 1
    weight_filler {
      type: "gaussian"
      mean: 0
      std: 0.05
    }
    bias_filler {
      type: "constant"
      value: 0
    }
  }
}
layer {
  name: "relu11"
  type: "ReLU"
  bottom: "cccp7"
  top: "cccp7"
}
layer {
  name: "cccp8-1024"
  type: "Convolution"
  bottom: "cccp7"
  top: "cccp8"
  param {
    lr_mult: 1
    decay_mult: 1
  }
  param {
    lr_mult: 2
    decay_mult: 0
  }
  convolution_param {
    num_output: 5
    kernel_size: 1
    stride: 1
    weight_filler {
      type: "gaussian"
      mean: 0
      std: 0.01
    }
    bias_filler {
      type: "constant"
      value: 0
    }
  }
}
layer {
  name: "relu12"
  type: "ReLU"
  bottom: "cccp8"
  top: "cccp8"
}
layer {
  name: "pool4"
  type: "Pooling"
  bottom: "cccp8"
  top: "pool4"
  pooling_param {
    pool: AVE
    kernel_size: 6
    stride: 1
  }
}
layer {
  name: "accuracy"
  type: "Accuracy"
  bottom: "pool4"
  bottom: "label"
  top: "accuracy"
  include {
    phase: TEST
  }
}
I0503 20:20:24.297610 27287 layer_factory.hpp:77] Creating layer data
I0503 20:20:24.297659 27287 db_lmdb.cpp:35] Opened lmdb retina256/retina256_test_lmdb
I0503 20:20:24.297677 27287 net.cpp:84] Creating Layer data
I0503 20:20:24.297685 27287 net.cpp:380] data -> data
I0503 20:20:24.297693 27287 net.cpp:380] data -> label
I0503 20:20:24.297701 27287 data_transformer.cpp:25] Loading mean file from: retina256/retina256_train_mean.binaryproto
I0503 20:20:24.299938 27287 data_layer.cpp:45] output data size: 64,3,224,224
I0503 20:20:24.361132 27287 net.cpp:122] Setting up data
I0503 20:20:24.361163 27287 net.cpp:129] Top shape: 64 3 224 224 (9633792)
I0503 20:20:24.361169 27287 net.cpp:129] Top shape: 64 (64)
I0503 20:20:24.361173 27287 net.cpp:137] Memory required for data: 38535424
I0503 20:20:24.361181 27287 layer_factory.hpp:77] Creating layer conv1
I0503 20:20:24.361198 27287 net.cpp:84] Creating Layer conv1
I0503 20:20:24.361203 27287 net.cpp:406] conv1 <- data
I0503 20:20:24.361212 27287 net.cpp:380] conv1 -> conv1
I0503 20:20:24.365752 27287 net.cpp:122] Setting up conv1
I0503 20:20:24.365773 27287 net.cpp:129] Top shape: 64 96 54 54 (17915904)
I0503 20:20:24.365778 27287 net.cpp:137] Memory required for data: 110199040
I0503 20:20:24.365794 27287 layer_factory.hpp:77] Creating layer relu0
I0503 20:20:24.365803 27287 net.cpp:84] Creating Layer relu0
I0503 20:20:24.365808 27287 net.cpp:406] relu0 <- conv1
I0503 20:20:24.365814 27287 net.cpp:367] relu0 -> conv1 (in-place)
I0503 20:20:24.366005 27287 net.cpp:122] Setting up relu0
I0503 20:20:24.366015 27287 net.cpp:129] Top shape: 64 96 54 54 (17915904)
I0503 20:20:24.366019 27287 net.cpp:137] Memory required for data: 181862656
I0503 20:20:24.366024 27287 layer_factory.hpp:77] Creating layer cccp1
I0503 20:20:24.366034 27287 net.cpp:84] Creating Layer cccp1
I0503 20:20:24.366039 27287 net.cpp:406] cccp1 <- conv1
I0503 20:20:24.366045 27287 net.cpp:380] cccp1 -> cccp1
I0503 20:20:24.367550 27287 net.cpp:122] Setting up cccp1
I0503 20:20:24.367569 27287 net.cpp:129] Top shape: 64 96 54 54 (17915904)
I0503 20:20:24.367574 27287 net.cpp:137] Memory required for data: 253526272
I0503 20:20:24.367584 27287 layer_factory.hpp:77] Creating layer relu1
I0503 20:20:24.367593 27287 net.cpp:84] Creating Layer relu1
I0503 20:20:24.367597 27287 net.cpp:406] relu1 <- cccp1
I0503 20:20:24.367604 27287 net.cpp:367] relu1 -> cccp1 (in-place)
I0503 20:20:24.368134 27287 net.cpp:122] Setting up relu1
I0503 20:20:24.368145 27287 net.cpp:129] Top shape: 64 96 54 54 (17915904)
I0503 20:20:24.368150 27287 net.cpp:137] Memory required for data: 325189888
I0503 20:20:24.368155 27287 layer_factory.hpp:77] Creating layer cccp2
I0503 20:20:24.368165 27287 net.cpp:84] Creating Layer cccp2
I0503 20:20:24.368170 27287 net.cpp:406] cccp2 <- cccp1
I0503 20:20:24.368177 27287 net.cpp:380] cccp2 -> cccp2
I0503 20:20:24.369302 27287 net.cpp:122] Setting up cccp2
I0503 20:20:24.369316 27287 net.cpp:129] Top shape: 64 96 54 54 (17915904)
I0503 20:20:24.369320 27287 net.cpp:137] Memory required for data: 396853504
I0503 20:20:24.369331 27287 layer_factory.hpp:77] Creating layer relu2
I0503 20:20:24.369340 27287 net.cpp:84] Creating Layer relu2
I0503 20:20:24.369345 27287 net.cpp:406] relu2 <- cccp2
I0503 20:20:24.369350 27287 net.cpp:367] relu2 -> cccp2 (in-place)
I0503 20:20:24.369503 27287 net.cpp:122] Setting up relu2
I0503 20:20:24.369513 27287 net.cpp:129] Top shape: 64 96 54 54 (17915904)
I0503 20:20:24.369516 27287 net.cpp:137] Memory required for data: 468517120
I0503 20:20:24.369520 27287 layer_factory.hpp:77] Creating layer pool1
I0503 20:20:24.369529 27287 net.cpp:84] Creating Layer pool1
I0503 20:20:24.369532 27287 net.cpp:406] pool1 <- cccp2
I0503 20:20:24.369539 27287 net.cpp:380] pool1 -> pool1
I0503 20:20:24.369580 27287 net.cpp:122] Setting up pool1
I0503 20:20:24.369586 27287 net.cpp:129] Top shape: 64 96 27 27 (4478976)
I0503 20:20:24.369599 27287 net.cpp:137] Memory required for data: 486433024
I0503 20:20:24.369618 27287 layer_factory.hpp:77] Creating layer conv2
I0503 20:20:24.369633 27287 net.cpp:84] Creating Layer conv2
I0503 20:20:24.369638 27287 net.cpp:406] conv2 <- pool1
I0503 20:20:24.369648 27287 net.cpp:380] conv2 -> conv2
I0503 20:20:24.376289 27287 net.cpp:122] Setting up conv2
I0503 20:20:24.376325 27287 net.cpp:129] Top shape: 64 256 27 27 (11943936)
I0503 20:20:24.376330 27287 net.cpp:137] Memory required for data: 534208768
I0503 20:20:24.376340 27287 layer_factory.hpp:77] Creating layer relu3
I0503 20:20:24.376351 27287 net.cpp:84] Creating Layer relu3
I0503 20:20:24.376358 27287 net.cpp:406] relu3 <- conv2
I0503 20:20:24.376365 27287 net.cpp:367] relu3 -> conv2 (in-place)
I0503 20:20:24.376524 27287 net.cpp:122] Setting up relu3
I0503 20:20:24.376533 27287 net.cpp:129] Top shape: 64 256 27 27 (11943936)
I0503 20:20:24.376538 27287 net.cpp:137] Memory required for data: 581984512
I0503 20:20:24.376541 27287 layer_factory.hpp:77] Creating layer cccp3
I0503 20:20:24.376554 27287 net.cpp:84] Creating Layer cccp3
I0503 20:20:24.376559 27287 net.cpp:406] cccp3 <- conv2
I0503 20:20:24.376565 27287 net.cpp:380] cccp3 -> cccp3
I0503 20:20:24.383211 27287 net.cpp:122] Setting up cccp3
I0503 20:20:24.383229 27287 net.cpp:129] Top shape: 64 256 27 27 (11943936)
I0503 20:20:24.383234 27287 net.cpp:137] Memory required for data: 629760256
I0503 20:20:24.383244 27287 layer_factory.hpp:77] Creating layer relu5
I0503 20:20:24.383252 27287 net.cpp:84] Creating Layer relu5
I0503 20:20:24.383257 27287 net.cpp:406] relu5 <- cccp3
I0503 20:20:24.383263 27287 net.cpp:367] relu5 -> cccp3 (in-place)
I0503 20:20:24.383409 27287 net.cpp:122] Setting up relu5
I0503 20:20:24.383419 27287 net.cpp:129] Top shape: 64 256 27 27 (11943936)
I0503 20:20:24.383422 27287 net.cpp:137] Memory required for data: 677536000
I0503 20:20:24.383426 27287 layer_factory.hpp:77] Creating layer cccp4
I0503 20:20:24.383436 27287 net.cpp:84] Creating Layer cccp4
I0503 20:20:24.383440 27287 net.cpp:406] cccp4 <- cccp3
I0503 20:20:24.383447 27287 net.cpp:380] cccp4 -> cccp4
I0503 20:20:24.384977 27287 net.cpp:122] Setting up cccp4
I0503 20:20:24.384995 27287 net.cpp:129] Top shape: 64 256 27 27 (11943936)
I0503 20:20:24.385000 27287 net.cpp:137] Memory required for data: 725311744
I0503 20:20:24.385007 27287 layer_factory.hpp:77] Creating layer relu6
I0503 20:20:24.385015 27287 net.cpp:84] Creating Layer relu6
I0503 20:20:24.385020 27287 net.cpp:406] relu6 <- cccp4
I0503 20:20:24.385025 27287 net.cpp:367] relu6 -> cccp4 (in-place)
I0503 20:20:24.385164 27287 net.cpp:122] Setting up relu6
I0503 20:20:24.385174 27287 net.cpp:129] Top shape: 64 256 27 27 (11943936)
I0503 20:20:24.385177 27287 net.cpp:137] Memory required for data: 773087488
I0503 20:20:24.385181 27287 layer_factory.hpp:77] Creating layer pool2
I0503 20:20:24.385188 27287 net.cpp:84] Creating Layer pool2
I0503 20:20:24.385192 27287 net.cpp:406] pool2 <- cccp4
I0503 20:20:24.385198 27287 net.cpp:380] pool2 -> pool2
I0503 20:20:24.385236 27287 net.cpp:122] Setting up pool2
I0503 20:20:24.385243 27287 net.cpp:129] Top shape: 64 256 13 13 (2768896)
I0503 20:20:24.385247 27287 net.cpp:137] Memory required for data: 784163072
I0503 20:20:24.385251 27287 layer_factory.hpp:77] Creating layer conv3
I0503 20:20:24.385262 27287 net.cpp:84] Creating Layer conv3
I0503 20:20:24.385265 27287 net.cpp:406] conv3 <- pool2
I0503 20:20:24.385272 27287 net.cpp:380] conv3 -> conv3
I0503 20:20:24.395833 27287 net.cpp:122] Setting up conv3
I0503 20:20:24.395871 27287 net.cpp:129] Top shape: 64 384 13 13 (4153344)
I0503 20:20:24.395876 27287 net.cpp:137] Memory required for data: 800776448
I0503 20:20:24.395886 27287 layer_factory.hpp:77] Creating layer relu7
I0503 20:20:24.395902 27287 net.cpp:84] Creating Layer relu7
I0503 20:20:24.395908 27287 net.cpp:406] relu7 <- conv3
I0503 20:20:24.395916 27287 net.cpp:367] relu7 -> conv3 (in-place)
I0503 20:20:24.396066 27287 net.cpp:122] Setting up relu7
I0503 20:20:24.396075 27287 net.cpp:129] Top shape: 64 384 13 13 (4153344)
I0503 20:20:24.396091 27287 net.cpp:137] Memory required for data: 817389824
I0503 20:20:24.396106 27287 layer_factory.hpp:77] Creating layer cccp5
I0503 20:20:24.396121 27287 net.cpp:84] Creating Layer cccp5
I0503 20:20:24.396126 27287 net.cpp:406] cccp5 <- conv3
I0503 20:20:24.396134 27287 net.cpp:380] cccp5 -> cccp5
I0503 20:20:24.401007 27287 net.cpp:122] Setting up cccp5
I0503 20:20:24.401024 27287 net.cpp:129] Top shape: 64 384 13 13 (4153344)
I0503 20:20:24.401029 27287 net.cpp:137] Memory required for data: 834003200
I0503 20:20:24.401037 27287 layer_factory.hpp:77] Creating layer relu8
I0503 20:20:24.401046 27287 net.cpp:84] Creating Layer relu8
I0503 20:20:24.401049 27287 net.cpp:406] relu8 <- cccp5
I0503 20:20:24.401055 27287 net.cpp:367] relu8 -> cccp5 (in-place)
I0503 20:20:24.401607 27287 net.cpp:122] Setting up relu8
I0503 20:20:24.401621 27287 net.cpp:129] Top shape: 64 384 13 13 (4153344)
I0503 20:20:24.401628 27287 net.cpp:137] Memory required for data: 850616576
I0503 20:20:24.401634 27287 layer_factory.hpp:77] Creating layer cccp6
I0503 20:20:24.401648 27287 net.cpp:84] Creating Layer cccp6
I0503 20:20:24.401652 27287 net.cpp:406] cccp6 <- cccp5
I0503 20:20:24.401659 27287 net.cpp:380] cccp6 -> cccp6
I0503 20:20:24.403904 27287 net.cpp:122] Setting up cccp6
I0503 20:20:24.403930 27287 net.cpp:129] Top shape: 64 384 13 13 (4153344)
I0503 20:20:24.403934 27287 net.cpp:137] Memory required for data: 867229952
I0503 20:20:24.403950 27287 layer_factory.hpp:77] Creating layer relu9
I0503 20:20:24.403961 27287 net.cpp:84] Creating Layer relu9
I0503 20:20:24.403967 27287 net.cpp:406] relu9 <- cccp6
I0503 20:20:24.403975 27287 net.cpp:367] relu9 -> cccp6 (in-place)
I0503 20:20:24.404125 27287 net.cpp:122] Setting up relu9
I0503 20:20:24.404135 27287 net.cpp:129] Top shape: 64 384 13 13 (4153344)
I0503 20:20:24.404140 27287 net.cpp:137] Memory required for data: 883843328
I0503 20:20:24.404145 27287 layer_factory.hpp:77] Creating layer pool3
I0503 20:20:24.404152 27287 net.cpp:84] Creating Layer pool3
I0503 20:20:24.404156 27287 net.cpp:406] pool3 <- cccp6
I0503 20:20:24.404163 27287 net.cpp:380] pool3 -> pool3
I0503 20:20:24.404211 27287 net.cpp:122] Setting up pool3
I0503 20:20:24.404217 27287 net.cpp:129] Top shape: 64 384 6 6 (884736)
I0503 20:20:24.404222 27287 net.cpp:137] Memory required for data: 887382272
I0503 20:20:24.404225 27287 layer_factory.hpp:77] Creating layer drop
I0503 20:20:24.404233 27287 net.cpp:84] Creating Layer drop
I0503 20:20:24.404237 27287 net.cpp:406] drop <- pool3
I0503 20:20:24.404243 27287 net.cpp:367] drop -> pool3 (in-place)
I0503 20:20:24.404268 27287 net.cpp:122] Setting up drop
I0503 20:20:24.404275 27287 net.cpp:129] Top shape: 64 384 6 6 (884736)
I0503 20:20:24.404278 27287 net.cpp:137] Memory required for data: 890921216
I0503 20:20:24.404283 27287 layer_factory.hpp:77] Creating layer conv4-1024
I0503 20:20:24.404294 27287 net.cpp:84] Creating Layer conv4-1024
I0503 20:20:24.404299 27287 net.cpp:406] conv4-1024 <- pool3
I0503 20:20:24.404306 27287 net.cpp:380] conv4-1024 -> conv4
I0503 20:20:24.435273 27287 net.cpp:122] Setting up conv4-1024
I0503 20:20:24.435302 27287 net.cpp:129] Top shape: 64 1024 6 6 (2359296)
I0503 20:20:24.435307 27287 net.cpp:137] Memory required for data: 900358400
I0503 20:20:24.435315 27287 layer_factory.hpp:77] Creating layer relu10
I0503 20:20:24.435325 27287 net.cpp:84] Creating Layer relu10
I0503 20:20:24.435330 27287 net.cpp:406] relu10 <- conv4
I0503 20:20:24.435338 27287 net.cpp:367] relu10 -> conv4 (in-place)
I0503 20:20:24.435480 27287 net.cpp:122] Setting up relu10
I0503 20:20:24.435489 27287 net.cpp:129] Top shape: 64 1024 6 6 (2359296)
I0503 20:20:24.435494 27287 net.cpp:137] Memory required for data: 909795584
I0503 20:20:24.435498 27287 layer_factory.hpp:77] Creating layer cccp7-1024
I0503 20:20:24.435508 27287 net.cpp:84] Creating Layer cccp7-1024
I0503 20:20:24.435513 27287 net.cpp:406] cccp7-1024 <- conv4
I0503 20:20:24.435520 27287 net.cpp:380] cccp7-1024 -> cccp7
I0503 20:20:24.444891 27287 net.cpp:122] Setting up cccp7-1024
I0503 20:20:24.444913 27287 net.cpp:129] Top shape: 64 1024 6 6 (2359296)
I0503 20:20:24.444929 27287 net.cpp:137] Memory required for data: 919232768
I0503 20:20:24.444937 27287 layer_factory.hpp:77] Creating layer relu11
I0503 20:20:24.444944 27287 net.cpp:84] Creating Layer relu11
I0503 20:20:24.444949 27287 net.cpp:406] relu11 <- cccp7
I0503 20:20:24.444955 27287 net.cpp:367] relu11 -> cccp7 (in-place)
I0503 20:20:24.445096 27287 net.cpp:122] Setting up relu11
I0503 20:20:24.445103 27287 net.cpp:129] Top shape: 64 1024 6 6 (2359296)
I0503 20:20:24.445108 27287 net.cpp:137] Memory required for data: 928669952
I0503 20:20:24.445112 27287 layer_factory.hpp:77] Creating layer cccp8-1024
I0503 20:20:24.445123 27287 net.cpp:84] Creating Layer cccp8-1024
I0503 20:20:24.445127 27287 net.cpp:406] cccp8-1024 <- cccp7
I0503 20:20:24.445133 27287 net.cpp:380] cccp8-1024 -> cccp8
I0503 20:20:24.446202 27287 net.cpp:122] Setting up cccp8-1024
I0503 20:20:24.446215 27287 net.cpp:129] Top shape: 64 5 6 6 (11520)
I0503 20:20:24.446219 27287 net.cpp:137] Memory required for data: 928716032
I0503 20:20:24.446226 27287 layer_factory.hpp:77] Creating layer relu12
I0503 20:20:24.446233 27287 net.cpp:84] Creating Layer relu12
I0503 20:20:24.446238 27287 net.cpp:406] relu12 <- cccp8
I0503 20:20:24.446244 27287 net.cpp:367] relu12 -> cccp8 (in-place)
I0503 20:20:24.446377 27287 net.cpp:122] Setting up relu12
I0503 20:20:24.446386 27287 net.cpp:129] Top shape: 64 5 6 6 (11520)
I0503 20:20:24.446390 27287 net.cpp:137] Memory required for data: 928762112
I0503 20:20:24.446394 27287 layer_factory.hpp:77] Creating layer pool4
I0503 20:20:24.446401 27287 net.cpp:84] Creating Layer pool4
I0503 20:20:24.446405 27287 net.cpp:406] pool4 <- cccp8
I0503 20:20:24.446413 27287 net.cpp:380] pool4 -> pool4
I0503 20:20:24.446945 27287 net.cpp:122] Setting up pool4
I0503 20:20:24.446956 27287 net.cpp:129] Top shape: 64 5 1 1 (320)
I0503 20:20:24.446960 27287 net.cpp:137] Memory required for data: 928763392
I0503 20:20:24.446965 27287 layer_factory.hpp:77] Creating layer accuracy
I0503 20:20:24.446972 27287 net.cpp:84] Creating Layer accuracy
I0503 20:20:24.446977 27287 net.cpp:406] accuracy <- pool4
I0503 20:20:24.446982 27287 net.cpp:406] accuracy <- label
I0503 20:20:24.446988 27287 net.cpp:380] accuracy -> accuracy
…
