…
I0503 13:21:26.382333 16613 net.cpp:294] The NetState phase (0) differed from the phase (1) specified by a rule in layer accuracy
I0503 13:21:26.382514 16613 net.cpp:51] Initializing net from parameters: 
name: "nin_imagenet"
state {
  phase: TRAIN
  level: 0
  stage: ""
}
layer {
  name: "data"
  type: "Data"
  top: "data"
  top: "label"
  include {
    phase: TRAIN
  }
  transform_param {
    mirror: true
    crop_size: 224
    mean_file: "retina256/retina256_train_mean.binaryproto"
  }
  data_param {
    source: "retina256/retina256_train_lmdb"
    batch_size: 100
    backend: LMDB
  }
}
layer {
  name: "conv1"
  type: "Convolution"
  bottom: "data"
  top: "conv1"
  param {
    lr_mult: 1
    decay_mult: 1
  }
  param {
    lr_mult: 2
    decay_mult: 0
  }
  convolution_param {
    num_output: 96
    kernel_size: 11
    stride: 4
    weight_filler {
      type: "gaussian"
      mean: 0
      std: 0.01
    }
    bias_filler {
      type: "constant"
      value: 0
    }
  }
}
layer {
  name: "relu0"
  type: "ReLU"
  bottom: "conv1"
  top: "conv1"
}
layer {
  name: "cccp1"
  type: "Convolution"
  bottom: "conv1"
  top: "cccp1"
  param {
    lr_mult: 1
    decay_mult: 1
  }
  param {
    lr_mult: 2
    decay_mult: 0
  }
  convolution_param {
    num_output: 96
    kernel_size: 1
    stride: 1
    weight_filler {
      type: "gaussian"
      mean: 0
      std: 0.05
    }
    bias_filler {
      type: "constant"
      value: 0
    }
  }
}
layer {
  name: "relu1"
  type: "ReLU"
  bottom: "cccp1"
  top: "cccp1"
}
layer {
  name: "cccp2"
  type: "Convolution"
  bottom: "cccp1"
  top: "cccp2"
  param {
    lr_mult: 1
    decay_mult: 1
  }
  param {
    lr_mult: 2
    decay_mult: 0
  }
  convolution_param {
    num_output: 96
    kernel_size: 1
    stride: 1
    weight_filler {
      type: "gaussian"
      mean: 0
      std: 0.05
    }
    bias_filler {
      type: "constant"
      value: 0
    }
  }
}
layer {
  name: "relu2"
  type: "ReLU"
  bottom: "cccp2"
  top: "cccp2"
}
layer {
  name: "pool1"
  type: "Pooling"
  bottom: "cccp2"
  top: "pool1"
  pooling_param {
    pool: MAX
    kernel_size: 3
    stride: 2
  }
}
layer {
  name: "conv2"
  type: "Convolution"
  bottom: "pool1"
  top: "conv2"
  param {
    lr_mult: 1
    decay_mult: 1
  }
  param {
    lr_mult: 2
    decay_mult: 0
  }
  convolution_param {
    num_output: 256
    pad: 2
    kernel_size: 5
    stride: 1
    weight_filler {
      type: "gaussian"
      mean: 0
      std: 0.05
    }
    bias_filler {
      type: "constant"
      value: 0
    }
  }
}
layer {
  name: "relu3"
  type: "ReLU"
  bottom: "conv2"
  top: "conv2"
}
layer {
  name: "cccp3"
  type: "Convolution"
  bottom: "conv2"
  top: "cccp3"
  param {
    lr_mult: 1
    decay_mult: 1
  }
  param {
    lr_mult: 2
    decay_mult: 0
  }
  convolution_param {
    num_output: 256
    kernel_size: 1
    stride: 1
    weight_filler {
      type: "gaussian"
      mean: 0
      std: 0.05
    }
    bias_filler {
      type: "constant"
      value: 0
    }
  }
}
layer {
  name: "relu5"
  type: "ReLU"
  bottom: "cccp3"
  top: "cccp3"
}
layer {
  name: "cccp4"
  type: "Convolution"
  bottom: "cccp3"
  top: "cccp4"
  param {
    lr_mult: 1
    decay_mult: 1
  }
  param {
    lr_mult: 2
    decay_mult: 0
  }
  convolution_param {
    num_output: 256
    kernel_size: 1
    stride: 1
    weight_filler {
      type: "gaussian"
      mean: 0
      std: 0.05
    }
    bias_filler {
      type: "constant"
      value: 0
    }
  }
}
layer {
  name: "relu6"
  type: "ReLU"
  bottom: "cccp4"
  top: "cccp4"
}
layer {
  name: "pool2"
  type: "Pooling"
  bottom: "cccp4"
  top: "pool2"
  pooling_param {
    pool: MAX
    kernel_size: 3
    stride: 2
  }
}
layer {
  name: "conv3"
  type: "Convolution"
  bottom: "pool2"
  top: "conv3"
  param {
    lr_mult: 1
    decay_mult: 1
  }
  param {
    lr_mult: 2
    decay_mult: 0
  }
  convolution_param {
    num_output: 384
    pad: 1
    kernel_size: 3
    stride: 1
    weight_filler {
      type: "gaussian"
      mean: 0
      std: 0.01
    }
    bias_filler {
      type: "constant"
      value: 0
    }
  }
}
layer {
  name: "relu7"
  type: "ReLU"
  bottom: "conv3"
  top: "conv3"
}
layer {
  name: "cccp5"
  type: "Convolution"
  bottom: "conv3"
  top: "cccp5"
  param {
    lr_mult: 1
    decay_mult: 1
  }
  param {
    lr_mult: 2
    decay_mult: 0
  }
  convolution_param {
    num_output: 384
    kernel_size: 1
    stride: 1
    weight_filler {
      type: "gaussian"
      mean: 0
      std: 0.05
    }
    bias_filler {
      type: "constant"
      value: 0
    }
  }
}
layer {
  name: "relu8"
  type: "ReLU"
  bottom: "cccp5"
  top: "cccp5"
}
layer {
  name: "cccp6"
  type: "Convolution"
  bottom: "cccp5"
  top: "cccp6"
  param {
    lr_mult: 1
    decay_mult: 1
  }
  param {
    lr_mult: 2
    decay_mult: 0
  }
  convolution_param {
    num_output: 384
    kernel_size: 1
    stride: 1
    weight_filler {
      type: "gaussian"
      mean: 0
      std: 0.05
    }
    bias_filler {
      type: "constant"
      value: 0
    }
  }
}
layer {
  name: "relu9"
  type: "ReLU"
  bottom: "cccp6"
  top: "cccp6"
}
layer {
  name: "pool3"
  type: "Pooling"
  bottom: "cccp6"
  top: "pool3"
  pooling_param {
    pool: MAX
    kernel_size: 3
    stride: 2
  }
}
layer {
  name: "drop"
  type: "Dropout"
  bottom: "pool3"
  top: "pool3"
  dropout_param {
    dropout_ratio: 0.5
  }
}
layer {
  name: "conv4-1024"
  type: "Convolution"
  bottom: "pool3"
  top: "conv4"
  param {
    lr_mult: 1
    decay_mult: 1
  }
  param {
    lr_mult: 2
    decay_mult: 0
  }
  convolution_param {
    num_output: 1024
    pad: 1
    kernel_size: 3
    stride: 1
    weight_filler {
      type: "gaussian"
      mean: 0
      std: 0.05
    }
    bias_filler {
      type: "constant"
      value: 0
    }
  }
}
layer {
  name: "relu10"
  type: "ReLU"
  bottom: "conv4"
  top: "conv4"
}
layer {
  name: "cccp7-1024"
  type: "Convolution"
  bottom: "conv4"
  top: "cccp7"
  param {
    lr_mult: 1
    decay_mult: 1
  }
  param {
    lr_mult: 2
    decay_mult: 0
  }
  convolution_param {
    num_output: 1024
    kernel_size: 1
    stride: 1
    weight_filler {
      type: "gaussian"
      mean: 0
      std: 0.05
    }
    bias_filler {
      type: "constant"
      value: 0
    }
  }
}
layer {
  name: "relu11"
  type: "ReLU"
  bottom: "cccp7"
  top: "cccp7"
}
layer {
  name: "cccp8-1024"
  type: "Convolution"
  bottom: "cccp7"
  top: "cccp8"
  param {
    lr_mult: 1
    decay_mult: 1
  }
  param {
    lr_mult: 2
    decay_mult: 0
  }
  convolution_param {
    num_output: 5
    kernel_size: 1
    stride: 1
    weight_filler {
      type: "gaussian"
      mean: 0
      std: 0.01
    }
    bias_filler {
      type: "constant"
      value: 0
    }
  }
}
layer {
  name: "relu12"
  type: "ReLU"
  bottom: "cccp8"
  top: "cccp8"
}
layer {
  name: "pool4"
  type: "Pooling"
  bottom: "cccp8"
  top: "pool4"
  pooling_param {
    pool: AVE
    kernel_size: 6
    stride: 1
  }
}
layer {
  name: "loss"
  type: "SoftmaxWithLoss"
  bottom: "pool4"
  bottom: "label"
  include {
    phase: TRAIN
  }
}
I0503 13:21:26.382625 16613 layer_factory.hpp:77] Creating layer data
I0503 13:21:26.382714 16613 db_lmdb.cpp:35] Opened lmdb retina256/retina256_train_lmdb
I0503 13:21:26.382752 16613 net.cpp:84] Creating Layer data
I0503 13:21:26.382761 16613 net.cpp:380] data -> data
I0503 13:21:26.382784 16613 net.cpp:380] data -> label
I0503 13:21:26.382803 16613 data_transformer.cpp:25] Loading mean file from: retina256/retina256_train_mean.binaryproto
I0503 13:21:26.386325 16613 data_layer.cpp:45] output data size: 100,3,224,224
I0503 13:21:26.476438 16613 net.cpp:122] Setting up data
I0503 13:21:26.476469 16613 net.cpp:129] Top shape: 100 3 224 224 (15052800)
I0503 13:21:26.476475 16613 net.cpp:129] Top shape: 100 (100)
I0503 13:21:26.476478 16613 net.cpp:137] Memory required for data: 60211600
I0503 13:21:26.476490 16613 layer_factory.hpp:77] Creating layer conv1
I0503 13:21:26.476511 16613 net.cpp:84] Creating Layer conv1
I0503 13:21:26.476517 16613 net.cpp:406] conv1 <- data
I0503 13:21:26.476531 16613 net.cpp:380] conv1 -> conv1
I0503 13:21:26.751897 16613 net.cpp:122] Setting up conv1
I0503 13:21:26.751931 16613 net.cpp:129] Top shape: 100 96 54 54 (27993600)
I0503 13:21:26.751937 16613 net.cpp:137] Memory required for data: 172186000
I0503 13:21:26.751960 16613 layer_factory.hpp:77] Creating layer relu0
I0503 13:21:26.751972 16613 net.cpp:84] Creating Layer relu0
I0503 13:21:26.751979 16613 net.cpp:406] relu0 <- conv1
I0503 13:21:26.751987 16613 net.cpp:367] relu0 -> conv1 (in-place)
I0503 13:21:26.752148 16613 net.cpp:122] Setting up relu0
I0503 13:21:26.752157 16613 net.cpp:129] Top shape: 100 96 54 54 (27993600)
I0503 13:21:26.752163 16613 net.cpp:137] Memory required for data: 284160400
I0503 13:21:26.752168 16613 layer_factory.hpp:77] Creating layer cccp1
I0503 13:21:26.752182 16613 net.cpp:84] Creating Layer cccp1
I0503 13:21:26.752187 16613 net.cpp:406] cccp1 <- conv1
I0503 13:21:26.752193 16613 net.cpp:380] cccp1 -> cccp1
I0503 13:21:26.754349 16613 net.cpp:122] Setting up cccp1
I0503 13:21:26.754372 16613 net.cpp:129] Top shape: 100 96 54 54 (27993600)
I0503 13:21:26.754376 16613 net.cpp:137] Memory required for data: 396134800
I0503 13:21:26.754390 16613 layer_factory.hpp:77] Creating layer relu1
I0503 13:21:26.754401 16613 net.cpp:84] Creating Layer relu1
I0503 13:21:26.754408 16613 net.cpp:406] relu1 <- cccp1
I0503 13:21:26.754418 16613 net.cpp:367] relu1 -> cccp1 (in-place)
I0503 13:21:26.754575 16613 net.cpp:122] Setting up relu1
I0503 13:21:26.754585 16613 net.cpp:129] Top shape: 100 96 54 54 (27993600)
I0503 13:21:26.754590 16613 net.cpp:137] Memory required for data: 508109200
I0503 13:21:26.754593 16613 layer_factory.hpp:77] Creating layer cccp2
I0503 13:21:26.754607 16613 net.cpp:84] Creating Layer cccp2
I0503 13:21:26.754612 16613 net.cpp:406] cccp2 <- cccp1
I0503 13:21:26.754619 16613 net.cpp:380] cccp2 -> cccp2
I0503 13:21:26.755755 16613 net.cpp:122] Setting up cccp2
I0503 13:21:26.755771 16613 net.cpp:129] Top shape: 100 96 54 54 (27993600)
I0503 13:21:26.755776 16613 net.cpp:137] Memory required for data: 620083600
I0503 13:21:26.755790 16613 layer_factory.hpp:77] Creating layer relu2
I0503 13:21:26.755798 16613 net.cpp:84] Creating Layer relu2
I0503 13:21:26.755803 16613 net.cpp:406] relu2 <- cccp2
I0503 13:21:26.755813 16613 net.cpp:367] relu2 -> cccp2 (in-place)
I0503 13:21:26.755967 16613 net.cpp:122] Setting up relu2
I0503 13:21:26.755977 16613 net.cpp:129] Top shape: 100 96 54 54 (27993600)
I0503 13:21:26.755982 16613 net.cpp:137] Memory required for data: 732058000
I0503 13:21:26.755990 16613 layer_factory.hpp:77] Creating layer pool1
I0503 13:21:26.756002 16613 net.cpp:84] Creating Layer pool1
I0503 13:21:26.756009 16613 net.cpp:406] pool1 <- cccp2
I0503 13:21:26.756024 16613 net.cpp:380] pool1 -> pool1
I0503 13:21:26.756084 16613 net.cpp:122] Setting up pool1
I0503 13:21:26.756095 16613 net.cpp:129] Top shape: 100 96 27 27 (6998400)
I0503 13:21:26.756103 16613 net.cpp:137] Memory required for data: 760051600
I0503 13:21:26.756108 16613 layer_factory.hpp:77] Creating layer conv2
I0503 13:21:26.756121 16613 net.cpp:84] Creating Layer conv2
I0503 13:21:26.756126 16613 net.cpp:406] conv2 <- pool1
I0503 13:21:26.756139 16613 net.cpp:380] conv2 -> conv2
I0503 13:21:26.763901 16613 net.cpp:122] Setting up conv2
I0503 13:21:26.763931 16613 net.cpp:129] Top shape: 100 256 27 27 (18662400)
I0503 13:21:26.763936 16613 net.cpp:137] Memory required for data: 834701200
I0503 13:21:26.763947 16613 layer_factory.hpp:77] Creating layer relu3
I0503 13:21:26.763957 16613 net.cpp:84] Creating Layer relu3
I0503 13:21:26.763962 16613 net.cpp:406] relu3 <- conv2
I0503 13:21:26.763970 16613 net.cpp:367] relu3 -> conv2 (in-place)
I0503 13:21:26.764129 16613 net.cpp:122] Setting up relu3
I0503 13:21:26.764138 16613 net.cpp:129] Top shape: 100 256 27 27 (18662400)
I0503 13:21:26.764142 16613 net.cpp:137] Memory required for data: 909350800
I0503 13:21:26.764147 16613 layer_factory.hpp:77] Creating layer cccp3
I0503 13:21:26.764158 16613 net.cpp:84] Creating Layer cccp3
I0503 13:21:26.764165 16613 net.cpp:406] cccp3 <- conv2
I0503 13:21:26.764173 16613 net.cpp:380] cccp3 -> cccp3
I0503 13:21:26.765700 16613 net.cpp:122] Setting up cccp3
I0503 13:21:26.765715 16613 net.cpp:129] Top shape: 100 256 27 27 (18662400)
I0503 13:21:26.765720 16613 net.cpp:137] Memory required for data: 984000400
I0503 13:21:26.765733 16613 layer_factory.hpp:77] Creating layer relu5
I0503 13:21:26.765751 16613 net.cpp:84] Creating Layer relu5
I0503 13:21:26.765756 16613 net.cpp:406] relu5 <- cccp3
I0503 13:21:26.765763 16613 net.cpp:367] relu5 -> cccp3 (in-place)
I0503 13:21:26.766402 16613 net.cpp:122] Setting up relu5
I0503 13:21:26.766414 16613 net.cpp:129] Top shape: 100 256 27 27 (18662400)
I0503 13:21:26.766419 16613 net.cpp:137] Memory required for data: 1058650000
I0503 13:21:26.766424 16613 layer_factory.hpp:77] Creating layer cccp4
I0503 13:21:26.766438 16613 net.cpp:84] Creating Layer cccp4
I0503 13:21:26.766443 16613 net.cpp:406] cccp4 <- cccp3
I0503 13:21:26.766449 16613 net.cpp:380] cccp4 -> cccp4
I0503 13:21:26.767716 16613 net.cpp:122] Setting up cccp4
I0503 13:21:26.767731 16613 net.cpp:129] Top shape: 100 256 27 27 (18662400)
I0503 13:21:26.767736 16613 net.cpp:137] Memory required for data: 1133299600
I0503 13:21:26.767743 16613 layer_factory.hpp:77] Creating layer relu6
I0503 13:21:26.767751 16613 net.cpp:84] Creating Layer relu6
I0503 13:21:26.767756 16613 net.cpp:406] relu6 <- cccp4
I0503 13:21:26.767763 16613 net.cpp:367] relu6 -> cccp4 (in-place)
I0503 13:21:26.768299 16613 net.cpp:122] Setting up relu6
I0503 13:21:26.768312 16613 net.cpp:129] Top shape: 100 256 27 27 (18662400)
I0503 13:21:26.768316 16613 net.cpp:137] Memory required for data: 1207949200
I0503 13:21:26.768321 16613 layer_factory.hpp:77] Creating layer pool2
I0503 13:21:26.768332 16613 net.cpp:84] Creating Layer pool2
I0503 13:21:26.768337 16613 net.cpp:406] pool2 <- cccp4
I0503 13:21:26.768343 16613 net.cpp:380] pool2 -> pool2
I0503 13:21:26.768383 16613 net.cpp:122] Setting up pool2
I0503 13:21:26.768391 16613 net.cpp:129] Top shape: 100 256 13 13 (4326400)
I0503 13:21:26.768395 16613 net.cpp:137] Memory required for data: 1225254800
I0503 13:21:26.768399 16613 layer_factory.hpp:77] Creating layer conv3
I0503 13:21:26.768410 16613 net.cpp:84] Creating Layer conv3
I0503 13:21:26.768414 16613 net.cpp:406] conv3 <- pool2
I0503 13:21:26.768422 16613 net.cpp:380] conv3 -> conv3
I0503 13:21:26.777763 16613 net.cpp:122] Setting up conv3
I0503 13:21:26.777788 16613 net.cpp:129] Top shape: 100 384 13 13 (6489600)
I0503 13:21:26.777793 16613 net.cpp:137] Memory required for data: 1251213200
I0503 13:21:26.777806 16613 layer_factory.hpp:77] Creating layer relu7
I0503 13:21:26.777820 16613 net.cpp:84] Creating Layer relu7
I0503 13:21:26.777827 16613 net.cpp:406] relu7 <- conv3
I0503 13:21:26.777834 16613 net.cpp:367] relu7 -> conv3 (in-place)
I0503 13:21:26.777994 16613 net.cpp:122] Setting up relu7
I0503 13:21:26.778003 16613 net.cpp:129] Top shape: 100 384 13 13 (6489600)
I0503 13:21:26.778008 16613 net.cpp:137] Memory required for data: 1277171600
I0503 13:21:26.778013 16613 layer_factory.hpp:77] Creating layer cccp5
I0503 13:21:26.778028 16613 net.cpp:84] Creating Layer cccp5
I0503 13:21:26.778038 16613 net.cpp:406] cccp5 <- conv3
I0503 13:21:26.778061 16613 net.cpp:380] cccp5 -> cccp5
I0503 13:21:26.780827 16613 net.cpp:122] Setting up cccp5
I0503 13:21:26.780849 16613 net.cpp:129] Top shape: 100 384 13 13 (6489600)
I0503 13:21:26.780856 16613 net.cpp:137] Memory required for data: 1303130000
I0503 13:21:26.780869 16613 layer_factory.hpp:77] Creating layer relu8
I0503 13:21:26.780879 16613 net.cpp:84] Creating Layer relu8
I0503 13:21:26.780889 16613 net.cpp:406] relu8 <- cccp5
I0503 13:21:26.780900 16613 net.cpp:367] relu8 -> cccp5 (in-place)
I0503 13:21:26.781069 16613 net.cpp:122] Setting up relu8
I0503 13:21:26.781083 16613 net.cpp:129] Top shape: 100 384 13 13 (6489600)
I0503 13:21:26.781091 16613 net.cpp:137] Memory required for data: 1329088400
I0503 13:21:26.781097 16613 layer_factory.hpp:77] Creating layer cccp6
I0503 13:21:26.781113 16613 net.cpp:84] Creating Layer cccp6
I0503 13:21:26.781121 16613 net.cpp:406] cccp6 <- cccp5
I0503 13:21:26.781134 16613 net.cpp:380] cccp6 -> cccp6
I0503 13:21:26.783869 16613 net.cpp:122] Setting up cccp6
I0503 13:21:26.783892 16613 net.cpp:129] Top shape: 100 384 13 13 (6489600)
I0503 13:21:26.783897 16613 net.cpp:137] Memory required for data: 1355046800
I0503 13:21:26.783918 16613 layer_factory.hpp:77] Creating layer relu9
I0503 13:21:26.783931 16613 net.cpp:84] Creating Layer relu9
I0503 13:21:26.783938 16613 net.cpp:406] relu9 <- cccp6
I0503 13:21:26.783951 16613 net.cpp:367] relu9 -> cccp6 (in-place)
I0503 13:21:26.784162 16613 net.cpp:122] Setting up relu9
I0503 13:21:26.784173 16613 net.cpp:129] Top shape: 100 384 13 13 (6489600)
I0503 13:21:26.784178 16613 net.cpp:137] Memory required for data: 1381005200
I0503 13:21:26.784188 16613 layer_factory.hpp:77] Creating layer pool3
I0503 13:21:26.784198 16613 net.cpp:84] Creating Layer pool3
I0503 13:21:26.784202 16613 net.cpp:406] pool3 <- cccp6
I0503 13:21:26.784211 16613 net.cpp:380] pool3 -> pool3
I0503 13:21:26.784256 16613 net.cpp:122] Setting up pool3
I0503 13:21:26.784265 16613 net.cpp:129] Top shape: 100 384 6 6 (1382400)
I0503 13:21:26.784270 16613 net.cpp:137] Memory required for data: 1386534800
I0503 13:21:26.784274 16613 layer_factory.hpp:77] Creating layer drop
I0503 13:21:26.784283 16613 net.cpp:84] Creating Layer drop
I0503 13:21:26.784291 16613 net.cpp:406] drop <- pool3
I0503 13:21:26.784301 16613 net.cpp:367] drop -> pool3 (in-place)
I0503 13:21:26.784335 16613 net.cpp:122] Setting up drop
I0503 13:21:26.784348 16613 net.cpp:129] Top shape: 100 384 6 6 (1382400)
I0503 13:21:26.784355 16613 net.cpp:137] Memory required for data: 1392064400
I0503 13:21:26.784363 16613 layer_factory.hpp:77] Creating layer conv4-1024
I0503 13:21:26.784379 16613 net.cpp:84] Creating Layer conv4-1024
I0503 13:21:26.784386 16613 net.cpp:406] conv4-1024 <- pool3
I0503 13:21:26.784401 16613 net.cpp:380] conv4-1024 -> conv4
I0503 13:21:26.818840 16613 net.cpp:122] Setting up conv4-1024
I0503 13:21:26.818881 16613 net.cpp:129] Top shape: 100 1024 6 6 (3686400)
I0503 13:21:26.818891 16613 net.cpp:137] Memory required for data: 1406810000
I0503 13:21:26.818905 16613 layer_factory.hpp:77] Creating layer relu10
I0503 13:21:26.818919 16613 net.cpp:84] Creating Layer relu10
I0503 13:21:26.818928 16613 net.cpp:406] relu10 <- conv4
I0503 13:21:26.818941 16613 net.cpp:367] relu10 -> conv4 (in-place)
I0503 13:21:26.819188 16613 net.cpp:122] Setting up relu10
I0503 13:21:26.819205 16613 net.cpp:129] Top shape: 100 1024 6 6 (3686400)
I0503 13:21:26.819211 16613 net.cpp:137] Memory required for data: 1421555600
I0503 13:21:26.819217 16613 layer_factory.hpp:77] Creating layer cccp7-1024
I0503 13:21:26.819238 16613 net.cpp:84] Creating Layer cccp7-1024
I0503 13:21:26.819245 16613 net.cpp:406] cccp7-1024 <- conv4
I0503 13:21:26.819255 16613 net.cpp:380] cccp7-1024 -> cccp7
I0503 13:21:26.833420 16613 net.cpp:122] Setting up cccp7-1024
I0503 13:21:26.833452 16613 net.cpp:129] Top shape: 100 1024 6 6 (3686400)
I0503 13:21:26.833457 16613 net.cpp:137] Memory required for data: 1436301200
I0503 13:21:26.833468 16613 layer_factory.hpp:77] Creating layer relu11
I0503 13:21:26.833485 16613 net.cpp:84] Creating Layer relu11
I0503 13:21:26.833500 16613 net.cpp:406] relu11 <- cccp7
I0503 13:21:26.833509 16613 net.cpp:367] relu11 -> cccp7 (in-place)
I0503 13:21:26.834209 16613 net.cpp:122] Setting up relu11
I0503 13:21:26.834225 16613 net.cpp:129] Top shape: 100 1024 6 6 (3686400)
I0503 13:21:26.834230 16613 net.cpp:137] Memory required for data: 1451046800
I0503 13:21:26.834235 16613 layer_factory.hpp:77] Creating layer cccp8-1024
I0503 13:21:26.834249 16613 net.cpp:84] Creating Layer cccp8-1024
I0503 13:21:26.834254 16613 net.cpp:406] cccp8-1024 <- cccp7
I0503 13:21:26.834266 16613 net.cpp:380] cccp8-1024 -> cccp8
I0503 13:21:26.835052 16613 net.cpp:122] Setting up cccp8-1024
I0503 13:21:26.835072 16613 net.cpp:129] Top shape: 100 5 6 6 (18000)
I0503 13:21:26.835078 16613 net.cpp:137] Memory required for data: 1451118800
I0503 13:21:26.835090 16613 layer_factory.hpp:77] Creating layer relu12
I0503 13:21:26.835100 16613 net.cpp:84] Creating Layer relu12
I0503 13:21:26.835108 16613 net.cpp:406] relu12 <- cccp8
I0503 13:21:26.835116 16613 net.cpp:367] relu12 -> cccp8 (in-place)
I0503 13:21:26.836000 16613 net.cpp:122] Setting up relu12
I0503 13:21:26.836019 16613 net.cpp:129] Top shape: 100 5 6 6 (18000)
I0503 13:21:26.836025 16613 net.cpp:137] Memory required for data: 1451190800
I0503 13:21:26.836032 16613 layer_factory.hpp:77] Creating layer pool4
I0503 13:21:26.836045 16613 net.cpp:84] Creating Layer pool4
I0503 13:21:26.836051 16613 net.cpp:406] pool4 <- cccp8
I0503 13:21:26.836063 16613 net.cpp:380] pool4 -> pool4
I0503 13:21:26.836328 16613 net.cpp:122] Setting up pool4
I0503 13:21:26.836344 16613 net.cpp:129] Top shape: 100 5 1 1 (500)
I0503 13:21:26.836350 16613 net.cpp:137] Memory required for data: 1451192800
I0503 13:21:26.836356 16613 layer_factory.hpp:77] Creating layer loss
I0503 13:21:26.836367 16613 net.cpp:84] Creating Layer loss
I0503 13:21:26.836376 16613 net.cpp:406] loss <- pool4
I0503 13:21:26.836385 16613 net.cpp:406] loss <- label
I0503 13:21:26.836397 16613 net.cpp:380] loss -> (automatic)
I0503 13:21:26.836411 16613 layer_factory.hpp:77] Creating layer loss
…
I0503 13:21:26.837792 16613 net.cpp:294] The NetState phase (1) differed from the phase (0) specified by a rule in layer loss
I0503 13:21:26.838155 16613 net.cpp:51] Initializing net from parameters: 
name: "nin_imagenet"
state {
  phase: TEST
}
layer {
  name: "data"
  type: "Data"
  top: "data"
  top: "label"
  include {
    phase: TEST
  }
  transform_param {
    mirror: false
    crop_size: 224
    mean_file: "retina256/retina256_train_mean.binaryproto"
  }
  data_param {
    source: "retina256/retina256_test_lmdb"
    batch_size: 64
    backend: LMDB
  }
}
layer {
  name: "conv1"
  type: "Convolution"
  bottom: "data"
  top: "conv1"
  param {
    lr_mult: 1
    decay_mult: 1
  }
  param {
    lr_mult: 2
    decay_mult: 0
  }
  convolution_param {
    num_output: 96
    kernel_size: 11
    stride: 4
    weight_filler {
      type: "gaussian"
      mean: 0
      std: 0.01
    }
    bias_filler {
      type: "constant"
      value: 0
    }
  }
}
layer {
  name: "relu0"
  type: "ReLU"
  bottom: "conv1"
  top: "conv1"
}
layer {
  name: "cccp1"
  type: "Convolution"
  bottom: "conv1"
  top: "cccp1"
  param {
    lr_mult: 1
    decay_mult: 1
  }
  param {
    lr_mult: 2
    decay_mult: 0
  }
  convolution_param {
    num_output: 96
    kernel_size: 1
    stride: 1
    weight_filler {
      type: "gaussian"
      mean: 0
      std: 0.05
    }
    bias_filler {
      type: "constant"
      value: 0
    }
  }
}
layer {
  name: "relu1"
  type: "ReLU"
  bottom: "cccp1"
  top: "cccp1"
}
layer {
  name: "cccp2"
  type: "Convolution"
  bottom: "cccp1"
  top: "cccp2"
  param {
    lr_mult: 1
    decay_mult: 1
  }
  param {
    lr_mult: 2
    decay_mult: 0
  }
  convolution_param {
    num_output: 96
    kernel_size: 1
    stride: 1
    weight_filler {
      type: "gaussian"
      mean: 0
      std: 0.05
    }
    bias_filler {
      type: "constant"
      value: 0
    }
  }
}
layer {
  name: "relu2"
  type: "ReLU"
  bottom: "cccp2"
  top: "cccp2"
}
layer {
  name: "pool1"
  type: "Pooling"
  bottom: "cccp2"
  top: "pool1"
  pooling_param {
    pool: MAX
    kernel_size: 3
    stride: 2
  }
}
layer {
  name: "conv2"
  type: "Convolution"
  bottom: "pool1"
  top: "conv2"
  param {
    lr_mult: 1
    decay_mult: 1
  }
  param {
    lr_mult: 2
    decay_mult: 0
  }
  convolution_param {
    num_output: 256
    pad: 2
    kernel_size: 5
    stride: 1
    weight_filler {
      type: "gaussian"
      mean: 0
      std: 0.05
    }
    bias_filler {
      type: "constant"
      value: 0
    }
  }
}
layer {
  name: "relu3"
  type: "ReLU"
  bottom: "conv2"
  top: "conv2"
}
layer {
  name: "cccp3"
  type: "Convolution"
  bottom: "conv2"
  top: "cccp3"
  param {
    lr_mult: 1
    decay_mult: 1
  }
  param {
    lr_mult: 2
    decay_mult: 0
  }
  convolution_param {
    num_output: 256
    kernel_size: 1
    stride: 1
    weight_filler {
      type: "gaussian"
      mean: 0
      std: 0.05
    }
    bias_filler {
      type: "constant"
      value: 0
    }
  }
}
layer {
  name: "relu5"
  type: "ReLU"
  bottom: "cccp3"
  top: "cccp3"
}
layer {
  name: "cccp4"
  type: "Convolution"
  bottom: "cccp3"
  top: "cccp4"
  param {
    lr_mult: 1
    decay_mult: 1
  }
  param {
    lr_mult: 2
    decay_mult: 0
  }
  convolution_param {
    num_output: 256
    kernel_size: 1
    stride: 1
    weight_filler {
      type: "gaussian"
      mean: 0
      std: 0.05
    }
    bias_filler {
      type: "constant"
      value: 0
    }
  }
}
layer {
  name: "relu6"
  type: "ReLU"
  bottom: "cccp4"
  top: "cccp4"
}
layer {
  name: "pool2"
  type: "Pooling"
  bottom: "cccp4"
  top: "pool2"
  pooling_param {
    pool: MAX
    kernel_size: 3
    stride: 2
  }
}
layer {
  name: "conv3"
  type: "Convolution"
  bottom: "pool2"
  top: "conv3"
  param {
    lr_mult: 1
    decay_mult: 1
  }
  param {
    lr_mult: 2
    decay_mult: 0
  }
  convolution_param {
    num_output: 384
    pad: 1
    kernel_size: 3
    stride: 1
    weight_filler {
      type: "gaussian"
      mean: 0
      std: 0.01
    }
    bias_filler {
      type: "constant"
      value: 0
    }
  }
}
layer {
  name: "relu7"
  type: "ReLU"
  bottom: "conv3"
  top: "conv3"
}
layer {
  name: "cccp5"
  type: "Convolution"
  bottom: "conv3"
  top: "cccp5"
  param {
    lr_mult: 1
    decay_mult: 1
  }
  param {
    lr_mult: 2
    decay_mult: 0
  }
  convolution_param {
    num_output: 384
    kernel_size: 1
    stride: 1
    weight_filler {
      type: "gaussian"
      mean: 0
      std: 0.05
    }
    bias_filler {
      type: "constant"
      value: 0
    }
  }
}
layer {
  name: "relu8"
  type: "ReLU"
  bottom: "cccp5"
  top: "cccp5"
}
layer {
  name: "cccp6"
  type: "Convolution"
  bottom: "cccp5"
  top: "cccp6"
  param {
    lr_mult: 1
    decay_mult: 1
  }
  param {
    lr_mult: 2
    decay_mult: 0
  }
  convolution_param {
    num_output: 384
    kernel_size: 1
    stride: 1
    weight_filler {
      type: "gaussian"
      mean: 0
      std: 0.05
    }
    bias_filler {
      type: "constant"
      value: 0
    }
  }
}
layer {
  name: "relu9"
  type: "ReLU"
  bottom: "cccp6"
  top: "cccp6"
}
layer {
  name: "pool3"
  type: "Pooling"
  bottom: "cccp6"
  top: "pool3"
  pooling_param {
    pool: MAX
    kernel_size: 3
    stride: 2
  }
}
layer {
  name: "drop"
  type: "Dropout"
  bottom: "pool3"
  top: "pool3"
  dropout_param {
    dropout_ratio: 0.5
  }
}
layer {
  name: "conv4-1024"
  type: "Convolution"
  bottom: "pool3"
  top: "conv4"
  param {
    lr_mult: 1
    decay_mult: 1
  }
  param {
    lr_mult: 2
    decay_mult: 0
  }
  convolution_param {
    num_output: 1024
    pad: 1
    kernel_size: 3
    stride: 1
    weight_filler {
      type: "gaussian"
      mean: 0
      std: 0.05
    }
    bias_filler {
      type: "constant"
      value: 0
    }
  }
}
layer {
  name: "relu10"
  type: "ReLU"
  bottom: "conv4"
  top: "conv4"
}
layer {
  name: "cccp7-1024"
  type: "Convolution"
  bottom: "conv4"
  top: "cccp7"
  param {
    lr_mult: 1
    decay_mult: 1
  }
  param {
    lr_mult: 2
    decay_mult: 0
  }
  convolution_param {
    num_output: 1024
    kernel_size: 1
    stride: 1
    weight_filler {
      type: "gaussian"
      mean: 0
      std: 0.05
    }
    bias_filler {
      type: "constant"
      value: 0
    }
  }
}
layer {
  name: "relu11"
  type: "ReLU"
  bottom: "cccp7"
  top: "cccp7"
}
layer {
  name: "cccp8-1024"
  type: "Convolution"
  bottom: "cccp7"
  top: "cccp8"
  param {
    lr_mult: 1
    decay_mult: 1
  }
  param {
    lr_mult: 2
    decay_mult: 0
  }
  convolution_param {
    num_output: 5
    kernel_size: 1
    stride: 1
    weight_filler {
      type: "gaussian"
      mean: 0
      std: 0.01
    }
    bias_filler {
      type: "constant"
      value: 0
    }
  }
}
layer {
  name: "relu12"
  type: "ReLU"
  bottom: "cccp8"
  top: "cccp8"
}
layer {
  name: "pool4"
  type: "Pooling"
  bottom: "cccp8"
  top: "pool4"
  pooling_param {
    pool: AVE
    kernel_size: 6
    stride: 1
  }
}
layer {
  name: "accuracy"
  type: "Accuracy"
  bottom: "pool4"
  bottom: "label"
  top: "accuracy"
  include {
    phase: TEST
  }
}
I0503 13:21:26.838297 16613 layer_factory.hpp:77] Creating layer data
I0503 13:21:26.838378 16613 db_lmdb.cpp:35] Opened lmdb retina256/retina256_test_lmdb
I0503 13:21:26.838408 16613 net.cpp:84] Creating Layer data
I0503 13:21:26.838423 16613 net.cpp:380] data -> data
I0503 13:21:26.838444 16613 net.cpp:380] data -> label
I0503 13:21:26.838464 16613 data_transformer.cpp:25] Loading mean file from: retina256/retina256_train_mean.binaryproto
I0503 13:21:26.840957 16613 data_layer.cpp:45] output data size: 64,3,224,224
I0503 13:21:26.905405 16613 net.cpp:122] Setting up data
I0503 13:21:26.905438 16613 net.cpp:129] Top shape: 64 3 224 224 (9633792)
I0503 13:21:26.905443 16613 net.cpp:129] Top shape: 64 (64)
I0503 13:21:26.905448 16613 net.cpp:137] Memory required for data: 38535424
I0503 13:21:26.905455 16613 layer_factory.hpp:77] Creating layer conv1
I0503 13:21:26.905474 16613 net.cpp:84] Creating Layer conv1
I0503 13:21:26.905478 16613 net.cpp:406] conv1 <- data
I0503 13:21:26.905488 16613 net.cpp:380] conv1 -> conv1
I0503 13:21:26.907198 16613 net.cpp:122] Setting up conv1
I0503 13:21:26.907218 16613 net.cpp:129] Top shape: 64 96 54 54 (17915904)
I0503 13:21:26.907222 16613 net.cpp:137] Memory required for data: 110199040
I0503 13:21:26.907235 16613 layer_factory.hpp:77] Creating layer relu0
I0503 13:21:26.907245 16613 net.cpp:84] Creating Layer relu0
I0503 13:21:26.907250 16613 net.cpp:406] relu0 <- conv1
I0503 13:21:26.907256 16613 net.cpp:367] relu0 -> conv1 (in-place)
I0503 13:21:26.910452 16613 net.cpp:122] Setting up relu0
I0503 13:21:26.910485 16613 net.cpp:129] Top shape: 64 96 54 54 (17915904)
I0503 13:21:26.910491 16613 net.cpp:137] Memory required for data: 181862656
I0503 13:21:26.910500 16613 layer_factory.hpp:77] Creating layer cccp1
I0503 13:21:26.910526 16613 net.cpp:84] Creating Layer cccp1
I0503 13:21:26.910532 16613 net.cpp:406] cccp1 <- conv1
I0503 13:21:26.910545 16613 net.cpp:380] cccp1 -> cccp1
I0503 13:21:26.913157 16613 net.cpp:122] Setting up cccp1
I0503 13:21:26.913190 16613 net.cpp:129] Top shape: 64 96 54 54 (17915904)
I0503 13:21:26.913199 16613 net.cpp:137] Memory required for data: 253526272
I0503 13:21:26.913220 16613 layer_factory.hpp:77] Creating layer relu1
I0503 13:21:26.913239 16613 net.cpp:84] Creating Layer relu1
I0503 13:21:26.913249 16613 net.cpp:406] relu1 <- cccp1
I0503 13:21:26.913261 16613 net.cpp:367] relu1 -> cccp1 (in-place)
I0503 13:21:26.914155 16613 net.cpp:122] Setting up relu1
I0503 13:21:26.914180 16613 net.cpp:129] Top shape: 64 96 54 54 (17915904)
I0503 13:21:26.914188 16613 net.cpp:137] Memory required for data: 325189888
I0503 13:21:26.914196 16613 layer_factory.hpp:77] Creating layer cccp2
I0503 13:21:26.914217 16613 net.cpp:84] Creating Layer cccp2
I0503 13:21:26.914227 16613 net.cpp:406] cccp2 <- cccp1
I0503 13:21:26.914240 16613 net.cpp:380] cccp2 -> cccp2
I0503 13:21:26.916275 16613 net.cpp:122] Setting up cccp2
I0503 13:21:26.916309 16613 net.cpp:129] Top shape: 64 96 54 54 (17915904)
I0503 13:21:26.916317 16613 net.cpp:137] Memory required for data: 396853504
I0503 13:21:26.916339 16613 layer_factory.hpp:77] Creating layer relu2
I0503 13:21:26.916352 16613 net.cpp:84] Creating Layer relu2
I0503 13:21:26.916357 16613 net.cpp:406] relu2 <- cccp2
I0503 13:21:26.916365 16613 net.cpp:367] relu2 -> cccp2 (in-place)
I0503 13:21:26.916527 16613 net.cpp:122] Setting up relu2
I0503 13:21:26.916538 16613 net.cpp:129] Top shape: 64 96 54 54 (17915904)
I0503 13:21:26.916541 16613 net.cpp:137] Memory required for data: 468517120
I0503 13:21:26.916545 16613 layer_factory.hpp:77] Creating layer pool1
I0503 13:21:26.916554 16613 net.cpp:84] Creating Layer pool1
I0503 13:21:26.916559 16613 net.cpp:406] pool1 <- cccp2
I0503 13:21:26.916565 16613 net.cpp:380] pool1 -> pool1
I0503 13:21:26.916615 16613 net.cpp:122] Setting up pool1
I0503 13:21:26.916627 16613 net.cpp:129] Top shape: 64 96 27 27 (4478976)
I0503 13:21:26.916645 16613 net.cpp:137] Memory required for data: 486433024
I0503 13:21:26.916672 16613 layer_factory.hpp:77] Creating layer conv2
I0503 13:21:26.916694 16613 net.cpp:84] Creating Layer conv2
I0503 13:21:26.916703 16613 net.cpp:406] conv2 <- pool1
I0503 13:21:26.916713 16613 net.cpp:380] conv2 -> conv2
I0503 13:21:26.926553 16613 net.cpp:122] Setting up conv2
I0503 13:21:26.926592 16613 net.cpp:129] Top shape: 64 256 27 27 (11943936)
I0503 13:21:26.926599 16613 net.cpp:137] Memory required for data: 534208768
I0503 13:21:26.926617 16613 layer_factory.hpp:77] Creating layer relu3
I0503 13:21:26.926631 16613 net.cpp:84] Creating Layer relu3
I0503 13:21:26.926637 16613 net.cpp:406] relu3 <- conv2
I0503 13:21:26.926650 16613 net.cpp:367] relu3 -> conv2 (in-place)
I0503 13:21:26.926820 16613 net.cpp:122] Setting up relu3
I0503 13:21:26.926832 16613 net.cpp:129] Top shape: 64 256 27 27 (11943936)
I0503 13:21:26.926838 16613 net.cpp:137] Memory required for data: 581984512
I0503 13:21:26.926847 16613 layer_factory.hpp:77] Creating layer cccp3
I0503 13:21:26.926872 16613 net.cpp:84] Creating Layer cccp3
I0503 13:21:26.926877 16613 net.cpp:406] cccp3 <- conv2
I0503 13:21:26.926885 16613 net.cpp:380] cccp3 -> cccp3
I0503 13:21:26.930994 16613 net.cpp:122] Setting up cccp3
I0503 13:21:26.931025 16613 net.cpp:129] Top shape: 64 256 27 27 (11943936)
I0503 13:21:26.931030 16613 net.cpp:137] Memory required for data: 629760256
I0503 13:21:26.931046 16613 layer_factory.hpp:77] Creating layer relu5
I0503 13:21:26.931058 16613 net.cpp:84] Creating Layer relu5
I0503 13:21:26.931063 16613 net.cpp:406] relu5 <- cccp3
I0503 13:21:26.931072 16613 net.cpp:367] relu5 -> cccp3 (in-place)
I0503 13:21:26.935262 16613 net.cpp:122] Setting up relu5
I0503 13:21:26.935317 16613 net.cpp:129] Top shape: 64 256 27 27 (11943936)
I0503 13:21:26.935322 16613 net.cpp:137] Memory required for data: 677536000
I0503 13:21:26.935329 16613 layer_factory.hpp:77] Creating layer cccp4
I0503 13:21:26.935348 16613 net.cpp:84] Creating Layer cccp4
I0503 13:21:26.935355 16613 net.cpp:406] cccp4 <- cccp3
I0503 13:21:26.935371 16613 net.cpp:380] cccp4 -> cccp4
I0503 13:21:26.938401 16613 net.cpp:122] Setting up cccp4
I0503 13:21:26.938439 16613 net.cpp:129] Top shape: 64 256 27 27 (11943936)
I0503 13:21:26.938446 16613 net.cpp:137] Memory required for data: 725311744
I0503 13:21:26.938457 16613 layer_factory.hpp:77] Creating layer relu6
I0503 13:21:26.938469 16613 net.cpp:84] Creating Layer relu6
I0503 13:21:26.938475 16613 net.cpp:406] relu6 <- cccp4
I0503 13:21:26.938485 16613 net.cpp:367] relu6 -> cccp4 (in-place)
I0503 13:21:26.938675 16613 net.cpp:122] Setting up relu6
I0503 13:21:26.938685 16613 net.cpp:129] Top shape: 64 256 27 27 (11943936)
I0503 13:21:26.938689 16613 net.cpp:137] Memory required for data: 773087488
I0503 13:21:26.938694 16613 layer_factory.hpp:77] Creating layer pool2
I0503 13:21:26.938704 16613 net.cpp:84] Creating Layer pool2
I0503 13:21:26.938707 16613 net.cpp:406] pool2 <- cccp4
I0503 13:21:26.938714 16613 net.cpp:380] pool2 -> pool2
I0503 13:21:26.938760 16613 net.cpp:122] Setting up pool2
I0503 13:21:26.938768 16613 net.cpp:129] Top shape: 64 256 13 13 (2768896)
I0503 13:21:26.938773 16613 net.cpp:137] Memory required for data: 784163072
I0503 13:21:26.938777 16613 layer_factory.hpp:77] Creating layer conv3
I0503 13:21:26.938791 16613 net.cpp:84] Creating Layer conv3
I0503 13:21:26.938796 16613 net.cpp:406] conv3 <- pool2
I0503 13:21:26.938803 16613 net.cpp:380] conv3 -> conv3
I0503 13:21:26.950742 16613 net.cpp:122] Setting up conv3
I0503 13:21:26.950817 16613 net.cpp:129] Top shape: 64 384 13 13 (4153344)
I0503 13:21:26.950825 16613 net.cpp:137] Memory required for data: 800776448
I0503 13:21:26.950845 16613 layer_factory.hpp:77] Creating layer relu7
I0503 13:21:26.950875 16613 net.cpp:84] Creating Layer relu7
I0503 13:21:26.950887 16613 net.cpp:406] relu7 <- conv3
I0503 13:21:26.950904 16613 net.cpp:367] relu7 -> conv3 (in-place)
I0503 13:21:26.951228 16613 net.cpp:122] Setting up relu7
I0503 13:21:26.951251 16613 net.cpp:129] Top shape: 64 384 13 13 (4153344)
I0503 13:21:26.951270 16613 net.cpp:137] Memory required for data: 817389824
I0503 13:21:26.951294 16613 layer_factory.hpp:77] Creating layer cccp5
I0503 13:21:26.951318 16613 net.cpp:84] Creating Layer cccp5
I0503 13:21:26.951328 16613 net.cpp:406] cccp5 <- conv3
I0503 13:21:26.951347 16613 net.cpp:380] cccp5 -> cccp5
I0503 13:21:26.958039 16613 net.cpp:122] Setting up cccp5
I0503 13:21:26.958071 16613 net.cpp:129] Top shape: 64 384 13 13 (4153344)
I0503 13:21:26.958076 16613 net.cpp:137] Memory required for data: 834003200
I0503 13:21:26.958086 16613 layer_factory.hpp:77] Creating layer relu8
I0503 13:21:26.958096 16613 net.cpp:84] Creating Layer relu8
I0503 13:21:26.958101 16613 net.cpp:406] relu8 <- cccp5
I0503 13:21:26.958108 16613 net.cpp:367] relu8 -> cccp5 (in-place)
I0503 13:21:26.958691 16613 net.cpp:122] Setting up relu8
I0503 13:21:26.958704 16613 net.cpp:129] Top shape: 64 384 13 13 (4153344)
I0503 13:21:26.958709 16613 net.cpp:137] Memory required for data: 850616576
I0503 13:21:26.958712 16613 layer_factory.hpp:77] Creating layer cccp6
I0503 13:21:26.958725 16613 net.cpp:84] Creating Layer cccp6
I0503 13:21:26.958729 16613 net.cpp:406] cccp6 <- cccp5
I0503 13:21:26.958737 16613 net.cpp:380] cccp6 -> cccp6
I0503 13:21:26.961223 16613 net.cpp:122] Setting up cccp6
I0503 13:21:26.961253 16613 net.cpp:129] Top shape: 64 384 13 13 (4153344)
I0503 13:21:26.961258 16613 net.cpp:137] Memory required for data: 867229952
I0503 13:21:26.961275 16613 layer_factory.hpp:77] Creating layer relu9
I0503 13:21:26.961287 16613 net.cpp:84] Creating Layer relu9
I0503 13:21:26.961292 16613 net.cpp:406] relu9 <- cccp6
I0503 13:21:26.961300 16613 net.cpp:367] relu9 -> cccp6 (in-place)
I0503 13:21:26.961453 16613 net.cpp:122] Setting up relu9
I0503 13:21:26.961462 16613 net.cpp:129] Top shape: 64 384 13 13 (4153344)
I0503 13:21:26.961467 16613 net.cpp:137] Memory required for data: 883843328
I0503 13:21:26.961470 16613 layer_factory.hpp:77] Creating layer pool3
I0503 13:21:26.961479 16613 net.cpp:84] Creating Layer pool3
I0503 13:21:26.961483 16613 net.cpp:406] pool3 <- cccp6
I0503 13:21:26.961490 16613 net.cpp:380] pool3 -> pool3
I0503 13:21:26.961537 16613 net.cpp:122] Setting up pool3
I0503 13:21:26.961544 16613 net.cpp:129] Top shape: 64 384 6 6 (884736)
I0503 13:21:26.961549 16613 net.cpp:137] Memory required for data: 887382272
I0503 13:21:26.961553 16613 layer_factory.hpp:77] Creating layer drop
I0503 13:21:26.961561 16613 net.cpp:84] Creating Layer drop
I0503 13:21:26.961565 16613 net.cpp:406] drop <- pool3
I0503 13:21:26.961571 16613 net.cpp:367] drop -> pool3 (in-place)
I0503 13:21:26.961592 16613 net.cpp:122] Setting up drop
I0503 13:21:26.961599 16613 net.cpp:129] Top shape: 64 384 6 6 (884736)
I0503 13:21:26.961602 16613 net.cpp:137] Memory required for data: 890921216
I0503 13:21:26.961606 16613 layer_factory.hpp:77] Creating layer conv4-1024
I0503 13:21:26.961619 16613 net.cpp:84] Creating Layer conv4-1024
I0503 13:21:26.961623 16613 net.cpp:406] conv4-1024 <- pool3
I0503 13:21:26.961630 16613 net.cpp:380] conv4-1024 -> conv4
I0503 13:21:26.999718 16613 net.cpp:122] Setting up conv4-1024
I0503 13:21:26.999775 16613 net.cpp:129] Top shape: 64 1024 6 6 (2359296)
I0503 13:21:26.999783 16613 net.cpp:137] Memory required for data: 900358400
I0503 13:21:26.999799 16613 layer_factory.hpp:77] Creating layer relu10
I0503 13:21:26.999815 16613 net.cpp:84] Creating Layer relu10
I0503 13:21:26.999825 16613 net.cpp:406] relu10 <- conv4
I0503 13:21:26.999840 16613 net.cpp:367] relu10 -> conv4 (in-place)
I0503 13:21:27.000114 16613 net.cpp:122] Setting up relu10
I0503 13:21:27.000138 16613 net.cpp:129] Top shape: 64 1024 6 6 (2359296)
I0503 13:21:27.000144 16613 net.cpp:137] Memory required for data: 909795584
I0503 13:21:27.000149 16613 layer_factory.hpp:77] Creating layer cccp7-1024
I0503 13:21:27.000169 16613 net.cpp:84] Creating Layer cccp7-1024
I0503 13:21:27.000176 16613 net.cpp:406] cccp7-1024 <- conv4
I0503 13:21:27.000187 16613 net.cpp:380] cccp7-1024 -> cccp7
I0503 13:21:27.014645 16613 net.cpp:122] Setting up cccp7-1024
I0503 13:21:27.014683 16613 net.cpp:129] Top shape: 64 1024 6 6 (2359296)
I0503 13:21:27.014704 16613 net.cpp:137] Memory required for data: 919232768
I0503 13:21:27.014719 16613 layer_factory.hpp:77] Creating layer relu11
I0503 13:21:27.014732 16613 net.cpp:84] Creating Layer relu11
I0503 13:21:27.014737 16613 net.cpp:406] relu11 <- cccp7
I0503 13:21:27.014745 16613 net.cpp:367] relu11 -> cccp7 (in-place)
I0503 13:21:27.014890 16613 net.cpp:122] Setting up relu11
I0503 13:21:27.014899 16613 net.cpp:129] Top shape: 64 1024 6 6 (2359296)
I0503 13:21:27.014904 16613 net.cpp:137] Memory required for data: 928669952
I0503 13:21:27.014907 16613 layer_factory.hpp:77] Creating layer cccp8-1024
I0503 13:21:27.014919 16613 net.cpp:84] Creating Layer cccp8-1024
I0503 13:21:27.014925 16613 net.cpp:406] cccp8-1024 <- cccp7
I0503 13:21:27.014931 16613 net.cpp:380] cccp8-1024 -> cccp8
I0503 13:21:27.016870 16613 net.cpp:122] Setting up cccp8-1024
I0503 13:21:27.016890 16613 net.cpp:129] Top shape: 64 5 6 6 (11520)
I0503 13:21:27.016894 16613 net.cpp:137] Memory required for data: 928716032
I0503 13:21:27.016901 16613 layer_factory.hpp:77] Creating layer relu12
I0503 13:21:27.016908 16613 net.cpp:84] Creating Layer relu12
I0503 13:21:27.016913 16613 net.cpp:406] relu12 <- cccp8
I0503 13:21:27.016919 16613 net.cpp:367] relu12 -> cccp8 (in-place)
I0503 13:21:27.017071 16613 net.cpp:122] Setting up relu12
I0503 13:21:27.017082 16613 net.cpp:129] Top shape: 64 5 6 6 (11520)
I0503 13:21:27.017089 16613 net.cpp:137] Memory required for data: 928762112
I0503 13:21:27.017094 16613 layer_factory.hpp:77] Creating layer pool4
I0503 13:21:27.017107 16613 net.cpp:84] Creating Layer pool4
I0503 13:21:27.017112 16613 net.cpp:406] pool4 <- cccp8
I0503 13:21:27.017122 16613 net.cpp:380] pool4 -> pool4
I0503 13:21:27.017977 16613 net.cpp:122] Setting up pool4
I0503 13:21:27.017995 16613 net.cpp:129] Top shape: 64 5 1 1 (320)
I0503 13:21:27.018002 16613 net.cpp:137] Memory required for data: 928763392
I0503 13:21:27.018009 16613 layer_factory.hpp:77] Creating layer accuracy
I0503 13:21:27.018021 16613 net.cpp:84] Creating Layer accuracy
I0503 13:21:27.018028 16613 net.cpp:406] accuracy <- pool4
I0503 13:21:27.018036 16613 net.cpp:406] accuracy <- label
I0503 13:21:27.018045 16613 net.cpp:380] accuracy -> accuracy
…
